TRPO/CC_TRPO/tmp/2-way/state_dict_model_cc_trpo.pt (torch, 317791 bytes, 6 tensors)

fc1.weight f4 [256, 45]
00000000: e248 3f3d f7c1 df3c a803 513d feeb adbc
00000010: 7fa1 fa3d 5e09 b9bd 26fb fbbb 8d7b 2e3d
00000020: f5a3 393e 7375 763d 5ed4 f2bd eaa9 49be
00000030: cdd6 43bc 6a18 3d3e 3ccf 50bd 3417 3ebe
00000040: 9a4d 833d af29 2cbe 4ac8 7b3c 90e7 253d
00000050: 1a99 c33d a48e 10be 00e5 05be 991e f4bd
00000060: 21c1 70be 18b8 a0bd 32ce e73c 7955 26be
00000070: 48f8 e33b 9134 2a3e 2761 24bd 00ac b0bd
00000080: d37f cbbd 201a 803a 2e3c 24be 4b0a ff3c
00000090: e137 ce3d d6e3 7a3d 2072 bfbd b38b 3cbe
000000a0: b31c 4d3d ef6e 30be b31a 10be a2ce 9e3d
000000b0: 9376 d9bd c5d8 1d3e d31d 4bbd cb3b 653d
000000c0: acba 213d fc32 9ebd 4d0d d33d cf61 073d
000000d0: ce9f 173d 09f6 b1bc 74c0 933c d593 27be
000000e0: f11a 67be fbac 963e 209c 603e 50c3 ab3d
000000f0: 2794 cd3c ebf1 f53d 2c9b 1b3e d6b9 3e3e
00000100: efbf a23d 0844 373e d6ad 823d b85e 27bd
00000110: e61e 8c3d 01e8 91bd 0d99 3fbd 6021 38bd
00000120: 8c76 693e 6b0a 95bd 1062 bfbd 9036 173e
00000130: 04fb 503d f45f fb3d 6953 0e3e 8616 aa3d
00000140: e9c3 3a3a a0f8 e3bd c204 17bd 86ec 0a3e
00000150: 8e8b cd3c 877a 103d d660 6b3d f73a a4bd
00000160: dfe1 3d3d 2c59 09be 1934 29be bd38 02be
00000170: fc88 ebbd c840 943c 0336 7dbd 9f5c b5bd
00000180: fa74 5abd b3bf a9bd 977b fcbd d6fc b13c
00000190: 3c45 0b3d b5d1 d1bd 3979 dc3c eaa8 0dbe
000001a0: 7c4b 983d 902b 1cbe e158 00be fbb6 71bd
000001b0: e0d4 953b 9957 403e 2fb4 42be 60b3 ed3b
000001c0: e284 51bc 6588 a6bd 3c1d bfbd 813b 07be
000001d0: 6933 de3b 2984 5abe 464e 92bd 1486 c7bd
000001e0: bf84 fcbd 6b22 f1bd 6fc5 9f3d baac 073e
000001f0: c6db 4e3e 5de0 7a3c f195 32bd ea88 05bc
00000200: 6785 adbc b23f 553e 3f63 17bd f5ed 9f3d
00000210: 25d2 23be 149b 8a3d 3107 da3b c78e ecbd
00000220: 75db b5bd 0766 8b3d 6fd3 17bd 2b6d 9ebd
00000230: 98fb 2abe d93f 6d3c c8ae 8c3d f25a 913c
00000240: 0028 b5bd 371b 8f3d e14a 34bd ed0b 313e
00000250: 36bd 463e 118d 02bd 2785 eb3d 8531 cb3d
00000260: 33d7 d9bb fa73 1d3d 46b9 803d e17f 8ebd
00000270: 0348 b33d 6191 1dbe 942a a5bd dea4 613c
00000280: ef57 b3bc fbf8 0d3e 8235 fcba 167b 233e
00000290: 5a14 de3c 7a77 eb3d a460 f8bd d778 843c
000002a0: d968 f33d 40f1 4bbc 33b5 28be 73cb 883d
000002b0: 47fc 0cbe 36b1 acbd 9cd7 0c3e 4650 313e
000002c0: 6e1d c33d 6c77 d93b d763 423d d87c c8bd
000002d0: d732 333e dfb0 82bd 4d66 c03c 27b9 c13d
000002e0: 4c22 ea3d 65ff a5bd 361b 323e 0966 88bd
000002f0: d6ed 48bd 0a57 4ebe 597b 04be dfd0 9f3d
00000300: a7b6 8b3d a76c 173e c58c b0bd 44a6 433e
00000310: 24ee 093e e6ef 1a3e d4d9 0c3d 2de1 7d3e
00000320: c0ae 42bc 8ee9 3e3e 95d8 8abb 17f5 69bd
00000330: 2e7e 6dbe f528 7b3d 0e0e 883e d6d9 29be
00000340: 5dce 7cbc 43cb e3bd b7d2 163e d295 fb3d
00000350: c0f4 e43d 8aa6 483e c45e c13c 24f3 2b3c
00000360: 009c 6bbd 94e2 a6bd 9c08 373d be6a e2bd
00000370: fda4 e73d 76db 45bd 7b46 40be f2db fbbd
00000380: 196b 423d a659 42bd 4c5b 9a3d 5e93 3dbd
00000390: 46aa babd 66b6 b7bd f36a 00bd 8800 053e
000003a0: 2b41 263d b623 733d e7ef 703d 687c 083e
000003b0: 9a3a f23d 0012 1bbe de55 e93d b6ae 7fbd
000003c0: d3d0 0fbe 3206 dd3d 88cd 96bd b176 0dbc
000003d0: 064c cf3c 2608 a03d 3c54 433a 1e3d dc3d
000003e0: 8ff7 b9bc d421 83bd 831c 993c 905b 82bd
000003f0: 5b20 a73c 102f a73d bd45 0bbe 4a2e 10be
0.046700366 0.02731417 0.051028877 -0.021230694 0.12237834 -0.0903499 -0.0076898513 0.042598296
0.18128951 0.060170602 -0.11856912 -0.19693723 -0.011953068 0.18466344 -0.050978884 -0.18563539
0.06411286 -0.16812776 0.015367577 0.04050404 0.09550686 -0.14116913 -0.13075638 -0.119198985
-0.23511173 -0.07847613 0.028296564 -0.16243543 0.0069570877 0.16621615 -0.040131714 -0.086265564
-0.0993649 0.0009773411 -0.16038582 0.031132838 0.10069252 0.061252438 -0.093479395 -0.18412666
0.050076198 -0.17229818 -0.14072685 0.07754256 -0.10618319 0.15414722 -0.04958899 0.055965226
0.039484665 -0.07724568 0.10305271 0.033052262 0.037017636 -0.021723764 0.018036105 -0.16364987
-0.22568871 0.2942885 0.21934557 0.08386862 0.025095059 0.12009033 0.15195912 0.18625578
0.07946765 0.17897046 0.06380813 -0.040861815 0.06841831 -0.07124329 -0.04677682 -0.044953704
0.22799128 -0.07277378 -0.09344876 0.14766908 0.051020637 0.12274161 0.13899006 0.08305077
0.000712453 -0.11131406 -0.03686977 0.13566789 0.025090959 0.0352731 0.057465397 -0.08019059
0.046357986 -0.13412923 -0.1652378 -0.12716956 -0.11500737 0.018097296 -0.061819088 -0.08855557
-0.053334214 -0.08288517 -0.123282604 0.021727007 0.034001574 -0.102450766 0.026913272 -0.13833967
0.074362725 -0.15250993 -0.12533905 -0.059012394 0.004572496 0.18783416 -0.19014047 0.007254049
-0.012788029 -0.08131484 -0.09331748 -0.13206293 0.006781031 -0.21339478 -0.07143836 -0.0974237
-0.12330007 -0.11774143 0.07801329 0.13249484 0.20201024 0.015312281 -0.043600027 -0.008150319
-0.021181775 0.20825079 -0.036959883 0.078090586 -0.15998133 0.0676786 0.0066536893 -0.1155067
-0.08879749 0.068065695 -0.037066873 -0.07735666 -0.16697538 0.0144805545 0.068692744 0.017743561
-0.0884552 0.06987613 -0.044016723 0.17289706 0.19408116 -0.031872813 0.11500006 0.099215545
-0.006647968 0.038440682 0.06285338 -0.06957985 0.087539695 -0.15387489 -0.08064762 0.013772218
-0.021892516 0.1386451 -0.0019242021 0.15964922 0.027109314 0.11497398 -0.12127808 0.016170902
0.118852325 -0.012447655 -0.16475372 0.0667943 -0.13768111 -0.08432238 0.13754123 0.17315778
0.09527098 0.0066365507 0.047458496 -0.09789437 0.17499863 -0.06381392 0.02348628 0.09459143
0.11432323 -0.08105353 0.17393193 -0.06660087 -0.049054943 -0.2015039 -0.12937678 0.07803511
0.068219475 0.14787541 -0.086206 0.19106394 0.1346975 0.15130576 0.034387425 0.24792929
-0.011882484 0.18643782 -0.0042372444 -0.0571185 -0.23192665 0.061318357 0.26573223 -0.16587004
-0.01543006 -0.111227535 0.14728819 0.12284435 0.11179495 0.1959478 0.023604758 0.010494981
-0.05752182 -0.08148685 0.044685945 -0.11055516 0.11310766 -0.048304997 -0.18776886 -0.122978106
0.047465418 -0.047448777 0.07536945 -0.04628312 -0.09114508 -0.089703366 -0.031351995 0.12988484
0.040589493 0.05936023 0.05882254 0.13328707 0.118275836 -0.15143585 0.11393331 -0.062422477
-0.14044504 0.10792197 -0.07363421 -0.008634255 0.025304805 0.07814054 0.00074512116 0.10753845
-0.022701053 -0.064029366 0.018690353 -0.063651204 0.02040117 0.08163273 -0.13600822 -0.14080158

fc1.bias f4 [256]
00000000: 929f 163d 8570 07be d14d 713d 24c1 323d
00000010: 339c edbd 5c33 b1bd c38f c63b efe4 5bbd
00000020: fce5 7d3d 2f43 653d c064 7dbd 456a cd3d
00000030: 035d d4bd 8e22 54bd 61c4 b0bc eb48 1bbe
00000040: 0d6a e83d 9ab2 b33d 17bf 103e 093e 1dbd
00000050: 27cf 2a3d 0a94 0fbc 075b 0cbe 1be8 1ebe
00000060: 85f2 1fbe 5ca4 01bd d163 1abe 1d38 f33d
00000070: 6c8b 42bd 7578 ea3d b1d0 13be 9b4b dd3d
00000080: 95a2 a3bd ccb0 a9bd f7d6 653c ffdc c3bd
00000090: 7344 513e 69d8 57be 4126 23be c0fc a93c
000000a0: 9c55 cdbd fa92 42be cdda ee3c 3c58 763d
000000b0: a034 05bc d726 c6bd 490c 0bbe d676 0a3d
000000c0: 2967 9c3d afcd e8bd 96ea 563c 9e73 16be
000000d0: 940c 5f3c 6514 27be e8ac 2fbd 44ba 1abd
000000e0: ff42 0a3e d49c debd 0ee7 46bd 003b eabd
000000f0: fe0b 45bd 48e6 5b3d eeac bb3d 0fb0 1e3e
00000100: 37c4 e6bc fa20 9fbd 670a 2b3e 3dc4 38bc
00000110: 9631 b93d c71b 58bd 3866 7abd f658 fe3d
00000120: 31bd 9b3d ae5f 0cbe 9099 3fbd 6dcf ba3d
00000130: 2f4a b23d 5352 28be 7f26 da3d 5999 b4bd
00000140: 3544 22be 8031 55bd efb2 2d3d 4a89 693d
00000150: 24f7 93bd 710f 493d 48c6 963c 77b6 c83d
00000160: 271f 163e aabd aebb ca9d f93d 9365 c8bd
00000170: 6580 8b3d db0d 903d 7b66 0d3d d92a c53d
00000180: df96 013d ce46 063e fe8f 9abd ff78 f5bd
00000190: 19f7 9d3d 215e fe3d 4258 43bc d4cd 173d
000001a0: 3353 953d bdfd 753d 856c aabc 6256 1f3e
000001b0: 5193 d8bd e6e4 213d acc0 75bd 74e5 1e3e
000001c0: cc20 a33d 63fa d93d af90 12be f638 37bb
000001d0: e6fe bcbd a4a7 8d3d 617e 72bb 948a 7b3d
000001e0: e56f 943d 881e 44bd a97b e93d 5c52 95bd
000001f0: ca16 903c 1d85 ae3d 14dd be3d e385 c2bd
00000200: b82a 28be 2a7f b43d f808 2d3d e212 83bd
00000210: af00 ed3d 6df2 e73d e73f bebd ab35 203e
00000220: e888 0fbe f23e 17be b3c4 babd 7d18 8cbc
00000230: c787 cb3d ef3d 653e 16c6 ca3c 08ef 9e3d
00000240: f3a2 82bd 2520 12bc afb2 77bd 7f80 51be
00000250: 8891 313d 7306 41be 223c 283e e078 623c
00000260: 264f 1ebd fca2 f13d c196 173e ed75 cdbd
00000270: 44f8 3ebd 2ab6 673d ebca e53d fa68 04bd
00000280: 2a62 be3d 8aee 923c 1389 ae3d 9b1c 03be
00000290: b091 a03d 2491 27be b1c7 ddbc d16a 4fbe
000002a0: ab88 e3bd 8fe3 16bd 589e 3c3b 09f9 0fbe
000002b0: c124 e73d 2f40 d4bd 2ae3 2a3e 0c61 d6bc
000002c0: 0582 993d a6a7 e2bd 2736 ddbd a6d4 943d
000002d0: f992 ac3d 4c05 86bd a0de babd f93e bb3d
000002e0: bfc6 3a3e dc5d 7a3d 7410 a33c 0d54 98bd
000002f0: 8526 2b3e 3a99 ac3d c3c2 353d 4584 ae3d
00000300: 8232 d0bd 864e 433b bdb5 00be f0d5 dfbd
00000310: 2f82 603d e620 86bc f879 a63d e22b 253e
00000320: 6f7c c8bd 1c44 b7bd f31b f1bd b175 d9bd
00000330: 4c60 653e 72ef c03d e055 10bd e8dc 9ebd
00000340: 2683 7ebd 2b92 5e3d 8632 31bd 3d82 f3bd
00000350: a33f e93d 5c4b 4b3d d63f b33d 049e d3bd
00000360: 1d9f 553d 0f95 fdbd cd85 0fbe daf6 ecbd
00000370: 8e17 2bbe 7340 b1bd 453e 233e 5d55 903c
00000380: de4c 12bc 9b1a c13c 2ff9 09bd f635 a2bd
00000390: a709 03be d64c 873c 5f57 a73c c809 cdbc
000003a0: 50d0 b23b 7b12 353e 9591 b83d 8fea 1fbe
000003b0: 0b94 25bd 5565 cb3d fb36 fbbc 5d31 afbc
000003c0: ce2f 9a3d 973c c83d 61a4 17be 5099 fa3d
000003d0: 9701 003c ad8c 2bbe 8418 9d3d 7903 60bc
000003e0: e8fc 643e a566 c2bd 6d7b d8bd b2e0 0f3e
000003f0: e1bc 8bbd b432 39bc 4105 11be 9899 843c
0.03677327 -0.13226517 0.058912102 0.043641225 -0.11602058 -0.08652374 0.006059618 -0.053685125
0.06198691 0.055972274 -0.06186366 0.10030035 -0.10369303 -0.051790766 -0.021578016 -0.15164535
0.113483526 0.087743 0.14135395 -0.03838924 0.041701462 -0.008763323 -0.13706599 -0.15518229
-0.15619858 -0.031650886 -0.1507714 0.11875937 -0.047496244 0.114487566 -0.14435078 0.10805436
-0.079899944 -0.082856745 0.014028302 -0.09563636 0.20436268 -0.21078648 -0.15932561 0.020750403
-0.10026094 -0.1900138 0.029157067 0.06014274 -0.008130223 -0.09675377 -0.13578905 0.033804737
0.07636864 -0.11367356 0.013117453 -0.14692542 0.013613839 -0.16316374 -0.042889506 -0.037775293
0.1350212 -0.10869756 -0.048560195 -0.114370346 -0.04810714 0.05368641 0.09163843 0.15496849
-0.028169734 -0.07769962 0.16703187 -0.011277256 0.09042661 -0.052760866 -0.06113264 0.12419312
0.07604445 -0.13708374 -0.046777308 0.091215946 0.08705556 -0.16437654 0.10651874 -0.08818311
-0.15846331 -0.05204916 0.042406972 0.057015695 -0.07224873 0.04908699 0.018405095 0.098004274
0.14660321 -0.0053326683 0.12188299 -0.09784999 0.06811599 0.07033893 0.03452156 0.09627313
0.031638023 0.13112947 -0.075469956 -0.11985969 0.07713146 0.124202974 -0.011922898 0.037061527
0.072912596 0.060056437 -0.0208037 0.15560296 -0.105749734 0.039524935 -0.0599982 0.15517217
0.0796524 0.106434606 -0.14313005 -0.0027957535 -0.092283055 0.069167405 -0.0037001597 0.061411455
0.07247905 -0.04788068 0.114005394 -0.072910994 0.017588992 0.08521483 0.09319511 -0.09498193
-0.16422546 0.08813317 0.04224488 -0.06400086 0.11572396 0.11325536 -0.09289532 0.15645473
-0.1401707 -0.14770105 -0.09119549 -0.01710152 0.09938007 0.22386907 0.024752658 0.07760435
-0.06378736 -0.008918797 -0.06047314 -0.20459174 0.04335168 -0.18850116 0.16429189 0.013822764
-0.0386497 0.11798665 0.14803602 -0.10032258 -0.046623483 0.05657021 0.11220344 -0.032326676
0.09296067 0.01793601 0.085222386 -0.12803881 0.07840288 -0.1636396 -0.02707276 -0.20255591
-0.11110052 -0.03683811 0.0028780904 -0.14059843 0.11286307 -0.103638045 0.16688219 -0.026169322
0.074955024 -0.11067133 -0.10801344 0.07267122 0.0842647 -0.06543979 -0.091244936 0.091428705
0.18239878 0.061124668 0.019905306 -0.074379064 0.16713913 0.08427663 0.044375192 0.08521322
-0.101658836 0.0029801442 -0.12569328 -0.10929477 0.054811653 -0.01637311 0.081287324 0.16130021
-0.09789359 -0.08948538 -0.11772909 -0.10618151 0.22400016 0.094206706 -0.035238147 -0.07756978
-0.06213679 0.054338615 -0.043261074 -0.11890075 0.11389091 0.049632415 0.0875241 -0.103328735
0.052153695 -0.12381946 -0.14015885 -0.11570521 -0.16708204 -0.08654871 0.15941723 0.01761883
-0.008929459 0.023572257 -0.033684906 -0.079204485 -0.12796651 0.01651613 0.020427404 -0.025029078
0.0054569617 0.17682831 0.090121426 -0.15616821 -0.040424388 0.09931437 -0.030665865 -0.021385843
0.07528649 0.097771816 -0.148088 0.12236273 0.007812879 -0.16752882 0.076706916 -0.013672703
0.22362101 -0.09492234 -0.105704166 0.14050558 -0.06823135 -0.0113035925 -0.1416216 0.01618652

fc2.weight f4 [256, 256]
00000000: 072d b8ba bd5e f8bc 9e00 5cbd cf19 90bd
00000010: 607a b03b 0003 cc3a cc7d 343d 1549 db3c
00000020: 2913 f7bc c419 75bd 8fbe 453d 9cfa edbc
00000030: e655 58bd 40a7 19bd 70f7 7a3b d681 383d
00000040: 0e7e 22bd c35e 7ebc 1b38 5bbd c721 bf3c
00000050: fe13 f739 654d 033c fea2 13bd b853 82bd
00000060: 1938 23bc afab 7d3d 7e52 373d c014 9ebb
00000070: a941 51bd 7a70 373d 1032 e93b 998b 2abd
00000080: ed9f 063d 2296 353d f881 4ebd eb81 2d39
00000090: a3b7 c439 8338 d2ba 6335 22bd fd01 c539
000000a0: 86a3 2a3d f20b f6bc 3cb7 743d 48a5 663c
000000b0: 58ea 0dbd fca7 993c 648c 613d a820 8ebb
000000c0: 2b66 2cbd 74e4 0dbd 5374 343d e774 debc
000000d0: e173 65bd c125 683d 9ece d7bc cd68 aebc
000000e0: f232 e83b 87ee 1ebd 0f91 1b3d 4305 0fbd
000000f0: 1fa7 60bd 17e2 eabc 1029 6a3d cdcd 1abd
00000100: 0edc ba3c 7211 333d 82df babb 653e 96bd
00000110: 9846 cd3c 58f9 ce3c b81b febc d09e 803c
00000120: aaec 103d 04d7 ef3c 0a89 99bc 3bfc dbbc
00000130: cb8f 08bd 4744 9a3c 0667 ee3c beee 423d
00000140: c0b8 39bd aaf3 37bd c24a 563d 566b 53bd
00000150: 779d 33bd fb2c 163d e18c 443d eea7 bfbc
00000160: a088 f1b9 1620 81bc d0eb ed3c 691f 1fbc
00000170: aabe 133d 9100 e73c f675 43bd 54e7 bb3b
00000180: d141 50bc 5bd2 b43c 0a0f bd3c 62f0 21bc
00000190: 93f5 c13c 3fb2 233d a2e2 19bd 28a6 c93c
000001a0: d3c5 82bc b4d5 03bd 7600 2e3d 58a4 9d3c
000001b0: 4409 2a3d aced 743c 2dc9 8f3c 9d53 81bd
000001c0: 5499 09bc 5c60 593d 94d1 50bd c233 273d
000001d0: d2ef 383c 2d30 e03c a717 d3bc 04e5 9ebb
000001e0: df8c e2bc 77ed 273d dbef 683d 64a7 4abd
000001f0: e8ba ef3b b180 463d c0dd 343b 24b3 323d
00000200: a452 22bd 9b14 5cbd 13aa 823d a2b5 34bd
00000210: b57e 17bd 7079 d7bc 8e6e 3bbd 1fee 73bd
00000220: 2497 fa3c 00d5 933b 97f1 003d c20f 67bc
00000230: 880b 4bbd fee8 75bc 0a74 80bd 60a3 4bbb
00000240: f082 a83c 48af 9abc 3164 c53c d7cb 1cbd
00000250: 5b48 d53c e13e ebbc 5075 2a3d 3c00 073d
00000260: 58d0 c23c fb8d 9abd d65b 18bd c60b 8abd
00000270: 1d99 403d a4d9 38bd b50d 3abd 327a d03a
00000280: 3e1d 81bc 0ba1 7cbc 9a91 83bc 603d 3e3b
00000290: 6a97 003c 8229 a4bc 362c d13c 0a67 0dbd
000002a0: 663f 513d 5991 5cbd cf11 4cbd 8cc1 a0bc
000002b0: 1b4d 123d 36b6 cd3c ea77 f73c d658 e63c
000002c0: e9db 793d 68b7 86bd e484 203a d088 b8bc
000002d0: 274c d0bc 2c48 fdbb 32a0 67bd 9078 3abd
000002e0: b031 33bc c090 4ebd 1c0e cc3c 1745 43bd
000002f0: 47f0 32bc 29e6 533d 8d23 363d a1de 333d
00000300: 9eb9 443d f58f 68bd 9462 0a3d b0d2 a9bb
00000310: dd83 69bd 4c1e 56bd 7ff4 a33c 2d4d 143d
00000320: 6f17 82bc 6a36 ba3c 607a b1bb 919a 5f3d
00000330: bd4b 59bb 2080 bb3c a379 613c 522e 3f3d
00000340: 41a5 1e3d c0b3 2a3d 7d92 283c d2aa 223d
00000350: 00b0 66bd d850 ad3c 9b69 8cbd 2a78 14bd
00000360: 42de 2cbd 78f3 123d b920 c93c 7d27 42bd
00000370: 7d0b 76bd 7a88 d33c d16a e83b 4291 923c
00000380: 2030 23bd a1ac 083c 8de2 ac3c a6aa a4bb
00000390: e899 40bd 2e87 6e3d 75c3 c9bc 7852 36bb
000003a0: 2119 e5bc 0be0 4fbd 64e5 943c b012 5e3c
000003b0: 894e 4dbd a773 0c3d 7d7f 843d 60b2 e6bc
000003c0: 1eaf 47bd c7b3 633d c324 e33b ecbb a6bc
000003d0: d078 33bd 1148 2bbd 54ea 74bc 20ad 75bb
000003e0: c8d8 203d 444c 223c 7c97 f33c 94f7 13bc
000003f0: 9c94 743d 2c27 a3bc 6848 56bd 203a 76bb
-0.0014051505 -0.030318612 -0.053711526 -0.070361726 0.005385682 0.0015564859 0.04406528 0.026768247
-0.030160503 -0.059839025 0.048277434 -0.029050164 -0.052816294 -0.037513018 0.0038294457 0.045045696
-0.039670996 -0.015525523 -0.053520303 0.023331536 0.00047126407 0.008014058 -0.036044113 -0.06363624
-0.009962105 0.06193131 0.044756405 -0.004824251 -0.05108801 0.044785 0.0071165636 -0.041637037
0.03286736 0.04433263 -0.050416917 0.00016546964 0.00037520853 -0.001603857 -0.039601695 0.0003757625
0.041659854 -0.030034993 0.05974506 0.014077492 -0.034647316 0.018756859 0.055065528 -0.004337389
-0.042089622 -0.034641698 0.044056248 -0.027155353 -0.056018714 0.05667663 -0.02634364 -0.021290207
0.0070861513 -0.038801696 0.037980136 -0.034917127 -0.05484688 -0.028672261 0.057168067 -0.037793923
0.022810008 0.04371781 -0.0057029137 -0.073361196 0.025058076 0.02526538 -0.031019077 0.015700728
0.03538195 0.029277332 -0.018742103 -0.026853671 -0.033340257 0.018831385 0.02910186 0.047590964
-0.045342207 -0.04491011 0.05231739 -0.051616035 -0.043851342 0.03666399 0.047985915 -0.023395505
-0.00046068896 -0.01576237 0.029043108 -0.009712079 0.036070503 0.028198512 -0.04771992 0.0057343636
-0.012711004 0.022072962 0.02307846 -0.009883972 0.02367667 0.03996491 -0.03756965 0.024615362
-0.01596347 -0.032186225 0.04248091 0.019243404 0.041512743 0.0149492435 0.017551983 -0.06314776
-0.008398373 0.05307041 -0.05098112 0.040820844 0.011287646 0.027366722 -0.025768114 -0.004849078
-0.027655063 0.04099795 0.05686937 -0.049476042 0.007315982 0.048462573 0.0027597994 0.043627873
-0.039629593 -0.05373059 0.06380095 -0.04411853 -0.03698607 -0.026303023 -0.04575973 -0.05955326
0.030589648 0.0045114756 0.031480398 -0.014102878 -0.049571544 -0.015009163 -0.06272133 -0.003107272
0.020570248 -0.018882409 0.024095627 -0.038280334 0.026035478 -0.028716506 0.041615784 0.032959208
0.023780987 -0.07546612 -0.037196957 -0.06740527 0.04702102 -0.045129433 -0.04542323 0.0015905558
-0.015761014 -0.015419255 -0.01606064 0.0029028282 0.0078486 -0.020039324 0.025533777 -0.034522094
0.051085852 -0.05384955 -0.04982167 -0.01962354 0.035718065 0.025111299 0.030208547 0.028118532
0.06100074 -0.06577951 0.0006123318 -0.022526175 -0.025426937 -0.007729551 -0.05654926 -0.045525134
-0.010937139 -0.050431013 0.024909072 -0.04767331 -0.010921544 0.05173317 0.044467498 0.043913487
0.04802858 -0.056777913 0.033785418 -0.0051825866 -0.05701052 -0.052274987 0.020014046 0.036206413
-0.015880315 0.022731025 -0.0054161996 0.054590765 -0.0033156716 0.022888243 0.013761911 0.046675034
0.038731817 0.04167533 0.010288832 0.03971369 -0.05632019 0.021156713 -0.0685608 -0.03624741
-0.04220415 0.03587672 0.024551736 -0.04740094 -0.06006955 0.025821913 0.0070928116 0.01789153
-0.039840817 0.008341939 0.021104122 -0.0050252257 -0.047021776 0.058234386 -0.024629334 -0.0027820151
-0.027966084 -0.050750773 0.018175788 0.01355426 -0.050123725 0.034289982 0.06469629 -0.028161228
-0.04875099 0.05559137 0.0069318726 -0.02035328 -0.043816388 -0.041816775 -0.014948446 -0.0037487224
0.03926924 0.009905878 0.02973532 -0.009031195 0.059712037 -0.01991614 -0.052315146 -0.0037571266

fc2.bias f4 [256]
00000000: 7964 ed3c 008c ff3c 42c1 b53d 5eff 18bd
00000010: 5b9b 693b c478 8d3b 5407 6ebc 2d58 11bd
00000020: 4ce4 e73c e979 89bd 4803 bfbd 23fa 9b3c
00000030: 7043 51bd e082 df3b affa 61bd 8e8e a03b
00000040: 9562 f13d d5d1 08bd 3e6e 183d 4438 e03c
00000050: af5b 8ebc c724 f2bc 485f 4a3d d9a1 0d3d
00000060: deb5 ae3d c999 c83c f807 b6bd 48e1 47bd
00000070: 9478 f63c fb9d 3f3d f5dd eaba 9d65 e13d
00000080: 380b 19bc 33f3 2d3d 7aed f2bc b0f1 a93d
00000090: 641c 1dbd 4972 3ebd caaf 2d3d 2c46 16bd
000000a0: be66 74bd be2a 80bd d2f8 513d 6904 44bd
000000b0: b014 4bbd 6e3a 33bd b320 863c 01fa cb3c
000000c0: 5a22 fe3c 9eaa 40bd ceda 32bd ad04 b43c
000000d0: 3b52 05bd e715 573d 46a1 febc 5224 7b3d
000000e0: a68a 10bc 2997 67bd 7da0 40bd 54cf e9bb
000000f0: b2e8 51bd b07b 58bd 25fd 31bd 5cd8 2bbd
00000100: 05e9 af3d 28d4 293b d158 b03d 6aca df3c
00000110: 95a1 303c a8f6 963d 6feb 583d db8d c23c
00000120: f99c 5ebd 7ef9 a9bc e203 83bd 84aa c43c
00000130: 0a06 313d 18c1 85bd a434 a7bd faef b5bc
00000140: 1dc3 323d 3b84 6ebd 9f39 383b 9836 313d
00000150: c98c a73c cb1f 983d 0037 29bc 7284 033c
00000160: 003e 41bb 4481 943c f3d4 c83c e8d1 013d
00000170: e976 f43c df85 67bd c5c2 babc 562b 283d
00000180: db35 a0bc cc8d 0a3d 26f9 9e3c a2fe 1a3d
00000190: ef7c 2ebd 3e87 bd3c 122e 25bd c276 5dbb
000001a0: a234 c839 ca02 2fbd 66ef aebc 2168 81bd
000001b0: 72e3 bd3c 39be a4bd 79e8 50bc 7f07 2abc
000001c0: ccb1 e73c 3e59 53bd 6e81 913c 8405 a6bd
000001d0: 95bd 2b3d 2680 7d3d 0bde 7bbd bada 5a3c
000001e0: 4572 23bc bb8c 35bd f8fb b3bc f142 d139
000001f0: b821 fbbc ef9c cf3c f168 9ebd 9922 69bc
00000200: 9cac dabc 6011 c2bd bcdf 313c 7690 0f3d
00000210: be76 09bd cd6d 453d 7835 4cbd c78d 353c
00000220: e1de d1bb 033c 68bd 9301 973d 8afe 083d
00000230: 1c05 fabb ecf3 853b 97a2 273d a49e 293c
00000240: ec27 d43b 6fb4 a7bb 0f42 ad3a 515c cebc
00000250: 5791 65bd 4175 7abc 7028 66bd aebc 70bd
00000260: 6cad f03b 63d6 043d 8e40 193d 8eed 56bd
00000270: 3db4 3cbd bc7d 6bbd 6340 ee3b fab9 29bc
00000280: c9aa dc3c 47e9 20bd a1fe 5cbd 562c f8bc
00000290: ba63 623c f9ab 323a e1da 083e a3c2 5dbd
000002a0: 6bc5 3cbd bc83 783d 2f3f f23b 2a38 61bd
000002b0: 17ca fe3c d847 013d c4e6 dabc 6865 9fbd
000002c0: 14dd b03d ce31 043d 8db8 f13c d792 4abc
000002d0: 4eb3 633c ecbe f43b cca5 90bc cd7f c8bb
000002e0: f9ee 5dbd d188 bc3c fad1 09bd 20d8 dfbb
000002f0: bccb 583d 79fe 96bc 628c 0b3d 1ff9 c73d
00000300: c04f bd3c d0cb 21bc 2ba6 fe3b 562f 0ebd
00000310: 1970 acbb 04f1 4ebd b438 843d f794 d9ba
00000320: 6491 f0bc 22a3 863d eeba 7bbd b5a6 433d
00000330: 7a2e 38bd 4f13 8d3d 0f24 a03c e2e7 5b3d
00000340: 0bca 653c 036a c93d 9223 923d 395b 05bc
00000350: 12de 1d3d e91c 743d 821d 45bc 38e7 973d
00000360: 581b ad3b 42fd 733c 1e3d 85bd 09f3 08bd
00000370: f6a2 96bd e706 893d 978b 0dbd 1add 74bc
00000380: c4f4 b7ba cc34 363c 97e4 cdbb 5461 56bd
00000390: 7123 d13c a556 583d 2e4c 633d 0dbb cebc
000003a0: 92cc 28bd fff2 acbd 5e29 403c f948 a33c
000003b0: 71a4 11ba 73a7 563a 4caf 90bc deae 143c
000003c0: 9dee 5abd 8821 d93c 7710 a43b b0d7 5fbd
000003d0: 54fe 5cbc e43a 12bd 0e50 373d c6a2 4abd
000003e0: 54fa ca3d f6b8 abbc 58ce 78bd 58a1 81bd
000003f0: 04b1 1cbc 587a 61bc 17bd 23bc 648d 97bd
0.028978573 0.031194687 0.088747516 -0.037352912 0.0035645578 0.004317375 -0.014528114 -0.03548448
0.028307103 -0.06712706 -0.09326798 0.019040173 -0.051089704 0.0068210214 -0.05517071 0.0048998063
0.11786381 -0.033403236 0.03721451 0.02737058 -0.017377703 -0.029558552 0.049407274 0.034578178
0.08530782 0.024487393 -0.08888239 -0.04879883 0.030086793 0.04678152 -0.0017918932 0.11005709
-0.009341054 0.04246826 -0.029654253 0.08298051 -0.038357154 -0.04649571 0.042403974 -0.036688015
-0.059668295 -0.062581524 0.051262684 -0.04785577 -0.049580276 -0.043756895 0.016373014 0.024899485
0.03102224 -0.047037713 -0.0436657 0.021974886 -0.032549124 0.052511122 -0.03108276 0.061313935
-0.008822119 -0.056540642 -0.047028054 -0.007135311 -0.051247306 -0.052852333 -0.043454308 -0.041954383
0.08589367 0.0025913808 0.086106904 0.027318198 0.010780712 0.07371265 0.052958902 0.023749283
-0.05434892 -0.02074885 -0.06397225 0.02400709 0.04321865 -0.0653097 -0.08164337 -0.022209156
0.043643106 -0.058231574 0.0028110517 0.043264955 0.020452874 0.07427939 -0.010328054 0.008027183
-0.0029486418 0.018128045 0.024515605 0.031694323 0.029841857 -0.056524154 -0.022797951 0.041056953
-0.01955693 0.033826634 0.019405913 0.037840493 -0.042599615 0.023135778 -0.04032714 -0.003379271
0.00038186187 -0.04272727 -0.021354388 -0.06318689 0.023179743 -0.080440946 -0.012750738 -0.010377764
0.028283022 -0.05159878 0.017761912 -0.08106521 0.041928846 0.06188979 -0.061491054 0.013357813
-0.009975974 -0.044323664 -0.021970734 0.00039913462 -0.030655727 0.025343386 -0.0773486 -0.01422944
-0.026693635 -0.0947597 0.010856565 0.035049878 -0.033560507 0.048200417 -0.04985568 0.011081166
-0.006404743 -0.056697857 0.07373347 0.033445872 -0.0076300036 0.0040879156 0.040926542 0.010352764
0.0064744856 -0.005117945 0.001321854 -0.025190504 -0.05604681 -0.015286745 -0.056190908 -0.05877369
0.0073448922 0.032431018 0.03741508 -0.052472644 -0.046070326 -0.057492957 0.007270859 -0.010359282
0.026936905 -0.03928497 -0.05395377 -0.030294579 0.013817722 0.0006815787 0.13364746 -0.0541407
-0.04608671 0.060672507 0.007392786 -0.054985203 0.031102223 0.031562656 -0.026721366 -0.077830136
0.08635917 0.03227406 0.029506946 -0.012364111 0.01389773 0.0074690487 -0.017657183 -0.0061187507
-0.05418298 0.023014458 -0.033647515 -0.006831184 0.05292867 -0.018431889 0.034069426 0.09764313
0.023109317 -0.009875253 0.0077712736 -0.03471311 -0.0052623865 -0.05052282 0.06456128 -0.0016600181
-0.029366203 0.06574084 -0.061457567 0.047766406 -0.0449662 0.068884484 0.019548444 0.053687938
0.014025222 0.09834673 0.07135691 -0.008139425 0.03854186 0.059597883 -0.012030961 0.07417148
0.0052828006 0.014891924 -0.06505798 -0.0334349 -0.07355301 0.0669077 -0.03455695 -0.014945293
-0.0014034738 0.011120986 -0.0062833535 -0.052338913 0.025529595 0.052817006 0.055492572 -0.025235677
-0.04121072 -0.08444785 0.011728613 0.019932257 -0.0005555815 0.0008188404 -0.017661713 0.009074895
-0.053450216 0.026505247 0.0050068456 -0.054649055 -0.013488371 -0.035700694 0.04475408 -0.04947164
0.099110276 -0.02096222 -0.06074366 -0.06329602 -0.009563688 -0.013762079 -0.009993813 -0.07400015

pi.weight f4 [5, 256]
00000000: 02f9 69bc a0b2 b0bc b4a0 193c 2ff7 82bc
00000010: 3c53 b1bc 582f 47bd 80d1 9cbd 611a c03c
00000020: 7a3e 173d ff68 8f3d 7c7a 01bd 3ea9 73be
00000030: 30a1 d03e b501 283d de5f 0b3d ddc2 be3c
00000040: 4d1e a33d de82 d73e 15f7 e9bc 960e c1bb
00000050: 931a de3e ba96 33bd f08d fd3c 3252 713e
00000060: c295 81be 1554 473d 3f68 dbbc cc4a ce3c
00000070: 0d55 d33d a7fe e93e cff4 bb3d a38f b1bd
00000080: 708e ccbd ac86 163e 5173 0e3d 68b4 c13d
00000090: 9d4e 3e3d 52b6 883c 4476 bd3d a9d3 b5bc
000000a0: 290a 32bd f35e 0fbe d0d4 dabc 09ad cfbc
000000b0: 94ab 0c3d 3649 41bd c395 3f3e a04c d4ba
000000c0: d09d d93c 9c45 00bd 0b6c ca3d 9d7f 30be
000000d0: 788b 50bc 7772 e6be 003c 1ebd 7769 fcbd
000000e0: c6be f53e ff93 f0be 007f 8038 df7b 903e
000000f0: 90d8 543d 0dfa 5e3d 5b93 7b3e f4d6 173f
00000100: 8db7 f4bd a136 b5bd df09 69be 603f 493e
00000110: 1188 0abd df57 fabe 4581 d53d a428 323f
00000120: 984c 2f3e 3e98 fdbd 1b35 223e acd4 fd3b
00000130: b0d3 5e3c 0319 783c 7a7a 5a3c a2d3 cebe
00000140: 505e 05bd b206 ce3c 8466 86be 8bdd 02bf
00000150: bb22 3abe cb87 e33d e482 9c3c a37e 6cbd
00000160: 7112 4fbb fdc0 553d 8fdb 2bbf e30b 143c
00000170: c9b6 93bb 637c 2f3d b0c9 1f3e 59c1 f1bb
00000180: 9dd8 603e 9a36 b73e b0fd 9f3e f73e 2bbd
00000190: b89f 1abd 6178 163d a0e5 163c 381a 863e
000001a0: ad84 943d cb3a eebd 664f 033d dada 53bd
000001b0: 1ff6 923b d655 1dbe 8da3 bfbd 853a 783e
000001c0: a6fb da3d f2e0 123c 50ad a83c ebad 69bd
000001d0: 895a 843d aa67 743e 529b c03b aa46 8abd
000001e0: 1314 7c3e bb3f 19be c0a4 3ebd 0efc 93bd
000001f0: 2e1f 24bb 5c14 b53d 8810 51bd 7133 d6bd
00000200: 20e7 2c3d 40ac 9cbb ff6f 8ebc 7f73 703d
00000210: 6860 723d 8db1 2dbe fc2c 45bb 1964 21bd
00000220: 40b8 edbd b1a7 713d 15ff ac3e 0c63 0e3e
00000230: 90aa 5a3c a348 803c 1cd1 3abe 30bc 2cbe
00000240: 4905 083d 9c81 db3d 281a e63d 3b8c 18bd
00000250: 4d57 84bd 5ee4 273e e091 8cbb 12a3 ecbc
00000260: e05d eb3c d7a4 fdbe 417f ab3d 3abe 633c
00000270: dc0a 5bbf 0d47 64bd 59cd 7dbe aab8 fc3c
00000280: 1a6d 983e 0646 e1be 7059 d63d d811 6d3c
00000290: b851 45bd fd59 e1bd e444 26bf b6b8 38be
000002a0: ff50 943b 8797 a1be f53c aabb f5f1 a1bd
000002b0: a64c ad3c 7e35 903e d878 00bd ee73 4b3c
000002c0: e756 98be 8c50 403c a0cf 183c f8a9 83bd
000002d0: 51fe b33e b721 a03d a41a b73d 5885 df3c
000002e0: b433 203d 78c2 f93d 0a51 5fbd c30e a2bc
000002f0: 8033 d43d 2558 f0bc 1584 e6bd 4eb0 263e
00000300: 6581 803b d137 3d3d de2a e63b 60d2 57bd
00000310: b90e 4d3c f4b1 78bc 3827 353e 0f9d 45be
00000320: 9c41 0e3d 7d45 093e c337 e13d f2ec 0fbd
00000330: 68f3 30be f38d b73e ae99 da39 1128 06bf
00000340: c585 02bd 9f7d 7fbe 9c4a c43d 4540 fc3e
00000350: 4f13 4ebc 6c7d a2bb 6469 9bba 751b a8be
00000360: ed05 c7be e9c6 13bd a8a9 dcbd afc4 193d
00000370: 0b07 863d 2a0a 943e f265 17bd bda8 71ba
00000380: 4099 e33c 3482 343d 2f76 3d3e d14a e73d
00000390: 24ff f63b ea20 95be 39a4 ccbc f0af dbbe
000003a0: 4291 04bd e570 c63e 2cd0 b8bd 93ae 80bc
000003b0: 9501 e33b 9392 bb3c 47ad 8cbe e82b ed3e
000003c0: b8b9 403d 3c19 19bd eec6 d93d 3299 57bd
000003d0: 7240 583e 0645 0abd 14bf f13a 6160 e03b
000003e0: 6dc6 9dbc e48a 803d 3afc 293d a3f5 4abe
000003f0: 0ad8 e0bd 60ed b7bd cc1f f6bb d74e 093d
-0.0142805595 -0.02156955 0.0093766935 -0.015987007 -0.021646135 -0.048629135 -0.076571465 0.023450078
0.036924817 0.07002448 -0.03161095 -0.2379503 0.40747976 0.041017253 0.034026973 0.023286277
0.07964764 0.4209203 -0.0285602 -0.0058916314 0.4337965 -0.043844916 0.03095147 0.23566511
-0.2530957 0.04866417 -0.026783107 0.02518215 0.103189565 0.45702097 0.09177553 -0.08669975
-0.09988105 0.1469981 0.034777943 0.09458238 0.04646169 0.0166885 0.09251073 -0.022195654
-0.04346672 -0.14001064 -0.026712805 -0.025351064 0.034343317 -0.04718896 0.18709473 -0.0016197152
0.026564509 -0.031316385 0.09883889 -0.1723618 -0.012728564 -0.45009205 -0.03863144 -0.12324803
0.4799711 -0.46987912 6.127171e-05 0.28219506 0.051964343 0.054437686 0.2456793 0.5931237
-0.11949072 -0.0884831 -0.22757672 0.19653082 -0.03382117 -0.48895165 0.10425047 0.6959326
0.17119062 -0.123825535 0.1584057 0.0077462997 0.013600275 0.015142682 0.013334865 -0.40395838
-0.032560647 0.025149677 -0.26250088 -0.511193 -0.18177311 0.11109885 0.019105382 -0.057737958
-0.0031596685 0.052186 -0.67131895 0.009036037 -0.0045078737 0.042843234 0.15604281 -0.007377785
0.21957631 0.35783845 0.31248236 -0.041808095 -0.037749976 0.036735896 0.00921002 0.26191878
0.072518684 -0.116323076 0.032058142 -0.051722385 0.0044849063 -0.15364775 -0.09357367 0.24241073
0.106925294 0.008964764 0.020590454 -0.057050627 0.06462581 0.2386767 0.0058778906 -0.06751759
0.24617033 -0.14965717 -0.046543837 -0.0722581 -0.0025042999 0.08841774 -0.051041156 -0.104590304
0.042212605 -0.004781276 -0.017387388 0.058703896 0.05917397 -0.16962261 -0.0030086627 -0.0394021
-0.116074085 0.058997814 0.33788362 0.13904971 0.013346329 0.015659636 -0.18243831 -0.16868663
0.033208165 0.107180804 0.11235458 -0.03724311 -0.06461964 0.16395709 -0.0042898506 -0.028886352
0.028731287 -0.49539825 0.08373881 0.013900334 -0.85563445 -0.05573182 -0.24785365 0.030849773
0.29770738 -0.43998736 0.104662776 0.014469586 -0.048173636 -0.11003492 -0.6494887 -0.18039212
0.004526257 -0.3156092 -0.005195255 -0.07907478 0.021154713 0.2816581 -0.031365246 0.0124177765
-0.297538 0.011737954 0.009326845 -0.06428903 0.35154966 0.078189306 0.08940628 0.027285263
0.039111808 0.12195295 -0.054520644 -0.01978243 0.10361385 -0.029338906 -0.112556614 0.16278192
0.003921675 0.04619581 0.007024153 -0.052690864 0.012515717 -0.015179146 0.17690742 -0.19298194
0.03473054 0.13405414 0.10996964 -0.035138078 -0.17280352 0.35850486 0.000416947 -0.52404886
-0.031865854 -0.24950264 0.09584543 0.49267784 -0.012577846 -0.004958799 -0.001185697 -0.32833448
-0.3887171 -0.036078367 -0.10774547 0.037541088 0.06544312 0.28914005 -0.036962457 -0.00092185644
0.027783036 0.044069484 0.18502115 0.11293567 0.0075377394 -0.29126674 -0.024980651 -0.42907667
-0.03236509 0.38758007 -0.09024081 -0.015708243 0.006927679 0.02289704 -0.2747595 0.4632256
0.047052115 -0.03737758 0.10633646 -0.052636333 0.21118334 -0.033757232 0.0018443787 0.0068474268
-0.019259656 0.06276491 0.041500308 -0.19820265 -0.10978706 -0.089808226 -0.0075111147 0.033522453

pi.bias f4 [5]
00000000: 4918 f53d 0217 19be 8539 803d c4fc 4ebd
00000010: d007 843c
0.11967523 -0.14950183 0.06260971 -0.050534025 0.016117007
