TRPO/state_dict_model_intersection_v2.pt (torch, 29813 bytes, 4 tensors)

0.weight f4 [64, 105]
0	0xbe27629d	-0.16346212
1	0xbd6f5d6b	-0.0584387
2	0xbe27823c	-0.16358274
3	0x398aece2	0.00026497903
4	0x3e0af00d	0.13568135
5	0x3df3d884	0.119065315
6	0x3e82c47f	0.2554054
7	0xbdffc152	-0.12488045
8	0xbdd1c06f	-0.10241782
9	0x3d78646a	0.060642637
10	0x3c69c8ee	0.014269097
11	0xbda892c0	-0.08231115
12	0x3c21e654	0.009881575
13	0xbd9d4f0e	-0.07681094
14	0xbd79f775	-0.06102701
15	0x3e89af58	0.2689159
16	0x3d593696	0.053030573
17	0x3d80c445	0.062874354
18	0xbce75737	-0.02823983
19	0xbdcf77f9	-0.10130305
20	0x3e12ea6d	0.14347239
21	0xbdd0489e	-0.10170101
22	0x3dfb5251	0.1227156
23	0x3d8b99c5	0.068164386
24	0x3e41b131	0.1891525
25	0x3d57e3f8	0.052707642
26	0x3e3cbd8d	0.18431683
27	0xbdb1d78c	-0.086836904
28	0xbe46a599	-0.19399108
29	0xbe20fb20	-0.15720797
30	0xba22374e	-0.00061880506
31	0x3d932299	0.07184333
32	0xbdfc2c29	-0.123131104
33	0x3e6a390d	0.22873326
34	0xbdedc2b5	-0.11609403
35	0xbe14c36e	-0.14527676
36	0x3e09b301	0.13447191
37	0x3d187f3d	0.03723072
38	0xbd8ab604	-0.06772998
39	0xbd96543f	-0.073402874
40	0xbe04f88a	-0.12985435
41	0xbe4951e4	-0.19660145
42	0xbc803799	-0.015651511
43	0x3d8c307a	0.06845184
44	0xbca1d19c	-0.01975327
45	0xbd69555d	-0.056966174
46	0x3d5ab046	0.053390764
47	0xbdae5b9b	-0.08513566
48	0xbd980958	-0.07423657
49	0x3d1d58c8	0.038414747
50	0xbd96ebf3	-0.073692225
51	0xbda0f5c5	-0.07859377
52	0xbd8dac70	-0.069176555
53	0xbd808ec0	-0.062772274
54	0x3d58ff30	0.05297774
55	0x3c55b158	0.01304277
56	0x3cb1bd00	0.021696568
57	0xbd1879c9	-0.03722552
58	0xbccb4ed8	-0.024817869
59	0x3c0353c2	0.008015575
60	0xbd1320a5	-0.035919804
61	0xbd8d778f	-0.069075696
62	0x3d695db5	0.05697413
63	0xbdb4f56e	-0.088358745
64	0xbd5c1706	-0.053732894
65	0x3dbe278d	0.092848875
66	0x3d86e17a	0.06585975
67	0x3d532ccb	0.05155639
68	0x3cbac148	0.022797242
69	0xbb884053	-0.0041580587
70	0xbda2795f	-0.07933306
71	0xbd66f3e9	-0.056384955
72	0xbd9c8db6	-0.07644217
73	0x3d1877ca	0.037223615
74	0x3d5e8a4e	0.054331116
75	0xbdb7f341	-0.08981944
76	0xbd6c5246	-0.05769565
77	0xbd9bfba7	-0.07616358
78	0x3dc43685	0.09580711
79	0xbdb885a2	-0.090098634
80	0x3c4d8a28	0.012545146
81	0xbdb5d9c7	-0.08879428
82	0xbcb187d8	-0.02167122
83	0x3d2c6a3e	0.042093508
84	0xbcaa2340	-0.020768762
85	0x3c5f3188	0.013622649
86	0x3d75788a	0.059929408
87	0x3dac4f25	0.08413533
88	0x3d6f1716	0.058371626
89	0x3d059c06	0.0326195
90	0xbd2c5fd3	-0.042083573
91	0x3b7a25a0	0.00381694
92	0xbd5abf8d	-0.053405333
93	0xbccbdc40	-0.024885297
94	0xbdb2adc7	-0.08724552
95	0xbd136872	-0.03598828
96	0x3c451570	0.012029037
97	0x3d07e2b2	0.033175178
98	0x3d5c4fc6	0.053787015
99	0xbd5afaef	-0.053461965
100	0x3d838d59	0.06423444
101	0x3be3e320	0.0069545656
102	0x3d99df8d	0.07513342
103	0x3d933de7	0.07189541
104	0x3d9e6d0b	0.07735642
105	0xbd8bdfda	-0.06829806
106	0x3d2ae068	0.041717917
107	0x3db65183	0.08902266
108	0xbd08fe38	-0.033445567
109	0x3d4ec5df	0.050481673
110	0xbd0f5359	-0.034991596
111	0x3d8e660f	0.0695306
112	0xbdb0a225	-0.086246766
113	0xbc82f8e1	-0.015987815
114	0x3ac87b5e	0.0015295555
115	0xbc3bd632	-0.011464642
116	0x3cc64193	0.02420119
117	0xbc526067	-0.012840367
118	0x3c33c450	0.0109720975
119	0xbcda068a	-0.026614446
120	0xb97d0ca1	-0.00024132665
121	0xbd13abad	-0.036052395
122	0xbdbcd1db	-0.09219714
123	0x3da07ec8	0.078366816
124	0x3d5af9ae	0.05346077
125	0x3cc43951	0.023953112
126	0xbd594123	-0.053040635
127	0x3db120b0	0.08648813
128	0x3dc1a8a0	0.09455991
129	0xbc1cd445	-0.009572093
130	0xbda98f51	-0.082792886
131	0xbd085048	-0.033279687
132	0xbd820efe	-0.06350516
133	0xbc04c13e	-0.008102713
134	0x3c9374d8	0.018000051
135	0xbd0750d7	-0.03303608
136	0xbd605908	-0.054772407
137	0xbc985f44	-0.018600114
138	0x3d1bb98a	0.03801874
139	0x3d194950	0.037423432
140	0x3cec9cd6	0.028883379
141	0x3d9c2f60	0.076262236
142	0xbd8301a6	-0.06396799
143	0xbd3d273a	-0.046179987
144	0x3d121b22	0.035670407
145	0x3d4e84a5	0.05041947
146	0x3c56c5a3	0.013108644
147	0xbda99399	-0.08280105
148	0xbd5cbd45	-0.05389144
149	0xbd83c486	-0.06433968
150	0x3bd14871	0.0063868095
151	0x3c2f50f6	0.010700455
152	0x3c3c910c	0.011509191
153	0xbc16295c	-0.009165134
154	0xbd3e3332	-0.046435542
155	0xbb335f70	-0.0027370118
156	0xbc512bb7	-0.01276677
157	0xbd909303	-0.0705929
158	0x3cb54508	0.022127643
159	0x3caa5368	0.020791724
160	0xbc86f93e	-0.01647627
161	0x3d0a8621	0.03381932
162	0x3d80b0fc	0.06283757
163	0x3d1dc2a4	0.038515702
164	0xbda75997	-0.08171385
165	0xbdb38243	-0.0876508
166	0x3cf5f622	0.030024592
167	0x3c162b08	0.009165533
168	0x3d621199	0.055192564
169	0xbd56032f	-0.05224913
170	0xbcfdb7ac	-0.03097137
171	0x3da7fd49	0.08202607
172	0xbd9cfd24	-0.0766547
173	0xbdaae66d	-0.083447315
174	0x3c9ee844	0.019397862
175	0x3c66f473	0.014096367
176	0xbd3d6fc3	-0.046249162
177	0xbc77c9fd	-0.015123841
178	0xbd83e8da	-0.06440897
179	0x3c73878c	0.01486386
180	0xbd0fcd58	-0.03510794
181	0xbb949be2	-0.0045351842
182	0x3d8e8007	0.06958013
183	0x3c17856b	0.009248118
184	0xbc8f92ec	-0.017526112
185	0xbd4abcca	-0.04949645
186	0x3d99c2fe	0.07507895
187	0xbd4030f3	-0.04692168
188	0xbd8a6240	-0.06757021
189	0x3dab3346	0.08359389
190	0x3d08a4cb	0.033360284
191	0xbd816ac3	-0.06319191
192	0xbd29527b	-0.041338425
193	0x3b3ce99a	0.002882576
194	0xbd465d34	-0.04842873
195	0x3ca6e008	0.020370498
196	0xbc5031e8	-0.012707211
197	0x3cee7584	0.02910877
198	0x3d869fe5	0.06573466
199	0x3dbc25d5	0.091869034
200	0x3be76580	0.0070616603
201	0xbd435780	-0.04769087
202	0x3d7de9aa	0.061990418
203	0x3d04a392	0.032382555
204	0xbd432137	-0.047639098
205	0x3c380988	0.011232741
206	0x3d95ba03	0.073108695
207	0x3dba8641	0.09107638
208	0x3d8e5785	0.06950287
209	0x3c499050	0.012302473
210	0x3c1113c8	0.008854814
211	0xbd6d1873	-0.057884645
212	0x3e90d132	0.28284603
213	0x3ea5e39d	0.32400218
214	0x3f5385ef	0.8262624
215	0x3f83242c	1.0245414
216	0xbeb4358f	-0.35197112
217	0x3edcfe3e	0.4316272
218	0x3ec3c342	0.38234907
219	0x3e360343	0.17774682
220	0xbf5d5492	-0.8645717
221	0xbf35c6ff	-0.7100677
222	0xc0122940	-2.2837677
223	0xbfab4211	-1.3379537
224	0xbfa1bbbc	-1.2635417
225	0x3f5b1fb5	0.85595256
226	0x3f277635	0.65414745
227	0x3e58b3cf	0.21162342
228	0xbe482581	-0.19545557
229	0x3f57ad13	0.84248465
230	0xbed200b3	-0.41016158
231	0xbdabc273	-0.083866976
232	0xbf498900	-0.7872467
233	0x3f54de52	0.83151734
234	0xbe2d669e	-0.16933677
235	0x3d9dd567	0.07706719
236	0xbeadb0db	-0.33923993
237	0x3f024371	0.5088416
238	0xbf24b948	-0.64345217
239	0xbea88f2c	-0.3292173
240	0x3f49dd80	0.7885361
241	0x3e76002d	0.24023505
242	0x3ea74a60	0.3267393
243	0x3e8d9dea	0.2765954
244	0x3ed2bba3	0.4115878
245	0x3f6d6d73	0.9274513
246	0xbed5ebfb	-0.417816
247	0xbfc5f6fa	-1.5465996
248	0x3d330688	0.0437074
249	0xbc88e984	-0.016712911
250	0x3f052180	0.5200424
251	0x3ec52e4b	0.3851188
252	0xbda55883	-0.08073523
253	0xbec6059d	-0.38676158
254	0xbc4c560c	-0.012471687
255	0x3ea5a762	0.32354265

0.bias f4 [64]
0	0xbe1ffe2b	-0.15624301
1	0xbda35387	-0.07974916
2	0x3d552359	0.052035663
3	0xbd51d602	-0.051229484
4	0x3da91d92	0.08257593
5	0xbe9c99b2	-0.3058601
6	0xbe3227fe	-0.17398068
7	0xbdf35106	-0.11880688
8	0x3b2c0c34	0.002625239
9	0xbe7428fb	-0.23843758
10	0xbee165d4	-0.44023
11	0x3ed594bf	0.41715047
12	0x3e03d26f	0.12873243
13	0x3e4be9c8	0.19913399
14	0xbd31251f	-0.043248292
15	0xbec23fdc	-0.37939346
16	0x3ea76a68	0.3269837
17	0xbd9c030a	-0.07617767
18	0xbe294fa8	-0.16534293
19	0xbf0b09cb	-0.5431182
20	0x3e88f593	0.26749858
21	0xbd9d2c60	-0.076744795
22	0xbdf33e67	-0.11877137
23	0xbb848471	-0.0040441086
24	0xbed2087c	-0.41022098
25	0x3ec6c0a5	0.3881885
26	0x3e4b7df8	0.19872272
27	0xbe067817	-0.13131748
28	0xbd685e9e	-0.05673086
29	0x3c9e3374	0.019311644
30	0xbe47ff9f	-0.19531105
31	0xbe825814	-0.25457823
32	0x3d5ced61	0.05393732
33	0xbe1dbdbe	-0.15404412
34	0x3ebe51c2	0.3717175
35	0xbe977b8b	-0.29586443
36	0x3e4b1d3d	0.19835372
37	0xbde99e60	-0.11407161
38	0xbd09895b	-0.033578258
39	0xbe3bc193	-0.18335561
40	0xbe23fe19	-0.160149
41	0xbda17a4d	-0.07884655
42	0x3d6d9a50	0.058008492
43	0xbd9edd73	-0.07757082
44	0xbea72912	-0.32648522
45	0xbe760d0b	-0.24028413
46	0xbe5e88b1	-0.21731831
47	0xbe1b0e96	-0.15142283
48	0xbe2b9123	-0.16754584
49	0xbc864b60	-0.016393363
50	0xbd850773	-0.064955615
51	0xbd879ddb	-0.066219054
52	0xbe0d358a	-0.13789955
53	0x3e49a344	0.19691187
54	0x3ed8c4d6	0.42337674
55	0x3eea954f	0.45817038
56	0xbe57f4e8	-0.21089518
57	0xbde880ad	-0.11352668
58	0x3edad205	0.42738357
59	0x3f1b26d8	0.60606146
60	0xbd8b95f2	-0.06815709
61	0xbebdf07c	-0.37097538
62	0xbe963bf2	-0.2934261
63	0xbf0a6b76	-0.5407022

2.weight f4 [3, 64]
0	0x3e563219	0.20917548
1	0x3bd3915e	0.006456538
2	0x3fc982b4	1.5743012
3	0xb8f97604	-0.00011895227
4	0x3e028e58	0.12749612
5	0x3e668408	0.22511303
6	0x3e64e1a6	0.22351703
7	0xbdd2871f	-0.102796786
8	0xbbf37344	-0.007429512
9	0xbf11792b	-0.5682551
10	0xbe5947bf	-0.21218775
11	0x3d72c36f	0.05926841
12	0x3de60e64	0.112332135
13	0xbe25ab26	-0.16178569
14	0x3dace8cb	0.08442839
15	0x3ef5ebe4	0.48031533
16	0x3f812a86	1.0091102
17	0x3def191c	0.11674711
18	0xbc54d4b3	-0.012990165
19	0x3eb85e2c	0.36009347
20	0xbf0dd859	-0.55408245
21	0x3cba4ae4	0.022740789
22	0x3d7faa95	0.06241854
23	0x3d934c36	0.071922705
24	0xbedd14e0	-0.4317999
25	0xbf34b407	-0.705872
26	0xbeebc46b	-0.46048293
27	0xbf007fd2	-0.5019504
28	0xbcdcf74a	-0.026973385
29	0x3f1b413c	0.60646415
30	0x3da84c8d	0.08217726
31	0xbe08780d	-0.13327046
32	0xbf08203f	-0.53174204
33	0x3dca80ad	0.09887824
34	0xbe7c8b0b	-0.24662416
35	0xbf8c035c	-1.0938525
36	0xbf83ab97	-1.028674
37	0x3d8c661c	0.06855413
38	0x3ce8b29e	0.028405484
39	0xbf2d9f57	-0.6782126
40	0x3d148818	0.0362626
41	0xbd0c1ca4	-0.034207
42	0xbf093080	-0.5358963
43	0x3d837813	0.06419387
44	0x3e766fb3	0.24066047
45	0xbce95718	-0.028483912
46	0xbea854e5	-0.3287727
47	0xbeaa3c64	-0.332492
48	0x3ea9e1fc	0.33180225
49	0x3de85ced	0.11345849
50	0x3e2ccc51	0.16874816
51	0x3eb5fa27	0.35542414
52	0x3ce4575a	0.027873684
53	0x3e255622	0.16146138
54	0xbd19e7ea	-0.037574686
55	0x3faaaffa	1.3334954
56	0xbdfc86b6	-0.123303816
57	0xbcaef252	-0.021355782
58	0x3f3ecd83	0.74532336
59	0x3e99aad9	0.3001316
60	0xbe30de84	-0.17272383
61	0xbfe780a5	-1.8086134
62	0xbdfd514c	-0.12369022
63	0xbf25ced1	-0.647687
64	0xbe45efa0	-0.19329691
65	0x3d7a3074	0.061081365
66	0xbf9df130	-1.233923
67	0xbd1a492c	-0.03766744
68	0x3d7062fc	0.05868815
69	0xbd91168b	-0.07084378
70	0xbe1343c9	-0.14381327
71	0x3d95feb7	0.073239736
72	0xbd6b3fc4	-0.05743386
73	0x3ebbc128	0.36670804
74	0x3e7db6eb	0.24776809
75	0xbe589a91	-0.21152712
76	0xbb642e84	-0.0034817765
77	0x3c07acd0	0.008280948
78	0xbdc35035	-0.09536783
79	0xbe75cea8	-0.24004614
80	0x3f05990a	0.52186644
81	0xbd885b85	-0.06658081
82	0x3dab639d	0.08368609
83	0x3dcad8d7	0.0990464
84	0xbf0f9c3e	-0.5609778
85	0xbf4f36f9	-0.80943257
86	0x3cdf343f	0.027246593
87	0xbde0b7fb	-0.109725915
88	0x3e88289a	0.26593477
89	0x3f1773b7	0.5916094
90	0xbe2dfb42	-0.16990378
91	0x3e84fb20	0.25972843
92	0x3dcd3736	0.10020296
93	0xbfaf14ef	-1.3678263
94	0xbcde7841	-0.02715695
95	0x3ea718a3	0.32635984
96	0x3dd74bcb	0.10512503
97	0x3c431ce1	0.011908741
98	0x3dc256a6	0.09489183
99	0x3ea1b61a	0.31584245
100	0x3f1614a9	0.58625275
101	0x3e8bd523	0.27311048
102	0x3ce83ddc	0.02834981
103	0x3e2a2530	0.16615748
104	0xbd055e05	-0.032560367
105	0xbe0d6767	-0.13808976
106	0xbe3a14ca	-0.18171993
107	0x3d7769c8	0.060403615
108	0x3d0adc1e	0.033901326
109	0xbe0df79f	-0.13863991
110	0x3e8f8320	0.28029728
111	0x3ece6a2d	0.4031538
112	0x3cb2e3d8	0.02183716
113	0xbe5f2add	-0.21793695
114	0xbc717bf2	-0.0147390235
115	0x3d1c28ef	0.038124975
116	0xbe20a041	-0.15686132
117	0xbca2298d	-0.019795204
118	0x3f6bc995	0.92104465
119	0xbf1b10b0	-0.6057234
120	0x3e03bb01	0.12864305
121	0xbc86dc71	-0.016462537
122	0x3d52ee12	0.051496573
123	0x3f045df2	0.5170585
124	0xbdac179e	-0.08402942
125	0x3f1826c6	0.59434164
126	0x3e1af8b6	0.15133938
127	0xbedd4c0b	-0.4322208
128	0x3d97c6c5	0.07410959
129	0xbc8cff79	-0.017211663
130	0xbf03f015	-0.5153821
131	0x3c99fff8	0.018798813
132	0x3dac6a48	0.08418709
133	0xbe2b25d1	-0.16713645
134	0x3d960276	0.07324688
135	0xbca86c04	-0.020559318
136	0xba9073d4	-0.0011020848
137	0xbc25efc6	-0.010127967
138	0xbd400b81	-0.04688597
139	0x3e17c0cc	0.1481964
140	0xbe15d6e0	-0.1463275
141	0x3ee26a8b	0.4422191
142	0x3d9910a7	0.07473879
143	0xbe8c1561	-0.2736006
144	0xbfa42995	-1.282519
145	0xbcce74c9	-0.025202172
146	0x3dbec68f	0.09315216
147	0xbee4a623	-0.44658002
148	0x3f76f55e	0.9646815
149	0x3f5488d9	0.8302131
150	0xbd7562b6	-0.05990859
151	0x3dfb4f3e	0.122709736
152	0x3e2c28a4	0.16812378
153	0x3e6c2d93	0.2306426
154	0x3f188130	0.59572124
155	0x3e9ac467	0.30227968
156	0x3d2e7a9a	0.04259739
157	0x3f217f2e	0.63084686
158	0xbcaab111	-0.020836385
159	0xbdd6eeb6	-0.10494749
160	0x3ecc5aad	0.3991293
161	0x3e06152c	0.13094014
162	0x3e330e6f	0.17485975
163	0x3f5296ea	0.82261527
164	0x3eac0ece	0.33605045
165	0xbdc022ad	-0.09381614
166	0xbd39d684	-0.045370594
167	0x3ee482ea	0.4463113
168	0x3cec3db8	0.028838024
169	0xbd983150	-0.074312806
170	0x3f3b35e8	0.7312913
171	0xbe84f33e	-0.2596683
172	0xbe20d5f4	-0.15706617
173	0x3def0bc0	0.11672163
174	0x3d99cb3d	0.07509468
175	0xbe6581c9	-0.2241279
176	0xbed9b28f	-0.42519042
177	0x3da554ba	0.08072801
178	0x3d04f39c	0.032458887
179	0xbefb3132	-0.4906097
180	0x3d010cd6	0.031506382
181	0xbe644281	-0.22290994
182	0xbf8e8ff7	-1.1137685
183	0xbf3c7599	-0.7361694
184	0xbda0825d	-0.07837365
185	0x3e26c5b6	0.16286358
186	0xbf45e905	-0.77308685
187	0xbf76a3b2	-0.9634353
188	0x3eb02a04	0.34407055
189	0x3f8ce84b	1.100839
190	0x3d224d72	0.03962464
191	0x3f7c5ff7	0.9858393

2.bias f4 [3]
0	0xbd98be00	-0.074581146
1	0xbd898ef4	-0.06716719
2	0x3e64f3cb	0.22358625
