TRPO/state_dict_model.pt (torch, 14741 bytes, 4 tensors)

0.weight f4 [64, 45]
000000 a5 f9 ce 3d b3 33 aa bd a1 69 4f be c3 7a 7f 3d
       0.1010621 -0.08310642 -0.20255138 0.062372934
000010 5a 70 82 be 96 be b4 3d df 70 12 3d dd 15 9e bd
       -0.25476342 0.08825414 0.035752174 -0.07719014
000020 c4 1e f5 3e 78 cf 1c be ec 3e dd be df d7 51 3e
       0.47875035 -0.15313518 -0.43212068 0.20492505
000030 a0 1e 89 3e 49 e3 51 be a4 fe 7a be c4 94 9a 3e
       0.26781178 -0.20496859 -0.245112 0.30191624
000040 84 e5 ee bd 90 e4 b5 be 36 83 33 be ed e7 bc be
       -0.116648704 -0.35525942 -0.17530522 -0.36895695
000050 c8 67 49 bd 7f b0 e6 3d 74 0c 83 be d9 93 2f be
       -0.04917124 0.11264133 -0.25595438 -0.17146243
000060 74 0c 00 bf 05 e7 0a bf 5b 25 03 bf 54 7e ac be
       -0.50019 -0.5425876 -0.51228875 -0.3369013
000070 cc 2c 56 3e c2 78 64 3d 1d b3 66 3e 87 7b df bd
       0.20915526 0.055779226 0.22529264 -0.10912233
000080 61 c2 3c 3d c2 3a 93 be 72 94 71 bf b1 ff fd bc
       0.04608381 -0.28755766 -0.94367135 -0.031005712
000090 24 23 77 3f 12 ad f5 3e d3 e4 65 be 9a e1 0a bf
       0.96537995 0.47983605 -0.22450571 -0.5425049
0000a0 00 f2 ee be 1a 2c eb be 34 3a 93 be 82 f5 8a 3e
       -0.46669006 -0.45932084 -0.28755343 0.27140433
0000b0 0c 7b ae 3e 76 64 14 3f 75 9f cf bd 94 a7 4b bd
       0.34078252 0.5796579 -0.10137836 -0.04972036
0000c0 4a 28 22 bb c2 a1 cc bd a7 2b 94 be 82 66 44 bf
       -0.0024743252 -0.0999179 -0.28939554 -0.76718915
0000d0 b4 6d 6e be 1f 54 55 3d 08 50 6b be a0 6a d8 be
       -0.23284036 0.052082177 -0.22979748 -0.42268848
0000e0 4d 12 44 3e 78 a0 53 3f 1f c7 e8 3e ed 5a d5 3d
       0.19147606 0.8266673 0.45464417 0.10417733
0000f0 20 f4 d5 3e 88 11 43 3d 9b 8c 55 be e0 99 29 3d
       0.41787815 0.04762414 -0.20854418 0.041406512
000100 32 05 8e bc c6 14 d8 be 86 ab ff bd 0f 38 39 bd
       -0.017336462 -0.4220335 -0.124838874 -0.045219477
000110 a9 f6 da bd b5 4e a9 be 63 6d b0 3e 8a 88 92 3e
       -0.10691578 -0.3306786 0.34458455 0.28619796
000120 9f 3b 8e 3e d9 8e 22 be 97 51 13 3e ba 57 9e 3e
       0.27779862 -0.15874805 0.14386593 0.30926305
000130 c2 74 a0 bd fa cf b2 be 2c 58 76 3b 3b 78 ae 3e
       -0.0783477 -0.349243 0.0037589176 0.34076104
000140 73 3d f2 bd b4 9a 58 3e 39 cb 0e be 47 63 ec be
       -0.11828127 0.21152765 -0.13944711 -0.46169493
000150 43 72 18 bd 6d 10 6d be 50 5c 8d be a6 12 b3 3e
       -0.037218343 -0.23150797 -0.2760949 0.34975165
000160 50 53 58 3e 5c 9f c0 3e 24 15 52 be c2 37 f8 3e
       0.21125531 0.37621582 -0.20515877 0.4848004
000170 d0 c9 a2 3e 42 ec 00 3c 2b c9 a0 3e 71 29 d6 3d
       0.31794596 0.007868828 0.3140348 0.10457123
000180 2f 82 38 3e 7c f4 c6 bb d2 72 09 3f 49 08 85 3f
       0.18018411 -0.0060716253 0.53690827 1.0393153
000190 07 5d 92 3e 64 6e f2 be 73 64 70 bf 27 a8 8b be
       0.285866 -0.47349846 -0.93903273 -0.27276728
0001a0 9b 8d ae 3e 06 20 54 3d 50 f5 03 3f 3a ab fe 3e
       0.3409241 0.051788352 0.5154619 0.4974001
0001b0 58 93 e0 3d 16 0d 54 3e 38 1a 6b 3e 12 8d 4f 3d
       0.109656036 0.20708117 0.2295922 0.050671645
0001c0 d4 f5 3d 3e 86 33 0d 3f 8c a8 15 3f b6 e0 9d be
       0.18550807 0.55156744 0.5846031 -0.30835503
0001d0 75 8e fc be b9 5f 80 3e f3 e0 61 3e 08 1e ca 3d
       -0.49327436 0.2507303 0.22058468 0.09869009
0001e0 5b e4 6d be 13 10 02 3f ff c4 0c 3f 0e d3 0c 3e
       -0.23231642 0.5080578 0.5498809 0.13752386
0001f0 ab 44 fa be c2 4c 71 bc 0b 07 12 bf be 0f fa 3c
       -0.48880515 -0.014727773 -0.57041997 0.030525085
000200 cd 94 52 be 8f 3a 0c be 05 c3 c2 3e 5a 08 e2 3e
       -0.20564575 -0.13694213 0.38039413 0.44146997
000210 16 ba b2 be d1 7c c7 be 8f 57 a5 be 24 ca 52 3e
       -0.34907597 -0.38962415 -0.32293364 0.20584923
000220 ef fc 27 3e bc 95 d5 bd 1e 5c fb bd 54 4a 86 3c
       0.1640508 -0.1042895 -0.12273429 0.016392864
000230 93 ff 21 be 14 d4 12 bf 7c e0 bf be 7a 3d 8b 3e
       -0.1582015 -0.57354856 -0.37475955 0.2719534
000240 9b 41 12 3e 3a 05 5c be 30 47 a8 be 11 15 2b 3e
       0.14282839 -0.21486369 -0.32866812 0.16707255
000250 2f 42 b7 3e 54 de b8 bd c4 43 bc 3e 8e 37 8e 3d
       0.35792682 -0.09026781 0.3677045 0.0694419
000260 77 d3 52 be 34 23 25 3c 0b 73 8f be ba 7b 88 be
       -0.2058848 0.010079194 -0.28017458 -0.26656896
000270 62 a4 32 3e 78 ec e0 3e 04 8f 82 3e 4f 41 eb be
       0.1744552 0.4393041 0.25499737 -0.45948264
000280 b0 b6 a4 3e 1d d7 d2 3d c8 73 bd 3e a7 bf d0 3e
       0.3217063 0.10294936 0.37002397 0.4077122
000290 94 f7 96 3d 00 00 84 3d 6b c3 98 3d 1d 6d e6 bd
       0.073714405 0.064453125 0.07459148 -0.112512805
0002a0 e8 c2 50 bd fd d6 0b be 20 a4 25 be c6 3a 5f 3d
       -0.050967127 -0.1365623 -0.1617589 0.05449941
0002b0 4b cb 46 be 6a c2 72 be 76 68 e6 bd 34 fb 0e 3d
       -0.19413488 -0.23706976 -0.11250393 0.034907535
0002c0 51 01 58 3d e4 65 ba 3e d9 f0 70 3e 4d 9c c2 3e
       0.05273563 0.3640586 0.23529376 0.38009873
0002d0 12 03 45 bd 57 2c bd 3d b9 53 3c be 66 16 15 bd
       -0.04809863 0.09236973 -0.18391313 -0.036398314
0002e0 88 11 38 3d f9 48 ab 3d 23 4a 0c 3d ab ae d5 bd
       0.044938594 0.08363528 0.03425039 -0.10433706
0002f0 57 60 ef bd 3c 10 fb 3d 7a 3d 61 3d 43 fc 67 be
       -0.11688297 0.12258956 0.05499027 -0.22654824
000300 5e 41 8b 3c ca 86 c5 bd 60 88 5e bc 6e 4f f3 bc
       0.016998943 -0.096448496 -0.013582319 -0.029700961
000310 68 d8 29 be 79 e8 45 bd 7e 06 0e be 3b 07 94 bd
       -0.16586459 -0.048317406 -0.13869664 -0.072279416
000320 97 9e 44 3d 58 ef 4e 3d 4e 39 16 be 4e 3d a4 3d
       0.048002806 0.050521225 -0.14670298 0.080195054
000330 cd 83 0d 3e 94 3b 37 bd 50 2a 44 be 9e 86 d3 bc
       0.1381981 -0.044734553 -0.19156766 -0.025821026
000340 cc c4 e1 3c 8c 7e be bd ee 3b 98 bd e9 31 97 3c
       0.02755966 -0.09301481 -0.07433306 0.018456416
000350 01 a6 78 be 00 7d 8e bd 0f 5f cc bd df 12 1d be
       -0.24282075 -0.069574356 -0.099790685 -0.1533923
000360 7b 73 36 3e 09 2d 8b 3e 72 45 7c 3e f6 86 13 3b
       0.1781749 0.27182797 0.24635866 0.0022510863
000370 f8 14 d2 bd bd 5f 1d be f2 70 84 3b f4 d9 9e bd
       -0.10257906 -0.15368553 0.0040417844 -0.07756415
000380 2c 7d dc bd 35 3e a1 3d 12 0a 1a bd 90 ef 62 3e
       -0.10766062 0.07873193 -0.03760726 0.22161698
000390 e0 bf 23 3d 6e e0 e8 3c ff 74 80 be 71 1b f5 3d
       0.039977908 0.028427329 -0.2508926 0.11968125
0003a0 23 a3 e6 bd bc 94 6e 3d c0 fa dc 3e 46 82 29 be
       -0.112615846 0.058247313 0.43160057 -0.16553602
0003b0 a5 ea 90 3c 01 a9 73 bd 98 06 6c 3e 3a 0c 92 3e
       0.017690012 -0.059487347 0.2304939 0.28524953
0003c0 ae e8 97 bd 2c 74 5a 3d ed c5 41 3e b4 c3 bd 3c
       -0.07417427 0.053333446 0.18923159 0.023164608
0003d0 64 6a 16 be fc fd 42 3d 81 56 5d 3e d0 c2 f3 3d
       -0.14689022 0.0476055 0.2161503 0.11902392
0003e0 3b c7 8f bd 59 08 36 be 81 3f b6 bc f6 9f 12 bd
       -0.07020422 -0.17776622 -0.022247078 -0.035797082
0003f0 22 4d 1f 3e ce 9d e0 bd af cd b4 3e b1 ed f1 bd
       0.15556768 -0.10967599 0.35313174 -0.11812914

0.bias f4 [64]
000000 b7 ca 54 bd 02 14 ab 3e 62 cc 90 bd 96 76 ad 3e
       -0.051951136 0.33413702 -0.07070233 0.33879536
000010 fd d9 c3 bd f9 46 4c 3d 2e 52 8e 3d 84 ee 17 bd
       -0.09563062 0.049872372 0.06949268 -0.0370927
000020 d6 22 ac bd b8 92 de bd 6d 84 f3 bd e2 45 5b bd
       -0.08405082 -0.10867828 -0.118904926 -0.053533442
000030 7c 2a 6c 3d be ab e6 bd 07 12 bb bd f0 bf 08 bf
       0.057657704 -0.11263226 -0.09134298 -0.53417873
000040 d0 e7 46 3e 1a c1 a9 bd 6b 80 e8 bc f1 ed 34 be
       0.19424367 -0.08288784 -0.028381547 -0.17668892
000050 c4 c7 14 3b 88 3f 7f bd 8e a8 3c bd 6a 50 89 be
       0.0022702077 -0.062316447 -0.046059184 -0.26819164
000060 1c 2b e5 bd 9a 61 fe bd 51 fa c6 3d ab d1 2a be
       -0.11189863 -0.1242096 0.09715713 -0.16681544
000070 a1 a6 44 3e 9e 65 0b bd ac e1 80 bd 08 48 40 bd
       0.19204189 -0.034032457 -0.062930435 -0.046943694
000080 c8 12 d9 bd 32 47 39 be 9c 28 2d 3e a0 b1 ba bc
       -0.10599285 -0.18093565 0.16910022 -0.022789776
000090 16 b3 da be 20 4b 7c 3d 4a 29 f5 3c 8a 7f 15 bd
       -0.42714757 0.061595082 0.029926915 -0.036498584
0000a0 f2 d4 3b 3e bf d0 a4 bc 8a 7b e2 3b 0b 24 3a be
       0.18342951 -0.02011907 0.0069116997 -0.18177812
0000b0 9a b5 0b be 6d 06 1c be 8c cc ac 3b 8f 0c 2d be
       -0.13643494 -0.15236826 0.0052734073 -0.16899322
0000c0 5c be 2b be 43 c3 40 be ea 01 93 3e 5e ee a3 3e
       -0.16771835 -0.18824486 0.28712398 0.32017797
0000d0 75 bd 48 3e 2e b1 40 be ca 56 17 3d 78 71 c8 3d
       0.19603522 -0.18817589 0.036948003 0.097872674
0000e0 8a f0 43 3e ff 3d 53 3e d8 0b b6 bc b0 5c ac bd
       0.19134727 0.20629118 -0.022222444 -0.08416116
0000f0 ef 24 42 3e 40 31 9e bb ae 4e 9e 3d 50 01 3b 3e
       0.18959402 -0.0048276484 0.07729851 0.1826222

2.weight f4 [5, 64]
000000 7c 38 49 bd 27 89 4b 3f 42 d6 11 bf ae 45 dd 3e
       -0.049126133 0.7950615 -0.56967556 0.43217224
000010 85 b4 49 3e bd 00 0c 3e 8f ae ff be 58 a6 77 3d
       0.19697769 0.13672157 -0.49937865 0.060461372
000020 34 1a 77 bd b0 e5 0d bd e0 67 8b bb 78 ec 31 3d
       -0.060327724 -0.034642875 -0.004254326 0.043438405
000030 80 ce 38 bd b4 b4 c6 bd a0 86 80 bd 4b 8c 46 bf
       -0.04511881 -0.09702435 -0.06275678 -0.7755782
000040 0e 01 44 bf d8 52 14 be 5c 9d 2e 3d 92 ad 11 3e
       -0.7656411 -0.14484727 0.04263054 0.14226368
000050 e1 53 54 3d f2 5c 63 3f f8 4d 53 3d 0a cb 70 3f
       0.051837806 0.888137 0.05158803 0.94059813
000060 c5 9d 3d bd d4 49 10 be d0 64 be 3e 0c 6b e1 bd
       -0.04629304 -0.14090663 0.3718629 -0.11006746
000070 ef b4 37 bf 42 86 30 bd a6 1d 85 3d 6f 9d f2 bd
       -0.7176046 -0.04309679 0.064997956 -0.11846434
000080 aa 19 aa bd d3 9b 94 3e 0e e5 25 be 2f 01 4a be
       -0.08305676 0.29025134 -0.16200659 -0.19727014
000090 e4 51 9f 3d db 78 b9 3d 25 c5 cb bc 55 38 27 bf
       0.07779291 0.090562545 -0.02487428 -0.6532033
0000a0 7f 42 35 3d 66 e0 dc bd ae e3 84 bc c9 55 81 bf
       0.04425287 -0.10784988 -0.016221847 -1.0104305
0000b0 a7 c6 33 3e 0c 85 50 be 8c b0 87 bd fd ad bf 3d
       0.17556249 -0.20363253 -0.066254705 0.093593575
0000c0 08 87 3d 40 30 02 c2 3d 0a 0d 20 3f b2 85 9a bf
       2.9613667 0.094730735 0.62519896 -1.207205
0000d0 61 46 bb 3e 65 0d 3a 3e c0 81 93 3f f6 a0 04 40
       0.36577132 0.18169172 1.1523972 2.0723243
0000e0 3e 36 15 3d 69 51 01 3f ee 22 a3 3d 5a ea 8a bd
       0.036428683 0.5051485 0.07965647 -0.0678298
0000f0 09 81 6d bf bd a4 9a 3c 04 05 b2 bd 8a b8 1c bf
       -0.9277502 0.018877381 -0.08692363 -0.61219084
000100 d9 b6 5f bf af 7d 83 3e d8 51 dc be 77 43 df bd
       -0.8738838 0.25681826 -0.43031192 -0.1090154
000110 db d6 80 bd ea d1 8a be e5 a8 0a be 3c 8b b1 bd
       -0.062909804 -0.27113277 -0.1354099 -0.08669135
000120 ec 5d 8a 3d dc 61 b2 bd 51 6c 51 bd 18 51 92 3c
       0.067561954 -0.087100714 -0.05112869 0.017860934
000130 ac 65 b7 bd 4c 15 d5 be c2 2e d9 3d ae 29 8d 3e
       -0.08954939 -0.4161781 0.106046215 0.27570862
000140 38 92 4c 3e e6 bd 6a bd 57 c7 e0 3d d9 a6 30 3d
       0.19977653 -0.057310008 0.10975521 0.04312787
000150 7e a8 a6 3d 8c d6 a3 3b be eb cf bd 86 33 86 be
       0.08137606 0.004999941 -0.10152386 -0.26211184
000160 c7 79 d4 3d d0 ee 99 3c 4d 60 06 3f be ee 7f 3d
       0.1037479 0.018790632 0.52490693 0.06248354
000170 99 1b 86 be 0c 02 32 bd 5e 90 f9 bd 6b 39 93 bc
       -0.2619293 -0.043458983 -0.12185739 -0.017971715
000180 37 c3 33 bd a1 62 53 3f 21 27 ce be ba d6 8e bb
       -0.043887343 0.8257237 -0.40264228 -0.0043590935
000190 fd 9b c1 bf 48 e1 7e bd d4 81 71 3c 88 d6 61 3e
       -1.5125729 -0.062226564 0.014740426 0.22054493
0001a0 16 d7 0f be 46 e5 31 3d 67 e8 63 3d ab 2e 20 3f
       -0.14046893 0.043431543 0.055641558 0.6257121
0001b0 a9 97 25 be ef 2b 84 3e 08 fa aa bd 8c f5 85 bd
       -0.16171135 0.2581477 -0.08348471 -0.06540975
0001c0 3d 34 4b bf b5 bf ff bd 2b d4 4e 3f 26 05 ac bc
       -0.79376584 -0.12487737 0.8079249 -0.020998549
0001d0 6b c0 45 3f 3a cb d1 bc bb a0 69 be 9b 6c 89 3f
       0.7724673 -0.025609601 -0.2281522 1.0736269
0001e0 38 fd 77 be 39 fa 67 bf 38 76 a6 3d 1d f0 98 be
       -0.24217689 -0.90616184 0.08128017 -0.29870692
0001f0 82 0a 13 be f3 4b 4e 3e 28 c0 49 bc 94 20 75 3f
       -0.14359477 0.2014616 -0.01231388 0.95752835
000200 c8 a9 63 3f 1e 35 b1 be d3 45 a2 be e2 9c 44 bf
       0.8893094 -0.34610838 -0.31693897 -0.76801884
000210 81 23 05 3e 38 5e bf 3d cc 1d da 3e f3 9d a6 bd
       0.13001825 0.09344143 0.42600858 -0.08135595
000220 e0 b3 ea bb 20 24 a2 3c e3 f1 04 be de a9 80 3d
       -0.007162556 0.019792616 -0.12982897 0.062823996
000230 14 2a de 3d c2 36 36 bf e1 26 4c 3c 78 57 84 3f
       0.108478695 -0.71177304 0.012460441 1.0339193
000240 07 3c 7a bd aa 65 89 bd f0 58 22 3e e0 c4 48 3d
       -0.061092403 -0.06708844 0.1585424 0.04901588
000250 3a c0 9c bd 1b 67 17 bf 10 78 d7 bc 01 e3 c2 be
       -0.07653852 -0.591417 -0.026302367 -0.38063815
000260 18 b1 ff bc de 6d 13 3e 62 d5 13 3f 8f 57 c1 3d
       -0.031212375 0.1439738 0.5774747 0.094405286
000270 d4 68 4e be 7c 54 f8 bd 74 df 91 3d 18 2f f3 bd
       -0.20157176 -0.12125489 0.071226984 -0.11874217
000280 55 01 2d be e6 c8 19 3c cd 77 b7 3e ab 62 e7 3d
       -0.1689504 0.009386277 0.35833588 0.11298116
000290 fc fd f0 bd bb 38 1c 3e fb 6b 13 3e 54 b0 a0 3f
       -0.11767194 0.15256016 0.1439666 1.2553811
0002a0 4d 43 87 3f 11 9e b7 3d 46 87 47 bd dc 98 a5 3d
       1.0567414 0.08965696 -0.04871299 0.08085796
0002b0 80 69 96 bd 47 07 a1 3d d2 d2 81 bb c5 4e 2e 3d
       -0.07344341 0.07862716 -0.0039618993 0.04255559
0002c0 16 ae 82 bf a7 d1 4f 3b aa a7 02 bf 16 c2 c6 3f
       -1.0209377 0.0031710656 -0.51037085 1.552798
0002d0 5d 57 6c 3f e8 c5 08 3e 85 85 7b bf 82 36 d7 bf
       0.92320806 0.13356745 -0.9825061 -1.681351
0002e0 28 36 7b bf 97 2d b0 bf 88 a2 11 be d2 d7 fc ba
       -0.9812951 -1.3763913 -0.14222157 -0.0019290394
0002f0 17 af 7e 3e 30 7f cf bc 96 46 50 bd 60 a4 a1 be
       0.24871479 -0.025329202 -0.050848566 -0.3157072
000300 3f 16 25 bf bf 08 1b bc a1 97 1f 3e bc 45 c5 bc
       -0.6448707 -0.009462534 0.15585186 -0.024081104
000310 e5 96 20 bd e5 f0 bc 3b 98 fa 8b bf 26 49 12 bd
       -0.039206404 0.0057660216 -1.093585 -0.03571429
000320 40 d2 5c 3b 50 5a bf 3c de 59 a7 bd b8 77 78 bd
       0.0033694655 0.023358494 -0.08171438 -0.060661048
000330 7c ea cc bd 70 6f 28 3f c4 04 e2 bc 2f ab eb be
       -0.10005662 0.6579504 -0.027590163 -0.4602904
000340 ff 67 a6 3e ae 1f 0c 3e 34 f5 c4 bc 90 29 15 bd
       0.32501218 0.1368396 -0.024042703 -0.03641659
000350 f8 8e 8d bc ca 91 f5 bd 2e 97 f4 bd 13 2d 7e bf
       -0.017280087 -0.11990698 -0.11942898 -0.9928753
000360 f7 ba 06 3d 46 6c 54 3d d3 00 78 3d a6 6f 21 3e
       0.032893147 0.05186107 0.06054766 0.15765247
000370 53 66 70 3f 5e d2 8b 3d 93 cf 24 bd 93 c9 41 bd
       0.93906134 0.06827234 -0.04023702 -0.047311377
000380 e9 30 43 bd 6e 94 ce 3d 77 e6 3f bf 41 fa d4 bb
       -0.047654066 0.100869045 -0.74961036 -0.006499559
000390 3b 5c f2 3f ed 4d 83 bd cc 04 43 bd 96 97 76 bf
       1.8934397 -0.064113475 -0.047611997 -0.9632505
0003a0 4c b6 bf be 31 2e c4 3d ec 9a f0 bb 70 88 e6 3f
       -0.3744377 0.09579123 -0.007342687 1.8010387
0003b0 d0 1b ba 3d 70 81 90 bb 2c 52 5e 3d 72 04 fc bc
       0.09087336 -0.0044099614 0.054277584 -0.030763838
0003c0 88 7c 1e bf 36 be 91 bd 0d cd dc 3e db 19 e7 be
       -0.6190877 -0.07116358 0.4312519 -0.45136914
0003d0 92 8c e4 bd 62 1a a2 bd 75 77 0a be e0 23 08 bf
       -0.11159624 -0.07915188 -0.13522132 -0.5317974
0003e0 ca 78 ed 3e d3 87 6e bf 80 24 a7 bc 7e 25 76 3e
       0.46381217 -0.93176 -0.020403147 0.2403774
0003f0 b8 43 27 3e 37 bb ae bc fc ad 33 bc 0d 51 ff 3e
       0.16334426 -0.021329505 -0.010966774 0.49866524

2.bias f4 [5]
000000 72 e9 89 3e 01 6c 52 be 82 13 98 be e9 9a 10 3e
       0.26935917 -0.20549013 -0.29702383 0.14121594
000010 f4 14 0d 3e
       0.13777524
