TRPO/state_dict_model_v2.pt (torch, 14759 bytes, 4 tensors)

0.weight f4 [64, 45]
000000 ea 85 c8 3e 79 f3 1e 3f 88 8d c3 3e 6f 85 79 be
       0.39164668 0.6209026 0.38193917 -0.24367307
000010 0f 37 69 3e 9e 19 6d 3e c2 9c 1d 3f 3f 21 c1 3e
       0.2277491 0.23154303 0.6156732 0.37720677
000020 b6 b4 9b be 10 08 3e 3c 6f 6d a8 be 8b 0d 8f 3e
       -0.3041131 0.011598602 -0.3289599 0.2794002
000030 7d 9f 68 3e f1 10 c6 3e c9 7a de be 3c ba a7 3e
       0.2271709 0.386848 -0.43453053 0.32759273
000040 15 a3 14 3f d8 67 05 3e 3a fd 22 3c 94 73 ac 3e
       0.58061343 0.13027894 0.009948069 0.3368193
000050 6f 46 07 3e 39 f7 17 3f 50 db 2b be d0 db fe bd
       0.13210462 0.59361607 -0.1678288 -0.1244427
000060 60 66 34 3e f2 5c 56 bf 2f 6f a5 be 1e 79 38 bf
       0.17617178 -0.83735573 -0.3231139 -0.7205981
000070 46 00 67 bf 4a 8c 0b 3e 06 ee 13 3f 8f 72 bd 3e
       -0.9023479 0.13627735 0.5778507 0.37001464
000080 4b 79 2b 3d 90 4c 35 3e 7e 9b 89 3e d8 6a 12 3f
       0.04186372 0.17704988 0.26876444 0.5719428
000090 b8 b8 5f 3f 44 55 31 3e ef 53 12 3f 13 1e 41 bd
       0.87391233 0.17317683 0.5715932 -0.04714782
0000a0 d3 dc 5c bf 3d a7 61 3e ee 40 19 be 99 33 ac be
       -0.8627445 0.22036453 -0.14966175 -0.33633116
0000b0 3d 18 e5 3c 85 ee b4 be 5f 85 b4 3d ef ac 81 3e
       0.02796566 -0.35338226 0.08814501 0.2532725
0000c0 78 a7 b8 bd 40 cc 4c bc 82 63 8c bd 48 99 2d 3e
       -0.09016317 -0.012499869 -0.06854917 0.16953003
0000d0 cc 26 ab 3e a6 57 0c 3e ea 20 77 3e 3e af b0 be
       0.33428037 0.1370531 0.2413365 -0.345087
0000e0 cf 75 ef bd a9 48 9f 3e 01 2a ea 3d 72 f7 76 3d
       -0.11692392 0.31110123 0.11433793 0.060294576
0000f0 d3 59 b8 be b3 da 0a be d6 0b 30 3e 03 2f 79 3d
       -0.3600603 -0.1355999 0.17192015 0.06083585
000100 97 94 e5 bd 61 34 86 be 74 21 3f 3e a1 8e 3d 3e
       -0.11209982 -0.26211837 0.18665105 0.1851144
000110 1e d2 db 3d 12 ee dc 3d 16 88 c1 be 93 e9 e3 bd
       0.10733436 0.10787596 -0.37799138 -0.11128535
000120 db bd bc be b7 37 54 bd 3f 4b ce bd b1 cf aa be
       -0.36863598 -0.051810946 -0.10072946 -0.3336158
000130 11 eb a8 3d b1 1b 82 3d 03 c1 b5 bd 9f 9e f0 bd
       0.0824796 0.06352938 -0.08874705 -0.117490046
000140 64 9d 5a be cf 20 31 be cf a4 64 3e 21 ff 11 be
       -0.21349102 -0.17297672 0.22328494 -0.1425748
000150 38 d1 bd 3e 8e 95 70 be fe 1c ae be 15 ad b1 bd
       0.37073684 -0.2349455 -0.34006494 -0.08675591
000160 b3 ce 3f be e0 d5 d2 bc cf 61 eb bd 4c dc 73 bc
       -0.18731193 -0.02573675 -0.11493265 -0.014884066
000170 be 7f d2 3d d0 fe 92 bd 48 67 fb bd 56 db 76 bd
       0.10278271 -0.07177508 -0.12275559 -0.06026777
000180 c2 f8 b5 bd 98 26 f9 3d 49 31 d9 3d 2c 16 1b 3e
       -0.088853374 0.12165564 0.106051035 0.15145177
000190 0b 65 1a be 96 a0 b2 3d 94 56 8f bc 4d 3f f2 bd
       -0.15077607 0.087220356 -0.017497338 -0.1182848
0001a0 8c 34 92 3d 6b 33 88 3d 1f c6 56 bd 40 a1 38 bc
       0.07138929 0.06650432 -0.052435037 -0.011268914
0001b0 66 9b 6d 3d 24 7c 08 be 6d d0 e8 3c a1 f5 c3 3d
       0.058009528 -0.13328606 0.028419698 0.09568334
0001c0 c4 8a 0b bd aa c4 72 3c 84 5c a0 3d aa ca 40 be
       -0.034067884 0.014817396 0.07830146 -0.1882731
0001d0 c0 3b 12 bd 60 fd a8 bd d1 39 17 be ff 7f cd bd
       -0.035701513 -0.082514524 -0.14768149 -0.10034179
0001e0 6e d8 b7 3d 7a 27 af 3d 38 0b 42 bd f2 52 2c bd
       0.089768276 0.085524514 -0.04737398 -0.04207129
0001f0 3a 6c 45 be d2 ef 9c 3d 38 77 0e 3e 31 8a 02 bc
       -0.19279566 0.076629296 0.13912666 -0.007967518
000200 1d da 29 bd d9 d6 f9 3d 7c ae 48 be e2 2c bc 3c
       -0.041467775 0.12199182 -0.1959781 0.02297062
000210 fd d0 91 bd d8 84 39 bd 21 fe a4 bd bc d6 35 be
       -0.071199395 -0.045292705 -0.08056284 -0.17757696
000220 2c 73 19 3e 97 93 da 3e 19 e2 0e 3f ca 6f 9d bd
       0.14985341 0.42690727 0.5581375 -0.07687338
000230 2e f8 35 bd 7b 9d a6 be 88 d0 49 3e 7a 5a e8 bc
       -0.044426136 -0.32542023 0.19708455 -0.028363455
000240 1a f6 d4 3e b3 23 06 be 24 b8 68 be 3d 15 4a 3f
       0.4159401 -0.13099556 -0.22726494 0.7893866
000250 bb 00 e6 3e a3 a3 86 3f 0e ed 23 bd 61 02 34 3e
       0.44922432 1.0518688 -0.040020995 0.17579032
000260 0f d2 a8 3e e8 4e 8c 3e 77 69 2b be 1b 0c 9b be
       0.32972762 0.2740395 -0.1673945 -0.30282673
000270 1c 55 31 be 76 fe bb 3e b2 13 f9 3e 5d 3f ac bd
       -0.17317623 0.36717576 0.4864784 -0.08410523
000280 01 4e 1e 3f c7 15 3f 3e 80 ac 53 3f 84 8c b4 3c
       0.61837775 0.18660651 0.8268509 0.02203966
000290 bb c4 25 be 43 cd 33 bd 69 1e 91 3d d4 e3 27 3f
       -0.16188328 -0.043896925 0.070858784 0.65582013
0002a0 ae d9 a6 3e 74 e7 9c be 8a 86 98 be a1 7c 14 bf
       0.3258795 -0.30645335 -0.29790145 -0.5800267
0002b0 06 2a af bd b2 40 19 be 9f 14 6d 3e c2 97 45 3f
       -0.08552937 -0.14966086 0.23152398 0.7718469
0002c0 b1 ad 7e be af fb 0b 3f ce ea af bd 15 7e 27 be
       -0.24870946 0.54680914 -0.08589707 -0.1635669
0002d0 08 05 ba be 30 cf 73 3e a8 b3 de 3e 33 b2 d2 3d
       -0.36331964 0.23809505 0.43496442 0.10287895
0002e0 4e 49 ce 3e b9 0c e1 3d 2a a7 a5 3e 55 7d ea 3d
       0.40290302 0.10988755 0.323541 0.114496864
0002f0 00 53 c5 be 2f 96 87 3e 6f 06 2c be f5 cd 93 bc
       -0.38539886 0.26481768 -0.16799329 -0.018042544
000300 3b d1 2b 3f 4b 1d 4e 3f 7a 00 86 3e 6f b7 83 be
       0.67116135 0.8051345 0.2617224 -0.25725886
000310 a0 ea 51 3e ac 2c 10 3f f4 eb 57 3d 7d a9 4e 3e
       0.20499659 0.56318164 0.052715257 0.20181842
000320 01 3d 5d bb eb 76 c4 3b a2 f8 10 3e 12 e5 f7 bc
       -0.0033758285 0.0059956214 0.14157346 -0.030260596
000330 a2 6a 8b 3e 78 d2 ca be a1 40 02 bf 99 29 0c be
       0.27229792 -0.396137 -0.50879866 -0.13687743
000340 c8 37 29 bf 85 a8 8f 3e da 20 a8 be 63 84 8f 3e
       -0.6610074 0.28058258 -0.32837564 0.2803069
000350 d8 06 d3 3e 7e e6 c1 3e 57 56 06 3d eb 95 3f 3e
       0.4121616 0.37871164 0.032797184 0.18709533
000360 bc 54 28 3d 55 0e b8 3e 83 e8 9c 3e a1 5d 7e 3e
       0.041096434 0.35948434 0.30646142 0.24840404
000370 16 b5 f8 bb 67 5b ca be 39 1d 35 3e 64 e6 9e bd
       -0.0075899465 -0.3952286 0.17686929 -0.07758787
000380 b3 22 fc 3e 5e 8a 92 3d b3 99 28 3c 76 70 91 3d
       0.49245223 0.07155298 0.010290551 0.07101528
000390 1f e9 2a be c8 8c af 3d 2f 2e 0d 3d 7d f8 53 3d
       -0.16690491 0.08571774 0.034467872 0.05175065
0003a0 66 6c b9 bd a5 8b 82 3d 78 e4 9f bc 2e 9f 4f 3e
       -0.090538785 0.06374291 -0.019518122 0.20275566
0003b0 b3 ad c4 3d ce 75 b2 be bc 64 22 be 92 0c 4e be
       0.09603443 -0.34855503 -0.1585874 -0.20121983
0003c0 e7 be c5 bd 3a 4e 24 be 73 75 8d 3d ed 2e 36 bd
       -0.09655552 -0.16045466 0.06907167 -0.044478346
0003d0 d8 d3 9e bd b2 6a e3 bd d8 d3 85 bd 9e ee a9 3c
       -0.0775525 -0.11104335 -0.065345466 0.020743664
0003e0 e8 3d 45 3e e3 ed a2 3d e0 fc 1b bd 63 dd 85 bd
       0.19261897 0.079555295 -0.038082957 -0.06536367
0003f0 91 a7 20 be 23 ab ca 3d 59 b6 05 bd f6 31 3b bd
       -0.15688922 0.09895923 -0.032644603 -0.045701943

0.bias f4 [64]
000000 0f c6 bf 3d ed d3 c2 be 9f d5 40 bd 96 5b 88 bd
       0.093639486 -0.38052312 -0.047078725 -0.06658094
000010 4e 52 40 3d 7b 73 c5 3c 2b d5 d5 3e 66 56 37 be
       0.046953492 0.024102917 0.41764197 -0.17904052
000020 7a 0a 2a bd 6b 53 d4 bd 10 02 73 3d 38 84 8e 3d
       -0.041513897 -0.10367473 0.05932814 0.069588125
000030 f4 1f 87 3d 42 27 f7 bd 02 c8 59 bc 0b 62 02 bf
       0.065978914 -0.12068035 -0.0132923145 -0.5093085
000040 36 6b 30 bd 00 94 49 3e 47 39 cf bd 1b a5 dd bd
       -0.043070994 0.19685364 -0.10118347 -0.10822507
000050 d3 6d 8b 3c 14 27 a8 bd 54 5f a5 3b 42 fb 05 3f
       0.017020142 -0.082105786 0.0050467644 0.52336514
000060 38 fd 00 be d8 50 88 bd ac 9b 76 3e 18 96 2b be
       -0.12596595 -0.06656045 0.24082822 -0.16756475
000070 8a 2c 0b 3d 1d c3 d2 bd 3a ca 08 be 96 1f 80 3c
       0.033978023 -0.10291121 -0.13358393 0.015640061
000080 99 0a 17 be 06 21 ae bd 5c fd 08 be 02 b3 43 3e
       -0.14750136 -0.085023925 -0.13377899 0.19111255
000090 8e c6 96 3d bd df ef bd 47 d3 de 3c dc 7e 19 3e
       0.0736209 -0.117125966 0.027200354 0.149898
0000a0 5d ee d3 3d db 11 cc bd 25 2c 97 3d ac e4 d9 bc
       0.103481986 -0.09964343 0.07381467 -0.026598297
0000b0 0e 02 09 3e 6f 41 a6 3e da 62 4f be 58 40 e4 bd
       0.1337969 0.32471797 -0.20252553 -0.11145085
0000c0 c0 a7 12 bd 5c 50 29 be 2d 7e 12 bd e7 5f 8e bc
       -0.03580451 -0.16534561 -0.03576486 -0.017379714
0000d0 4f b0 ef 3d 1c 59 84 3e c6 3f dd bd 50 da b8 bc
       0.1170355 0.25849235 -0.108031794 -0.022565037
0000e0 e3 a1 9b bd 06 68 61 be dc 53 ab bd ff be b3 3c
       -0.07599237 -0.22012338 -0.08365604 0.02194166
0000f0 99 46 ba 3e 4b 07 93 3e 13 84 73 3e c9 5c 0f 3f
       0.36381987 0.28716502 0.23780851 0.56000954

2.weight f4 [5, 64]
000000 7c fd 57 bf a3 6b 45 bf 5b 13 0a be d1 ac 16 bf
       -0.8437116 -0.77117366 -0.13483946 -0.58857447
000010 4b ed 7f bf 03 e3 68 3e 8d 4d d3 bd 8b 0d 81 3d
       -0.99971455 0.22742848 -0.10317526 0.06301411
000020 0a 9e 43 bc ba 45 8d 3c 4c 63 50 3d 25 14 c5 3e
       -0.011939535 0.017245162 0.050875947 0.38491932
000030 80 ce d2 bd 98 7f 9d 3d ba dc 4e 3f d9 df be 3f
       -0.10293293 0.07690352 0.8080555 1.4912063
000040 20 a7 b7 3d 30 14 26 3f 15 fb 77 bc 50 01 61 3e
       0.089674234 0.64874554 -0.015135546 0.21973157
000050 4c 1e 0e be 06 02 ee be 63 2e f4 bc cb f7 07 40
       -0.13878745 -0.4648592 -0.029807275 2.124499
000060 d4 5f 0d bf 7b ab 00 be e9 97 9f 3e 4a 90 b0 bf
       -0.5522435 -0.12565415 0.31170586 -1.3794034
000070 f3 75 40 bf c4 8d 4c 3d 02 8e dd bd 6c 39 08 3e
       -0.75179976 0.049939886 -0.108181015 0.13303155
000080 c5 5f 5f bf 7d 16 d8 3c 58 5a b4 3c fb 9d 4c 3e
       -0.8725551 0.02637791 0.022015736 0.1998214
000090 01 26 92 bf 40 9e 34 3d 7f 2a 52 3d 96 0e 11 3f
       -1.1417848 0.04409623 0.05131006 0.5666288
0000a0 81 fb 05 bf 42 7b ef bd da d2 fc 3c c2 69 87 bb
       -0.5233689 -0.116934314 0.03086226 -0.0041324804
0000b0 74 63 a5 be 5a 83 87 bd 5d 6e e6 bb cc 28 bf 3d
       -0.3230244 -0.0661685 -0.0070321993 0.09333953
0000c0 87 3d 9a 3c ec 91 09 bc 78 51 cc bd fb 74 d6 3e
       0.018828167 -0.008396607 -0.099764764 0.41886124
0000d0 90 53 67 3d bd 07 4a 3f 29 c4 6d 3d 09 fc 5d 3c
       0.056476176 0.7891806 0.0580484 0.013548859
0000e0 b2 ed e2 be 08 fa a7 3e 90 5f 81 3d 82 df aa 3e
       -0.44321972 0.32807946 0.06317055 0.33373648
0000f0 d5 43 27 3f 1f 66 3a 3f b3 36 e8 be 60 e8 49 3f
       0.6533788 0.72812074 -0.45354232 0.788702
000100 5e 89 50 be a3 15 f1 3e b4 75 d8 3c 3a 47 4e 3f
       -0.20364901 0.4708682 0.026423313 0.80577433
000110 05 e9 ca 3e cc a3 9c be cd de 34 bf d8 16 fb 3d
       0.39630905 -0.30593717 -0.70652467 0.122602165
000120 a7 bc d6 3d ab b9 28 bc 10 17 48 bd c1 7e 26 bd
       0.10485201 -0.010298173 -0.04885012 -0.040648226
000130 6b 08 ed bd be 61 bd 3d a1 28 b7 be 3d f6 89 3f
       -0.11573871 0.092471585 -0.35773185 1.0778271
000140 1c 0c b4 3c 9e 0c 54 be 1c a4 8f bd 9d e2 06 3e
       0.02197843 -0.20707938 -0.07013723 0.13172384
000150 92 77 e8 bd dd 01 d3 3e 58 c2 29 3a 57 e1 ac be
       -0.11350931 0.4121236 0.0006475798 -0.3376567
000160 aa 1f 0a 3f c6 6f 27 be a3 ed 83 3d ca 95 aa 3e
       0.53954566 -0.16351232 0.0644181 0.33317405
000170 f8 4d 18 be e3 2c 71 3d b9 a3 ec bc 63 75 de bd
       -0.14873493 0.058880698 -0.028886663 -0.108622335
000180 5e b4 bc 3e fb 66 0a be b1 8d d7 bd 74 29 e6 3c
       0.3685636 -0.13515846 -0.10525072 0.028095938
000190 76 b6 dc be de 9f 97 bc 6a 3b 7b 3d 3b 63 21 be
       -0.43107957 -0.018508848 0.06133596 -0.1576051
0001a0 ff 03 2a bf 4f 97 53 be 46 31 7b 3d 84 eb 91 3d
       -0.6641235 -0.20663188 0.061326288 0.07124999
0001b0 10 c2 04 bf da ca 4e 3e f2 be 0a be 5c 12 15 be
       -0.51858616 0.20194569 -0.13549402 -0.14557785
0001c0 6b 82 18 3e b3 c4 16 bc c7 d4 42 3e 66 a7 0a be
       0.148935 -0.00920217 0.1902648 -0.1354042
0001d0 4f ec 80 bd ca 04 d3 3e ca e9 3b 3e 7f 44 da bb
       -0.06295072 0.4121459 0.18350902 -0.0066609974
0001e0 f8 a2 e4 3e e3 c6 9f be 00 f5 70 3b 66 3a 6b be
       0.44655585 -0.31206426 0.0036767125 -0.22971496
0001f0 3c 6a ff be a1 9e 65 be f4 ab e1 bd a3 b6 0f bf
       -0.49885738 -0.22423793 -0.110191256 -0.56138057
000200 e2 ad d8 3f 11 ad 5c 3e 3d 04 94 bd bc eb 94 bf
       1.6928065 0.21550395 -0.07227371 -1.163444
000210 9d 6e b1 3e e0 f5 9a bc 9a 74 5c 3f df 33 05 bd
       0.34654704 -0.01891607 0.8611542 -0.03252017
000220 3c 3f 23 be 91 77 b9 3d 50 63 e1 3c 21 e4 51 be
       -0.15942091 0.090560086 0.027513176 -0.2049718
000230 7b e3 95 bd d8 40 0f bd 57 6a 13 bf af 0f 01 c0
       -0.07318779 -0.03497395 -0.57584137 -2.0165823
000240 1c f9 be bd ac 46 bd be f6 8c c2 bd 53 50 2e be
       -0.093248576 -0.3696798 -0.094995424 -0.17022829
000250 c9 c2 8c 3d 58 18 eb be c0 27 2a 3d 74 21 80 bf
       0.0687309 -0.4591701 0.041541815 -1.0010209
000260 10 c7 50 be 81 97 82 3c 63 77 95 be b7 45 e3 3d
       -0.20388436 0.015941383 -0.29192647 0.110972814
000270 ca 67 16 3e 06 09 65 bc 38 f5 a8 3c db cc 38 bc
       0.1468803 -0.013979202 0.020624742 -0.01127931
000280 5f 27 e5 3b 35 6b 58 bd 3c c7 15 3c 3c b2 22 3d
       0.006993219 -0.052836616 0.009141739 0.03972076
000290 5e 7a be 3f 56 df 87 bb bb f8 99 bd 98 6f b3 bd
       1.4881094 -0.0041464968 -0.07518145 -0.08761519
0002a0 86 c0 73 3f 20 7e 31 bd 72 2f 57 3d 3f d0 13 3d
       0.9521564 -0.043333173 0.05253548 0.03608727
0002b0 c1 83 24 3e 25 10 1f be 2d 40 ff bc 5a 86 2b 3d
       0.16065885 -0.15533502 -0.031158531 0.041876175
0002c0 7a c9 9a 3d da 47 45 3d 50 10 77 bd 7d 51 4e be
       0.0755796 0.048164226 -0.06031829 -0.20148273
0002d0 02 69 bc 3d b5 06 a1 3d ce ec 71 bf 40 1c 8f be
       0.09199716 0.078626074 -0.9450196 -0.2795124
0002e0 9b 58 67 3d b0 97 8a 3f f8 37 50 bd 4e 68 22 bf
       0.056480985 1.0827541 -0.050834626 -0.63440406
0002f0 1c 0c 0b be b5 da 2c 3f e2 8a 9a be 4a 09 6b bd
       -0.13578838 0.6752122 -0.30184084 -0.057381906
000300 e9 e1 12 bf ec 0a b8 bc 19 0f 29 3e 3c b5 5e 3f
       -0.5737596 -0.022466145 0.16509666 0.8699529
000310 8f 32 59 be ca d5 a4 be 9c 1d 30 bf 05 9e 18 3e
       -0.21210693 -0.32194358 -0.6879518 0.1490403
000320 e7 f4 54 3d 63 1f 42 3e ae 5b f9 3d 13 bc 1b bf
       0.05199137 0.18957286 0.1217569 -0.60833853
000330 1b 32 80 3d 44 b4 bc 3d a1 93 b3 be b2 5a 93 3f
       0.06259557 0.092140704 -0.3507357 1.1512053
000340 16 b1 47 3c a5 1a 87 be 45 7d e2 bd ed d5 0e 3f
       0.012188217 -0.26387516 -0.110590495 0.55795175
000350 94 0f 84 3d d2 32 f0 3e 6e e9 f9 bd d4 33 8a bf
       0.06448284 0.46913773 -0.12202726 -1.0797067
000360 32 52 f7 3e e2 83 08 bd 12 f3 22 bf bc 60 5d 3e
       0.48304898 -0.0333289 -0.63652146 0.21618932
000370 1a c8 f6 3d cf 91 cf bc 39 27 94 3d 37 a0 e5 3d
       0.12049885 -0.025338082 0.07234044 0.11212199
000380 a1 ec 00 3f fd 5a f1 bd 90 fb c7 ba 0c e7 77 3e
       0.5036107 -0.11784933 -0.0015257467 0.24209231
000390 e2 53 22 be 8f d7 90 3d 11 ca ad bd 53 fc c6 be
       -0.15852311 0.070723645 -0.08485807 -0.38864383
0003a0 f2 a3 67 3d ab d8 a9 3e 8f 6e 25 bd 0a e6 4c 3d
       0.056552835 0.33173117 -0.04038864 0.05002407
0003b0 6e f5 2a 3e 60 c6 c9 be 70 f4 4b 3c cb 77 fb bd
       0.16695186 -0.3940916 0.012448415 -0.12278708
0003c0 96 f0 83 3e 6f 64 43 bd 50 ce 33 be 41 96 a8 3e
       0.2576949 -0.047703203 -0.1755917 0.32927135
0003d0 9f 40 ec bd 8a 53 ab 3c 5e 43 39 3f 05 b7 29 3e
       -0.11535763 0.020913858 0.7236842 0.16573723
0003e0 6b cf 2e 3f e5 3b 77 be 7c 87 18 3d 7b e4 f8 3d
       0.68285245 -0.24143942 0.037238583 0.12152954
0003f0 08 47 24 bf 50 27 83 be e6 2d f4 be 5b 3e 14 bf
       -0.64170885 -0.2561593 -0.47691268 -0.57907647

2.bias f4 [5]
000000 98 d5 f7 3e 07 24 87 be 3d 5e c7 bc a5 e3 36 be
       0.48405147 -0.26394674 -0.024336929 -0.17860277
000010 5a cd 54 bd
       -0.05195365
