TRPO/state_dict_model_v3.pt (torch, 14759 bytes, 4 tensors)

0.weight f4 [64, 45]
000000 f4 4c 04 3e cc af 11 be c4 31 72 3d 20 9c 29 3c
       0.1291998 -0.14227217 0.05912949 0.0103521645
000010 e7 6d 36 be 92 4a 86 bd 06 3a 0e be 1e 10 08 3c
       -0.17815362 -0.06557192 -0.13889322 0.008304624
000020 4e f2 26 3e 40 0e 05 3e 21 d4 1c be 89 bf 75 bd
       0.1630337 0.12993717 -0.15315296 -0.059997115
000030 46 5d ac bd 77 e3 fb 3b 6c 7c f8 bc be 26 a9 3d
       -0.08416228 0.007687028 -0.030332766 0.082593426
000040 4e 16 e2 3d 2e 3a 7d bd 65 87 17 be f1 7d 95 bd
       0.110394105 -0.061823063 -0.14797743 -0.07299412
000050 bc ea 43 be 1f ba 13 bc ab a8 bd bd d1 40 17 be
       -0.19132513 -0.009016543 -0.092606865 -0.14770819
000060 ad 9e 04 be 2a cd f9 bd 55 71 3a be a8 13 f1 3b
       -0.12951155 -0.12197335 -0.18207295 0.0073570795
000070 38 eb 26 bd e8 b8 c2 3d be 00 88 3d ba be eb 3d
       -0.040751666 0.09507924 0.066407666 0.115109876
000080 87 93 ad bd 7a e5 bd 3d 6c 06 a7 bd 2d 2a 3b be
       -0.08475404 0.09272285 -0.08155522 -0.18277808
000090 2b 12 4a bd 6c 29 df 3b 26 91 fd bd 4b 58 32 bd
       -0.049333733 0.006810358 -0.123812005 -0.043541234
0000a0 1c 35 8d ba 36 81 32 be 0f 7f 10 3d 07 11 93 be
       -0.0010773274 -0.17432103 0.035277423 -0.28723928
0000b0 03 fa b6 bd b6 9e b5 be 19 a8 62 be 6c 0f 78 bc
       -0.08934405 -0.3547265 -0.22134437 -0.015140396
0000c0 ea a8 ea be 8f 25 13 3e 0d 43 45 3d 30 70 32 3f
       -0.45831996 0.14369796 0.048159648 0.69702435
0000d0 32 73 98 3e 1d 71 0c bf ff 67 d9 be c2 fa 13 3e
       0.29775387 -0.548601 -0.42462155 0.14451125
0000e0 a0 ac 07 3f 9f 81 7f 3d 5f 9e c3 be 4e a6 3e bf
       0.5299778 0.062379476 -0.38206765 -0.7447251
0000f0 7d ba ec be ad 8a 81 be 99 08 3b 3e 6d f0 2a be
       -0.4623603 -0.25301114 0.18264998 -0.16693278
000100 4a 8a cd 3d 9e 97 8a 3d 1c b9 c9 3e 71 31 0b 3e
       0.10036142 0.067672 0.3939904 0.13593079
000110 88 c1 c5 be aa a6 06 bf 60 e9 f8 be 62 4b bd 3d
       -0.38624215 -0.5259806 -0.4861555 0.09242894
000120 15 fc fb be 3a e2 c9 be a5 ab 0c be 3e 55 bb be
       -0.4921576 -0.3943041 -0.13737352 -0.36588472
000130 f8 de ea bb a8 2b 15 3c 95 2d 0d be 92 07 ae 3d
       -0.007167693 0.009104647 -0.1378692 0.08497538
000140 20 06 e1 3e af b8 d7 3e 62 40 3f 3e cf 37 88 bd
       0.43949986 0.4213309 0.18676904 -0.0665127
000150 85 18 9d bf bf 73 03 bf 74 37 07 bf 05 6e 1b bf
       -1.2273108 -0.5134849 -0.5281899 -0.6071475
000160 88 d2 47 be 4a 87 37 3e d7 29 68 bd 45 e2 91 3d
       -0.19513905 0.17922702 -0.056680527 0.071232356
000170 dc f5 bf bc c7 f0 9c 3d 70 72 c8 bd 1c 0b ad bc
       -0.023432665 0.07663112 -0.09787452 -0.021123461
000180 f4 a4 c8 bd 73 07 65 3d 8c ac da 3d d4 25 9c bc
       -0.09797087 0.055915307 0.10677442 -0.019061007
000190 c1 6c fd bd bd e8 a4 bd 2c b5 00 3d c2 32 c7 3d
       -0.12374259 -0.08052204 0.03142278 0.09726478
0001a0 83 1e e3 bd ee 29 bf bd df ae 82 3d c0 07 db bd
       -0.11089804 -0.09334169 0.0638101 -0.106948376
0001b0 36 d5 1c be 0b 22 fd 3d e0 f7 00 3d c3 cc 69 3c
       -0.15315709 0.12360009 0.031486392 0.01427001
0001c0 e2 f9 e8 3d b8 3e 94 bd be bc 04 3e 4d 00 b3 bd
       0.11375786 -0.07238525 0.12962624 -0.08740292
0001d0 8e 0c 91 bd 8c f3 1a be 08 55 7f 3d bc 85 d7 bd
       -0.07082473 -0.15131968 0.06233695 -0.10523555
0001e0 06 34 07 be 94 d4 1b be 70 07 de bc e4 d4 ec 3d
       -0.13203439 -0.15217811 -0.027103156 0.11564043
0001f0 97 4d a0 bd 50 97 e3 3d 36 60 9f bc 5b 3d 23 be
       -0.07827299 0.11112845 -0.019455057 -0.15941374
000200 a8 8d 6f bb 90 43 01 be 12 97 55 bd 06 1a 65 bd
       -0.003655294 -0.1262343 -0.052146025 -0.05593302
000210 0e dc 9d 3d 34 b7 16 3d 88 9b 90 3d a9 4c d7 bd
       0.07707988 0.03679581 0.07060915 -0.10512669
000220 53 e7 53 be d1 72 81 be 50 d2 19 be e5 83 a4 be
       -0.20693712 -0.2528291 -0.15021634 -0.32131878
000230 80 05 1b be d3 bd f5 3d d8 fb b0 3d 74 70 3d 3e
       -0.15138817 0.11999097 0.086417854 0.18499929
000240 68 ad d4 3d 34 99 01 3e b9 7a 3c ba 93 b6 8d bc
       0.10384637 0.12656099 -0.0007189918 -0.017298972
000250 8a 3c 6f 3d 0c 91 19 bd 4a 5e 4c be a1 36 37 be
       0.058407344 -0.037491843 -0.19957843 -0.17891933
000260 40 c4 85 be bf 80 73 be a3 4a 90 be 9f bd 93 3c
       -0.2612629 -0.23779581 -0.28181943 0.018034754
000270 2c f9 8d 3e 45 c3 da 3c d3 d7 24 bc 97 57 00 3e
       0.27729166 0.02670444 -0.010061222 0.12533413
000280 4b 58 1e be 00 f0 c3 3d 55 7c b3 bc de a2 3e 3c
       -0.15463369 0.09567261 -0.021909872 0.01163551
000290 fe 88 41 3c 04 09 19 be 13 b0 35 be 1b 3c 4b be
       0.011812447 -0.14944845 -0.17742948 -0.19847147
0002a0 5a f2 6b be b1 35 07 be af 77 1b 3e c3 9b 4a 3d
       -0.23041669 -0.13204075 0.15182374 0.049464952
0002b0 57 8a 0a 3e 91 ec c0 bd be b8 12 3e 21 31 d1 bd
       0.13529335 -0.094201215 0.14328286 -0.10214449
0002c0 24 69 c1 3d 83 80 1d be 6e dc 03 be 35 9d 9c bc
       0.09443882 -0.15381055 -0.12877056 -0.01911793
0002d0 bc 3e 0c be c3 d2 09 be 2d a2 97 be 8d df a2 bd
       -0.13695806 -0.13459305 -0.29615918 -0.07952795
0002e0 d3 42 87 be c0 b3 65 3d ed f9 20 3d 83 b0 1c 3e
       -0.2641817 0.056079626 0.039300848 0.15301709
0002f0 cd 31 44 3e e6 0c 06 3e 81 26 2a 3e c5 eb c4 bd
       0.19159622 0.13090858 0.1661625 -0.09615282
000300 11 be 50 bd 4b e6 28 3e f3 fa 30 3d 44 dc cc 3d
       -0.05096251 0.164941 0.043208074 0.1000295
000310 13 58 e0 bd f3 28 97 be 21 36 c9 be 46 11 54 be
       -0.10954299 -0.2952343 -0.3929911 -0.20709714
000320 8c b0 93 3c 03 c2 14 3e a7 b9 5b 3e 94 a7 44 3e
       0.01802852 0.14527135 0.2145754 0.19204551
000330 28 85 bf 3c 15 05 25 3e 58 7a 09 3e c3 b2 99 3c
       0.023378924 0.1611522 0.13425577 0.018761998
000340 29 1a 36 3e 4b d0 1f 3e 57 23 88 bd f7 1e 7f be
       0.17783417 0.15606801 -0.066473655 -0.24914156
000350 f4 10 d6 bd 3b 1f b5 be e7 15 19 be f9 4b f0 3d
       -0.10452452 -0.3537539 -0.14949761 0.11733241
000360 c9 ec 5c bd da 27 3d 3e 7e 94 9c bd 3a d5 93 3c
       -0.053936753 0.18472233 -0.0764551 0.01804601
000370 8b b7 ce 3d bd 9b fd bc 35 bc d9 3d c7 9d 94 3d
       0.10093602 -0.03095805 0.10631601 0.07256656
000380 a8 3a f6 bd 4e 63 be 3d 66 ad 84 3e 6b 2e 09 3e
       -0.120229065 0.092962846 0.25913543 0.13396613
000390 ed d3 9e 3e 7a 3a 8a 3e d7 2c 93 be c9 60 eb be
       0.31021062 0.2699774 -0.28745148 -0.4597228
0003a0 de c8 3b 3e d7 fc 10 3f 50 68 00 3f 26 a0 a3 be
       0.18338344 0.56635803 0.5015917 -0.3195812
0003b0 15 ea 2d bf 51 07 e4 be d4 aa 5e bf 3e b3 0f 3e
       -0.67935306 -0.44536832 -0.86979413 0.14033219
0003c0 14 58 a0 3d 48 a8 8d 3d 7f 4f b1 3e f0 e1 94 3e
       0.078292996 0.06916863 0.34630963 0.29078627
0003d0 fb ed c9 3c 18 ad 98 be 96 4a e8 be 9e b8 ce 3d
       0.02464961 -0.2981956 -0.45369405 0.10093807
0003e0 56 c0 5f 3d 44 9e 46 be e4 73 d5 be 87 b8 9b bf
       0.054626785 -0.19396311 -0.4168998 -1.2165688
0003f0 f6 00 e6 bd 38 3f 39 3f c5 5c 0c 3e ee 61 2a bc
       -0.11230652 0.7236209 0.13707264 -0.010399325

0.bias f4 [64]
000000 24 02 8f 3d 74 18 06 bc d4 a4 de 3d ce e4 08 be
       0.0698283 -0.008184541 0.10871282 -0.13368532
000010 7c 7f 2b 3d f2 15 6a bd 8f f7 95 3d b0 95 36 be
       0.041869625 -0.057149835 0.07322609 -0.17830539
000020 8e 25 7d bd 04 da 1f be 1d 1e 1f 3f 79 84 60 3d
       -0.061803393 -0.1561051 0.62155324 0.054813836
000030 64 ff 2a bd 58 0c 95 3e b7 9c 20 be 31 31 5b bc
       -0.041747466 0.2911098 -0.15684782 -0.013378427
000040 e4 6f 91 3d 8a 71 c6 3e 08 48 fd bc f4 a7 01 3e
       0.071014196 0.38758498 -0.030918136 0.12661725
000050 78 56 c2 be c1 22 8c 3c 72 df 1a bd ae 7c 25 be
       -0.37956595 0.017106416 -0.03781075 -0.16160843
000060 9a ea 64 bd 67 da 4a be 83 62 08 3c 45 33 0c 3d
       -0.055887796 -0.19809876 0.008324268 0.034228582
000070 d8 9a 84 3e a1 07 74 bd 13 00 7d 3d 00 e9 ac bd
       0.25899386 -0.059577588 0.06176765 -0.08442879
000080 d7 8f 5e 3e d7 a5 91 bd 45 22 0f be 0d d1 04 3f
       0.21734558 -0.071117096 -0.13977917 0.51881486
000090 96 37 a5 bd 74 0d 7d be 8b 6e 1a bd 35 43 28 be
       -0.08067243 -0.24712163 -0.03770308 -0.16431887
0000a0 81 82 f4 bd 18 f9 d9 3e 5a 65 c2 be 6b 03 70 3e
       -0.11938954 0.42572856 -0.3796795 0.23438804
0000b0 dd f7 26 be 0f 49 28 3e 3b ec 96 3e f8 3e fd 3e
       -0.1630549 0.1643412 0.29477105 0.49462104
0000c0 fe 10 40 3e 1d 7a 99 be e4 26 e1 bb 52 69 d0 bd
       0.18756482 -0.29975978 -0.006871091 -0.10176338
0000d0 f8 2b 3b bd 12 97 3e be 05 80 d0 3e f3 de 99 bd
       -0.04569623 -0.18612316 0.4072267 -0.07513227
0000e0 cc d3 25 bd 10 02 69 b7 4c ee 0c bd be 51 1b 3d
       -0.04048519 -1.3888362e-05 -0.034406945 0.037919752
0000f0 aa c0 1a be e9 b4 50 3d 7e da 1e bf c2 e4 c9 3d
       -0.15112558 0.05095378 -0.6205214 0.09858085

2.weight f4 [5, 64]
000000 e4 7b 54 3e 8b fd de be a0 4a bd 3c 72 62 d7 3e
       0.20750386 -0.43552813 0.023106873 0.42067295
000010 06 92 e8 3e aa dc 4c be af c3 ce be 2e 23 50 bd
       0.45423907 -0.20006052 -0.4038367 -0.0508148
000020 30 8c 85 bc cd f0 ce bd a7 5f aa be 16 f7 0e bd
       -0.016302198 -0.10104523 -0.33276102 -0.03490361
000030 c9 f0 6e bf a2 0e e9 3e 8c a2 05 be 18 6a 13 be
       -0.9333616 0.45518976 -0.13050288 -0.1439594
000040 1c b5 98 bd bd 75 2d bf 83 5f ba 3e 98 27 cd bd
       -0.07456419 -0.6775778 0.36400995 -0.100173175
000050 21 b1 84 3f eb 70 95 be dc a6 f9 3d bc 13 28 3d
       1.0366555 -0.29187712 0.12190029 0.041034445
000060 44 ee 81 3f a1 c9 2d be e7 3e 41 40 01 64 62 bf
       1.0150838 -0.16971447 3.0194643 -0.88433844
000070 4f 20 2c bf 92 db 97 3e 62 6b f5 3e 00 01 73 3d
       -0.672368 0.29659706 0.4793349 0.059327126
000080 75 97 b6 bf 78 3f c2 3c 4c ea ad bd b3 2a f4 be
       -1.4264971 0.023711905 -0.08491954 -0.47688827
000090 f4 4e 60 bd e7 ad ef 3e af 1b b2 bd 5c ef 1d 3d
       -0.054762796 0.46812364 -0.086966865 0.03855835
0000a0 82 b3 d6 3d 06 12 32 bf 27 52 88 3d 03 af bc be
       0.10483457 -0.6955875 0.06656294 -0.36852273
0000b0 ab c2 2c 3e eb b2 08 bf 14 d9 74 3e 38 6c 1d bf
       0.16871135 -0.5339801 0.23910934 -0.61493254
0000c0 7d c0 fd be 15 7c c0 bf 7f 54 cc bd 68 e9 ad 3d
       -0.4956092 -1.5037867 -0.09977054 0.08491784
0000d0 94 f8 2c bd ad ce 09 bf cb 5d 3e 3f 4a e1 bf 3d
       -0.04222925 -0.5383099 0.74361867 0.09369142
0000e0 97 ea 78 3e 80 4f 3a 3d ca e2 1c 3e 03 83 9f 3d
       0.24308239 0.045485973 0.15320888 0.077886604
0000f0 9f bb 3f 3f 96 2f 56 3e c4 69 d0 3f f6 ef 09 bd
       0.7489566 0.2091659 1.6282277 -0.03367611
000100 e2 e1 71 bd 4e 16 9a be 65 eb ec 3d ae 86 fe 3d
       -0.05905331 -0.30095142 0.115683354 0.12428032
000110 70 34 8c 3d 9f df 3b be f2 d9 03 be 4f a6 50 3f
       0.06845939 -0.18347023 -0.12876108 0.81503767
000120 e6 be 86 3d 51 d0 f6 bc 2d 46 f1 be d3 31 e8 bd
       0.0657938 -0.03012863 -0.47123852 -0.11337628
000130 73 b3 c0 bf 0c 15 72 3e e9 1f e7 bd b3 1a 0b 3e
       -1.5054764 0.23640841 -0.11285383 0.13584404
000140 cc 79 0b bd 1d 2a 9e be f3 bc 6e be 93 50 db bd
       -0.0340517 -0.30891505 -0.23314266 -0.10708728
000150 3e 2b 4f 3e 8b 69 19 bf b8 aa 1b bc 86 3d 7b bc
       0.2023134 -0.5992667 -0.009501152 -0.015334493
000160 61 da 41 3f e7 60 3a bf ff 6d a2 be d9 2c 1f bf
       0.75723845 -0.7280411 -0.31724545 -0.6217781
000170 cf 4a 4e be de 2c 00 3f e1 4a 14 be 38 44 c1 bd
       -0.20145725 0.5006846 -0.14481689 -0.0943684
000180 4e 48 d8 bd 1a 4a f9 bd 1f c7 a6 3e 91 f6 d3 be
       -0.10560666 -0.12172337 0.32573792 -0.41399053
000190 7c af 1a 3b ed 7a 93 be 3b 48 11 3e b1 70 ff bc
       0.0023603132 -0.28804722 0.1418771 -0.031181665
0001a0 da ae ae 3d 6c 80 61 be fa bd f1 3e 0a cd 4c be
       0.08529444 -0.22021645 0.47215253 -0.20000091
0001b0 4d ab c3 3d d9 83 5b 3e d8 8e df 3d 65 db 07 bf
       0.095541574 0.21437015 0.10915917 -0.53069144
0001c0 aa 94 de bd 38 14 bb bd 09 1f bf 3c 10 ea e8 3c
       -0.10868199 -0.09134716 0.023330228 0.028431922
0001d0 9e 94 ef bd 79 3e 5b bf ce f5 ca bd 46 e4 93 bd
       -0.11698268 -0.856422 -0.09910165 -0.07221274
0001e0 1e 66 aa bc ef ce a4 bc 25 b8 c3 3e aa b4 cb 3d
       -0.020800646 -0.020118205 0.3822643 0.09946568
0001f0 d8 f8 f7 3e a4 ee 96 bd f9 8b 79 3f 75 56 f0 3d
       0.4843204 -0.07369736 0.97479206 0.1173524
000200 89 6b 97 be cf 7a d1 3f 8c 90 c5 bb d3 f7 c4 bc
       -0.2957423 1.6365603 -0.006029194 -0.024043953
000210 33 fa 55 be 24 74 6d bf d7 64 2e 3f 1c eb d3 3d
       -0.20896225 -0.9275534 0.6812262 0.10347578
000220 40 19 24 bb 71 c4 47 bb 64 4a 29 3f d3 9e 0a bd
       -0.0025039464 -0.0030482078 0.66129136 -0.033842873
000230 64 9b 9b 3e c0 25 7e bd f2 a2 0a bd 54 4a bc 3d
       0.3039199 -0.06204772 -0.033846803 0.091938645
000240 7a aa a8 3d 59 42 7c 3e b5 6a 9c 3e ba 89 dc 3b
       0.08235641 0.24634685 0.3055016 0.0067302855
000250 25 84 55 bf 38 32 c2 3e b0 26 43 bd 20 7e e8 bc
       -0.8340476 0.3792894 -0.047644317 -0.028380454
000260 7b f7 71 bf 27 dc b1 3e 51 d8 3d bf 59 0f f4 3d
       -0.9451825 0.34738275 -0.741582 0.1191699
000270 58 6e 9b 3f 5a 1f fe bd 39 1a 5a 3d 06 55 4e 3d
       1.2143049 -0.124083236 0.053247664 0.050374053
000280 11 be 6d 3f 24 f3 a5 3d 6c f9 2c be 64 af 95 3e
       0.92868143 0.08103016 -0.16892022 0.29235375
000290 f6 87 e9 3c d9 ca f3 be ec 19 91 be 6e f8 5b 3c
       0.028507214 -0.47615698 -0.2834009 0.0134259295
0002a0 90 bb 40 3d 60 91 64 3f e6 0c 93 be eb 0b 9f bb
       0.047053874 0.89284325 -0.28720778 -0.0048537157
0002b0 51 9c 40 be c4 02 bf bd 2b e8 3e bf bb c9 1d be
       -0.1880963 -0.093266994 -0.7457301 -0.15408985
0002c0 61 2f 51 3f 07 7a 1d 40 eb fb 43 bd ec 00 1f 3d
       0.8171292 2.460573 -0.04784767 0.03881924
0002d0 22 3e 34 bd fa a9 1e 40 20 e0 2a bf 3c 19 c9 3d
       -0.044004567 2.4791245 -0.6674824 0.09819266
0002e0 56 f3 11 be 2b 17 cf 3c 0f bd a8 3e ee 98 4c bd
       -0.14252982 0.025279602 0.3295674 -0.049950533
0002f0 6a 97 6e bf 2f ae 7f bd 28 77 17 c0 7b ff 76 3d
       -0.9319979 -0.062421974 -2.3666477 0.06030224
000300 e8 a2 62 3d fa da 54 bf 14 6a d7 bc 59 2e 0a 3d
       0.05533114 -0.8314663 -0.0262957 0.033735607
000310 d0 0e 81 bc ca dc a5 bd 3f c9 01 3e 24 cb 0f 3f
       -0.015754133 -0.08098753 0.12674426 0.56169343
000320 e0 54 db bc 85 d3 70 3d 3c 35 d5 be 1d e6 2c bd
       -0.02677387 0.05879547 -0.41642177 -0.04221164
000330 76 48 fd 3e a5 c0 55 bf 96 91 a2 bd 7e fd af 3d
       0.49469346 -0.8349708 -0.079379246 0.08593272
000340 e4 b9 54 bd 48 c3 ef bd f5 a7 a4 be f4 6a 96 3d
       -0.05193509 -0.11707169 -0.3215939 0.073446184
000350 43 36 30 3d 45 85 29 3e fa 4d 89 bd 7a a6 88 bd
       0.043020498 0.16554745 -0.06704326 -0.06672378
000360 d7 df 10 bf 0c 88 22 bf 66 8d 8d bf ea be 2e 3d
       -0.5659155 -0.6348884 -1.1058776 0.04266254
000370 f1 c5 15 bf 46 b6 bc 3c ea 0c bb bd a2 cb f2 3d
       -0.5850516 0.023036133 -0.091333225 0.11855246
000380 9e ec 5c bf 10 55 d9 bd 31 57 24 3e e2 68 65 be
       -0.8629855 -0.106119275 0.16048886 -0.22403291
000390 90 4c 81 bc dc 7a 07 be 2d ea f2 3e 4a 30 fd bc
       -0.015783578 -0.13230461 0.47444287 -0.030906815
0003a0 be 3c 80 bd 34 ec 3c be 8e a2 b7 3f a2 a8 46 bf
       -0.06261586 -0.1844948 1.4346483 -0.77601063
0003b0 84 78 8f 3d 50 41 72 3f b3 5c d6 3d 7e 0a 94 3e
       0.070054084 0.9463091 0.104669 0.28914255
0003c0 86 0c 85 be 16 65 b6 be 7a 79 c9 3d 88 21 33 bd
       -0.25986117 -0.35623997 0.09837623 -0.04373315
0003d0 cc e6 9e 3c 5b 07 af be af 22 7a bf 12 b4 f7 3b
       0.019397162 -0.341853 -0.9770917 0.007559308
0003e0 a2 72 a4 3e 3a f8 c0 3c 07 69 0f bf 37 5b 44 bd
       0.32118708 0.023555864 -0.56019634 -0.04793855
0003f0 fd 10 57 3d b3 b2 9c bd 37 0d 98 3f f1 f6 aa 3c
       0.052506436 -0.07651272 1.1879033 0.020869704

2.bias f4 [5]
000000 1c 29 90 bd 13 0c da be cf 44 32 3e ec 36 ad 3d
       -0.07039091 -0.42587337 0.17409061 0.08457741
000010 d7 04 9e 3e
       0.30863068
