CC_ActorCritic/state_dict_model_v2.pt (torch, 27719 bytes, 7 tensors)

fc1.weight f4 [64, 25]
-0.20167807 0.08370558 0.07086293 -0.057247173 0.00677136 -0.08728324 -0.16376305 -0.008831022
0.07227089 -0.15085849 -0.16649193 0.5425826 0.01623924 0.3378185 -0.121501274 -0.091507375
0.41417527 0.12191756 0.26961324 0.0013824732 -0.31125465 0.38628793 -0.024098538 0.23014984
-0.052779272 0.10035733 -0.30751532 -0.05357527 0.24308194 0.09868284 0.20654036 0.2584603
0.057551146 0.37776437 0.13119781 -0.0015382558 -0.26153526 -0.12353061 -0.038969018 -0.10375637
0.09466879 -0.48083964 0.07956707 -0.25431684 0.18127017 0.23502313 -0.4643182 0.12629075
-0.020586202 -0.21482745 0.086798884 -0.11504362 0.12020288 0.16082591 0.15164207 0.04524349
-0.017538283 0.061942235 0.15259318 -0.079026006 0.09847245 0.1293094 0.10665312 -0.0689221
0.113409355 -0.17799436 0.08507905 0.09638646 0.05041552 -0.15483017 -0.2124743 -0.1834597
0.08742255 0.12685336 -0.1446843 -0.19595644 0.27177337 0.1163896 -0.06639096 0.07957721
-0.28163567 0.09229328 -0.009738033 0.118830584 0.10185421 -0.2804108 0.7760489 0.047154088
-0.059517875 -0.043853644 0.041484877 0.71909803 0.0004554155 0.12488495 -0.030815573 -0.13453212
0.5146377 0.006453455 0.025153613 -0.027503168 -0.13106129 -0.32944 0.10430656 0.15585901
0.1435515 -0.049042333 0.16598003 0.14011103 0.1479033 -0.020184105 0.15935259 -0.09270883
-0.19147156 -0.08711161 -0.21365662 0.16589001 -0.031758886 0.1487473 -0.22303402 -0.09050741
0.19026446 -0.37902302 -0.05754292 -0.19276126 -0.20886914 0.05940754 -0.16057448 0.2195011
0.051866 -0.13896814 0.05912126 0.1951942 0.029237375 0.2236572 -0.12316033 -0.01649982
-0.45904967 0.058471713 0.008090652 -0.13986436 0.14046407 -0.3066919 0.08459298 -0.02266571
0.06099707 0.22769602 -0.5470288 -0.09079088 -0.2629836 0.055651814 -0.24100308 -0.12902552
0.024718134 -0.05148161 -0.008556112 0.07012158 0.105044425 -0.1476824 -0.008339146 -0.025412053
-0.117253825 0.1251202 0.14072128 -0.09360739 0.059633005 -0.06776587 -0.10302434 -0.16029286
-0.061360907 0.008356258 0.019875681 0.023484955 -0.10597947 -0.111781284 -0.07305455 -0.12865166
-0.012742758 -0.057121467 -0.02961495 -0.020378685 0.012832261 -0.17693093 -0.107644275 -0.11302543
-0.16616133 -0.120579556 -0.18211804 0.0073668 -0.054063227 0.015027381 0.08756509 -0.05567193
-0.17738886 0.17192383 -0.17754817 -0.064735584 0.05050242 -0.07229824 -0.080444075 0.1717917
-0.081986 0.09355935 0.029678352 0.020486692 -0.15811828 -0.2697377 0.22737138 -0.047790207
-0.13423988 -0.06937312 0.006613338 0.18480922 0.020663619 -0.10664055 0.033722084 0.1003649
0.18401572 0.2077054 -0.095393695 -0.14568189 -0.17211953 0.2791283 -0.019147731 -0.018966159
0.25512493 0.17029712 -0.37547308 0.22938606 0.33564556 0.071991995 0.0064480104 0.49146464
0.11082666 0.4092382 -0.08524156 0.09306513 -0.22625333 -0.0193955 -0.12403921 -0.05219963
-0.010690271 -0.14382823 -0.074566625 -0.08746524 -0.15787958 0.19886298 -0.4719814 0.0292824
-0.36452806 -0.24210581 0.032473266 -0.11918568 -0.04219243 -0.16159952 -0.101359 0.14208114
00000000: b284 4ebe d56d ab3d 9520 913d 037c 6abd
00000010: 49e2 dd3b 8ec1 b2bd 80b1 27be feaf 10bc
00000020: c302 943d a67a 1abe dc7c 2abe b1e6 0a3f
00000030: 2808 853c 8cf6 ac3e a9d5 f8bd 3868 bbbd
00000040: c80e d43e eaaf f93d bf0a 8a3e 1a34 b53a
00000050: c55c 9fbe 88c7 c53e 4c6a c5bc 66ac 6b3e
00000060: 142f 58bd 2588 cd3d a672 9dbe be71 5bbd
00000070: 79ea 783e 3b1a ca3d 517f 533e e954 843e
00000080: c0ba 6b3d 556a c13e b858 063e 4d9f c9ba
00000090: f3e7 85be 9efd fcbd fa9d 1fbd 387e d4bd
000000a0: b6e1 c13d 9d30 f6be 0ff4 a23d d135 82be
000000b0: e39e 393e e7a9 703e 1dbb edbe 5d52 013e
000000c0: 65a4 a8bc bafb 5bbe 9dc3 b13d fd9b ebbd
000000d0: ed2c f63d 8caf 243e 0f48 1b3e 3d51 393d
000000e0: 72ac 8fbc 24b7 7d3d 6341 1c3e 63d8 a1bd
000000f0: edab c93d af69 043e f36c da3d 0827 8dbd
00000100: 2a43 e83d 2744 36be ed3d ae3d 4466 c53d
00000110: 8180 4e3d cd8b 1ebe dd92 59be dcdc 3bbe
00000120: 980a b33d d9e5 013e 1f28 14be cea8 48be
00000130: e125 8b3e ac5d ee3d fcf7 87bd 60f9 a23d
00000140: 8d32 90be 4204 bd3d 458c 1fbc 735d f33d
00000150: f198 d03d 0192 8fbe 24ab 463f a524 413d
00000160: 04c9 73bd e19f 33bd 0cec 293d cf16 383f
00000170: d5c4 ee39 aec3 ff3d f170 fcbc cac2 09be
00000180: 4cbf 033f 8177 d33b f30e ce3c 534e e1bc
00000190: ee34 06be 5cac a8be ad9e d53d 8199 1f3e
000001a0: 2aff 123e 9de0 48bd abf6 293e 4479 0f3e
000001b0: f673 173e 2359 a5bc 532d 233e 21de bdbd
000001c0: 1f11 44be 9267 b2bd cdc8 5abe 12df 293e
000001d0: 9b15 02bd 3651 183e 0863 64be f35b b9bd
000001e0: b0d4 423e 4e0f c2be 20b2 6bbd 3563 45be
000001f0: cbe1 55be 5255 733d a36d 24be e5c4 603e
00000200: 7171 543d aa4d 0ebe 2229 723d fde0 473e
00000210: 3883 ef3c 6506 653e 7c3b fcbd a12a 87bc
00000220: 8f08 ebbe 0980 6f3d a78e 043c 9a38 0fbe
00000230: d0d5 0f3e b906 9dbe 163f ad3d 70ad b9bc
00000240: 10d8 793d 2529 693e 140a 0cbf 92f0 b9bd
00000250: c9a5 86be 28f3 633d 83c9 76be 441f 04be
00000260: af7d ca3c 61de 52bd ef2e 0cbc e79b 8f3d
00000270: 8821 d73d 0e3a 17be eaa0 08bc f02c d0bc
00000280: c622 f0bd 821f 003e 3d19 103e 3bb5 bfbd
00000290: bd41 743d d5c8 8abd 6dfe d2bd d023 24be
000002a0: 9355 7bbd b0e8 083c 53d2 a23c 8563 c03c
000002b0: c40b d9bd 96ed e4bd a09d 95bd 43bd 03be
000002c0: 00c7 50bc 33f8 69bd 0d9b f2bc 33f1 a6bc
000002d0: 673e 523c 622d 35be 9a74 dcbd e079 e7bd
000002e0: 3226 2abe 6af2 f6bd 277d 3abe 3365 f13b
000002f0: 6771 5dbd 6735 763c 5355 b33d 4008 64bd
00000300: 6da5 35be cd0c 303e 30cf 35be 1794 84bd
00000310: a0db 4e3d 1a11 94bd ddbf a4bd 2aea 2f3e
00000320: 47e8 a7bd 0b9c bf3d 0420 f33c b5d3 a73c
00000330: c2e9 21be 0f1b 8abe 0bd4 683e aabf 43bd
00000340: 2e76 09be 7f13 8ebd b3b4 d83b a13e 3d3e
00000350: c046 a93c 5c66 dabd 2b20 0a3d 1d8c cd3d
00000360: 9e6e 3c3e b9b0 543e c55d c3bd a22d 15be
00000370: 1a40 30be e8e9 8e3e b4db 9cbc eb5e 9bbc
00000380: bc9f 823e 5e62 2e3e 023e c0be 2ee4 6a3e
00000390: bcd9 ab3e 8a70 933d d549 d33b 41a1 fb3e
000003a0: 17f9 e23d ab87 d13e 2193 aebd ee98 be3d
000003b0: f4ae 67be 50e3 9ebc 4508 febd 47cf 55bd
000003c0: 3f26 2fbc b547 13be 63b6 98bd fa20 b3bd
000003d0: 2fab 21be bda2 4b3e 8ca7 f1be a5e1 ef3c
000003e0: 6ca3 babe 96ea 77be b002 053d 9f17 f4bd
000003f0: f8d1 2cbd 587a 25be 4f95 cfbd b87d 113e

fc1.bias f4 [64]
-0.047935206 0.21284947 -0.16687596 0.07927511 0.16347846 0.026262047 -0.069479175 -0.112561755
-0.28483525 0.11402839 0.089483075 -0.3050888 0.036314577 -0.04512204 -0.0906977 0.1525611
-0.19558261 -0.072946504 -0.057303198 0.09772461 0.106902294 -0.22441201 -0.044136956 0.148245
-0.10402158 0.12377378 -0.23448993 0.21875672 -0.0025868097 -0.13021715 0.08420917 -0.17977832
0.101487555 0.23635228 -0.076485746 -0.1722185 0.14760484 -0.17371626 -0.03614872 -0.06318407
-0.097751334 0.17306188 -0.06251881 -0.09269226 -0.02150117 -0.09963492 0.028408635 0.11237461
0.024042904 0.13672093 -0.053131983 0.052936494 -0.029546384 0.17164698 0.08719187 -0.17522709
-0.23501492 -0.3289801 -0.03816047 0.08319447 -0.09462906 0.11515026 0.113585986 -0.038185254
00000000: b557 44bd 36f5 593e 88e1 2abe fd5a a23d
00000010: e666 273e 8123 d73c 194b 8ebd c786 e6bd
00000020: edd5 91be b787 e93d e742 b73d 9934 9cbe
00000030: 98be 143d e3d1 38bd b7bf b9bd fa38 1c3e
00000040: cf46 48be fa64 95bd c2b6 6abd d723 c83d
00000050: 97ef da3d 43cc 65be f4c8 34bd 8acd 173e
00000060: 4409 d5bd 1c7d fd3d 211e 70be c301 603e
00000070: 7787 29bb a557 05be db75 ac3d cf17 38be
00000080: b5d8 cf3d 5506 723e 8fa4 9cbd 0c5a 30be
00000090: b925 173e ade2 31be ae10 14bd a666 81bd
000000a0: da31 c8bd 2237 313e dd09 80bd 71d5 bdbd
000000b0: 3923 b0bc 650d ccbd 3ab9 e83c a924 e63d
000000c0: a0f5 c43c 9200 0c3e eca0 59bd f0d3 583d
000000d0: 420b f2bc 3ac4 2f3e a791 b23d bb6e 33be
000000e0: c0a7 70be 1470 a8be 274e 1cbd dd61 aa3d
000000f0: e1cc c1bd e6d3 eb3d c59f e83d 2468 1cbd

fc2.weight f4 [64, 64]
0.027653964 -0.2975187 0.029240683 -0.023429023 -0.11005687 -0.17950036 -0.11535692 -0.0444597
0.012902961 -0.023543006 0.033103164 -0.021557132 -0.13837798 0.070263326 0.016399413 0.20503703
-0.09018132 -0.021537468 -0.072073534 -0.06291553 -0.078631654 0.058680102 0.14168641 0.103224844
-0.00983795 -0.3106063 0.37122047 0.025631266 -0.17653187 -0.11683799 0.09304391 -0.07389752
-0.12947984 -0.301259 0.02810595 0.06879646 -0.2802291 0.14114621 -0.13290854 0.10677571
0.32051015 0.06846148 -0.12985301 0.046919312 0.056072313 -0.06834202 0.029381756 -0.0022314922
0.064004585 -0.05765079 0.009528959 -0.07617171 -0.021149188 -0.2193808 0.03048945 0.0029302984
-0.17417587 -0.13221046 -0.03847243 -0.063168034 -0.10764536 -0.23780009 -0.22362258 -0.097935565
-0.032118015 -0.12806715 0.0040326267 -0.119658254 0.07255041 -0.015626604 -0.006584838 0.016996667
0.09653691 0.019880826 -0.10851895 0.093473315 -0.050872024 0.010373379 -0.023126394 -0.012311063
0.010186166 0.027891055 -0.088662006 -0.14311089 -0.10833885 -0.07161743 0.00040611872 -0.111930184
-0.106852286 -0.042406242 0.067819096 -0.031480473 -0.046924 0.035981968 0.06996214 -0.0003605187
-0.037198663 -0.064871244 0.070622385 -0.134464 0.073664986 -0.09634432 -0.09999526 -0.050057504
-0.105507985 0.121201366 -0.051387183 -0.033567954 -0.065114 0.041119833 0.036509965 0.046630695
0.007150516 0.1222769 -0.050636575 0.031087825 -0.08745768 -0.030145543 -0.00073000434 -0.089333534
-0.12775014 0.084495306 -0.027143732 -0.05846243 0.082627445 0.06546265 -0.05089902 0.04913095
-0.060829796 -0.19700682 0.09027885 -0.0040272074 -0.060203552 -0.09161895 0.11502898 -0.02876684
-0.091254115 -0.1496913 0.1234525 0.024893627 -0.0047669 0.060823828 0.11647256 0.12355006
-0.044904724 0.023018003 0.11048426 -0.018149983 0.0053127855 0.0060267337 -0.04591477 -0.051099733
-0.07550994 -0.1436181 0.090797365 -0.11366195 -0.052662034 0.007959157 0.076166645 0.0046554953
0.029512258 -0.16830848 -0.06841779 0.02824112 0.010516479 -0.08354301 -0.091815256 0.03323181
0.019857248 -0.024952158 0.018314246 0.1228627 0.0060918033 -0.02462697 -0.09714971 0.021473452
0.11665216 -0.10165438 0.038781345 -0.08109236 -0.07048279 -0.14579019 -0.06507435 0.05305937
-0.08261296 -0.12113455 0.023627758 0.08928887 -0.06594406 -0.0883306 -0.12229862 -0.09544285
0.11011508 -0.13269022 0.09811653 0.09050272 0.23056029 -0.014541116 -0.0061919293 -0.032057777
0.15776642 -0.18013017 0.038704578 0.15955524 -0.33946574 0.028216077 0.06929746 0.056342646
-0.094809026 0.0121065825 0.0037425826 0.06426035 0.025256693 0.11041975 -0.01889933 0.20726982
0.042185303 -0.2343892 0.16110511 -0.2163425 -0.20561944 -0.013358057 0.14907107 -0.04091796
0.05478158 -0.2183315 0.10996249 0.15219267 -0.40658438 0.15151268 -0.011306418 0.2275747
0.34719187 0.11328873 0.059905156 -0.03817491 0.047943573 0.020663172 0.08916724 0.14992271
0.09008481 0.07139294 -0.09043036 -0.093911394 0.08197249 0.0006240103 0.024985973 0.12399194
0.15871434 -0.030710556 -0.066810995 0.032040734 0.018772416 -0.09352525 -0.15261042 0.13441658
00000000: 918a e23c 5f54 98be 288a ef3c 39ee bfbc
00000010: 7f65 e1bd f1ce 37be 4040 ecbd 601b 36bd
00000020: f166 533c 43dd c0bc 2f97 073d 9598 b0bc
00000030: f5b2 0dbe 38e6 8f3d 1058 863c 3af5 513e
00000040: fcb0 b8bd 586f b0bc 4a9b 93bd dbd9 80bd
00000050: a209 a1bd 8c5a 703d 3e16 113e 8c67 d33d
00000060: 5a2f 21bc ca07 9fbe 9c10 be3e a9f8 d13c
00000070: c5c4 34be c248 efbd ce8d be3d 9557 97bd
00000080: 5d96 04be 9f3e 9abe 733e e63c 29e5 8c3d
00000090: 307a 8fbe a288 103e 2d19 08be 39ad da3d
000000a0: e819 a43e 8835 8c3d 30f8 04be 772e 403d
000000b0: 15ac 653d e7f6 8bbd 02b2 f03c 3a3e 12bb
000000c0: d614 833d 3c23 6cbd 5a1f 1c3c eaff 9bbd
000000d0: 1041 adbc 5ca5 60be 03c5 f93c 400a 403b
000000e0: 295b 32be 2e62 07be 4495 1dbd 3e5e 81bd
000000f0: 2c75 dcbd de81 73be 51fd 64be 7192 c8bd
00000100: 2e8e 03bd 0924 03be 2024 843b 630f f5bd
00000110: 4f95 943d 5d03 80bc a0c5 d7bb 983c 8b3c
00000120: 25b5 c53d 1ddd a23c 2f3f debd f06e bf3d
00000130: 2f5f 50bd 1bf5 293c 9073 bdbc 57b4 49bc
00000140: e0e3 263c c87b e43c 6d94 b5bd a98b 12be
00000150: c2e0 ddbd 29ac 92bd 55ec d439 a73b e5bd
00000160: 5fd5 dabd 2bb2 2dbd bde4 8a3d abf1 00bd
00000170: 6133 40bd d461 133d 4f48 8f3d 0004 bdb9
00000180: a05d 18bd 37db 84bd 78a2 903d eeb0 09be
00000190: abdd 963d 2c50 c5bd 51ca ccbd 1909 4dbd
000001a0: 9214 d8bd 6c38 f83d 5e7b 52bd 8d7e 09bd
000001b0: 7d5a 85bd 456d 283d 798b 153d d4ff 3e3d
000001c0: e04e ea3b 506c fa3d 4c68 4fbd e5ab fe3c
000001d0: 031d b3bd c9f3 f6bc c35d 3fba 80f4 b6bd
000001e0: efd0 02be e00b ad3d 885c debc 4d76 6fbd
000001f0: 9438 a93d 4811 863d 7e7b 50bd 893d 493d
00000200: aa28 79bd 28bc 49be 1ee4 b83d aaf6 83bb
00000210: 0098 76bd b7a2 bbbd 5094 eb3d 70a8 ebbc
00000220: 70e3 babd ad48 19be aad4 fc3d b8ed cb3c
00000230: a833 9cbb 6822 793d 2a89 ee3d d007 fd3d
00000240: 04ee 37bd 4090 bc3c 9245 e23d 46af 94bc
00000250: e016 ae3b e87b c53b 2011 3cbd f44d 51bd
00000260: f5a4 9abd a010 13be f8f3 b93d 99c7 e8bd
00000270: 25b4 57bd 2067 023c 42fd 9b3d 208d 983b
00000280: b1c3 f13c 0f59 2cbe a01e 8cbd ec59 e73c
00000290: 4f4d 2c3c 9918 abbd a309 bcbd 141e 083d
000002a0: abab a23c 7868 ccbc c207 963c 709f fb3d
000002b0: c09d c73b 80be c9bc 6df6 c6bd 18e9 af3c
000002c0: 54e7 ee3d 2c30 d0bd 30d9 1e3d c013 a6bd
000002d0: 4859 90bd 064a 15be b345 85bd c854 593d
000002e0: fc30 a9bd 6415 f8bd 008f c13c 15dd b63d
000002f0: ae0d 87bd ace6 b4bd b377 fabd 8a77 c3bd
00000300: 0484 e13d f2df 07be 52f1 c83d 7d59 b93d
00000310: ff17 6c3e dc3d 6ebc abe5 cabb 044f 03bd
00000320: 858d 213e 0b74 38be b188 1e3d 7362 233e
00000330: 74ce adbe 6725 e73c d4eb 8d3d 8cc7 663d
00000340: 3c2b c2bd b05a 463c 1e46 753b ee9a 833d
00000350: 20e7 ce3c c023 e23d c5d2 9abc 8a3e 543e
00000360: 7fca 2c3d b903 70be bdf8 243e e388 5dbe
00000370: e78d 52be c0db 5abc 16a6 183e 9799 27bd
00000380: a662 603d 4b92 5fbe 0434 e13d 65d8 1b3e
00000390: d42b d0be 2426 1b3e 8e3e 39bc 5809 693e
000003a0: 22c3 b13e ec03 e83d 1c5f 753d 4b5d 1cbd
000003b0: 7b60 443d d045 a93c 509d b63d 5785 193e
000003c0: 637e b83d 7636 923d 8d33 b9bd 9e54 c0bd
000003d0: 31e1 a73d 9f94 233a 62af cc3c 7cef fd3d
000003e0: 0386 223e b494 fbbc 34d4 88bd 253d 033d
000003f0: 9cc8 993c 2b8a bfbd e845 1cbe 80a4 093e

fc2.bias f4 [64]
-0.058715034 0.029561602 0.0092063 -0.2509144 0.0050932327 -0.022233818 0.19097166 -0.0823517
-0.18390693 0.16965105 -0.051146496 0.10690896 0.061301284 0.007541063 -0.0872007 -0.0660156
-0.12450768 -0.062679164 -0.0709768 0.007029284 -0.11926696 0.093793176 0.028816199 -0.084215775
-0.018139595 -0.11828904 0.009056765 -0.065048434 0.09100973 -0.11662376 0.15831783 0.155694
0.08145186 -0.00721591 -0.12800209 0.020193284 0.01247689 0.065194376 -0.02729812 -0.12443615
0.12345948 -0.03955981 -0.029434899 0.1465799 -0.061444014 -0.0064862994 -0.08899912 -0.024563715
0.04898628 -0.0753966 0.20918417 -0.0077381697 0.18617333 0.015440264 0.098679826 -0.07664828
0.0046809786 0.18223153 -0.067435816 0.1624092 -0.045870814 0.00605406 -0.04097146 0.20096397
00000000: 2d7f 70bd 2c2b f23c 05d6 163c da77 80be
00000010: 22e5 a63b b223 b6bc 138e 433e 02a8 a8bd
00000020: 1952 3cbe 01b9 2d3e fd7e 51bd 16f3 da3d
00000030: 0e17 7b3d 051b f73b 4896 b2bd 3033 87bd
00000040: e2fd febd ef5d 80bd 495c 91bd e855 e63b
00000050: 3c42 f4bd a316 c03d f30f ec3c 5279 acbd
00000060: 7d99 94bc 8641 f2bd d362 143c 1d38 85bd
00000070: 4f63 ba3d 70d8 eebd 121e 223e 3f6e 1f3e
00000080: 3cd0 a63d 7173 ecbb fb12 03be 636c a53c
00000090: df6b 4c3c a184 853d 4fa0 dfbc 61d8 febd
000000a0: 53d8 fc3d 7809 22bd 7521 f1bc 0b19 163e
000000b0: b8ac 7bbd 068b d4bb 2c45 b6bd d839 c9bc
000000c0: d6a5 483d 8869 9abd 6034 563e 7990 fdbb
000000d0: 39a4 3e3e 29f9 7c3c a618 ca3d c6f9 9cbd
000000e0: e562 993b e79a 3a3e ca1b 8abd 994e 263e
000000f0: 09e3 3bbd 2361 c63b b1d1 27bd 80c9 4d3e

pi.weight f4 [5, 64]
-0.2898358 0.024726078 -0.0845066 -2.5135834 0.07421083 -0.06437324 -2.2502306 0.009280531
-2.5749233 -2.8687034 0.10890335 -1.8864218 -1.830811 0.055015203 -0.021596044 0.09478027
-0.04267457 -0.10941689 -0.11914367 -0.40143746 -0.016589794 -1.860674 -0.020221928 -0.40991992
-0.14860635 -0.09208127 0.024075376 -0.292023 -0.34265164 -0.07394706 -1.4111736 -1.5146116
-0.5268393 -0.12982903 0.11308321 -0.07656035 -0.1451421 -1.0382161 -0.05579383 0.047758818
-0.29677254 -0.7556633 -0.0057327 -2.6970882 0.022105217 -0.115322225 -0.006167397 -0.16114065
-0.14812772 -0.0034165084 -0.7443688 -3.8118064 -0.62389946 -2.1051033 -0.3965019 -0.048279688
-3.789055 -0.42332563 -0.06510641 -2.5829153 -3.5959122 -3.723374 -0.07160085 -2.6218352
-0.22959559 0.09873451 0.08204807 -2.3812623 0.006985051 -0.02640763 -2.331086 0.012008844
-2.6614509 -2.9748871 0.05699944 -2.0802808 -1.9038726 -0.010443803 -0.080823824 0.0371546
0.03838896 0.06679207 -0.123645574 -0.6607779 0.103309676 -2.0746167 0.10326184 -0.65681404
0.009352794 -0.062610105 0.02749159 -0.31050822 -0.47713864 0.010198146 -1.3066658 -1.4168146
-0.6160723 -0.0591835 0.04865277 -0.074288875 -0.16817953 -0.82790244 -0.09464828 -0.053280815
-0.13349792 -0.44609702 -0.05544898 -2.6638715 -0.059210658 -0.10372 -0.11296779 -0.27690166
-0.3458293 -0.010943964 -0.56708664 -3.7633998 -0.39587098 -1.5988655 -0.24220139 0.107983835
-3.9264312 -0.41363606 -0.03830008 -2.5585713 -3.6394122 -3.680716 -0.07259358 -2.6703432
-0.27913496 0.09777134 -0.123924375 -2.5629485 -0.03441673 0.109636605 -2.2975116 0.056749545
-2.7684631 -2.9766212 -0.06342199 -1.8954253 -3.048047 -0.05497538 0.07332216 0.011393517
0.10954265 0.03664358 0.0145914545 -0.56914574 -0.12866358 -3.3220258 0.00981775 -1.118933
-0.14713165 0.064994425 0.020141676 -0.23960055 -0.1965432 0.06100531 -1.0593933 -1.4081665
-0.7126523 -0.1184791 0.08938334 0.07513526 -0.2931193 -0.6460762 -0.060482632 0.10574612
-0.12221403 -0.8878804 0.0638545 -2.5811787 -0.10599534 0.07419027 -0.024529144 -0.19702776
-0.16304287 -0.07399528 -0.5804832 -3.907961 -0.58697456 -2.9774508 -0.27108613 -0.123049095
-1.7689635 -0.38388452 0.094332464 -2.4278688 -3.5589843 -4.010639 -0.1315004 -2.640004
-0.15304491 -0.02091234 -0.042625695 -2.6869738 0.111966 -0.10224663 -2.1959448 0.05804003
-2.793428 -2.969545 -0.017963907 -2.0764623 -1.6097158 0.07924914 -0.070819706 0.056851804
-0.08040683 -0.051787913 0.12307131 -0.24528658 0.10660851 -0.8106192 0.012128244 -0.27757838
-0.09826309 -0.03181432 -0.07573263 -0.34666228 -0.82810825 -0.019328281 -1.4583291 -1.7534628
-0.48651826 -0.048026316 0.04470534 0.06498614 -0.16169512 -1.2864482 -0.071418345 -0.09112263
-0.19133046 -0.71329534 -0.0430042 -2.8641868 -0.10773085 -0.045849822 -0.0056180507 -0.2981786
-0.30189973 0.060275093 -0.70730615 -3.9550886 -0.50623167 -3.871156 -0.49086708 0.061387368
-3.3952346 -0.29153013 -0.048920233 -2.543751 -3.8353488 -3.8319328 -0.105582476 -2.9349024
00000000: 5c65 94be 588e ca3c cc11 adbd 8dde 20c0
00000010: d9fb 973d 1ed6 83bd c703 10c0 5e0d 183c
00000020: 8bcb 24c0 d698 37c0 b808 df3d 4576 f1bf
00000030: 0458 eabf 9f57 613d 30ea b0bc 281c c23d
00000040: 88cb 2ebd f615 e0bd 9901 f4bd 3689 cdbe
00000050: 52e7 87bc 912a eebf 75a8 a5bc 06e1 d1be
00000060: 432c 18be 1b95 bcbd b939 c53c 0a84 95be
00000070: 0970 afbe 8e71 97bd 56a1 b4bf cbde c1bf
00000080: f1de 06bf e7f1 04be 2c98 e73d accb 9cbd
00000090: 21a0 14be 44e4 84bf 1288 64bd c09e 433d
000000a0: 92f2 97be 2673 41bf 60d9 bbbb 189d 2cc0
000000b0: 0016 b53c 0f2e ecbd e017 cabb 0e02 25be
000000c0: cbae 17be 80e7 5fbb f48e 3ebf a3f4 73c0
000000d0: e0b7 1fbf 03ba 06c0 4c02 cbbe ecc0 45bd
000000e0: e17f 72c0 23be d8be 8256 85bd 7c4e 25c0
000000f0: 6d23 66c0 c24b 6ec0 77a3 92bd 26cc 27c0
00000100: 1b1b 6bbe 5235 ca3d d208 a83d 9a66 18c0
00000110: dbe2 e43b d054 d8bc 8330 15c0 bec0 443c
00000120: 3655 2ac0 8d64 3ec0 3f78 693d 5223 05c0
00000130: 19b2 f3bf 7c1c 2bbc f686 a5bd 6c2f 183d
00000140: be3d 1d3d 48ca 883d e439 fdbd be28 29bf
00000150: 0694 d33d 85c6 04c0 f27a d33d f724 28bf
00000160: 763c 193c ba39 80bd 0b36 e13c effa 9ebe
00000170: 844b f4be 2016 273c d340 a7bf 2e5a b5bf
00000180: eab6 1dbf 666a 72bd 2148 473d c424 98bd
00000190: 4137 2cbe 6af1 53bf f5d6 c1bd fc3c 5abd
000001a0: aeb3 08be d466 e4be 781e 63bd df7c 2ac0
000001b0: e086 72bd 276b d4bd a85b e7bd 0ec6 8dbe
000001c0: 8a10 b1be 504e 33bc 972c 11bf 8bdb 70c0
000001d0: 9aaf cabe a0a7 ccbf a403 78be a126 dd3d
000001e0: a64a 7bc0 1bc8 d3be 8be0 1cbd a2bf 23c0
000001f0: 21ec 68c0 da90 6bc0 f1ab 94bd e7e6 2ac0
00000200: c7ea 8ebe 573c c83d 10cc fdbd 5907 24c0
00000210: 8ff8 0cbd 2889 e03d 6e0a 13c0 3672 683d
00000220: 802e 31c0 f680 3ec0 63e3 81bd 4c9d f2bf
00000230: 3413 43c0 dd2d 61bd ee29 963d e0ab 3a3c
00000240: e657 e03d 9417 163d ff10 6f3c 89b3 11bf
00000250: 63c0 03be 129c 54c0 a1da 203c 3239 8fbf
00000260: aea9 16be cc1b 853d 2800 a53c d959 75be
00000270: 9f42 49be b4e0 793d 339a 87bf cd3e b4bf
00000280: 6270 36bf 2ca5 f2bd 9d0e b73d 84e0 993d
00000290: bc13 96be 4065 25bf a3bc 77bd 6c91 d83d
000002a0: 594b fabd 214c 63bf 26c6 823d 0832 25c0
000002b0: 1614 d9bd 11f1 973d 58f1 c8bc a5c1 49be
000002c0: b6f4 26be d68a 97bd 8c9a 14bf 081c 7ac0
000002d0: f743 16bf 8e8e 3ec0 cdcb 8abe 2a01 fcbd
000002e0: 656d e2bf 838c c4be 6131 c13d 3462 1bc0
000002f0: 66c6 63c0 2857 80c0 0aa8 06be d3f5 28c0
00000300: ceb7 1cbe 5b50 abbc 4898 2ebd 61f7 2bc0
00000310: 6e4e e53d ae66 d1bd 5c8a 0cc0 62bb 6d3d
00000320: 86c7 32c0 060d 3ec0 0b29 93bc c2e4 04c0
00000330: 2b0b cebf 604d a23d ec09 91bd 70dd 683d
00000340: 56ac a4bd 901f 54bd d00c fc3d 682c 7bbe
00000350: 9055 da3d bd84 4fbf 8bb5 463c c11e 8ebe
00000360: 293e c9bd bb4f 02bd b619 9bbd b87d b1be
00000370: e7fe 53bf 5856 9ebc 87aa babf 7871 e0bf
00000380: ec18 f9be 3eb7 44bd f21c 373d 7417 853d
00000390: 6893 25be 56aa a4bf c843 92bd 809e babd
000003a0: 22ec 43be 869a 36bf 2c25 30bd d64e 37c0
000003b0: fea1 dcbd 06cd 3bbd a017 b8bb deaa 98be
000003c0: 9a92 9abe 04e3 763d 0412 35bf 2c20 7dc0
000003d0: 6698 01bf 05c1 77c0 ee52 fbbe 5271 7b3d
000003e0: 864b 59c0 7043 95be 9560 48bd d1cc 22c0
000003f0: 5b76 75c0 633e 75c0 a03b d8bd 71d5 3bc0

pi.bias f4 [5]
-4.9955273 -4.969502 -4.806435 -4.737963 5.390801
00000000: 5cdb 9fc0 2906 9fc0 51ce 99c0 659d 97c0
00000010: 7181 ac40

v.weight f4 [1, 64]
-0.09756793 -0.090510495 0.047618765 -0.017318005 0.04664601 0.030199124 0.21881594 -0.046114456
-0.018820241 0.11236348 -0.05398785 0.048097022 0.11539261 0.011097053 0.07094175 0.03927983
0.03505469 0.02324795 -0.02295236 -0.010524719 -0.06781717 0.3043349 0.00040222183 -0.015954137
-0.015216385 -0.09844794 0.0049996655 0.53810394 0.22294867 0.03280323 0.12378021 0.19955727
0.3640966 0.44239008 -0.008293519 0.0004433103 0.0009967887 0.3693936 -0.019186342 0.07042333
0.6763503 -0.005411476 0.0030197753 0.17956825 0.07597034 0.0024424512 0.067687765 0.4760105
-0.006199089 -0.042577013 0.551251 -0.054880574 0.35093233 -0.006307716 0.37204576 -0.075453244
0.089244306 0.36714578 -0.044621862 0.08988242 -0.097855814 -0.21504979 0.52922475 0.1997284
00000000: b2d1 c7bd 915d b9bd e50b 433d 7dde 8dbc
00000010: e30f 3f3d 2764 f73c 4911 603e 83e2 3cbd
00000020: e82c 9abc d31e e63d 5d22 5dbd 6201 453d
00000030: f652 ec3d 6ad0 353c e949 913d e3e3 203d
00000040: 8295 0f3d 7c72 be3c 9606 bcbc df6f 2cbc
00000050: bae3 8abd c9d1 9b3e 4de1 d239 40b2 82bc
00000060: 254e 79bc 139f c9bd 3cd4 a33b 2ec1 093f
00000070: a84c 643e ae5c 063d 7b80 fd3d be58 4c3e
00000080: df6a ba3e f480 e23e 8ae1 07bc 1a6c e839
00000090: aea6 823a 2821 bd3e ad2c 9dbc 1b3a 903d
000000a0: 4b25 2d3f c052 b1bb 6ce7 453b bde0 373e
000000b0: 5696 9b3d 8811 203b e29f 8a3d a6b7 f33e
000000c0: ba21 cbbb 3c65 2ebd c91e 0d3f 74ca 60bd
000000d0: 67ad b33e f5b0 cebb c87c be3e 3b87 9abd
000000e0: b8c5 b63d 88fa bb3e 6ac5 36bd 4614 b83d
000000f0: a168 c8bd 0336 5cbe 467b 073f 9a85 4c3e
