CC_ActorCritic/state_dict_model.pt (torch, 27719 bytes, 7 tensors)

fc1.weight f4 [64, 25]
0	0xbd6890ba	-0.056778647
1	0xbdfa0a6d	-0.1220902
2	0xbd946037	-0.07244914
3	0x3d1db3c0	0.0385015
4	0x3e3786b7	0.17922483
5	0xbdc3fbed	-0.095695354
6	0x3e24ad7b	0.16081803
7	0xbe25fb18	-0.16209066
8	0xbdb01eb0	-0.08599603
9	0x3e0ea05f	0.13928364
10	0x3dee0eca	0.116239145
11	0xbba7c500	-0.00511992
12	0x3e4bce03	0.19902806
13	0xbdd5cc3a	-0.10439344
14	0x3e144355	0.1447881
15	0xbe21bf9d	-0.15795751
16	0x3dbd8b2a	0.09255059
17	0xbdd789c7	-0.10524326
18	0x3ce425b3	0.027850008
19	0x3e407a3b	0.18796627
20	0x3e1a3db2	0.15062597
21	0xbd0086f3	-0.031378698
22	0x3d8110ea	0.06302054
23	0xbd2c4f13	-0.0420676
24	0xbe0856cb	-0.13314359
25	0xbd4e98a2	-0.05043853
26	0xbe8ac531	-0.2710357
27	0x3daa6122	0.08319308
28	0x3d508a31	0.05091304
29	0x3d15f03e	0.036606066
30	0x3e2c39ba	0.16818896
31	0x3dd245b7	0.10267203
32	0xbe03f2c2	-0.12885574
33	0x3e10b2e5	0.14130743
34	0xbc871d70	-0.01649353
35	0x3e488e09	0.19585432
36	0xbe8c9d9f	-0.27464005
37	0x3d5318b3	0.051537227
38	0x3e8ab3b7	0.27090237
39	0x3c9f2310	0.019425899
40	0x3e8ce5f2	0.27519184
41	0xbe28dbd5	-0.1649011
42	0x3debe0bc	0.11517474
43	0x3d8371e6	0.06418209
44	0x3d84135f	0.06449007
45	0x3d5eb370	0.054370344
46	0xbeed797c	-0.46381748
47	0x3dd6d95d	0.104906775
48	0x3d7fbedf	0.06243789
49	0xbde3d175	-0.11123935
50	0x3d15b50a	0.036549605
51	0xbdad66de	-0.08466886
52	0x3d9dcccd	0.07705078
53	0x3e1946e3	0.14968447
54	0x3d51d384	0.051227108
55	0xbe42ed49	-0.1903583
56	0x3e025416	0.12727389
57	0xbdbd4fcc	-0.09243736
58	0x3d0da58b	0.034581702
59	0xbe3b288c	-0.18277186
60	0xbdc46ea4	-0.095914155
61	0x3e32627e	0.17420384
62	0xbe0e7de7	-0.13915215
63	0xbe0cdc8a	-0.13756004
64	0x3d161473	0.036640596
65	0x3cf31fb8	0.02967821
66	0x3d644551	0.055730168
67	0x3e0069d8	0.12540376
68	0x3cfc8fe2	0.030830327
69	0x3deaa2ec	0.11456856
70	0x3afeb3fc	0.0019432302
71	0xbda27116	-0.07931726
72	0x3c25fd8c	0.010131251
73	0x3dfcaef5	0.12338058
74	0x3b111848	0.0022139717
75	0xbddb17dd	-0.10697911
76	0x3e04e0be	0.12976357
77	0x3d374d40	0.044751406
78	0x3d1e8396	0.03869971
79	0x3dc7e45a	0.097603515
80	0xbcddf263	-0.027093118
81	0xbe06e29d	-0.13172384
82	0x3db16b07	0.08662992
83	0x3e0a1d84	0.13487822
84	0xbdb47343	-0.08811047
85	0xbdebf9ad	-0.11522231
86	0xbd0fa718	-0.035071462
87	0x3c84adb2	0.016196106
88	0xbde4c935	-0.1117119
89	0xbdcfcaea	-0.10146125
90	0x3db5eed0	0.088834405
91	0xbe5556ce	-0.20833895
92	0x3dc202d7	0.09473198
93	0xbc759e90	-0.0149914175
94	0xbe1b9edb	-0.15197317
95	0xbe32726e	-0.17426464
96	0x3d9d2b0e	0.07674228
97	0xbe178833	-0.1479805
98	0x3e0cff2f	0.1376922
99	0x3dcf7740	0.10130167
100	0xbd59c6ae	-0.05316799
101	0xbec81d3b	-0.390848
102	0x3e211558	0.15730798
103	0x3e0edf4d	0.1395237
104	0xbdd13e99	-0.10217018
105	0x3e78f3c2	0.24311736
106	0x3ecf76fd	0.40520468
107	0x3c32561d	0.010884789
108	0x3cabfe36	0.02099524
109	0x3e178db1	0.14800145
110	0x3e6d2082	0.23156932
111	0x3c2c0e2e	0.010501428
112	0xbdd9f6b8	-0.10642761
113	0x3e2b6ab5	0.16739924
114	0x3d3d83dc	0.04626833
115	0xbcdfb484	-0.027307756
116	0xbddc0f79	-0.10745139
117	0xbe0f9058	-0.14019907
118	0xbe08a84a	-0.13345447
119	0xbe0a8287	-0.13526355
120	0xbdb3c225	-0.087772645
121	0xbed5ee6c	-0.41783464
122	0xbe112068	-0.14172518
123	0xbe317f19	-0.1733364
124	0xbdd78016	-0.10522477
125	0xbdce99a3	-0.10087898
126	0xbd7b8c00	-0.06141281
127	0x3e231a9a	0.15928116
128	0xbe24ff32	-0.16112974
129	0x3dc231ba	0.09482141
130	0x3db5e590	0.08881676
131	0xbe34b055	-0.1764539
132	0xbe046c9d	-0.12932058
133	0xbd5a0027	-0.0532228
134	0x3e3f4ded	0.1868207
135	0xbe3e79cb	-0.18601148
136	0xbd30e027	-0.04318252
137	0x3bafcfcd	0.005365348
138	0x3e0eece0	0.13957548
139	0x3de114ad	0.10990272
140	0xbdd237ea	-0.10264571
141	0x3d7a5e67	0.061125185
142	0xbc184533	-0.009293842
143	0xbe1f1383	-0.15534787
144	0x3d0830ba	0.033249594
145	0xbe038615	-0.12844117
146	0x3e4c422a	0.19947115
147	0x3e376a78	0.17911708
148	0xbd032753	-0.032019924
149	0xbe183ccd	-0.14866944
150	0x3e4f36a2	0.20235685
151	0xbed8c04a	-0.42334205
152	0x3d882e2e	0.06649433
153	0x3c711369	0.0147141
154	0xbe8cab03	-0.27474222
155	0x3d396f58	0.0452722
156	0x3e902888	0.28155923
157	0x3da1363c	0.078716725
158	0x3e301d81	0.17198755
159	0xbe12d497	-0.14338909
160	0x3e8a29ab	0.26984915
161	0xbceced4a	-0.028921742
162	0xbd7b7bb7	-0.06139728
163	0xbd9d02f6	-0.076665804
164	0x3c8e0fcb	0.017341515
165	0x3de8eba9	0.113730736
166	0xbe2412f1	-0.1602285
167	0xbdac9b1e	-0.08428024
168	0xbc1d8f00	-0.009616613
169	0x3dd57180	0.10422039
170	0x3e4f7e3f	0.20263003
171	0xbecf99e2	-0.4054709
172	0x3d8b6d0a	0.06807907
173	0x3d0fe861	0.035133723
174	0xbda2241a	-0.07917042
175	0x3c16999b	0.009191896
176	0xbeaf9c82	-0.34299093
177	0xbd4755f7	-0.048665967
178	0x3cb9f427	0.022699429
179	0xbe61e771	-0.22060944
180	0x3d115aa4	0.035486832
181	0xbe51394b	-0.20432012
182	0x3e11f88d	0.14254971
183	0x3dd33bb8	0.10314125
184	0x3da8c717	0.082410984
185	0xbe074231	-0.13208844
186	0xbdb605c6	-0.0888782
187	0xbd541118	-0.051774114
188	0x3ddcbc39	0.10778088
189	0x3ce0fb8a	0.027463693
190	0x3d3ac190	0.04559475
191	0xbc6c116e	-0.014408452
192	0xbd209d84	-0.03921272
193	0x3e7ab0a8	0.24481452
194	0xbca8ac82	-0.02059007
195	0x3dd7df03	0.10540583
196	0xbd8fe8d6	-0.07026832
197	0x3e022ed4	0.12713176
198	0xbd942533	-0.07233658
199	0xbcba64af	-0.022753088
200	0x3c9d6826	0.0192147
201	0xbc584fda	-0.013202632
202	0xbe3f2680	-0.1866703
203	0xb9fc6006	-0.0004813673
204	0xbdd162f3	-0.10223951
205	0xbe3a6214	-0.18201476
206	0x3c8e1fd2	0.017349157
207	0x3e02ceef	0.12774251
208	0xbdf489bc	-0.11940333
209	0xbe3b23ff	-0.1827545
210	0xbe04ae9b	-0.12957232
211	0xbd69b254	-0.057054833
212	0x3e326335	0.17420657
213	0xbcef05cd	-0.02917757
214	0xbe005c65	-0.12535246
215	0xbe690a0c	-0.22757739
216	0x3dceb42b	0.10092958
217	0xbe4d80ce	-0.20068666
218	0xbd8ee334	-0.06976929
219	0xbe44f17a	-0.19232741
220	0x3dd9c4cc	0.10633239
221	0xbdae3ef1	-0.08508099
222	0xbc9c62b0	-0.019090027
223	0x3dc09be2	0.09404732
224	0xbdc8c760	-0.09803653
225	0xbe653acc	-0.2238571
226	0x3ededf49	0.43529728
227	0xbe08e64c	-0.13369101
228	0xbe6fa32c	-0.23402089
229	0x3e8b3ae8	0.2719338
230	0xbd490e3d	-0.049085844
231	0xbf0c24ea	-0.54743826
232	0x3b6b4b11	0.0035902897
233	0xbe0a9d59	-0.13536586
234	0xbdfef36c	-0.12448773
235	0xbe3fec65	-0.18742521
236	0xbd446e51	-0.04795677
237	0xbdd683a2	-0.10474326
238	0xbd96449d	-0.07337306
239	0x3d56ae89	0.052412543
240	0xbd3bc66d	-0.04584353
241	0x3e06b8de	0.13156459
242	0x3ccb92b4	0.024850227
243	0xbdc4d1f8	-0.09610361
244	0xbdb10fc8	-0.08645588
245	0x3d201c3c	0.039089426
246	0x3ec8702a	0.39148074
247	0x3de22861	0.11042858
248	0xbdadc5bc	-0.084849805
249	0xbdd7cab7	-0.10536712
250	0x3e3a207b	0.18176453
251	0xbe81af4d	-0.25329056
252	0x3e3a040c	0.18165606
253	0xbd04ea21	-0.032449845
254	0xbd08d0f9	-0.033402417
255	0x3e3b7c06	0.1830903

fc1.bias f4 [64]
0	0xbe429f18	-0.19006002
1	0x3ddb16fa	0.10697742
2	0xbe3f5ec9	-0.18688501
3	0xbdaf329d	-0.085545756
4	0x3e5459a8	0.20737326
5	0x3e284357	0.16431938
6	0xbdaf2be2	-0.08553292
7	0x3d39cb7e	0.04536008
8	0x3e01169c	0.12606281
9	0xbe6c17c8	-0.23055947
10	0x3dc4c922	0.096086755
11	0x3e2eaeba	0.1705884
12	0xbbbf9ba6	-0.005847412
13	0x3db3c04a	0.087769106
14	0xbb9d1033	-0.004793191
15	0xbe4b2663	-0.19838862
16	0xbe666c55	-0.22502263
17	0x3d9ade29	0.07561905
18	0xbc825b89	-0.015912788
19	0xbcec8227	-0.028870655
20	0xbea14407	-0.31497213
21	0xbc7b60f2	-0.015342938
22	0x3e3d3102	0.18475726
23	0xbc1f983c	-0.009740885
24	0xbe8f59c3	-0.2799817
25	0xbd8208dd	-0.06349347
26	0xbc74e57a	-0.01494729
27	0xbdb38fcb	-0.08767661
28	0x3e393be6	0.18089256
29	0x3e00ec6a	0.12590185
30	0x3e1dd55f	0.15413426
31	0xbd2d1db5	-0.04226466
32	0x3d2bb759	0.0419229
33	0x3d69a8f3	0.05704589
34	0x3db3159f	0.08744358
35	0xbd959f72	-0.073058024
36	0xbe3d0f2e	-0.18462822
37	0xbda6a2a5	-0.08136491
38	0xbcb657a1	-0.022258582
39	0xbde5a965	-0.1121395
40	0xbe96cc54	-0.29452765
41	0x3dfd2fa9	0.12362606
42	0xbe63f6ba	-0.22262087
43	0x3e2e8457	0.17042671
44	0x3e36e7a1	0.17861797
45	0x3da55f36	0.08074801
46	0x3e71738d	0.23579235
47	0xbd6a25e3	-0.057165038
48	0xbdd90911	-0.105974324
49	0xbcd39c9a	-0.02583151
50	0xbdfc90f3	-0.12332334
51	0xbe54151d	-0.20711179
52	0xbde8f98e	-0.11375724
53	0x3d19b453	0.037525486
54	0x3e845d61	0.25852492
55	0x3d9ab960	0.07554889
56	0xbdf7814b	-0.120852076
57	0xbddc239f	-0.10748982
58	0x3e04a857	0.12954842
59	0xbe034953	-0.1282094
60	0x3e5b653c	0.21425337
61	0x3d844f2a	0.06460412
62	0xbd44fcf1	-0.048092786
63	0x3e27ecbd	0.16398902

fc2.weight f4 [64, 64]
0	0x3dbf67a4	0.0934594
1	0xbdeb7138	-0.11496204
2	0xbd9c4cbc	-0.076318234
3	0x3d508eb8	0.050917357
4	0x3d268c0f	0.040660914
5	0x3de1c90a	0.11024673
6	0xbc3032b0	-0.010754272
7	0xbcccf070	-0.025016993
8	0xbdab1d96	-0.083552524
9	0xbd8be6ac	-0.068311065
10	0x3c693179	0.014232987
11	0xbdc4297a	-0.095782235
12	0x3dbf559a	0.09342499
13	0xbda980d0	-0.08276522
14	0x3ddf30fe	0.108980164
15	0x3d4383cc	0.047733113
16	0x3ce53a95	0.027982036
17	0xbd054b10	-0.03254229
18	0xbda30bf4	-0.07961264
19	0xbd9efd52	-0.07763161
20	0xbd772009	-0.060333285
21	0xbcc0c259	-0.023530172
22	0xbd7bda2b	-0.061487358
23	0x3bbad200	0.0057013035
24	0x3da31ba5	0.07964257
25	0x3de07ee4	0.109617025
26	0xbd0695c8	-0.032857686
27	0x3df14c3a	0.11782117
28	0x3c449acd	0.011999798
29	0xbdd07522	-0.10178591
30	0xbc2fa140	-0.010719597
31	0xbd4e8724	-0.05042185
32	0xbccc4254	-0.024933971
33	0xbd4349e4	-0.04767789
34	0xbc8c81c8	-0.017151728
35	0x3dc49f64	0.09600714
36	0xbd5ff8fc	-0.05468081
37	0xbde3b389	-0.11118228
38	0xbd6ca758	-0.05777678
39	0x3c1b7ca0	0.009490162
40	0xbbf48e63	-0.007463263
41	0x3daafe5a	0.08349295
42	0x3d3e8f68	0.04652348
43	0xbe006ab0	-0.12540698
44	0x3d101313	0.03517444
45	0x3c0fa2a0	0.0087668
46	0xbd2d2a1a	-0.04227648
47	0xbd4052fa	-0.046954133
48	0x3d92b8e4	0.07164171
49	0x3dc6e452	0.097115174
50	0x3d729a24	0.05922903
51	0x3cc40c0a	0.023931522
52	0x3d1e2fc0	0.038619757
53	0xbd9a3702	-0.07530023
54	0xbd9490da	-0.07254191
55	0xbdeaecc2	-0.11470939
56	0xbd6d9500	-0.058003426
57	0x3dfe9bb8	0.12432045
58	0x3d5986b2	0.05310697
59	0x3df5add2	0.11996044
60	0x3d7f218c	0.062287852
61	0xbcbabf80	-0.022796392
62	0xbd7fe500	-0.06247425
63	0x3de4e844	0.11177114
64	0xbcf965e8	-0.0304441
65	0x3e536729	0.20644821
66	0x3d2cb9a8	0.042169243
67	0xbdc269c2	-0.09492828
68	0x3d3e1a9b	0.04641209
69	0x3dc38170	0.095461726
70	0x3d5d722c	0.05406396
71	0x3cb9e8ad	0.022693956
72	0x3dbeb276	0.093113825
73	0xbdd68117	-0.10473841
74	0x3add9285	0.0016904628
75	0x3d6f9828	0.058494717
76	0x3eda1f84	0.4260217
77	0x3ea8c229	0.32960632
78	0xbddd3f22	-0.10803057
79	0x3d1698a0	0.03676665
80	0xbd22fc0f	-0.039791163
81	0xbd75f5d4	-0.060048893
82	0x3d5bdf4a	0.053679742
83	0x3d9de4f2	0.077096835
84	0xbe52419c	-0.2053284
85	0x3c8545e4	0.016268678
86	0x3e4655c2	0.19368652
87	0xbe15dad2	-0.14634255
88	0xbe8a1e45	-0.2697622
89	0xbb653fc0	-0.0034980625
90	0x3af3a835	0.0018589558
91	0xbde30a12	-0.11085905
92	0x3e19b8a6	0.15011844
93	0x3dbc495a	0.09193678
94	0xbdf34919	-0.11879177
95	0x3da76df2	0.08175267
96	0x3da8ab3d	0.08235786
97	0x3c8cd778	0.017192587
98	0x3c830995	0.01599578
99	0xbd838920	-0.06422639
100	0x3c2642b0	0.0101477355
101	0xbe34540a	-0.17610183
102	0xbcc518b3	-0.024059629
103	0xbe1dc126	-0.15405712
104	0xbe60865f	-0.21926259
105	0x3d0875fe	0.03331565
106	0x3a63534d	0.00086717756
107	0x3dd851d6	0.10562484
108	0x3e8887e6	0.26666182
109	0xbd9125a9	-0.07087261
110	0x3e992d1a	0.29917222
111	0x3e5e1980	0.21689415
112	0x3c9a1997	0.01881103
113	0xbc837440	-0.016046643
114	0xbc99c2a8	-0.018769577
115	0xbdfd8731	-0.12379301
116	0xbcfaa468	-0.030595973
117	0x3de7142d	0.11283145
118	0xbca354f8	-0.019937977
119	0xbcce1948	-0.02515854
120	0x3dc66acd	0.096883394
121	0xbdb98a06	-0.09059529
122	0xbe444033	-0.19165115
123	0xbdf5a822	-0.119949594
124	0x3cd0960f	0.025462179
125	0xbde2a136	-0.11065905
126	0xbd0ac658	-0.03388056
127	0xbd6cd238	-0.057817668
128	0x3cbb5078	0.022865519
129	0xbd6debef	-0.058086332
130	0x3c795b50	0.0152195245
131	0xbd878c8a	-0.066186026
132	0x3d471eb4	0.048613265
133	0x3a255800	0.00063073635
134	0xbd2a4426	-0.041568898
135	0xbdd30ab3	-0.10304775
136	0xbd77a352	-0.06045849
137	0xbd646182	-0.055757053
138	0xbd7832d0	-0.060595334
139	0xbd160aed	-0.036631513
140	0x3bfc5f76	0.0077018095
141	0x3c85a7f1	0.016315432
142	0x3deaad4c	0.11458835
143	0x3d2e43b4	0.042545035
144	0xbd2fa3e4	-0.042880908
145	0xbc969b1b	-0.018384507
146	0x3d796277	0.06088492
147	0x3da42622	0.08015086
148	0x3db19b52	0.08672203
149	0x3d177ac3	0.03698231
150	0x3b587c29	0.003303299
151	0xbdf5eedd	-0.1200845
152	0xbd38639a	-0.045016862
153	0xbc9067d3	-0.017627632
154	0x3dae01f9	0.0849647
155	0xbd411fea	-0.047149576
156	0x3d81a3b5	0.06330053
157	0xbbabb9de	-0.005240663
158	0x3dee0634	0.11622277
159	0x3dd33dc1	0.10314513
160	0xbd89fe8e	-0.067380056
161	0xbdff2794	-0.12458721
162	0xbdfb3ee4	-0.12267855
163	0xbdd295f6	-0.10282509
164	0xbdfc2a25	-0.12312726
165	0xbd6d5462	-0.0579418
166	0xbd49318f	-0.04911953
167	0xbc39c73b	-0.011339004
168	0xbd6bee12	-0.05760009
169	0xbc322590	-0.010873213
170	0xbdf8a891	-0.121415265
171	0xbde46183	-0.111514114
172	0xbd55f82a	-0.05223862
173	0xbd6614cc	-0.056172177
174	0xbd3ed636	-0.046591006
175	0xbe0c4e31	-0.13701703
176	0x3d88e245	0.066837825
177	0xbd79e62c	-0.061010525
178	0x3d004bf4	0.031322435
179	0xbda9923b	-0.082798444
180	0x3dfb73fc	0.12277982
181	0x3da457f2	0.08024587
182	0xbdc51d30	-0.09624708
183	0xbd8056ec	-0.06266579
184	0x3db67767	0.08909493
185	0xbdebbf31	-0.11511076
186	0x3dc83cfb	0.09777256
187	0xbdd1332c	-0.102148384
188	0x3d3fa2d9	0.046786163
189	0xbbf0b2a0	-0.0073455125
190	0x3cdf23d8	0.027238771
191	0x3db22c90	0.08699906
192	0xbbdc9a40	-0.006732255
193	0x3d4121b9	0.0471513
194	0x3e42164a	0.18953815
195	0xbd2944d0	-0.04132539
196	0x3e5fc53d	0.21852584
197	0xbcf2eef8	-0.029654965
198	0x3e3ec724	0.18630654
199	0xbd1842ae	-0.037172966
200	0xbe1a9b01	-0.15098192
201	0xbd32eb95	-0.0436817
202	0x3df22468	0.1182335
203	0x3e35ea92	0.17765263
204	0xbefc4cd5	-0.49277368
205	0xbe967d0b	-0.29392275
206	0xbcc8f0e0	-0.02452892
207	0xbcd02000	-0.025405884
208	0x3e010b33	0.12601928
209	0x3d5911e6	0.052995585
210	0x3d1ef1e1	0.038804892
211	0x3d3e93a4	0.04652752
212	0x3e012ca3	0.12614684
213	0xbcdf5b5b	-0.027265241
214	0x3d68461a	0.05670748
215	0x3c385f18	0.011253141
216	0x3de15ed1	0.11004413
217	0x3dbafde1	0.09130455
218	0x3d05f78b	0.03270678
219	0x3cc2a022	0.023757998
220	0xbdbd9da1	-0.09258581
221	0x3cc85c40	0.02445805
222	0x3d74e12c	0.059785053
223	0x3d931e02	0.07183458
224	0x3d8c5b60	0.06853366
225	0x3deee882	0.11665441
226	0x3d88a552	0.06672157
227	0xbdb82fb2	-0.08993472
228	0x3deef63e	0.11668061
229	0x3d417a61	0.04723585
230	0x3d11958d	0.035543013
231	0x3c4f7eab	0.012664477
232	0x3e38e87b	0.18057434
233	0x3d52f975	0.051507432
234	0x3d9b8dd9	0.07595415
235	0x3e1c20ae	0.15246841
236	0x3e17e1af	0.14832185
237	0x3d146c6d	0.036236215
238	0xbe436333	-0.1908081
239	0xbde781a9	-0.113040276
240	0x3c909301	0.017648222
241	0xba40b600	-0.0007351339
242	0xbc79e3e0	-0.015252084
243	0x3d72be1c	0.059263334
244	0xbd80743e	-0.062721714
245	0x3d71f35b	0.059069972
246	0x3db0c2f3	0.086309336
247	0xbd369520	-0.04457581
248	0x3d3eb579	0.046559785
249	0x3d937f7e	0.072020516
250	0x3f3644a5	0.71198493
251	0x3db43f88	0.0880118
252	0x3b823c78	0.0039744936
253	0xbc9fc740	-0.01950419
254	0x3d1c1ec6	0.038115285
255	0x3d45346c	0.048145697

fc2.bias f4 [64]
0	0xbcd67d10	-0.026182681
1	0x3d908b40	0.0705781
2	0xbb5f138f	-0.0034038757
3	0x3c13b97b	0.00901639
4	0x3e6315f7	0.22176348
5	0xbe1759b6	-0.14780316
6	0xbda9e48c	-0.08295545
7	0x3e168f97	0.14703213
8	0xbd0e7310	-0.0347777
9	0x3d16b07c	0.036789402
10	0xbe15e6dd	-0.14638849
11	0xbde911cb	-0.11380347
12	0xbdaa4d19	-0.083154865
13	0xbde77d2d	-0.11303172
14	0x3d00bf86	0.03143265
15	0x39fd6f15	0.00048338683
16	0x3c316f47	0.010829753
17	0x3de0474a	0.10951097
18	0xbe02bca3	-0.12767272
19	0x3e90fb29	0.2831662
20	0x3da1616c	0.0787991
21	0x3c806fff	0.015678404
22	0x3e101df4	0.14073926
23	0x3d7d9cec	0.06191723
24	0xbdb502c3	-0.088384174
25	0x3e9a5ad8	0.30147433
26	0xbd36015f	-0.0444349
27	0xbd0f4877	-0.034981217
28	0x3deb6164	0.11493185
29	0xbda07d5b	-0.0783641
30	0xbdaac869	-0.083390065
31	0xbd3b8bf5	-0.04578777
32	0xbdb0cd6a	-0.086329296
33	0x3e38d00a	0.1804811
34	0x3cf48ce6	0.029852342
35	0x3d59658f	0.05307537
36	0x3dc3bf7d	0.09558008
37	0x3e6e374d	0.23263283
38	0xbc945099	-0.018104838
39	0x3e89c790	0.26910067
40	0x3dfdb063	0.12387159
41	0xbc70b4cc	-0.014691543
42	0xbd939f9b	-0.07208177
43	0x3c9ffa16	0.01952843
44	0x3e32d820	0.17465258
45	0xbd6b4551	-0.057439152
46	0xbdb2ebcc	-0.08736381
47	0xbdc6470f	-0.09681522
48	0xbdd5c309	-0.10437591
49	0x3e095287	0.13410388
50	0xbdb322e0	-0.08746886
51	0xbda69b71	-0.08135117
52	0xbda8d6d8	-0.08244103
53	0x3c0a6919	0.008447909
54	0xbd573b38	-0.05254671
55	0xbe00bf48	-0.12572968
56	0xbdbeabf1	-0.09310139
57	0xbdf8368a	-0.121197775
58	0xbd7abc5c	-0.06121479
59	0x3e0cdfd4	0.13757259
60	0x3d0f30f2	0.034958787
61	0x3df668c0	0.12031698
62	0x3d18e6fc	0.03732966
63	0xbddcdde1	-0.107845075

pi.weight f4 [5, 64]
0	0xbdb54ade	-0.088521704
1	0xbe2a5120	-0.16632509
2	0xbdc45324	-0.0958617
3	0xbf994e9b	-1.1977113
4	0xbf935f13	-1.1513389
5	0xbd42d964	-0.0475706
6	0xbdc1eed6	-0.094693825
7	0xbe97a833	-0.29620513
8	0x3bf9d3d7	0.00762413
9	0xbe9e051f	-0.30863282
10	0xbf00776e	-0.50182235
11	0x3d6e66d4	0.058203533
12	0xbdf0040a	-0.117195204
13	0xbfadb45e	-1.3570669
14	0xbde80ed7	-0.113309555
15	0x3dd4af90	0.103850484
16	0x3c1fd58e	0.009755505
17	0xbf59451d	-0.84871083
18	0xbf74c013	-0.9560558
19	0xbfd8dc24	-1.6942182
20	0xbe2422a0	-0.16028833
21	0x39eb5569	0.00044886328
22	0xbef503c6	-0.4785444
23	0xbf00c203	-0.5029604
24	0xbdec66d2	-0.11543049
25	0xbfd41198	-1.6567869
26	0xbfaa7e4a	-1.331979
27	0xbe9ab433	-0.30215606
28	0xbfec9fbd	-1.8486248
29	0xbc37fe6d	-0.011230093
30	0xbc1dd16a	-0.009632448
31	0x3d59e0d0	0.053192914
32	0xbd9bbbf1	-0.07604206
33	0xc00ffb38	-2.2497082
34	0x3d9af9b4	0.07567158
35	0x3c87d0c7	0.016579045
36	0xbf1d6fcb	-0.6149871
37	0xc045c56b	-3.0901744
38	0xbf998f38	-1.1996832
39	0xbfc7d127	-1.5610703
40	0xbf1bed85	-0.609093
41	0xbe2da408	-0.16957104
42	0xbf8623fe	-1.0479734
43	0xbe059140	-0.1304369
44	0xbf42d872	-0.7611152
45	0xc030a3f6	-2.7600074
46	0x3d5274b6	0.051380835
47	0xbf94d4bf	-1.1627425
48	0x3dd5612f	0.10418927
49	0xbf3174bf	-0.69318765
50	0x3df3f4b8	0.11911911
51	0x3d583f1f	0.052794572
52	0xbd90b886	-0.07066445
53	0xbbcd47ed	-0.0062646777
54	0x3ca4886b	0.02008458
55	0x3d8afac6	0.067861125
56	0x3df9a068	0.12188798
57	0x3d7fe824	0.062477246
58	0x3d6230d0	0.055222332
59	0xbebc2185	-0.36744323
60	0xbfa1ab94	-1.2630486
61	0xbf833d0e	-1.0253007
62	0xbfa5dff4	-1.295897
63	0xbe1dbeba	-0.15404788
64	0xbd453e54	-0.048155144
65	0xbd153a24	-0.0364324
66	0xbd8fe201	-0.07025529
67	0xbf8a7b50	-1.0818882
68	0xbfa2529f	-1.2681464
69	0x3df769e8	0.12080747
70	0xbaac5bbe	-0.00131499
71	0xbea27549	-0.31730106
72	0x3ce2e5bb	0.027697435
73	0xbead8b54	-0.3389536
74	0xbe860b74	-0.26180613
75	0xbc085620	-0.008321315
76	0x3dc5b114	0.096529156
77	0xbfabda14	-1.3425927
78	0xbb8be7c8	-0.004269574
79	0xbaf4f800	-0.0018689632
80	0xbbc15cc9	-0.0059009534
81	0xbf7c442b	-0.98541516
82	0xbf8480bb	-1.0351785
83	0xbfdfb27a	-1.7476342
84	0xbe1fc881	-0.1560383
85	0x3cd446e4	0.02591271
86	0xbe787aea	-0.24265638
87	0xbf12751c	-0.57209945
88	0xbd0ee2fa	-0.03488443
89	0xbfe47796	-1.7848995
90	0xbfa183fd	-1.2618405
91	0xbf066452	-0.52496827
92	0xbfacb3a3	-1.3492321
93	0x3d9cea2c	0.07661852
94	0xbd32d843	-0.043663274
95	0xbd0f979d	-0.0350567
96	0xbdc4cb4e	-0.0960909
97	0xc0045d2b	-2.0681865
98	0xbd90049e	-0.07032131
99	0xbd21a9c2	-0.039468534
100	0xbf2bbb58	-0.6708274
101	0xbff65aab	-1.924642
102	0xbf977c5f	-1.183483
103	0xbfe10f15	-1.7582728
104	0xbf3cb03f	-0.7370643
105	0xbe019032	-0.12652662
106	0xbf4e5ba6	-0.80608594
107	0x3d536989	0.051614318
108	0xbf2e4088	-0.68067217
109	0xc0200bf2	-2.500729
110	0xbcac113c	-0.021004312
111	0xbf9434d3	-1.1578621
112	0xbde67d0f	-0.11254322
113	0xbf17b3db	-0.5925881
114	0xbdf8f4ca	-0.12156065
115	0xbde3e4ec	-0.11127648
116	0x3d00dec8	0.03146246
117	0xbcbe04e6	-0.023195695
118	0xbbdf5a5c	-0.0068161916
119	0xbd4c6f04	-0.04991056
120	0xbdee9fb2	-0.11651553
121	0x3dcadf00	0.09905815
122	0x3d5a9f5e	0.05337464
123	0xbf0c41f7	-0.54788154
124	0xbf9aa59d	-1.2081791
125	0xbef75adf	-0.48311517
126	0xbfb49b91	-1.4109975
127	0xbe17b718	-0.14815938
128	0xbd4582b0	-0.048220336
129	0xbc574ed2	-0.013141351
130	0x3d74c878	0.059761494
131	0xbf9b35fc	-1.212585
132	0xbf77591b	-0.9662034
133	0x3dde1f36	0.10845797
134	0x3d9b2ac6	0.07576518
135	0xbee95640	-0.45573616
136	0x3d3c7d90	0.046018183
137	0xbe614440	-0.21998692
138	0xbec810bc	-0.39075267
139	0xbd8a518a	-0.067538336
140	0xbcfeb6f8	-0.031093106
141	0xbfae678d	-1.3625351
142	0x3d423e86	0.04742291
143	0x3cdc2f98	0.026878163
144	0x3c93f679	0.018061863
145	0xbf25a232	-0.64700615
146	0xbf9d2a63	-1.227856
147	0xbfb86fe7	-1.440915
148	0xbeb2cc15	-0.34921327
149	0xbbc68a37	-0.006058957
150	0xbed09150	-0.40735865
151	0xbf2073ac	-0.626765
152	0xbe8f9475	-0.2804295
153	0xbfd1e1d0	-1.6397038
154	0xc04bd3be	-3.1847987
155	0xbecdb570	-0.40177488
156	0xbf44a0c0	-0.76807785
157	0xbb18fb99	-0.0023343323
158	0xbdaff72f	-0.085920684
159	0x3d67cbe4	0.05659093
160	0xbda8056c	-0.08204159
161	0xc03c70a4	-2.944375
162	0xbe9894c1	-0.2980099
163	0xbd662efd	-0.056197155
164	0xbf25a0cd	-0.6469849
165	0xbfb44e23	-1.4086345
166	0xbfb36cf6	-1.4017627
167	0xbfaff9ea	-1.3748143
168	0xbea74fc0	-0.32678032
169	0xbe2a6218	-0.16638982
170	0xbf7e306f	-0.99292654
171	0xbd03c124	-0.032166615
172	0xbf40faae	-0.75382507
173	0xc050a1f1	-3.259884
174	0x3c5951c6	0.013264125
175	0xbfd572e2	-1.6675684
176	0x3daea983	0.085284255
177	0xbf180855	-0.59387714
178	0xbca30cd8	-0.019903585
179	0x3c9a5b3a	0.018842328
180	0x3d372e68	0.04472199
181	0xbe49b3cc	-0.19697493
182	0x3dcd7c87	0.10033517
183	0x3dcb02f9	0.09912676
184	0x3d8e517e	0.06949137
185	0x3cfff548	0.031244889
186	0xbdbcb7e1	-0.092147596
187	0xbeaf455b	-0.34232602
188	0xbf8f70d2	-1.1206305
189	0xbe9905a5	-0.2988712
190	0xbf96d0ef	-1.1782511
191	0xbe6dc9ef	-0.23221563
192	0xbbac2560	-0.005253479
193	0xbe3be6ba	-0.18349734
194	0xbcf75a1b	-0.030194333
195	0xbf9e444a	-1.236459
196	0xbf89cf55	-1.0766398
197	0x3da89324	0.0823119
198	0xbdea2bae	-0.114341125
199	0xbe9f3750	-0.31096888
200	0x3cc43ddd	0.02395528
201	0xbea5e6c7	-0.32402632
202	0xbeb91595	-0.36149278
203	0x3dcffe2a	0.101559
204	0x3d6c8004	0.057739273
205	0xbfbe2677	-1.4855489
206	0xbd6e0215	-0.058107454
207	0xbd8d4b4a	-0.06899126
208	0xbd811365	-0.06302527
209	0xbf78aba1	-0.97136885
210	0xbf9a2202	-1.2041628
211	0xbfcf2224	-1.6182294
212	0xbd8ce750	-0.06880057
213	0xbdce4fea	-0.10073836
214	0xbe74c26a	-0.23902288
215	0xbf262a9d	-0.6490877
216	0xbea9296d	-0.33039418
217	0xbfc6b947	-1.5525292
218	0xbfba3c57	-1.4549664
219	0xbf7ce091	-0.9878016
220	0xbfb4e094	-1.4131036
221	0xbd8c0a0c	-0.06837854
222	0xbdc783fa	-0.097419694
223	0x3de198af	0.1101545
224	0x3e0037b2	0.12521246
225	0xc00de093	-2.216832
226	0x3c48c882	0.012254836
227	0xbc6ce249	-0.014458247
228	0xbf07fc6b	-0.53119534
229	0xc09ac39f	-4.8363795
230	0xbf0284ea	-0.5098406
231	0xbfa24d32	-1.2679808
232	0xbed41e88	-0.41429543
233	0xbdd7e11b	-0.10540982
234	0xbf45d904	-0.77284265
235	0xbd9f7cf1	-0.077875026
236	0xbedb7eed	-0.42870274
237	0xbfc9abe3	-1.5755581
238	0xbdda6087	-0.106629424
239	0xbf8f5127	-1.1196641
240	0x3d956ac7	0.07295757
241	0xbeb9bb1d	-0.3627557
242	0xbd59988c	-0.053123996
243	0x3d995079	0.07486052
244	0xbd94d702	-0.07267572
245	0x3d9dbcd1	0.077020295
246	0xbd14c7f3	-0.0363235
247	0x3d692e77	0.056929078
248	0xbddc0b82	-0.107443824
249	0x3cabfae8	0.020993665
250	0x3e042fae	0.12908813
251	0xbeec66a1	-0.4617205
252	0xbfa1e3af	-1.2647609
253	0xbea36759	-0.31914786
254	0xbf990c2f	-1.1956843
255	0xbe49d1f8	-0.19709003

pi.bias f4 [5]
0	0xc0055b91	-2.0837138
1	0xc012f760	-2.2963486
2	0xbff6ee48	-1.9291468
3	0xc0020cde	-2.0320354
4	0x40310b76	2.7663245

v.weight f4 [1, 64]
0	0xbcfbb23a	-0.030724633
1	0x3ed164ea	0.40897304
2	0xbd499ed3	-0.049223732
3	0xbe2b7923	-0.16745429
4	0x3e6c9efe	0.23107526
5	0x3d92247c	0.07135865
6	0x3c59e9c0	0.013300359
7	0x3ec02624	0.375291
8	0x3d4b9e1e	0.04971134
9	0x3f0acb60	0.54216576
10	0xbc33ce53	-0.0109744845
11	0x3d909da9	0.07061321
12	0xbc502921	-0.012705118
13	0xbdd9ac51	-0.1062857
14	0xbcaa6909	-0.020802038
15	0x3d2cc576	0.0421805
16	0x3c02d353	0.007984954
17	0x3d88f4b6	0.066873
18	0xbd3954c0	-0.04524684
19	0x3e801c6e	0.2502169
20	0xbc3dd2a9	-0.01158587
21	0xbc8204ac	-0.015871368
22	0x3f09850b	0.5371863
23	0x3ec58fdb	0.38586316
24	0xbd99b933	-0.07506027
25	0x3e8fc8d4	0.28082907
26	0xbe7d53dc	-0.24739021
27	0xbc7fe825	-0.015619312
28	0x3d3df0b9	0.04637215
29	0xbc0fdc8b	-0.008780609
30	0x3d7afce5	0.061276335
31	0x3b44e161	0.0030041563
32	0x3e09a639	0.13442315
33	0x3d259307	0.04042342
34	0x3d12d86c	0.035850927
35	0x3c8b8cf3	0.017034983
36	0x3ec22972	0.37922245
37	0x3e0c489b	0.13699572
38	0x3b82cda3	0.003991799
39	0x3e8be227	0.27320978
40	0x3ed7febd	0.42186537
41	0x3c45efec	0.012081128
42	0xbcfbfcb1	-0.030760141
43	0xbc7622d1	-0.015022949
44	0x3f1ab19d	0.60427266
45	0xbc364f6a	-0.011127332
46	0x3cc5246c	0.024065219
47	0xbe55b682	-0.20870402
48	0xbd62267e	-0.05521249
49	0x3f035df9	0.51315266
50	0x3d9ac290	0.07556641
51	0xbde6e639	-0.1127438
52	0xbd86f9d8	-0.06590623
53	0xbc744723	-0.014909538
54	0x3cd39e99	0.025832461
55	0x3dadb4b1	0.0848173
56	0x3ba5f54a	0.005064641
57	0xbda9d32c	-0.08292231
58	0x3b5c1d38	0.0033586752
59	0x3ec08f9c	0.37609565
60	0xbdc8d468	-0.09806138
61	0x3f28090a	0.6563879
62	0x3e686771	0.2269571
63	0x3e2379dd	0.15964456
