CC_Reinforce_version_3/state_dict_model_v5.pt (torch, 84151 bytes, 6 tensors)

fc1.weight f4 [128, 25]
00000000: 733b 413e 1e09 dcbd 949c ca3d f1b9 463e
00000010: d345 19be 2fb0 343e bf25 103e b58a 463b
00000020: 81cc 9b3c aa3b 2cbe 0bcd 3a3e 6249 9abd
00000030: 97cd cc3c 6b1b 9dbc 8e17 f3bd 1a12 6b3d
00000040: 7171 a53d b42a 40be e680 49be bc56 93bc
00000050: 4b7e e2bd 26d0 ea3d 2b74 36bd 4209 80be
00000060: c9ae 04bc 710b 3abd 8109 2e3e a67c 8abd
00000070: aeb3 f1bb c00a a1bc cfe0 0d3e ec12 fdbd
00000080: 03ab f2bd 9eeb 2dbe afdc 4fbd 172d 36be
00000090: 8635 cb3d ba5f 67bd cd86 dfbd 9314 263e
000000a0: 5a30 2abd a27b da3d 88a8 94bc ccfd 94bd
000000b0: 780a 293e 4172 54bd 28b1 65bc e05a ccbd
000000c0: 5dd0 383e f101 2bbe f709 80bd 66de 133d
000000d0: af60 1d3b 94e1 9c3d c7c9 c7bd 71c3 463e
000000e0: 1a73 5a3d daee 243e f8dc 3cbe c328 2bbd
000000f0: edd5 fd3b 9699 b23c d1a9 a23b d7a4 87bd
00000100: d165 1c3d bb23 b1bd 5363 803d cdbe c7bd
00000110: 3fe7 203d 8c97 023d 466b 1dbe 05b1 40be
00000120: 90ab 11be 3d3c d03d dfce 1ebd 6e27 ee3d
00000130: 9384 403d f491 6abb 23f2 2cbd df16 bebd
00000140: e2c0 23bd 60ef 8e3b 3a3a f03d b638 9bbd
00000150: 739a 283e 78de bebc 1937 023e 0c7b 0dbe
00000160: c041 72be 9840 4839 31b5 9bbd 6d0a ff3c
00000170: 479a adbc c4eb ff3c 6058 23be 6925 2bbc
00000180: cc52 3d3e 9d92 443d 749e 933c d288 2bbe
00000190: 0907 113d 1cf0 fdbc b152 d4bc f366 0ebe
000001a0: 3ce5 323e ea6c 17be d922 bd3c 42b9 16be
000001b0: 9f2c b1bb 44ff aabd 192e 203e 8a07 39be
000001c0: 8de9 3c3e d0a3 e53d fef4 2dbd e51f 00be
000001d0: bf7c d1bd cf82 01bd edc4 303e 7ed2 d0bd
000001e0: a1d8 953d 9051 f93d 4a9a d1bb e8bf 793d
000001f0: 7e64 d9bd 0bf8 0bbe 0d0c 0c3d 5a6a d13c
00000200: b55c dc3d ec56 0a3e eb6d 08be b942 01be
00000210: 66b1 693d ad1d 89bd b119 b7bd 630a f6bb
00000220: b914 273e 12c6 2dbe 97cb 0cbe 93ae 1bbe
00000230: a7c0 8dbd f62a aabc 23a4 5fbd 859b e63d
00000240: 136d fa3d 80e5 d1bd 2334 da3d f8bf dc3d
00000250: 56c6 af3c ef4a ed3d ae11 953d fbad 2cbe
00000260: 1b69 14be 7c23 96bd 8046 ba3c 8f75 36be
00000270: 4050 1e3d ed3a 363e 201a adbd f962 453e
00000280: b0fe 713c 4378 183e 2aac 973d 938f 123e
00000290: 8cfb 49bd 40d1 cfbd 2d4d ccbd 7e18 27be
000002a0: a6f5 d53d 54f0 79bd 5c0c 513d 8ac7 84bd
000002b0: ed54 15be 4a4d e93d 1853 68bd 000a ceb9
000002c0: 8052 1bbd eae4 88bd eea7 c13d 4454 6d3d
000002d0: 5029 49bc d850 31bd 6d1a c3bd 904d 1cbe
000002e0: 4262 f03d 6d1b 2ebe 5011 dabc 6d94 b3bd
000002f0: ab5d 37be f51c 09be 2b47 14be f5f3 063e
00000300: 8e30 e03d a699 98bd 77e4 d3bd 30f4 7a3c
00000310: da42 8f3d 3ae1 bb3d 00e9 3d3c 41bc 2d3e
00000320: 1ee2 cb3c 8d00 14be a9f4 5fbe 1c27 0cbe
00000330: 6451 1cbe 0957 a9bc 19ac b3bd 7e2f 463e
00000340: a7ed 0b3e e360 babb 43c1 f13d 627a 8abd
00000350: 7e52 30be 7b28 363e fa42 90bd 50b1 25be
00000360: 73ef 6bbd 1586 1a3e fb06 38bd 54ca 0e3b
00000370: a122 c3bb 4ae7 70bd 3e85 3e3e b5f7 0ebe
00000380: f551 81bc bc87 a93d d85e e53b 791e d3bc
00000390: 8eed 2f3e f415 a4bc ef80 14bd 517e 46be
000003a0: 533a e8bd a06a f83d d352 2a3d 1a1a 1d3e
000003b0: 9562 59bd 8d8e a5bc 0954 f2bd 0372 7f3d
000003c0: e1c4 c7bd b25b 48bd e9c2 ef3d b133 f7bd
000003d0: f8b7 35bd 869c 29be 6190 433e 50dd 083e
000003e0: 956b fbbc 8af5 773d e6ac 073e f214 29bd
000003f0: 1073 253e 4d18 433e de0a b9bc cbf0 36bd
0.18870334 -0.107439265 0.09893146 0.19406869 -0.14968042 0.17645334 0.14076899 0.0030295078
0.019018413 -0.16819635 0.1824228 -0.07533528 0.025000377 -0.019178113 -0.11869727 0.05739031
0.08078278 -0.1876629 -0.19678077 -0.017985694 -0.11059245 0.114654824 -0.04454438 -0.25007063
-0.008098313 -0.045421068 0.16995813 -0.06762056 -0.007376156 -0.019658446 0.13855289 -0.12357125
-0.11849024 -0.16984412 -0.05074757 -0.17790638 0.09922318 -0.056487776 -0.10914383 0.16218786
-0.041550018 0.10668112 -0.018146768 -0.072749704 0.165079 -0.051866774 -0.014019288 -0.099782705
0.18048234 -0.1669996 -0.06251901 0.036100768 0.0024013927 0.07660213 -0.09755283 0.19410492
0.053332426 0.1610674 -0.18443668 -0.04178692 0.007746449 0.021801751 0.0049640913 -0.066232376
0.038183037 -0.08649393 0.062689446 -0.09753189 0.039283033 0.031882808 -0.15372953 -0.18817528
-0.14225602 0.101677395 -0.038771506 0.11628614 0.047001433 -0.0035792561 -0.042223107 -0.09281706
-0.03997887 0.004362032 0.11729856 -0.07579176 0.16465168 -0.02329944 0.1271633 -0.1381647
-0.23657894 0.0001909755 -0.07602919 0.031132901 -0.02119173 0.031240351 -0.15951681 -0.010445931
0.18488616 0.047991384 0.018019892 -0.16751412 0.0354071 -0.030998282 -0.025918337 -0.1390646
0.17470258 -0.14787641 0.023087906 -0.14719108 -0.0054069306 -0.08349469 0.15642585 -0.18069282
0.18448468 0.112128854 -0.04246997 -0.12512167 -0.102288716 -0.03161889 0.17262621 -0.10196398
0.07316709 0.1217376 -0.0063965665 0.06097403 -0.106148705 -0.1366884 0.03419118 0.025563408
0.1075987 0.1350972 -0.1332318 -0.12623109 0.057053946 -0.06695113 -0.08940447 -0.0075085624
0.16316499 -0.16970089 -0.13749538 -0.15203314 -0.06921511 -0.020772438 -0.054599892 0.11260132
0.122278355 -0.10248852 0.106544755 0.10778803 0.021456879 0.11586558 0.07278763 -0.16863243
-0.1449322 -0.07330987 0.022738695 -0.17818283 0.03865075 0.17795916 -0.084522486 0.19276036
0.014770195 0.14889626 0.074058846 0.14312582 -0.04931216 -0.10147333 -0.099756576 -0.16317937
0.10447244 -0.06102021 0.051037177 -0.064833716 -0.14583178 0.11391695 -0.05671987 -0.00039298832
-0.037920475 -0.06684287 0.09455858 0.05794169 -0.012277916 -0.04328999 -0.09526525 -0.15263963
0.11737491 -0.1700265 -0.026619583 -0.08768544 -0.17906825 -0.13389952 -0.14480273 0.13179
0.10946761 -0.07451181 -0.103463106 0.015317008 0.06995173 0.09173818 0.011591196 0.16966344
0.024888095 -0.14453335 -0.21870674 -0.13686794 -0.15265423 -0.020671384 -0.087730594 0.19354054
0.13664876 -0.0056878193 0.1180444 -0.06761624 -0.17218968 0.1778888 -0.07044025 -0.1618092
-0.057601403 0.1509021 -0.044928532 0.0021788077 -0.005955056 -0.058814324 0.18605515 -0.1396168
-0.01578615 0.082778424 0.0069998316 -0.025771366 0.17180464 -0.02003 -0.036255773 -0.19384123
-0.113392495 0.12129712 0.041582894 0.15341988 -0.05307253 -0.020209575 -0.11832435 0.06236459
-0.097543485 -0.048915572 0.11707098 -0.12070406 -0.0443649 -0.16563615 0.19098045 0.13365674
-0.030690948 0.0605369 0.1324955 -0.04127974 0.16157174 0.19052239 -0.02258819 -0.04466323

fc1.bias f4 [128]
00000000: 6b3b e83d 2de1 23be e2c4 b5bd ed38 ed3d
00000010: c1bf bfbd 2cea 043e 5a1e afbd f08b b2bd
00000020: d1fa 943c 84dd 8d3d 7d65 2cbd 9800 fcbc
00000030: a061 5f3e da4b 963d 833d 90bc a2eb 1f3e
00000040: 88cb 403e a441 91bb 955c a93d e23e a33d
00000050: 5089 373e a249 16be 907c d0bc 70a3 e8bd
00000060: 5f9e 313e c4ec 3bbe c1d8 5b3e da2d e2bd
00000070: 03af 2d3e c81e a93d 4671 0cbe 0d99 a0bc
00000080: 4568 153d 6c58 88bd 0fe2 2a3e 41c5 bdbd
00000090: e4e4 20be a4b5 7dbd 8790 12be b67d 533d
000000a0: 0fbb f6bd 135a 0b3e be5a 143d c06e 17bd
000000b0: 161c f23d cccb 983d 4050 133e dd13 6bbd
000000c0: 8cf9 553d 5e87 c8bd 4aa8 48be 37d0 423e
000000d0: 05e3 3abd 1f18 593e d295 2abe 245d 3b3e
000000e0: 16ea 1f3e e89c 4abc e6ae d83d 2662 893d
000000f0: a9e3 efbd d296 25be c6a0 e7bd b566 043e
00000100: ea0d 2abe 9148 993d 7f61 3ebe ff81 563e
00000110: 8d3b 21be cd07 efbd 8988 023e c00a a03b
00000120: 51dd 403d 6224 09be bedf acbd ecc3 13bd
00000130: 82fb 1dbe 7e88 0cbe 7554 19be b5cd df3c
00000140: 8054 3dbd 659b d9bb 1645 9d3c c70e 6fbd
00000150: 8cf2 cbbc 672c d7bd 5cd8 e4bd 2bd7 7dbd
00000160: 007c d8ba 41f1 c7bd 6295 1c3e d2f8 13be
00000170: a94a 51bd 8dde 293e 1f82 abbd 1035 9e3d
00000180: fab7 193e 8779 2dbe 7f30 b23d acda 2abe
00000190: 41e5 4fbd 6f97 4b3d 53a0 1fbe c9d8 dd3d
000001a0: 9a66 9abd e080 f6bd 0438 27be 1f9c 013e
000001b0: ada6 933d c84f 46bd b6e8 a33d d29a ac3d
000001c0: bc7d a03d 086a 563e 1b7e 4bbe 4559 a73d
000001d0: 581e 8fbd cd48 8ebd 7659 86bd a08c 583d
000001e0: 7501 543e ea26 99bd 360b 2e3d 4da7 ac3d
000001f0: b85e 29bd 008c 9fbb d497 1fbe 1e6b 393d
0.11339458 -0.16003866 -0.08875443 0.11583123 -0.09362746 0.12979954 -0.08550711 -0.08718097
0.018186005 0.069270164 -0.042088974 -0.030762002 0.21814585 0.07338686 -0.017607456 0.1561723
0.18827641 -0.004432874 0.08269612 0.07970978 0.17923474 -0.14676526 -0.025450021 -0.11359298
0.1734557 -0.18352038 0.21469404 -0.11043902 0.16961293 0.08257824 -0.13715085 -0.01960423
0.036476392 -0.0665749 0.16687797 -0.09266139 -0.15712315 -0.061940804 -0.14312945 0.05163356
-0.12047397 0.1360858 0.03621935 -0.036970854 0.11821763 0.07460746 0.14386082 -0.05739199
0.05223994 -0.09791444 -0.19595447 0.1902474 -0.04562666 0.21200608 -0.16658714 0.18297249
0.1561664 -0.012366511 0.10580234 0.067081735 -0.117133446 -0.16170815 -0.11309962 0.12929805
-0.1660687 0.07484544 -0.1859188 0.20948027 -0.15745373 -0.1167141 0.12747397 0.004884094
0.047086064 -0.13392785 -0.08441113 -0.036075518 -0.15427974 -0.13723943 -0.14973624 0.027319768
-0.046223164 -0.006640839 0.019197982 -0.058363702 -0.024895929 -0.10506516 -0.1117408 -0.06197278
-0.0016516447 -0.097628124 0.1529136 -0.14450386 -0.051096592 0.16588803 -0.08374428 0.077249646
0.15011588 -0.1694089 0.08700656 -0.16684979 -0.050755743 0.049704965 -0.15588503 0.10832364
-0.07539101 -0.120363 -0.16329962 0.12657212 0.07209525 -0.04841593 0.080033705 0.08427967
0.07836482 0.20938885 -0.19872324 0.08171324 -0.069882095 -0.069474794 -0.06560032 0.052868485
0.20703681 -0.074781254 0.04249116 0.084303476 -0.041350096 -0.004868984 -0.15585262 0.04526817

fc2.weight f4 [128, 128]
00000000: a41e 313d c2f4 eabc f793 813d e893 b6bc
00000010: 81a7 893d 525d 753d 4832 ae3c 549b a9bd
00000020: d1f6 9abd e3d1 94bd e822 60bd 6898 47bd
00000030: e1ab 963c fc16 8bbc f006 a4bd c3b9 5dbd
00000040: ef47 4bbd 6b98 4b3c ec19 d438 f5bc b4bd
00000050: ad42 03bd 201c 163c 6059 b2bd 9170 de3a
00000060: 5b1f a4bd b523 e7bb 2e3e 7f3d b004 e93b
00000070: 7636 213d 772a e23c 8026 a7bd 3325 323d
00000080: 2513 b3bd 2954 2f3d fb57 77bd 9ea1 9abd
00000090: 79ec 603c 0029 643d cf7f 85bd a3d1 17bc
000000a0: ceea 9ebb 839f ecba d51e 99bd 80a5 23bc
000000b0: 3878 6c3d 6b96 bf3c 128c 12bd 452b b63c
000000c0: bef3 1ebd dbca 81bd b8b7 9e3c 9af9 9d3d
000000d0: 9261 d1bc ab67 943d 1fcd 62bd 0dd3 943c
000000e0: 5fe0 683d 888f 883d 9f34 38bc 3ced 9bbc
000000f0: 6732 ccbb 26d9 9cbd c132 cebd 3f0c 9a3d
00000100: 94e6 9e3c d2ed 8a3d 0bfd 95bd 09db 5cbd
00000110: 8ef9 763d c852 0c3c f526 90bd a593 9c3d
00000120: db92 933d f659 50bd d882 b03d d0de af3c
00000130: 20e8 a33d e6d9 0fbd b3bc b33d 5582 7abd
00000140: c35b 36bd 942f 58bd 5891 ad3b 2709 673b
00000150: 29e0 8f3d 7d2b 193d ada5 8ebd 4773 94bd
00000160: aba2 a93d 1ec3 5abd b675 9d3c c830 b7bc
00000170: 697e 5dbc 3a4f 7c3d d5bf 473c 3ab3 ecbc
00000180: 748e 21bd fc98 a1bd 41f0 983c a811 bd3d
00000190: 64d5 8dbd 8b62 3dbd c04d 3fbd ecf6 81bd
000001a0: e6f6 5f3d 3623 1c3d ac39 c3bc a060 7bbc
000001b0: 7967 27bd 0aaf 093d 7630 8c3a 12af 51bd
000001c0: 30fa ad3d e69b 483d 73f5 973d 99e9 d5bc
000001d0: 5029 a0bc 809c 223d a033 413d 4be3 b6bd
000001e0: 9e4f a33d 92b7 023d f2f1 c3bc 42a0 7c3d
000001f0: 2680 53bd adad 2ebd ac77 59bd 6f21 a43c
00000200: f1e4 ec3c 862b aabd 9cde a33d 3008 8a3d
00000210: e03e 5cbb df5b 9c3d 9187 9c3d 4897 0ebd
00000220: 881a 04bc db6b 97bd 2ce6 aabb c501 a63d
00000230: 0b1e f03a 65c7 4abd f880 de3c fbfd a5bc
00000240: 7fab 8ebd 8040 92b9 c36e 72bc 7c2d dd3c
00000250: 5058 abbb 5f1f 893d 4865 7fbd 23ec 05bd
00000260: 3200 56bd f1a6 8abd cb3e 0bbd b87b f13c
00000270: 63cf 29bd 0e1d 10bd cf0c a73d 784a b03c
00000280: d017 833d 328a 863d ff00 df3a 9103 95bd
00000290: 4299 613d 6f8f 09bd 9c37 443d 0200 563d
000002a0: be32 ec3c 77e3 90bd 7996 15bc ac61 d73c
000002b0: 6347 6bbd 70b0 bfbc 17ea 28bd 7b36 91bd
000002c0: 71aa af3d 61c8 413d 3697 253d 3194 843d
000002d0: 2dea 66bd 1827 b0bc 401f 6c3c c992 b8bd
000002e0: c995 33bd c9e8 aabb ed15 ec3c 76e5 86bd
000002f0: 524f a33d 1bd6 49bd 6317 a6bd 5d6b 8a3d
00000300: c095 59bc 64e7 e7bc b4e2 1abd 77e7 9ebd
00000310: 3c90 a3bd 2fca 80bd dced 9e3c fcfe 853c
00000320: ac4d 00bd 3a2e 9abd 83e6 943d 9e4e a9bd
00000330: 515f d33c 0b39 ab3d 6b39 b3bd b7c5 dd3c
00000340: 65d5 97bd 8447 423c 6f8a 4f3c 6089 40bd
00000350: 48ba 47bd d92b 2aba 46b4 efbc 6d7d 14bd
00000360: f0de 753c f0b7 493d 33ce 993d 7c28 acbd
00000370: 32e0 663d 7838 24bd e008 983d 06ea 063d
00000380: f4f0 943d 42cb b1bd eaf8 9a3c 5ed9 b33d
00000390: 1ba4 50bd 8aca 633d b820 fe3c 75e9 bb3c
000003a0: 1a66 623d c86d 9bbc f2ea cdba 50db 39bc
000003b0: 03eb e73c ce08 2e3d 6878 f9b8 6aa6 2bbd
000003c0: ffab adbd b422 5ebd 1613 43bd 660a 93bc
000003d0: a1fb 8f3d 5f1f 803d 4ce0 c03c 063d 813d
000003e0: 333a 55bd e416 72bd a399 923d a659 433d
000003f0: d0ba 1ebc 5c56 d1bc 98ee 63bd 0de9 153d
0.04324211 -0.028681163 0.0632705 -0.022287324 0.06721402 0.05990345 0.02126421 -0.082815796
-0.07566608 -0.07266595 -0.05472079 -0.04872933 0.018392505 -0.016978733 -0.08009136 -0.054132234
-0.049629148 0.012426476 0.00010113776 -0.08825103 -0.03204601 0.009161979 -0.08708453 0.0016970803
-0.08013793 -0.007053817 0.06231516 0.0071111545 0.03935858 0.02760814 -0.0816164 0.043492507
-0.08743886 0.04280487 -0.06038664 -0.07550357 0.0137282545 0.055703163 -0.06518518 -0.00926629
-0.0048497682 -0.0018052909 -0.07476584 -0.009988189 0.057731837 0.023387155 -0.035778113 0.02223743
-0.03880667 -0.0633752 0.019374713 0.07713623 -0.02555922 0.072463356 -0.0553714 0.018167043
0.056854602 0.066680014 -0.011243015 -0.01903402 -0.0062315944 -0.07658605 -0.10068274 0.07521867
0.019397058 0.06783642 -0.07323655 -0.053919826 0.060296588 0.008564658 -0.070386805 0.076453485
0.07205745 -0.050867043 0.086187065 0.02146855 0.08003259 -0.035119914 0.08776226 -0.06115945
-0.044521105 -0.05277975 0.0052968673 0.0035253258 0.07025177 0.03739499 -0.06965194 -0.0724855
0.082829796 -0.053408735 0.019221168 -0.022362128 -0.013518908 0.061598994 0.012191732 -0.028894056
-0.039442495 -0.078905076 0.01866925 0.09231883 -0.06925467 -0.046236556 -0.046705008 -0.06345925
0.05467882 0.038119517 -0.023831211 -0.015342861 -0.040870164 0.033614196 0.0010695595 -0.05119235
0.08494985 0.0489768 0.074198626 -0.026112365 -0.01955095 0.03970003 0.047168374 -0.089300714
0.0797417 0.031913348 -0.02391908 0.06167627 -0.051635884 -0.0426461 -0.053092644 0.020035474
0.028917762 -0.08309083 0.08001444 0.06739843 -0.0033606812 0.076347105 0.07643045 -0.03481224
-0.008062966 -0.07393619 -0.005215427 0.08105806 0.00183195 -0.049506564 0.027161106 -0.020262709
-0.06966304 -0.00027895346 -0.014796915 0.026999228 -0.0052290335 0.06695437 -0.06235245 -0.0326959
-0.05224628 -0.06770123 -0.03399543 0.029477939 -0.041457545 -0.03518396 0.0815674 0.021519884
0.06401026 0.065693274 0.0017013847 -0.07276071 0.0550778 -0.033584055 0.047904596 0.0522461
0.02883279 -0.070746355 -0.009130114 0.02629169 -0.057441127 -0.023399562 -0.04123887 -0.070904694
0.08577431 0.047310237 0.04042741 0.06473578 -0.05637567 -0.021503016 0.014411747 -0.09012372
-0.043844018 -0.0052157384 0.028819049 -0.06586735 0.079741135 -0.049276453 -0.081099294 0.06758759
-0.013280332 -0.028308578 -0.037813857 -0.07758992 -0.07986495 -0.062885635 0.01940053 0.016356938
-0.031324074 -0.07528348 0.07270529 -0.08266948 0.025802286 0.083604895 -0.08751186 0.027071817
-0.07413749 0.011857871 0.0126672825 -0.04700601 -0.048761636 -0.0006491519 -0.029260766 -0.036252428
0.015006766 0.049247682 0.075100325 -0.08406159 0.056366153 -0.040092915 0.07423568 0.032938026
0.07272521 -0.086813465 0.01891752 0.08781694 -0.050937753 0.05561308 0.03102146 0.02293847
0.055273153 -0.018973246 -0.0015710278 -0.011343792 0.028310305 0.042488866 -0.00011895673 -0.04190675
-0.08480071 -0.054232314 -0.047625624 -0.017949294 0.07030416 0.062559836 0.023544453 0.063104674
-0.052057456 -0.05910386 0.0715821 0.047692917 -0.009688094 -0.025553875 -0.055647463 0.036599208

fc2.bias f4 [128]
00000000: dedd 823d d61f c9bc d48d ff3c f7cb ef3d
00000010: e107 24bd a5b1 c53c 4b5b 9dbd 5ec7 8abd
00000020: 06c9 ba3d b934 003d eb98 68bd d7af 84bd
00000030: 07f5 a4bd 2b7e ab3d 1e15 ea3c 89f1 17bd
00000040: 2abd 843d c15d b63d 0acd 74bd e2f5 5c3d
00000050: c990 b9bc aa68 053d e471 1c3d 8a88 10bd
00000060: 6b6d 0b3d e7b4 b5bb 2c2c e33c 8ee6 b1bd
00000070: dce5 913c 9329 8e3d aa44 813d 7514 a3bd
00000080: 7d26 3c3d ac92 583d a7bd 3fbd 4fc6 e63c
00000090: 6471 aabd 50f8 973d 93ae ec3b 7576 0abd
000000a0: ad32 383d a259 633d 9a8c 2a3d 0072 e2bc
000000b0: c72d 56bd 3c8a a8bd e609 dbbc 7e31 0e3c
000000c0: 55e2 d83b 540f 65bd d207 18bd a32e 09bd
000000d0: 2355 89bd a7f2 e0bc e6d6 823d 74fe 893d
000000e0: 7e37 e13a c460 803d b5e9 abbd 88c7 07bd
000000f0: 3f31 e23d d00d 71bd b9e6 72bc 557e a63d
00000100: 6559 32bc 8459 e03d eee6 a0bc 56cf a73c
00000110: 0091 d1ba a84c 07bc 5ec0 36bc 9959 d9bc
00000120: 4e6b a43d 725a d9bc 83c8 473d 390a 95bd
00000130: 4e72 7abd b1bd 893d 65f4 8ebd 8eaf dc3c
00000140: db2b f9bb aa97 67bd 8574 883d 8826 30bc
00000150: 82d6 c838 6bd9 843d 5b55 8bbd 55e6 9e3d
00000160: e6ca b6bd 93a8 a13d 1181 633d 5818 803c
00000170: 6568 343d b25d 533d a316 793c b61d 0b39
00000180: f4f3 4cbd 54ed 24bd d517 943d 4bb1 62bd
00000190: 99e6 3abb 8197 66bc 46a3 733d fed0 afbd
000001a0: bc44 a6bc 6563 e23d a6b8 313c b4e6 a9bd
000001b0: 5dda 7cbd b359 dd3b 9e2a e8bc 3503 423d
000001c0: 00ad 723c e2bf 513d ae8d 523d 8c6f 90bd
000001d0: 7daa 95bd 6e93 8abc a865 2fbd 5139 933a
000001e0: 2440 f5bc 4f86 b3bc 95bd 0f3d 7497 8b3d
000001f0: 1b89 873c 402a 2a3c 9819 073d 23fa bcbd
0.06389974 -0.024551313 0.031195559 0.11708825 -0.040046576 0.02413256 -0.076834284 -0.067763075
0.091203734 0.03130028 -0.05678646 -0.06478851 -0.08054548 0.08373674 0.028574523 -0.03709558
0.06481393 0.08904601 -0.059765853 0.05394543 -0.022652047 0.03257052 0.038194552 -0.035286464
0.034039896 -0.005545247 0.027731024 -0.08686553 0.0178098 0.069415234 0.06311925 -0.07962886
0.045935143 0.052874252 -0.046811726 0.028170733 -0.08322409 0.07420409 0.0072229593 -0.033804376
0.044970203 0.055505402 0.041637994 -0.02764225 -0.05228975 -0.08229491 -0.026738118 0.008678792
0.0066187778 -0.05592282 -0.037116833 -0.033491742 -0.06705692 -0.027459456 0.06388645 0.06737986
0.0017182676 0.062684566 -0.083941855 -0.033149272 0.11044549 -0.058851063 -0.014825516 0.08129565
-0.010885571 0.10954574 -0.019641366 0.020484608 -0.0015988648 -0.008258022 -0.011154262 -0.026531981
0.08028279 -0.026532385 0.048775207 -0.072773404 -0.061144166 0.06725634 -0.06980208 0.02693918
-0.007604105 -0.056541122 0.06662849 -0.010751374 9.576698e-05 0.06486782 -0.0680339 0.07758776
-0.089254186 0.07893481 0.05554301 0.015636608 0.04404487 0.051603027 0.015203151 0.00013267141
-0.05003734 -0.040265396 0.07231108 -0.05534486 -0.0028518795 -0.014074207 0.05948188 -0.08584784
-0.020296447 0.11054114 0.010847246 -0.08295956 -0.061731685 0.0067550777 -0.028340634 0.04736634
0.014811754 0.051208384 0.051404648 -0.07052526 -0.07307909 -0.016916003 -0.042821556 0.0011232292
-0.029937811 -0.02191463 0.03509291 0.06815997 0.01654487 0.01038605 0.032983392 -0.09227397

fc3.weight f4 [5, 128]
00000000: 5735 3fbd cd8f e33b 1897 54bc 26bb a53d
00000010: 1c91 3ebd bb0b 5bbd 4a6e 17bd 21b9 a33d
00000020: ab0c c33d 3b8a d5bc 4a6f 99bd 61fa dbbd
00000030: 3f2b de3c 86f5 183d 1564 063d c49c d73d
00000040: e2b2 183d 6ccd 893d 8570 74bd cbef 8fbc
00000050: b8e6 9fbc c8b5 75bc 4bfa 9b3d 2477 193d
00000060: 9732 8c3d e1bf aabd 87ca 9a3d f836 63bd
00000070: dba6 06bd 6fe1 043d 1105 59bd 0e6d 8d3d
00000080: f48f 4f3d b412 c8bc b9bc 13bd ed8a 393d
00000090: 64d8 11bb 1a39 403c c9ef 4f3d 3d15 413d
000000a0: cc19 553b 33bd 94bc 1fa9 9bbd d71f 933d
000000b0: 05fe ab3d 133e 38bd c01a f9ba 6984 473d
000000c0: e8af 05bd 4cae 65bd d8cc 89bd 2ee5 82bd
000000d0: 2131 88bd 5a37 74bd 7002 99bd 4677 a6bd
000000e0: 4a2c 8bbb c91b d33c 6ca9 9ebd e227 beba
000000f0: 8e34 c23c ffff 8bbd 3d2c 863d 03fb 52bd
00000100: a058 8d3d 197d 8b3d 9efc 5ebd 03b9 333d
00000110: f5b8 823d a268 2cbd ae07 afbd 2247 aa3b
00000120: a2c2 48bd 171e 8b3d 592c 20bc a4bb 0d3d
00000130: 07ae a9bc 8300 e9bc 1f79 0abc 0e39 043d
00000140: cd0c 47bd 94d3 1ebd 2ba0 99bd 01cb 1aba
00000150: d6ec c93d 627e 8e3d 7a6f 71bd cbd7 36bd
00000160: ae32 a0bd ea41 a53c 52fc 18bc 34a4 50bd
00000170: fa7d ef3c d0ee 953b f27b 27bd 96b7 50bd
00000180: 88b5 303d 6348 1a3d 4e52 fd3a 3f12 d2bc
00000190: 3cd1 273d 850e b53a 3af5 72bd f14b 6abd
000001a0: c668 3c3d 5893 a83d c7a3 013d 76ad 0dbc
000001b0: da0d 27bc 339f 7dbd 9a43 963d 1ce8 6f3d
000001c0: d6d4 54bd 5779 193d 61df 993d e472 0d3d
000001d0: 9698 d3bb 058e 49bd c247 7b3c 3381 90bd
000001e0: 00eb fc3c ee0f 623d 68e1 133c 55cf 763d
000001f0: 1500 d73d 00b6 5aba 48e4 97bc f55a a63d
00000200: b239 9bbd ec14 413d a0e5 393c 2da8 63bd
00000210: 7d39 89bd 5577 70bc b05a 64bc 32c4 00bd
00000220: b4e7 a5bd be78 183d 7aee 2f3d 1b2b b33c
00000230: a682 443d a131 1cbd f21e 93bd 87ff b8bd
00000240: 0ebd 2dbd 41fd 023c 6f3d 46bc 592b e33c
00000250: 1141 6c3d 134a 983d aa9b 2cbb e3a3 4d3d
00000260: a4af 373d a582 1ebd 3c97 893d 617e 173c
00000270: 212c 15bd 7bd6 7bbd 8cb5 8dbd f7af aebd
00000280: 7d2d 90bd 7cc1 4f3b 144f e0bc 2df1 363d
00000290: 8d1b 0e3d e06d 6bbd 1e99 8cbd 7583 e8bc
000002a0: 11ad 8bbc 5138 8dbd 5ac1 fdbc a724 81bd
000002b0: a8e0 4a3d 640a 3dbd 2a86 5c3d acb0 5abd
000002c0: 9099 a93d df9e 51bd f0c9 023c d380 c63c
000002d0: 08e0 8cbd 8fce 853d 89e5 5cbd 312e 7d3c
000002e0: 895e db3c c9e6 a1bc 5892 cfbc 534d c73c
000002f0: 2eb3 e6bb 4246 a1bc 7d61 2d3c c7f5 81bc
00000300: 6ecf a8bd cdcf cf3a fb5d b1bd 3f41 93bd
00000310: 2c1e 9abc 1297 3b3d dc01 9f3d 7229 bdbd
00000320: 3d78 a13c 9ef2 adbc 2f0c c5bd 55e4 ae3d
00000330: 12ff 7f3c 70f5 4dbd 175f 963d a5c0 833d
00000340: bc7e 833c 26fa 1e3d dda3 913c 88b6 35bd
00000350: 28d2 c9bd 9664 9d3d f6e7 5ebd 061b 4cbd
00000360: 152d 54bc d162 12bd 0086 843d 1675 4e3d
00000370: 743a e23b 357c 9f3d c822 223d 2235 6abd
00000380: eb4d 83bd e936 72bd 0e87 81bd e20a a5bd
00000390: bba6 b9bd 02a5 85bd 49c3 4dbd cd78 793b
000003a0: da3a 083d e9cd 0cbd 08c1 0c3d ef92 433d
000003b0: b64a efbb 59cf 09bd 5f11 a03d c143 61bd
000003c0: 1c54 783d e2de a6bd 0ea8 0abc f0f6 e2bb
000003d0: c70a 55bd 6558 bcbd f6b8 cd3c 0031 dbbc
000003e0: 0007 fc3c b681 503d b4e0 0bbc c467 08bd
000003f0: 44ab 973c 7272 7c3d a9c2 85bd c8e4 1bbd
-0.04668173 0.0069446326 -0.012975477 0.08092336 -0.046525106 -0.053477984 -0.036970414 0.07994295
0.095239006 -0.02606689 -0.0749193 -0.10741115 0.02712023 0.037343524 0.03281029 0.105279475
0.03727997 0.06728634 -0.05967762 -0.017570397 -0.019519195 -0.014996953 0.07616099 0.037467137
0.06845587 -0.08337379 0.0755816 -0.055472344 -0.03287397 0.032441553 -0.052983347 0.06905566
0.050674394 -0.02442298 -0.03606865 0.045298506 -0.0022254223 0.011732364 0.050765786 0.047139395
0.0032516597 -0.018156623 -0.07600617 0.07183807 0.0839806 -0.044981074 -0.0019005165 0.04871026
-0.03263846 -0.056074426 -0.06728524 -0.06391369 -0.066499956 -0.0596231 -0.07471168 -0.08128218
-0.004247223 0.025770085 -0.077471584 -0.0014507736 0.0237067 -0.06835937 0.065514065 -0.051508915
0.069016695 0.0681097 -0.054440133 0.043877613 0.06382934 -0.042091973 -0.08546387 0.005196468
-0.04901374 0.067928486 -0.009776198 0.034602776 -0.020712866 -0.028442627 -0.008451729 0.032280974
-0.048596192 -0.038775995 -0.07501253 -0.0005904884 0.09859626 0.06957699 -0.058944203 -0.04463939
-0.078221664 0.020173032 -0.009337502 -0.050937846 0.029234875 0.004575588 -0.040889688 -0.05095633
0.04314187 0.03766669 0.0019326897 -0.025643466 0.040971026 0.0013813531 -0.059315898 -0.05720133
0.045998357 0.082312286 0.03165033 -0.008647313 -0.010196174 -0.061919402 0.07337113 0.058570966
-0.05196079 0.037469234 0.07513309 0.034533396 -0.0064573986 -0.049207706 0.015336933 -0.07055893
0.030873775 0.055190973 0.009025909 0.06025632 0.104980625 -0.000834316 -0.01854147 0.081228174
-0.07579364 0.047139093 0.011346251 -0.055580307 -0.06700418 -0.0146768885 -0.013937637 -0.031437106
-0.081008345 0.037224524 0.04295204 0.02187114 0.04797616 -0.038133267 -0.07183637 -0.09033113
-0.042416625 0.007994951 -0.012099608 0.02773063 0.05767924 0.074360035 -0.00263379 0.050205123
0.04484524 -0.03869881 0.06718299 0.00924644 -0.036419038 -0.06148384 -0.06919393 -0.085296564
-0.07039926 0.003170102 -0.027381457 0.044663597 0.034694243 -0.05747783 -0.06865142 -0.028382996
-0.017050298 -0.06895507 -0.030975986 -0.06305819 0.049530655 -0.046152487 0.053838886 -0.053391144
0.08281243 -0.051176902 0.007982716 0.02423135 -0.06878668 0.065335386 -0.05392984 0.015452907
0.026778476 -0.019763367 -0.025338337 0.024328863 -0.007040403 -0.019686822 0.010582325 -0.015864266
-0.08242689 0.0015854776 -0.086605035 -0.07190179 -0.018813215 0.04579837 0.077640265 -0.09236421
0.019710654 -0.021233853 -0.096214645 0.08539645 0.015624778 -0.050282896 0.07342356 0.064332284
0.016051643 0.03881278 0.017778331 -0.04436353 -0.09854537 0.07685201 -0.054420434 -0.04983046
-0.0129502015 -0.03573877 0.06470871 0.05040463 0.006903941 0.077873625 0.03958395 -0.057179578
-0.06411346 -0.059134398 -0.06324588 -0.08058716 -0.090650044 -0.06525613 -0.050235067 0.0038066388
0.03325925 -0.03437606 0.034363776 0.04774755 -0.0073026074 -0.033645008 0.07815813 -0.054996256
0.060627088 -0.0814798 -0.008462919 -0.00692641 -0.05201223 -0.091965474 0.02511261 -0.026756763
0.030765057 0.050904952 -0.00853746 -0.033302084 0.018514283 0.06163258 -0.06531269 -0.03805998

fc3.bias f4 [5]
00000000: 8119 803d 57c4 93bd 6931 05bd f876 80bd
00000010: 96db c33d
0.062548645 -0.07215183 -0.032517824 -0.062726915 0.09563367
