CC_Reinforce_version_3/state_dict_model_v3.pt (torch, 84151 bytes, 6 tensors)

fc1.weight f4 [128, 25]
0	0x3e1cea94	0.1532386
1	0x3d327f44	0.0435784
2	0xbe349092	-0.17633274
3	0xbcb7a584	-0.022417791
4	0xbe0f5431	-0.1399696
5	0xbe24e824	-0.1610418
6	0x3e055f86	0.1302472
7	0xbddc43c2	-0.10755111
8	0xbd2579d4	-0.040399387
9	0xbe1c25a8	-0.1524874
10	0xbe062ad5	-0.13102277
11	0xbe0c515f	-0.13702916
12	0x3b1f8061	0.0024337994
13	0xbe32ac48	-0.17448533
14	0xbe36fc28	-0.17869627
15	0x3e2de73a	0.16982737
16	0xbe5914f3	-0.21199398
17	0xbc9df7aa	-0.019283134
18	0xbe04a218	-0.12952459
19	0xbe4fcb0d	-0.20292301
20	0xbe24e0ec	-0.16101426
21	0xbdf0a358	-0.11749905
22	0xbdee6582	-0.11640455
23	0x3e3b7578	0.1830653
24	0xbe0569bb	-0.13028614
25	0x3d880104	0.06640819
26	0x3e447c03	0.19187932
27	0xbe04395f	-0.1291251
28	0x3df8de37	0.12151759
29	0x3e2efcdb	0.17088644
30	0x3e3a9e22	0.18224385
31	0xbdba4305	-0.09094814
32	0x3d8b2c64	0.06795576
33	0xbb9410cc	-0.004518604
34	0xbdad0b21	-0.08449388
35	0x3dfe7d46	0.12426238
36	0xbe45d886	-0.19320878
37	0x3e1217df	0.14266919
38	0x3e1977d5	0.14987119
39	0x3e41313d	0.18866439
40	0x3dae7f6c	0.085203975
41	0xbda2ac04	-0.079429656
42	0x3e3d4ec5	0.1848708
43	0xbdfd1256	-0.12357013
44	0x3d60fa43	0.05492617
45	0x3e1c83e0	0.15284681
46	0xbca8b348	-0.0205933
47	0x3e345f2e	0.17614433
48	0x3ce870a0	0.028374016
49	0x3dc1fb49	0.09471757
50	0xbe2e6770	-0.17031646
51	0x3b103d40	0.0022009164
52	0x3dcf7342	0.101294056
53	0xbde79497	-0.11307638
54	0x3d38b1a0	0.04509127
55	0x3dad0ace	0.084493265
56	0x3e310ed1	0.17290808
57	0x3db80922	0.08986117
58	0x3e475181	0.19464685
59	0x3e3e7dcb	0.18602674
60	0x3e2508e5	0.16116674
61	0xbe23300b	-0.15936296
62	0x3cc54510	0.024080783
63	0x3e16abc7	0.14713965
64	0x3e4a0f3f	0.19732378
65	0xbe1aa586	-0.15102205
66	0xbd6df038	-0.05809042
67	0xbdeff07d	-0.117157914
68	0x3cc04690	0.023471147
69	0x3d73cc6c	0.059521124
70	0x3cd16af0	0.025563687
71	0xbdbd109d	-0.09231684
72	0x3e089781	0.13339044
73	0x3e407fc9	0.18798746
74	0x3d9b0b82	0.07570554
75	0x3e2d7800	0.16940308
76	0x3e64d19f	0.22345589
77	0x3d1a024c	0.037599847
78	0xbd6b6934	-0.057473376
79	0xbd05ad24	-0.032635823
80	0xbe0f92ce	-0.14020845
81	0xbdf140db	-0.11779948
82	0x3e137330	0.1439941
83	0xbb95af67	-0.0045680287
84	0xbcbca8ed	-0.023029769
85	0xbcf57429	-0.029962616
86	0xbdfd43fd	-0.12366483
87	0x3db8d3c8	0.09024769
88	0xbcf487a5	-0.029849837
89	0xbd77ecb8	-0.060528487
90	0xbd253bab	-0.040340107
91	0xbd15764d	-0.036489774
92	0xbe15de8d	-0.14635678
93	0xbe00e067	-0.12585603
94	0xbe1a8da6	-0.15093097
95	0x3e16be94	0.14721137
96	0x3dd69b4d	0.1047884
97	0xbd1d3c7d	-0.038387764
98	0x3d997b3f	0.074942105
99	0xbd82842c	-0.06372866
100	0xbd3d0037	-0.046142783
101	0x3e3e3325	0.18574198
102	0x3cc76eb8	0.024344787
103	0xbdde8a05	-0.10866169
104	0xbe0e1e70	-0.13878798
105	0x3e056d37	0.13029943
106	0xbde47b48	-0.111563265
107	0x3ce696f6	0.028148156
108	0x3e067db1	0.13133885
109	0x3da1787c	0.07884309
110	0xbdef2ce0	-0.11678481
111	0x3da699ad	0.0813478
112	0x3e00c225	0.1257406
113	0xbbf6edbd	-0.007535665
114	0x3d3c63be	0.04599356
115	0x3e178077	0.14795099
116	0xbd461d84	-0.048367992
117	0xbc0be164	-0.008537624
118	0xbe169762	-0.14706185
119	0x3df29d55	0.11846415
120	0x3e2929b3	0.16519813
121	0xbe384ab5	-0.17997248
122	0xbd813602	-0.06309129
123	0x3db3d247	0.087803416
124	0x3e0009c3	0.12503724
125	0xbd44c5c8	-0.04804018
126	0xbe0301cc	-0.12793654
127	0x3e0a7d51	0.13524367
128	0xbd371f00	-0.0447073
129	0xbe3bc0b0	-0.18335223
130	0x3e3dcbbd	0.18534751
131	0x3d4df664	0.050283805
132	0xbdaf2f80	-0.08553982
133	0x3d6fcad4	0.05854304
134	0x3ca3eb28	0.020009592
135	0xbe3c5d6f	-0.18395017
136	0x3db07dc6	0.086177394
137	0x3e43c201	0.19116975
138	0x3e148c5d	0.1450667
139	0xbe14319a	-0.14472046
140	0xbe1dd02a	-0.1541144
141	0xbd813d90	-0.0631057
142	0xbdbd016a	-0.09228785
143	0xbd416ef4	-0.047224954
144	0xbd70544c	-0.05867414
145	0x3d04f898	0.03246364
146	0xbd161618	-0.036642164
147	0x3a935e80	0.0011243373
148	0xbd7e9654	-0.062155083
149	0x3d99931a	0.074987605
150	0xba61304f	-0.00085902674
151	0x3d6fae28	0.058515698
152	0x3dfa0057	0.12207096
153	0x3dfb011b	0.1225607
154	0xbdaf69e6	-0.085651204
155	0x3e6f8aab	0.23392741
156	0x3e12ba38	0.1432885
157	0xbd1b16b0	-0.037863433
158	0x3d300835	0.042976577
159	0x3db742b6	0.08948271
160	0x3df61555	0.120157875
161	0xbde98109	-0.11401565
162	0xbe2d390b	-0.16916291
163	0x3d6bf4e2	0.057606585
164	0xbdda1bd9	-0.10649843
165	0x3d8e961a	0.06962223
166	0xbd220e90	-0.03956467
167	0xbe0f4f55	-0.13995107
168	0xbe010fb6	-0.1260365
169	0xbb8aa776	-0.0042313887
170	0x3d709810	0.058738768
171	0xbe0e4c3c	-0.13896269
172	0x3d4ebf9f	0.050475713
173	0xbdf0ccdd	-0.117578246
174	0x3d408386	0.04700043
175	0x3e053978	0.13010204
176	0xbbb40019	-0.0054931757
177	0xbdf1173f	-0.11772012
178	0x3c171304	0.009220842
179	0xbe4d5882	-0.20053294
180	0x3e3e8161	0.18604042
181	0xbe26a7de	-0.16274974
182	0xbe41ef26	-0.18938884
183	0x3dd3ef05	0.10348324
184	0xbded2f8e	-0.11581336
185	0xbe12ed47	-0.14348327
186	0x3d9211a8	0.07132274
187	0x3e11c1d5	0.14234097
188	0xbdd0adab	-0.101893745
189	0x3e41c80c	0.18923968
190	0x3dde85ee	0.10865389
191	0xbb0baf5a	-0.0021314234
192	0xbd3f37a6	-0.04668393
193	0xbe645f96	-0.22302088
194	0xbd651cbf	-0.055935618
195	0xbd735e65	-0.059416194
196	0xbcfa7b32	-0.030576322
197	0x3bee4b68	0.0072721727
198	0xbdb704c0	-0.08936453
199	0x3d87020d	0.06592188
200	0xbe37237f	-0.17884634
201	0x3e41e60e	0.18935415
202	0x3cef7f6b	0.029235562
203	0xbe4c24d5	-0.19935925
204	0x3d81c7e4	0.06336954
205	0xbe307e4f	-0.17235683
206	0x3d21fb71	0.039546434
207	0xbe0d855a	-0.13820401
208	0x3cb33e23	0.021880215
209	0x3dd18ef2	0.10232343
210	0x3d332255	0.043733913
211	0x3d8366fb	0.06416126
212	0x3db72e53	0.089443825
213	0xbce2c715	-0.02768282
214	0x3d282a18	0.04105577
215	0x3e264e37	0.16240774
216	0xbdab4421	-0.08362604
217	0x3db00ff3	0.08596792
218	0xbe1ab774	-0.15109044
219	0xbc4dff57	-0.012573085
220	0xbe11d8ee	-0.14242908
221	0x3e1af1bc	0.15131277
222	0xbe199365	-0.14997633
223	0xbe228ad6	-0.15873274
224	0xbdef190a	-0.11674698
225	0xbdc06046	-0.09393363
226	0x3d8e3dd9	0.0694539
227	0xbdb972eb	-0.09055122
228	0x3e141462	0.144609
229	0x3dbcbbf8	0.0921554
230	0x3e357cf2	0.17723444
231	0xbda54f0b	-0.08071717
232	0xbdf65d09	-0.12029464
233	0xbe6e1c29	-0.2325293
234	0xbc331739	-0.01093083
235	0xbe2fb02a	-0.17157045
236	0xbe41744f	-0.18892024
237	0xbd94e791	-0.0727073
238	0x3df879df	0.1213262
239	0xbe09b115	-0.13446458
240	0x3e4c1c96	0.1993278
241	0x3cacdb04	0.021100529
242	0x3d85ce2a	0.06533463
243	0xbe47a856	-0.19497809
244	0x3c1a8544	0.009431187
245	0xbe1cf2bc	-0.15326971
246	0x3d039b37	0.032130446
247	0x3e322f16	0.17400774
248	0xbe164f5a	-0.14678708
249	0x3d9714c1	0.07377005
250	0xbe13891a	-0.14407769
251	0xbdc65f47	-0.096861415
252	0xbd9f6bca	-0.07784231
253	0x3bec9560	0.0072199553
254	0x3e261b71	0.16221406
255	0xbe0baf2c	-0.13641042

fc1.bias f4 [128]
0	0x3d04f258	0.03245768
1	0x3e05631e	0.13026091
2	0xbe3296a3	-0.17440276
3	0xba171130	-0.0005762754
4	0x3e09431b	0.13404505
5	0x3c1fac00	0.009745598
6	0xbde2a20e	-0.11066066
7	0x3d98edc6	0.07467227
8	0xbe0edc54	-0.13951236
9	0x3d842943	0.064531825
10	0xbdee61ed	-0.116397716
11	0xbdd36861	-0.10322643
12	0xbdf03288	-0.11728388
13	0x3df357f1	0.11882008
14	0x3d1868be	0.037209265
15	0x3d016652	0.03159172
16	0x3d996775	0.07490436
17	0xbddb203f	-0.1069951
18	0x3dae983d	0.08525131
19	0xbe2ac20a	-0.16675583
20	0x3dc98635	0.09840051
21	0xbdd39d26	-0.10332708
22	0x3e40001f	0.18750046
23	0xbb171940	-0.0023055822
24	0x3d26d7bb	0.04073308
25	0x3e449c31	0.19200207
26	0xbd80a55c	-0.0628154
27	0x3d27b808	0.04094699
28	0xbd21bdd8	-0.03948769
29	0xbd368d6e	-0.04456847
30	0x3dbd460e	0.092418775
31	0xbd1575f3	-0.03648944
32	0x3ca0eef7	0.019645197
33	0x3e2b4ed4	0.1672929
34	0xbd324dfb	-0.0435314
35	0xbd608a78	-0.054819554
36	0xbcd992ba	-0.026559222
37	0xbdab5a54	-0.08366838
38	0x3e48161f	0.19539689
39	0x3cacb9c0	0.021084666
40	0x3e128a42	0.14310554
41	0x3d8e4a8f	0.06947815
42	0x3d3cb2fa	0.046069123
43	0x3dd28972	0.10280122
44	0xbd03e0ac	-0.032196686
45	0xbe41ef1b	-0.18938868
46	0xbe1933b6	-0.14961132
47	0xbd72b760	-0.05925691
48	0xbda1a0e0	-0.078920126
49	0xbe50ca8a	-0.20389763
50	0x3d691c64	0.05691184
51	0x3d323b6a	0.043513693
52	0x3e29bf89	0.16576971
53	0x3ded3f89	0.11584384
54	0x3e226dc8	0.1586219
55	0xbe29c8a8	-0.1658045
56	0x3e648227	0.22315274
57	0xbe3c3815	-0.18380769
58	0xbe300931	-0.17191006
59	0x3dc6443d	0.09680984
60	0x3c6d4fbd	0.014484343
61	0x3dc36adf	0.095418684
62	0x3d8b604f	0.06805479
63	0xbe029883	-0.12753491
64	0x3d9aae59	0.075527854
65	0xbe360375	-0.17774756
66	0x3d82bbe7	0.06383496
67	0xbe2a79b2	-0.16647986
68	0x3e06fc17	0.13182102
69	0xbdba185d	-0.09086678
70	0x3d039fe9	0.032134924
71	0xbdcac29a	-0.099003986
72	0xbd25653f	-0.04037976
73	0x3d4a78d3	0.049431633
74	0x3db6d152	0.089266434
75	0x3de1ec93	0.11031451
76	0x3dfe663c	0.124218434
77	0xbe37997f	-0.17929648
78	0x3bd0db0e	0.0063737696
79	0x3cf6a753	0.030109083
80	0xbe407717	-0.18795429
81	0x3e390a38	0.18070304
82	0x3e32149b	0.17390673
83	0x3e443a9e	0.19162986
84	0xbdf6fa00	-0.120594025
85	0xbd885654	-0.06657091
86	0x3dc17382	0.094458595
87	0xbd6e66e8	-0.058203608
88	0xbcaa7147	-0.020805968
89	0xbe0d47eb	-0.13796966
90	0x3bc71fae	0.0060767746
91	0x3de7cb3e	0.11318062
92	0xbda837b5	-0.0821375
93	0x3db2abfc	0.0872421
94	0xbe49257b	-0.19643204
95	0xbcc30112	-0.023804221
96	0x3d51c954	0.051217392
97	0x3e35c93d	0.17752548
98	0xbd938967	-0.07203942
99	0x3d54fbc8	0.05199793
100	0x3c825718	0.01591067
101	0x3e3510d1	0.17682196
102	0xbd25f420	-0.04051602
103	0x3e1b8494	0.15187293
104	0x3d10311a	0.035203077
105	0x3e01484f	0.1262524
106	0xbe5d0954	-0.2158559
107	0xbb80b9be	-0.003928392
108	0x3d6f635c	0.058444366
109	0xbdbd9caa	-0.09258397
110	0x3e5159b7	0.2044438
111	0xbe35b838	-0.17746055
112	0x3dbbde47	0.091732554
113	0x3b5f29ad	0.003405194
114	0xbc39433e	-0.011307536
115	0x3ce99230	0.02851209
116	0xbe58f6d1	-0.21187903
117	0xbdceb634	-0.10093346
118	0x3e13f3b2	0.14448431
119	0x3c380b6f	0.011233195
120	0x3e297e73	0.16552143
121	0xbda41bfe	-0.080131516
122	0x3d9859fa	0.07439037
123	0x3da1298e	0.07869254
124	0xbe17dbf8	-0.14830005
125	0x3e176600	0.14785004
126	0x3d9216ba	0.07133241
127	0xbd76c98c	-0.060250804

fc2.weight f4 [128, 128]
0	0xbd58a7bc	-0.05289434
1	0x3da6fcfc	0.08153722
2	0x3d6c17d6	0.05763992
3	0xbd8ce31e	-0.06879257
4	0x3b307e59	0.0026930778
5	0xbd812783	-0.063063644
6	0x39f72614	0.00047139882
7	0x3db8b7b9	0.09019417
8	0x3db3e69e	0.08784221
9	0x3d825258	0.06363362
10	0xbd9db681	-0.077008255
11	0xbd8d2295	-0.068913616
12	0x3d5bbf60	0.053649306
13	0xbd3e4e55	-0.046461422
14	0x3cd10c4a	0.025518555
15	0xbd42aae1	-0.047526244
16	0xbc92d312	-0.017922912
17	0x3d07c466	0.033146285
18	0xbd760f0a	-0.060072936
19	0x3dc5a21f	0.09650063
20	0x3db157e7	0.08659344
21	0x3d2ffbaf	0.042964634
22	0x3d980ecb	0.074246965
23	0x3ce101b0	0.027466625
24	0xbd6abddf	-0.05730998
25	0xbc029d86	-0.007972127
26	0x3d0faa62	0.0350746
27	0xbc8ce39c	-0.017198376
28	0x3d82e40e	0.06391154
29	0xb9fe9d54	-0.00048563874
30	0xbd8bb7b1	-0.06822146
31	0x3d6f4684	0.05841686
32	0x3d5ff84a	0.054680146
33	0x3d8d0eb6	0.068875715
34	0xbd6a8e05	-0.057264347
35	0xbd5a6ee6	-0.053328417
36	0xbc7fb89f	-0.015607982
37	0x3ba1bba0	0.0049356967
38	0x3dc4aabb	0.09602877
39	0x3d71b576	0.059010945
40	0x3d3b870a	0.04578308
41	0x3d44e61d	0.048071016
42	0x3d00a7ef	0.031410154
43	0x3d0862d8	0.03329739
44	0x3c0b2598	0.00849285
45	0xbd9c7d9f	-0.07641148
46	0xbdb164e6	-0.08661823
47	0xbbc025b0	-0.0058638677
48	0xbc5be768	-0.013421871
49	0xbd40644f	-0.04697066
50	0xbd9700e9	-0.073732205
51	0xbbae7ca9	-0.0053249192
52	0xbd54e238	-0.05197355
53	0x3d2e12ba	0.042498328
54	0xbd5ac357	-0.053408947
55	0xbb9f1e13	-0.00485588
56	0xbb9a8b3c	-0.004716305
57	0x3a91ab00	0.0011113584
58	0x3d871835	0.06596414
59	0xbcee4634	-0.02908621
60	0xbd1312ec	-0.035906717
61	0x3d7b1dd9	0.06130776
62	0xbd9416ac	-0.07230887
63	0x3b8e8cb4	0.004350269
64	0x3d64b88b	0.055840056
65	0xbbdeb43c	-0.006796388
66	0x3d4130da	0.04716573
67	0x3cff92f8	0.03119801
68	0x3d84c377	0.064825945
69	0x3d772b7d	0.060344208
70	0xbcd37618	-0.025813147
71	0xbd8e8cfa	-0.06960483
72	0x3b9180a0	0.004440382
73	0x3cf879f6	0.030331593
74	0x3d6585ea	0.056035914
75	0x3d1831bb	0.0371568
76	0xbd6a8b35	-0.057261664
77	0xbd37071b	-0.04468451
78	0x3c047485	0.008084421
79	0x3d9ce1ca	0.07660253
80	0xbcb694a4	-0.022287674
81	0xbd81361c	-0.06309149
82	0x3c8b2155	0.016983667
83	0x3c9428ea	0.018085916
84	0xbd6567e1	-0.05600727
85	0x3d294537	0.041325774
86	0xbd58334a	-0.052783288
87	0xbd81694e	-0.063189134
88	0x3d8a2832	0.06745948
89	0xb91d3e00	-0.00014995784
90	0x3c92e007	0.01792909
91	0xbd4e421a	-0.050356008
92	0x3c661315	0.014042635
93	0xbd324e57	-0.043531742
94	0x3d7e4b9e	0.062083833
95	0x3d552da3	0.052045476
96	0xbd31666e	-0.043310575
97	0xbc3076e3	-0.010770532
98	0x3d99461d	0.07484076
99	0x3d791c55	0.060818035
100	0x3d6e0886	0.058113597
101	0xbcb251b7	-0.02176748
102	0xbd38333b	-0.044970732
103	0xbd268e97	-0.040663328
104	0x3d35029e	0.04419195
105	0x3d90749e	0.07053493
106	0x3d4fab5d	0.050700534
107	0x3d0dd65a	0.03462825
108	0x3d929f53	0.07159295
109	0xbc752658	-0.014962755
110	0xbcac3046	-0.021019112
111	0xbd40c50c	-0.04706292
112	0x3d3977db	0.04528032
113	0x3d9c9810	0.07646191
114	0x3d04fea5	0.03246941
115	0x3d162476	0.036655866
116	0x3bcef873	0.0063162385
117	0x3d2af662	0.041738875
118	0x3cacad08	0.021078601
119	0xbdc49077	-0.09597867
120	0xbd5c5da0	-0.053800225
121	0x3d3d19c5	0.046167154
122	0x3c408c00	0.011752129
123	0x3d14a44c	0.0362895
124	0x3d193264	0.037401572
125	0x3d15bf8c	0.036559626
126	0x3cb444d1	0.02200547
127	0x3c7fb554	0.015607197
128	0xbce774fc	-0.028254025
129	0x3cabbc92	0.02096394
130	0x3d8201b5	0.06347982
131	0x3d0b336d	0.03398459
132	0xbd8b95ec	-0.06815705
133	0xbcc8eb40	-0.024526238
134	0xbd5c5e61	-0.053800944
135	0x3d5c84cf	0.053837594
136	0xbb037bc0	-0.0020062774
137	0xbcbcccf5	-0.02304695
138	0x3d930723	0.071790956
139	0x3b0ac160	0.002117239
140	0x3d936fb5	0.07199041
141	0xbd9b7bd2	-0.07591976
142	0xbd26aa1b	-0.04068957
143	0xbda31b64	-0.07964209
144	0x3d453804	0.048149124
145	0xbd0ecc66	-0.0348629
146	0xbd0c65cc	-0.03427677
147	0x3c8bd91a	0.017071296
148	0x3c775d8c	0.015097987
149	0x3d978e22	0.074001566
150	0xbd29826e	-0.041384153
151	0x3d88d1cd	0.06680641
152	0xbd87cb38	-0.06630558
153	0x3b7f6df5	0.0038975452
154	0x3d3f8536	0.0467579
155	0xbd916c3d	-0.07100723
156	0x3c43ab67	0.011942721
157	0xbba7cd4a	-0.005120908
158	0x3d9dd5d5	0.07706801
159	0xbcee9cc0	-0.029127479
160	0xbd9aea9a	-0.07564278
161	0xbdba9a12	-0.09111418
162	0xbd4af2ee	-0.049548082
163	0x3d68b7fa	0.05681608
164	0xbcd19130	-0.025581926
165	0xbd821109	-0.063509054
166	0xbd62460e	-0.05524259
167	0xbb53ffa0	-0.003234841
168	0x3d8babc4	0.06819871
169	0xbd9652e0	-0.07340026
170	0x3c472c8b	0.012156616
171	0xbda89a5b	-0.08232566
172	0xbd87969e	-0.06620525
173	0x3c9bd2a8	0.019021347
174	0xbd0e0b79	-0.03467891
175	0x3c6c04e8	0.014405467
176	0xbd7e68cf	-0.062111672
177	0x3d8a787d	0.067612626
178	0x3d6be67b	0.05759285
179	0xbdb5f90e	-0.08885394
180	0xbd94803d	-0.07251022
181	0xbbb324f6	-0.0054670526
182	0xbd43a7f9	-0.047767613
183	0xbd7da9c4	-0.06192948
184	0xbc185afd	-0.009299037
185	0x3d802ca7	0.06258517
186	0x3d69c9c1	0.057077173
187	0x3d84d805	0.06486515
188	0xbc275ab8	-0.0102145
189	0xbcba956c	-0.022776328
190	0x3c558e61	0.013034434
191	0x3d33e97b	0.043923836
192	0xbcc20df3	-0.023688292
193	0xbda78997	-0.0818054
194	0x3d642dec	0.055707857
195	0x3cfe57e4	0.031047769
196	0x3d0494b8	0.03236839
197	0x3cc437d0	0.023952395
198	0xbbc8fb01	-0.0061334376
199	0xbca43d8b	-0.020048877
200	0x3be04376	0.0068439795
201	0x3d2f1284	0.042742267
202	0x3d55129e	0.052019708
203	0xbd72068a	-0.059088267
204	0xbdb5fb86	-0.08885865
205	0xbd4ce8d5	-0.050026733
206	0x3bb22860	0.005436942
207	0xbd0e20e3	-0.034699332
208	0xbd4b2d21	-0.049603585
209	0xbd0714de	-0.032978885
210	0xbdb78508	-0.089609206
211	0x3d09c75c	0.03363739
212	0x3d428592	0.047490664
213	0xbd862446	-0.06549887
214	0xbd2f8812	-0.042854376
215	0xbd88dd34	-0.06682816
216	0x3d86363f	0.06553315
217	0x3cdb78d8	0.026791021
218	0x3d90469f	0.0704472
219	0x3d552d71	0.05204529
220	0xbd245f0c	-0.040129706
221	0xbbaa6f50	-0.0052012578
222	0xbc9ff8f4	-0.01952789
223	0xbcdeeb62	-0.027211849
224	0x3c67c100	0.014145136
225	0xbdbb73fc	-0.09152982
226	0xbd404d6d	-0.04694884
227	0x3d059891	0.0326162
228	0xbd1bf570	-0.038075864
229	0x3c4fbf0b	0.012679826
230	0x3c8abc72	0.01693556
231	0xbd62b054	-0.05534394
232	0xbcbc4020	-0.022979796
233	0xbd9ed949	-0.077562876
234	0xbd41ebef	-0.047344144
235	0xbd4492f6	-0.047991715
236	0xbda07116	-0.078340694
237	0xbb992b90	-0.0046743825
238	0x3d3e686c	0.046486303
239	0x3d71fb66	0.059077643
240	0xbd1fd11c	-0.03901778
241	0x3d59908b	0.053116363
242	0x3bf9e95c	0.0076266956
243	0xbc3f73c0	-0.011685312
244	0xbda2fdab	-0.079585396
245	0x3d28bab2	0.04119367
246	0xbdb95e3d	-0.09051178
247	0x3c95a368	0.018266395
248	0xbd1801d9	-0.037111137
249	0xbda05797	-0.078292064
250	0xbb2a13c0	-0.0025951713
251	0xbda4d5b8	-0.08048576
252	0x3bbdb82c	0.0057897773
253	0x3d79406a	0.060852446
254	0xbd8427c7	-0.064528994
255	0x3bcf9380	0.006334722

fc2.bias f4 [128]
0	0x3db30441	0.08741046
1	0x3da28031	0.07934607
2	0xbc375388	-0.011189349
3	0x3cef715e	0.029228862
4	0xbd532330	-0.05154723
5	0xbc70d88b	-0.014700065
6	0xbd75ecb6	-0.0600402
7	0x3d97259a	0.07380219
8	0xbcfaab89	-0.030599372
9	0xbd83c4e2	-0.06434037
10	0x3daa3ad7	0.08312004
11	0xbd49aa4f	-0.049234685
12	0xbdb9161b	-0.090374194
13	0x3d34f376	0.044177495
14	0x3d9068dc	0.0705125
15	0xbcf3db55	-0.029767672
16	0xbc7c7078	-0.015407674
17	0xbd4a7ad2	-0.049433537
18	0xbd4764fe	-0.048680298
19	0xbd3d29ab	-0.046182316
20	0xbd09d3f9	-0.03364942
21	0x3cd29aed	0.02570864
22	0xbd5ab54e	-0.053395562
23	0x3c750acc	0.014956187
24	0x3d9ec2e9	0.0775202
25	0xbd4d8b2f	-0.050181564
26	0x3d53bd74	0.05169435
27	0xbdad0b35	-0.08449403
28	0x3d5f3f02	0.05450345
29	0x3d5877da	0.052848674
30	0x3da48b1e	0.08034347
31	0x3cdd4852	0.027012024
32	0xbd6429e5	-0.055704016
33	0xbd0b6866	-0.03403511
34	0xbd2537f2	-0.040336557
35	0xbc714797	-0.014726541
36	0x3d920305	0.07129482
37	0x3c551ae0	0.013006896
38	0x3d0f2395	0.034946043
39	0x3d9da59a	0.076976016
40	0xbd234bd7	-0.03986725
41	0x3bc12300	0.005894065
42	0x3d747d76	0.05968996
43	0xbd43b662	-0.047781356
44	0x3d2af674	0.041738942
45	0x3c83efe4	0.0161056
46	0xbd81abaf	-0.06331574
47	0x3bce842e	0.006302378
48	0x3cf23483	0.029566055
49	0xbd862781	-0.065505035
50	0x3d4e071b	0.050299745
51	0x3d4614c0	0.048359632
52	0xbd8da470	-0.069161296
53	0xbd8eb7db	-0.069686614
54	0x3d97f81c	0.0742037
55	0x3d95659c	0.07294771
56	0x3d210147	0.03930786
57	0xbd4105b1	-0.04712457
58	0xbdc2f482	-0.095192924
59	0xbda4b628	-0.08042556
60	0x3b9fdae2	0.004878388
61	0x3caaeb0c	0.020864032
62	0x3c262d43	0.010142627
63	0x3d9ea5b8	0.07746452
64	0x3c990ce9	0.018682914
65	0xbd56dd24	-0.05245699
66	0x3d19563c	0.037435755
67	0xbd901c05	-0.07036594
68	0xbc3326b0	-0.010934517
69	0x3ce6185d	0.02808779
70	0xbccd8aee	-0.02509066
71	0x3df4ca7a	0.11952682
72	0xbb0eba20	-0.002177842
73	0x3ccda8d6	0.025104921
74	0x3dcfbd87	0.10143571
75	0xbaaa3b58	-0.0012987657
76	0xbcd33729	-0.025783138
77	0xbcefc7ec	-0.029270135
78	0xbd6e6b61	-0.058207873
79	0xbd9e68fc	-0.07734868
80	0xbda4dac3	-0.08049538
81	0xbcc21b9b	-0.023694804
82	0xbcb357b4	-0.021892406
83	0x3d19e63b	0.03757308
84	0xbbb04d68	-0.0053803213
85	0x3dba19e3	0.09086969
86	0xbd8efcfd	-0.069818474
87	0x3d2c4fd9	0.042068336
88	0xbdb8182f	-0.08988988
89	0xbb4e1849	-0.003144758
90	0xbc0d411f	-0.008621483
91	0x3bf310b9	0.007417765
92	0x39f72e70	0.0004714611
93	0x3bfff816	0.0078115566
94	0xba9a70b7	-0.0011782859
95	0x3df40d82	0.11916639
96	0xbb983700	-0.0046452284
97	0x3daf1f27	0.08550864
98	0xbb0aba73	-0.0021168261
99	0x3daa35c3	0.083110355
100	0x3cdf4f9f	0.027259646
101	0xbd816f7e	-0.063200936
102	0x3d5faab5	0.05460616
103	0xbd99d2da	-0.0751092
104	0x3dad463b	0.08460661
105	0xbd95ddbd	-0.07317684
106	0x3d76c684	0.060247913
107	0xbd65331a	-0.055956937
108	0x3d5c0cdc	0.0537232
109	0xbd73cad6	-0.05951961
110	0xbd885ab6	-0.06657927
111	0x3d17583c	0.03694938
112	0x3da17771	0.0788411
113	0x3d75cfb5	0.060012538
114	0xbd9dfb6b	-0.0771397
115	0xbcb48724	-0.022037096
116	0xbc238f31	-0.00998287
117	0x3d7864d7	0.060643043
118	0x3cb42302	0.02198935
119	0xbceb5980	-0.0287292
120	0x3c2fd9e7	0.010733104
121	0x3d9e3baa	0.07726224
122	0xbd839b9f	-0.06426167
123	0x3dc05162	0.093905225
124	0xbce936ba	-0.028468478
125	0xbd4a3358	-0.04936537
126	0x3d7a11cf	0.06105214
127	0xba0dd8d8	-0.00054110354

fc3.weight f4 [5, 128]
0	0x3d13c49f	0.036076184
1	0x3d9dfafc	0.07713887
2	0x3d25de73	0.040495347
3	0xbd283f43	-0.041075956
4	0x3d22fbd6	0.03979095
5	0x3d155508	0.036458045
6	0x3ce76b50	0.028249413
7	0x3d878b1f	0.06618332
8	0xbcb4a668	-0.022052005
9	0xbd7ec06d	-0.06219523
10	0xbcf44525	-0.029818127
11	0x3d8e8345	0.069586314
12	0x3d54fc01	0.051998142
13	0xbbf9e04f	-0.0076256166
14	0xbda7bc7a	-0.08190246
15	0x3d90c47e	0.07068728
16	0xbd550a35	-0.052011687
17	0xbc29615a	-0.010338152
18	0xbc645054	-0.013935167
19	0xbdf18678	-0.11793226
20	0xbdc0fa20	-0.094227076
21	0xbc778efd	-0.015109775
22	0x3cf9d2bd	0.030495996
23	0xbd3361ff	-0.04379463
24	0x3da90c28	0.08254272
25	0xbd3b77da	-0.045768596
26	0xbdbd1c04	-0.09233859
27	0x3caa6476	0.020799857
28	0x3d7df111	0.061997477
29	0xbd8ba866	-0.06819229
30	0xbdfa5b03	-0.1222439
31	0xbc34ba32	-0.011030721
32	0xbd6f0662	-0.058355696
33	0xbd695e6a	-0.056974806
34	0xbd96e0bb	-0.07367083
35	0x3d9591c6	0.07303195
36	0xbc78d1e8	-0.015186764
37	0x3ce10cc4	0.027471907
38	0xbb1da3b5	-0.0024053876
39	0xbd3452a9	-0.044024143
40	0x3d1b40bf	0.037903544
41	0x3cf80290	0.03027466
42	0xbae7d860	-0.0017688386
43	0xbdc7b31f	-0.097509615
44	0x3d066a32	0.03281612
45	0x3d1532df	0.036425468
46	0x3da1b5d7	0.07896011
47	0xbd13d8c3	-0.036095392
48	0x3d1731e2	0.036912806
49	0xbd83dbe0	-0.06438422
50	0x3d807ffa	0.062744096
51	0xbe037508	-0.12837613
52	0x3d46ad36	0.04850503
53	0xbc80d7a6	-0.01572783
54	0x3d29ab39	0.041423056
55	0xbde3b32d	-0.111181594
56	0xbde45a24	-0.111500055
57	0x3d6c2c5c	0.057659492
58	0x3d10d189	0.03535608
59	0xbd5d198b	-0.053979438
60	0xbc734926	-0.014848983
61	0x3d206f87	0.03916886
62	0xbd9c09e9	-0.07619078
63	0xbd9cd22b	-0.07657274
64	0x3bb0daf4	0.005397195
65	0x3c5233d8	0.012829743
66	0x3d165b97	0.03670844
67	0xbd43e772	-0.047828145
68	0x3bd011f0	0.0063497946
69	0x3d89f985	0.06737045
70	0x3d62ade5	0.05534162
71	0xbdad7a72	-0.0847062
72	0xbbd12090	-0.0063820556
73	0xbda17530	-0.0788368
74	0xbda51f95	-0.080626644
75	0xbdb7b9c8	-0.08970982
76	0x3d3bc59a	0.045842744
77	0xbc999b4f	-0.018750815
78	0x3d88afc5	0.066741504
79	0x3d4776ec	0.048697397
80	0xbdaa50df	-0.08316206
81	0x3d3ac86b	0.04560129
82	0xbdcca47c	-0.099923104
83	0xbdf18bae	-0.1179422
84	0xbd923318	-0.071386516
85	0xbd2d6506	-0.04233267
86	0xbce699aa	-0.028149445
87	0x3ccb3da1	0.02480966
88	0x3b1f566e	0.002431299
89	0x3d954f03	0.07290461
90	0xba65a013	-0.00087595097
91	0x3b9d1697	0.0047939527
92	0xbd9d5146	-0.07681517
93	0xbc08e9b9	-0.008356505
94	0xbdb511a9	-0.08841259
95	0xbdc697bc	-0.0969691
96	0x3d961ef5	0.07330123
97	0xbd58f0e7	-0.052964117
98	0xbc85203b	-0.01625072
99	0xbd9c99d2	-0.076465264
100	0xbc94d39f	-0.018167315
101	0x3d83a9f9	0.06428904
102	0xbbd26fb3	-0.006422007
103	0xbdb95fee	-0.090515
104	0x3d46c6d0	0.048529446
105	0xbd20e667	-0.03928223
106	0xbd5e7bab	-0.054317158
107	0xbcfc573e	-0.030803319
108	0xbda30579	-0.07960028
109	0x3b100040	0.0021972805
110	0x3d91b4df	0.071145765
111	0x3ba8ea1e	0.005154862
112	0xbdaffb84	-0.08592895
113	0x3ce6b46e	0.028162207
114	0x3aeb1080	0.0017933995
115	0xbbd3e4a7	-0.0064664665
116	0x3815659d	3.5619003e-05
117	0xbd93fb57	-0.07225674
118	0xbd51024d	-0.051027585
119	0x3d8dbb63	0.06920507
120	0xbd5e6663	-0.054296862
121	0x3d5724a5	0.05252518
122	0x3d044e7e	0.03230142
123	0xbde8e6dc	-0.11372158
124	0x3c863f74	0.016387679
125	0xbd58a284	-0.052889362
126	0xbc387aa1	-0.011259706
127	0xbdc515e7	-0.09623318
128	0x3d0c6d74	0.03428407
129	0x3cb801d3	0.022461807
130	0x3d282d21	0.041058663
131	0x3d91b1b1	0.0711397
132	0xbda2deb9	-0.07952637
133	0xbad8e995	-0.0016549105
134	0xbd7b1823	-0.061302315
135	0xbc683e07	-0.014174945
136	0x3d10bd28	0.035336643
137	0xbc5b40bb	-0.013382132
138	0x3d3c2146	0.04593017
139	0x3d648a82	0.055796154
140	0xbd556cd9	-0.05210576
141	0x3c515ad6	0.012778005
142	0x3d4d4adc	0.05012022
143	0x3ce87714	0.028377093
144	0x3c568f88	0.013095744
145	0x38c08523	9.180072e-05
146	0x3c0bd365	0.008534287
147	0x3dd339e7	0.10313778
148	0x3d854aea	0.06508429
149	0xbd0726d7	-0.032996025
150	0xbd37ac64	-0.04484214
151	0xbc9d305b	-0.019188097
152	0xbd8e4f56	-0.06948726
153	0xbd417b76	-0.047236882
154	0xbd47cb35	-0.048777778
155	0xbda912a5	-0.08255509
156	0x3d180295	0.037111837
157	0xbcf5905f	-0.029976068
158	0x3da5ab47	0.08089309
159	0x3cbc2cd9	0.022970604
160	0xbd88de83	-0.06683066
161	0x3da40a63	0.080097936
162	0xba025d80	-0.0004973039
163	0x3daad8f0	0.08342159
164	0x3ca372c0	0.019952178
165	0x3d98cfd3	0.07461514
166	0xbbf98e9e	-0.0076158782
167	0x3d8bfe73	0.06835642
168	0xbd315896	-0.043297373
169	0x3d9ed327	0.07755118
170	0xbda4258b	-0.08014973
171	0xbccf3ae7	-0.025296642
172	0x3d41205e	0.04715001
173	0xbd217fa6	-0.039428376
174	0x3cbfe837	0.023426158
175	0x3cdd3ef9	0.027007567
176	0x3bcda0a0	0.0062752515
177	0x3d942935	0.07234422
178	0xbd4729bd	-0.04862379
179	0xbbd50850	-0.006501235
180	0x3d287ac2	0.041132696
181	0xbd04561c	-0.032308683
182	0x3d8885f7	0.06666177
183	0x3dcefa14	0.10106292
184	0x3d93845c	0.0720298
185	0x3d63e704	0.055640236
186	0xbd421795	-0.04738577
187	0xbda9ac22	-0.08284785
188	0x3c01198b	0.007879625
189	0x3dc4e1c6	0.09613375
190	0x3c34ddc4	0.011039201
191	0x3d0c00e5	0.03418054
192	0x3ca241ad	0.019806707
193	0x3db09bf9	0.086234994
194	0x3cd567a6	0.0260504
195	0x3c9bbce6	0.019010972
196	0xbd4a44ec	-0.049382135
197	0x3c1e69f5	0.009668817
198	0xbd6fd97e	-0.058557026
199	0x3d7b5662	0.061361678
200	0x3d20b112	0.039231367
201	0x3c1eb60e	0.00968696
202	0x3cf8dd33	0.030378914
203	0xbb6efb27	-0.0036465616
204	0xbc315521	-0.010823519
205	0x3dad76c9	0.08469922
206	0xbced99e1	-0.02900404
207	0xbaf57d67	-0.0018729389
208	0xbd2eb541	-0.042653326
209	0x3cc94f3b	0.024573913
210	0x3ccf233b	0.025285354
211	0xbc21d8f0	-0.009878382
212	0x3dcb0c19	0.09914417
213	0xbc5481b8	-0.0129703805
214	0xbd93fca2	-0.0722592
215	0x3c53055a	0.012879694
216	0xbca559f8	-0.020184502
217	0xbc6ab07b	-0.014324303
218	0x3d943cc3	0.07238152
219	0xbc24e8bd	-0.010065255
220	0x3dc4f5ad	0.096171714
221	0xbb96eeb4	-0.0046060923
222	0x3da4eba1	0.08052755
223	0x3da2d765	0.079512395
224	0x3d831d67	0.064020924
225	0x3d985946	0.074389026
226	0xbc5f8b2f	-0.013644024
227	0x3d994177	0.074831896
228	0x3de844f0	0.11341274
229	0x3da67d62	0.081293836
230	0xbd138251	-0.03601295
231	0x3c963f84	0.018340833
232	0x3d2f5297	0.042803373
233	0xbcb6ee9c	-0.022330575
234	0x3d1ee879	0.038795922
235	0x3d5a958e	0.053365283
236	0xbd83e6a9	-0.06440479
237	0x3d64d6ba	0.05586884
238	0x3c833290	0.016015321
239	0xbbe0b8d1	-0.0068579693
240	0x3dc2f090	0.0951854
241	0xbd4bd20b	-0.04976086
242	0x3c1a26d8	0.009408675
243	0x3db927f4	0.090408236
244	0x3b94c8a4	0.00454052
245	0xbd8fd0ac	-0.07022223
246	0x3d69cd6a	0.057080664
247	0xbc2f1938	-0.010687165
248	0xbd091fb5	-0.033477504
249	0xbd1acb7e	-0.03779172
250	0x3da37bda	0.07982607
251	0x3dd44ae0	0.10365844
252	0x3d3b7289	0.045763526
253	0x3d4632ee	0.048388414
254	0xbd901b8e	-0.07036506
255	0xbd61d8d5	-0.055138428

fc3.bias f4 [5]
0	0xbcb0122d	-0.021493042
1	0xbcf6360e	-0.030055072
2	0xbc57ec3c	-0.013178881
3	0xbd26558a	-0.04060892
4	0xbcff2d6b	-0.031149587
