CC_Reinforce_version_3/state_dict_model_v7.pt (torch, 84151 bytes, 6 tensors)

fc1.weight f4 [128, 25]
000000 0e bb a7 bc d7 38 4c 3d 7f 71 e6 bd 82 5f 5d 3d
       -0.020474937 0.049858894 -0.112521164 0.05404616
000010 f6 63 50 3d 2b 40 09 3e 4a ce f4 3d 7d b1 69 be
       0.05087658 0.13403384 0.11953409 -0.22821613
000020 8d fa e5 3d 82 f6 3d 3e 48 2a 07 3e 10 15 a5 3d
       0.112294294 0.18551067 0.13199723 0.08060658
000030 f1 13 1a be 67 05 1e 3e 47 35 87 3d e6 f7 02 3e
       -0.1504667 0.15431748 0.06601959 0.12789878
000040 6d cc ab 3d 43 96 42 3e 9f 7a 4c be c0 1e cb 3d
       0.083886005 0.19002633 -0.19968651 0.099179745
000050 7d 0c 61 3e fa be 45 3e 2a 96 17 be 07 95 11 3d
       0.2197742 0.19311133 -0.14803377 0.035542514
000060 8b db 16 3e 17 fc 52 3e b8 29 07 3d 6c 96 07 3e
       0.14732186 0.20603977 0.03299877 0.13240975
000070 6d 02 1e bc 7f f0 80 3b e1 c9 a7 bd 8f 72 0a 3c
       -0.009644133 0.0039349194 -0.08192802 0.008450164
000080 7c 4b 3c be 88 df 20 bd a7 e8 bb bd 34 58 61 3c
       -0.1838817 -0.039275676 -0.09175234 0.013753939
000090 0b 78 15 3e 2b a5 ad bc 0c a6 60 be 3c 61 1a 3e
       0.14596574 -0.021196922 -0.21938342 0.15076154
0000a0 cd 7e 94 bd 77 45 c7 bd 44 68 1e be 48 9c cb bd
       -0.07250748 -0.09730046 -0.15469462 -0.09941918
0000b0 e8 d7 0e 3e ff d2 36 3e 21 1c ec 3d 6e 04 43 3e
       0.13949549 0.17853926 0.11528803 0.19044659
0000c0 24 79 0c 3e af 5b 04 3e fe b8 f4 3d 0e 5e d0 3c
       0.13718086 0.129256 0.11949347 0.025435474
0000d0 23 dc 42 3b e8 ae 44 3c 69 45 1b 3e 7a fb 71 3d
       0.0029733262 0.0120045915 0.15163197 0.059077717
0000e0 0b 41 b3 bd 79 fe f3 3d 3d ca b3 bd 0a 19 95 3d
       -0.0875264 0.11913771 -0.08778808 0.072801664
0000f0 de bc 29 bd 76 d5 36 bd a1 70 44 3d 2e 29 4e 3e
       -0.041439883 -0.044637166 0.047958974 0.20132896
000100 56 e5 a9 3d de 50 75 bd ea b8 fe bd 89 41 03 be
       0.082956955 -0.059891574 -0.12437613 -0.12817968
000110 13 eb d0 3d 65 aa 32 be 7a 43 39 3d 80 d9 52 bd
       0.10201087 -0.17447813 0.045230366 -0.051476955
000120 4d 35 a4 3d 07 36 3d 3e 47 4e 80 bd c8 f5 9e 3d
       0.08017979 0.18477641 -0.0626493 0.07761723
000130 1d e2 0f 3e 8d 9a 67 bb 16 71 4c be c6 9a 12 3e
       0.14051099 -0.0035339922 -0.19965014 0.14316854
000140 34 ea 71 3c f1 e3 2a be 01 52 d4 bc bb d9 50 bd
       0.014765311 -0.16688515 -0.025918009 -0.050988894
000150 74 92 da bd 64 10 c6 bd b6 bc 54 bd 31 8c 25 bc
       -0.10672465 -0.09671095 -0.05193778 -0.010104225
000160 7a 82 6c 3d 19 cd 87 bd 14 d9 6a be 3a 0d 4a be
       0.05774162 -0.06630916 -0.22934371 -0.19731608
000170 11 7e d2 bd 5c 42 ea 3d 63 e3 1f 3e 7e 71 c4 3c
       -0.102779515 0.11438438 0.15614085 0.023979899
000180 ef 38 64 be 6a 2c d1 bd 69 32 7b 3d 2f 03 26 3e
       -0.22287343 -0.102135494 0.06132737 0.16212152
000190 5e 63 06 be ef d7 21 bd c6 c9 50 3e 06 c2 83 ba
       -0.13123843 -0.03951257 0.2038947 -0.001005233
0001a0 f9 a2 ef bd 13 2b 0b 3e e1 18 34 be 97 f5 a7 bd
       -0.117010064 0.1359065 -0.17587616 -0.082011394
0001b0 c6 eb 75 be e5 36 51 3e 8a a2 62 3e cb e5 0b be
       -0.24015722 0.20431097 0.22132316 -0.13661878
0001c0 b5 ac 3e bd 67 ba 11 be f3 11 0c 3e 66 47 44 3e
       -0.046551425 -0.14231263 0.13678722 0.19167861
0001d0 e2 28 9f 3d 6d 81 66 bd 58 56 f8 bd 3a e7 59 3d
       0.0777147 -0.056275774 -0.12125844 0.05319903
0001e0 fb 33 05 3d da 41 45 bd e7 71 81 3d 55 21 63 bd
       0.032520276 -0.048158504 0.06320553 -0.05545171
0001f0 73 f7 92 bd ef 09 43 be fd 43 cc bd 72 13 90 3d
       -0.071761034 -0.19046758 -0.09973905 0.07034959
000200 b8 f2 0c be 1d 97 dc bd 80 e9 0e bd 92 5e aa 3d
       -0.13764465 -0.1077101 -0.03489065 0.08318819
000210 80 c0 11 be 0a a3 48 be 36 4c 1b be fb 50 11 3e
       -0.14233589 -0.19593444 -0.15165791 0.14191048
000220 46 5b 90 3d 07 88 eb bd d0 a2 be bd d0 8b 41 bc
       0.07048659 -0.115005545 -0.09308398 -0.011813119
000230 d2 16 b6 3d 74 18 1c 3d d0 11 37 3c 13 34 ea bd
       0.088910714 0.038109258 0.01117368 -0.114357136
000240 5c d6 63 3d e0 9d 3e be f2 52 e3 3d 29 5f 03 3e
       0.05562435 -0.18614912 0.11099805 0.1282927
000250 2a d3 c8 bd 98 98 4b be dd 1f 1b be bc ea 08 be
       -0.09805901 -0.19882429 -0.15148874 -0.13370794
000260 52 ad 91 3d c7 3c b7 bd 52 0b d8 3d f3 45 f1 bd
       0.07113136 -0.08947139 0.10549034 -0.1178092
000270 40 21 44 3d 97 f4 02 3e 16 e6 11 be 97 da 33 3e
       0.047883272 0.12788616 -0.14247927 0.17563854
000280 58 f5 36 be 47 76 e8 bd 20 43 9b bd cd 81 09 be
       -0.17867029 -0.113506846 -0.075811625 -0.13428421
000290 5b 91 0d be b4 de 0c 3d 10 a5 d0 3c 54 eb 75 bd
       -0.1382498 0.034392074 0.025469333 -0.06003888
0002a0 93 66 3f be aa fb b3 3d 6a 2b e1 bd 07 2d e2 bd
       -0.18691473 0.087882355 -0.10994609 -0.110437445
0002b0 ba 3d b1 3d 2d 71 ec bd 1a 3b 15 be 23 2c 1a bd
       0.086543515 -0.11545024 -0.14573327 -0.03763975
0002c0 93 68 b2 3d 8e c3 0b 3e 45 a9 22 3e 34 a6 1b be
       0.08711352 0.13648817 0.15884884 -0.1520012
0002d0 df d4 1f be 00 15 1a 3d de 05 06 3e 0b a3 02 3d
       -0.15608548 0.037617683 0.13088176 0.03189377
0002e0 f1 0f c6 3d d3 28 1c 3d 15 79 6f 3e ea 63 64 be
       0.09671009 0.03812487 0.23386033 -0.22303739
0002f0 ee 67 04 3d a6 a4 bb 3c 71 f9 4c 3e ee ce 34 3e
       0.032325678 0.022905659 0.2001703 0.17657062
000300 49 20 0a 3d 47 cd 8a 3c ee 6c 9b 3d 81 6f 45 3e
       0.033722196 0.016943587 0.07589136 0.19280817
000310 c7 70 99 3d 3e 6b 06 be 77 71 1b bd 55 04 bd 3d
       0.07492214 -0.13126847 -0.037950005 0.09229342
000320 d7 86 a6 bd f2 0c ad 3d c3 4b 44 be c8 f9 47 be
       -0.081311874 0.08449735 -0.19169526 -0.19528878
000330 0f f4 31 3e f8 52 61 bd 26 71 b4 3d 80 50 df bd
       0.17378257 -0.055010766 0.08810644 -0.10904026
000340 50 16 c0 bd 12 38 de 3d 2a a9 e8 bd 0b 2b 19 3e
       -0.09379256 0.10850538 -0.113603905 0.14957826
000350 14 b8 0d 3d 4b 13 03 3e 18 4b cf 3c 74 cc 15 3d
       0.03459938 0.12800328 0.025304362 0.036571935
000360 f6 dc 83 3d 7d ba 9d bd 12 89 e4 3d a6 00 8b 3d
       0.06438629 -0.077015854 0.111589566 0.06787233
000370 1c 17 97 bd 6b 7f 2a be 19 df 07 3e 62 45 c3 3d
       -0.07377455 -0.16650169 0.13268699 0.09534718
000380 d2 56 e1 3d b1 a6 13 bd 76 72 2f be d2 bb 83 bd
       0.11002888 -0.03604764 -0.17133507 -0.06432308
000390 e4 2c fa ba 3e 3b 9f bd f4 45 23 3e d4 83 dc 3c
       -0.0019086865 -0.077749714 0.15944654 0.02691833
0003a0 87 18 9e 3d 16 23 37 be 9d b5 17 3e dc 07 1d 3d
       0.07719522 -0.17884478 0.14815374 0.038337573
0003b0 16 90 9d bd 60 f6 e5 bd 25 37 86 3c be af 47 3d
       -0.07693498 -0.11228633 0.016383717 0.048751585
0003c0 25 86 83 3c f8 ec b7 bd 56 21 31 3e e8 05 82 bd
       0.016055176 -0.08980745 0.17297873 -0.06348783
0003d0 cc fc 36 be 57 33 da bd 7d ec 24 be 02 ae 0a be
       -0.17869872 -0.106543235 -0.16105838 -0.13542941
0003e0 81 dd ae 3d 4f be 4c 3e cf 78 33 3e 56 5e 8e 3d
       0.08538342 0.19994472 0.17526554 0.06951587
0003f0 f5 b2 89 3c 1e 6c 11 bd 08 4d dc 3d a2 94 38 be
       0.016808966 -0.0355035 0.1075688 -0.18025449

fc1.bias f4 [128]
000000 04 36 87 3d 36 68 0c 3e 6e b5 2e be 40 5b 09 3e
       0.066020995 0.13711628 -0.17061397 0.13413715
000010 dd eb 9d 3d eb fb 28 be 8d 97 14 3e 6c cd 0c 3e
       0.07711003 -0.16502349 0.14510937 0.13750237
000020 6d c2 d5 bd 98 94 22 bd 9d a8 47 be 6c a1 59 3d
       -0.104374744 -0.03969249 -0.19497915 0.05313246
000030 75 78 10 3e 1c 58 3d be 4a a4 2b 3c f1 9d a0 bd
       0.1410845 -0.18490642 0.010476181 -0.07842625
000040 02 49 4b 3e d1 dd 6b 3e bb aa 70 3d 53 ce 2c 3e
       0.19852069 0.23033835 0.05875657 0.16875581
000050 07 c5 1a 3e c2 7b c7 bb 4c 0a 38 bd 9b 39 30 3e
       0.15114222 -0.006087751 -0.044931695 0.17209475
000060 1d ab 27 3c 48 4b 17 bd 80 19 c6 3a 49 89 34 bd
       0.010233668 -0.03693703 0.0015113801 -0.044076238
000070 b8 ca cb bd 02 6e 62 3e 7e df 25 be db 1b 3f be
       -0.09950775 0.22112277 -0.16198537 -0.1866297
000080 d6 5c c6 3d d7 b4 4e 3e 44 36 ec 3c 38 02 75 bd
       0.09685676 0.20186172 0.02883447 -0.05981657
000090 74 de 9e 3d 5c f6 18 3e 81 8a 15 be 84 b4 3c bd
       0.07757273 0.14937729 -0.14603616 -0.04607059
0000a0 7a 74 3d 3e a8 f5 0f bd 91 4a 3b 3e f0 0e f3 bd
       0.18501464 -0.035146385 0.18290164 -0.118680835
0000b0 d7 cb 01 3e 35 ab 6b 3d 51 fb 0a 3e 81 0d 0c 3d
       0.12675415 0.057536323 0.13572432 0.034192566
0000c0 85 73 14 3e 84 57 8b bc 0a c1 a5 3c 6e da 0b 3e
       0.14497192 -0.017009504 0.02023365 0.13657543
0000d0 d5 8d e5 3c fc 5a f5 bd 9e c7 c3 3d 98 84 e1 3c
       0.028021732 -0.119802445 0.09559558 0.027529046
0000e0 a3 2d ce bd 83 3f 1f be 03 78 36 3d f0 3f 84 bd
       -0.10067298 -0.15551572 0.044548046 -0.064575076
0000f0 e1 ef e7 bd 46 6d c4 3b c2 63 40 be 5c 68 04 3d
       -0.1132505 0.0059944717 -0.18788055 0.032326087
000100 0e ff 92 bd f2 78 80 b9 bd 2b a9 bd e1 6f 84 3d
       -0.07177554 -0.00024504174 -0.082602955 0.06466652
000110 89 3b 09 be 4b ae 46 3e ed 8f 18 3c 4c c4 8c bd
       -0.13401617 0.19402425 0.009311658 -0.06873378
000120 e4 a3 e0 3d cd a0 00 be e7 b0 b8 bd 97 d7 1d be
       0.1096876 -0.1256134 -0.090181164 -0.15414272
000130 01 dc a4 bd 7f 41 72 bd ff 13 75 3d 87 99 46 bb
       -0.08049775 -0.059144493 0.059833523 -0.0030303912
000140 2b f2 0e bd b2 56 32 3d 60 99 16 bd 95 36 44 3e
       -0.034898918 0.04353971 -0.036767364 0.19161446
000150 13 09 0b 3d 80 e6 f0 3d 1c e4 45 3d 47 33 eb bd
       0.0339442 0.117627144 0.048313245 -0.1148439
000160 4d 7b 3b 3e 65 06 4c be 06 a2 2e 3e ac eb ae bc
       0.18308754 -0.19924314 0.17053995 -0.021352611
000170 72 63 0f be 84 0d 35 bd d0 b9 ad bd f4 f7 df 3c
       -0.14002779 -0.044202343 -0.084827065 0.027339913
000180 80 f5 98 ba 1d 03 69 3d 49 75 13 3e 31 b2 2d 3e
       -0.0011669844 0.056887735 0.1440021 0.16962506
000190 e2 43 40 be 2a 70 10 be e2 38 04 3e 43 21 4a be
       -0.18775895 -0.14105287 0.12912324 -0.19739251
0001a0 08 ce 05 bd fd c0 fc 3c c7 bc cb 3d 40 dc d1 bc
       -0.03266719 0.030853743 0.09948116 -0.025617719
0001b0 a8 c0 87 3d a8 fe 8d bd 94 7d 12 3e 8e 51 f1 3d
       0.06628543 -0.069333375 0.14305717 0.117831334
0001c0 e1 5c 44 be c3 00 f0 3d 3b 86 96 bb ed ad 09 be
       -0.19176055 0.11718895 -0.0045936382 -0.13445254
0001d0 56 8f 60 3e 6d b7 50 3e 81 36 5d 3e 93 73 35 be
       0.21929678 0.20382471 0.21602823 -0.1771987
0001e0 80 5d 43 3e d0 6f 54 3e 81 5f ff bc 93 b0 c1 bd
       0.19078636 0.20745778 -0.03117347 -0.09457507
0001f0 e5 ab 1d be 0f 5a 2e be e0 b5 37 3c cf 6b 21 bd
       -0.15397604 -0.17026542 0.011212796 -0.039409455

fc2.weight f4 [128, 128]
000000 99 61 a1 bd be a9 08 bd 56 c7 99 3d 7a f8 50 3d
       -0.078799434 -0.033365004 0.075087234 0.051018216
000010 39 bc 3e 3d c4 e4 f8 3c 8b 2b b4 bd 47 5a 31 3d
       0.046566222 0.030382521 -0.08797368 0.043298986
000020 40 a4 0f bb 88 87 af 3d ad 00 6a 3d bf 51 48 3d
       -0.002191797 0.085707724 0.05712955 0.048906084
000030 c8 e4 18 3d 58 89 ff bc 58 9e 0b bd eb e5 59 bc
       0.037327558 -0.03119342 -0.034086555 -0.013299446
000040 32 1d 8e 3d 09 4e 89 3c a0 60 33 bd 5d a8 bb bb
       0.06939162 0.016760843 -0.04379332 -0.0057268576
000050 31 68 df b9 7d b7 a6 bc 71 c6 b2 3d bc a5 14 3d
       -0.00042611503 -0.020351166 0.08729256 0.03629087
000060 d5 b8 14 3d 28 19 66 bd b8 b0 d9 bc 3f 6d 30 bd
       0.036309082 -0.056176335 -0.026573524 -0.043072935
000070 7c c2 01 3d 2c b5 9f 3d 3a 48 79 3d 48 2a 20 bc
       0.031679615 0.07798228 0.060859896 -0.009775706
000080 c8 79 73 bd da 38 2c 3d 0d 72 ac 3d 2d ed 97 bd
       -0.05944231 0.042046405 0.08420191 -0.074182846
000090 25 a0 75 bd 34 ea b7 bc 0e e1 8f 3c e6 8c 9b 3d
       -0.05996718 -0.022450544 0.01756337 0.075952336
0000a0 4d b4 70 bd 7c a0 b9 3c bc ac a8 3d 71 ac ad ba
       -0.0587657 0.022659533 0.082360715 -0.0013250244
0000b0 ef 04 96 bc cc 2f 2a 3d 29 c4 88 bd 26 39 8b 3d
       -0.0183129 0.04154949 -0.066780396 0.067980096
0000c0 b7 64 53 bd c8 71 83 bd a4 31 f0 3c 91 95 aa 3c
       -0.05160972 -0.064181864 0.029320545 0.020823272
0000d0 03 7a ba bd 18 99 e7 bb 1e 2e 53 3d b7 7b 33 bb
       -0.09105303 -0.0070678107 0.051557653 -0.0027386972
0000e0 b4 cd 5f bd c3 20 b9 3c e6 f7 bb 3c 98 47 d7 3c
       -0.054639533 0.02259863 0.022945356 0.026279256
0000f0 5a 98 af 3c 00 b1 2e 3d 65 1c a4 3d 8e 89 88 3d
       0.021434952 0.04264927 0.08013228 0.066668615
000100 97 7e d5 bd 93 19 9a bd da 31 b4 bd b8 65 5f 3d
       -0.10424536 -0.07524409 -0.08798571 0.054540366
000110 fc a9 9a 3d 96 9a 94 bd b3 a2 61 bb bd 80 2d bc
       0.07551953 -0.072560474 -0.0034429252 -0.010589776
000120 ba c8 55 bd cb 00 80 3d 8d f5 99 3d 7e 6c 7d bd
       -0.05219338 0.06250151 0.07517538 -0.061871044
000130 f3 26 8f bd 98 f2 9e 3d 2e a7 45 3d 4c b4 24 bd
       -0.06989851 0.07761115 0.048255138 -0.040211007
000140 34 d0 cf ba 4e cc a5 3c 49 e6 b3 bd 63 e8 fc 3c
       -0.0015854896 0.020239022 -0.08784158 0.03087253
000150 03 c6 6b bc 76 dd 58 bd 6a 37 a2 bc f9 1e 81 bc
       -0.014390471 -0.052945577 -0.019801814 -0.01576184
000160 2e ed 96 3d 08 85 55 bc cc 85 92 bd ca f4 a0 3c
       0.07369457 -0.013032205 -0.07154426 0.019647975
000170 47 b2 38 3d a4 19 6a bd d8 12 44 bc 27 4e 81 bc
       0.045091894 -0.05715336 -0.011967383 -0.015784336
000180 b0 f1 d0 3b b2 55 87 3d 83 5b dc bb 90 1e 61 bb
       0.0063764676 0.06608142 -0.0067247762 -0.0034350492
000190 55 77 a7 bd 0c bd 77 3d 34 fd 4e 3c 5e 48 4c 3d
       -0.08177058 0.060483024 0.0126336105 0.049873702
0001a0 87 3e a3 bd 6d bf 92 3c 0b 4e 92 3d 30 fd 35 3c
       -0.079709105 0.017913545 0.07143792 0.011107728
0001b0 38 09 d0 3d c2 79 90 3d 35 83 ab 3d 10 06 80 bc
       0.10158008 0.070544735 0.08374635 -0.01562789
0001c0 81 4f a3 3d f0 98 e5 bc 18 d6 0a 3b d7 42 b4 bc
       0.079741485 -0.028027028 0.0021184739 -0.022004528
0001d0 39 47 93 3c d2 db f8 bc 70 c3 9f bc 6b 40 57 3d
       0.017978298 -0.030378256 -0.019502372 0.052551668
0001e0 23 1a 83 bd c2 9f 53 3d 39 1c e0 3c b2 57 22 3d
       -0.064014696 0.05166603 0.027357208 0.039634414
0001f0 e8 ac c5 bc 9e b6 ad bd 42 a7 a2 bd 98 4e f1 bc
       -0.0241303 -0.08482097 -0.07942058 -0.029456422
000200 f9 fd 00 3e 90 6e bf 3d cf 5f 41 3d 14 d3 12 3d
       0.12596883 0.0934726 0.04721051 0.03584583
000210 24 d3 d3 3d 36 6d 58 3d 98 96 81 bc 57 c0 de 3d
       0.10343006 0.052838527 -0.015818879 0.1087653
000220 f5 d1 85 3d db ac af ba 86 f3 8d 3d ee f6 cc 3d
       0.06534187 -0.0013402955 0.06931214 0.100080356
000230 77 b9 e9 3d 8c 53 f6 bc b8 33 ea 3d cf 1b 38 3d
       0.11412328 -0.030069135 0.11435646 0.044948395
000240 1d a7 d1 3d f6 c8 aa 3d 26 f9 16 bc 4a aa 8d bc
       0.102369525 0.083391115 -0.009214675 -0.017293114
000250 33 0d 67 3d 1e 4d b1 bc b5 7e 65 bd ca 01 b7 3c
       0.056409072 -0.021643218 -0.05602904 0.02233972
000260 b5 b1 2a bd fa 85 2f bc 17 24 93 3d 8f 45 ba ba
       -0.04167338 -0.010713095 0.07184618 -0.0014211404
000270 26 0a 49 bd 32 42 c5 3c 6a 8a 80 bd 0e f4 6a 3d
       -0.049081944 0.024079416 -0.062764004 0.057361655
000280 a8 13 11 3d 99 47 c3 bc 0f ab 99 3d c3 73 8f bd
       0.035419136 -0.023837851 0.0750333 -0.07004502
000290 88 34 e0 3d d4 5d 01 3e 44 ae 70 3d 51 3b 7b bd
       0.109475195 0.12633449 0.058759943 -0.061335865
0002a0 5d cd 8b 3d 6b fc b0 3d f1 86 0a 3e 1b 42 a1 bd
       0.06826279 0.08641895 0.13528039 -0.07873937
0002b0 4e d0 92 3c 8d e1 83 3d bc c3 10 3e 71 03 73 3b
       0.017921593 0.06439505 0.14137167 0.0037080909
0002c0 92 09 6f 3d 4c 53 83 3d e6 d3 ca ba 54 1b 61 3d
       0.058358736 0.06412372 -0.0015474528 0.054957703
0002d0 ab cf ef 3d 56 cb 02 3e f3 db 81 3d 0b 43 20 3c
       0.117095314 0.12772879 0.0634078 0.009781609
0002e0 05 81 a9 bd 6a 2c c7 bc 9f 7b fc bb ed df 89 bd
       -0.08276562 -0.02431317 -0.0077051665 -0.067321636
0002f0 85 8c 06 3e 12 44 e1 3d 7f c5 38 3d 4d 97 a8 bc
       0.13139541 0.109993115 0.045110222 -0.020579958
000300 b0 c9 76 3d 48 40 66 3d 4a 45 ed bc 8a 5d 25 3d
       0.060250938 0.056213647 -0.028963704 0.04037241
000310 4b bf 69 bd 00 b2 e5 bb 31 85 b3 3c 1e ae b6 3d
       -0.057067197 -0.0070097446 0.021914097 0.08919929
000320 68 05 87 3d c9 f5 c4 bc 94 bb 3f bb 32 e4 75 3d
       0.06592828 -0.02404298 -0.0029256092 0.060032077
000330 27 ae 09 3d 30 3e 30 3c 6c a5 23 bd 4f d7 bf 3c
       0.03361335 0.010757014 -0.03995268 0.023418097
000340 5f 21 99 3d 3b 9d 01 bd 4e e7 1c 3d f0 35 04 3e
       0.07477068 -0.031644087 0.038306527 0.129112
000350 c8 82 a7 3c f9 39 93 bc 60 05 bb 3d 5d d7 4d 3d
       0.020448104 -0.01797198 0.091318846 0.050254215
000360 a2 bd 76 3d a3 3c a5 bd 76 ce 3d bd 2b df ec bb
       0.06023944 -0.08068206 -0.046339475 -0.007228752
000370 13 86 e7 bb 9d c0 8d bd d3 2c 96 3d 68 f0 45 3d
       -0.0070655434 -0.06921504 0.07332768 0.048324972
000380 40 25 8b bc c5 59 93 3d d0 37 6c bb 2e ce 9d 3d
       -0.016985536 0.071948566 -0.003604401 0.07705341
000390 aa d3 3c bd ff d4 03 3d bd 53 92 3d 6b b1 96 bd
       -0.046100296 0.03218555 0.07144878 -0.073580585
0003a0 59 bb 6a bc 04 bb a5 3d 95 71 06 bc 3c 4b d8 bc
       -0.014326894 0.08092311 -0.008205791 -0.026403062
0003b0 8e af a5 3d b6 31 7f 3d c5 8c d5 3d 1b 2d fd bc
       0.08090125 0.062303267 0.1042724 -0.030905297
0003c0 a1 e8 38 bc c7 36 8f 3d c5 44 8b bc 36 ed e2 3d
       -0.011285932 0.0699287 -0.017000565 0.11080401
0003d0 5c 1a cd 3d f1 78 d0 3b 12 4d e5 3d 28 82 a4 bd
       0.10014793 0.0063620736 0.111963406 -0.08032638
0003e0 28 35 b9 3d ea cb 9f bc 81 7e dd 3c 98 b5 90 bd
       0.09043342 -0.019506413 0.02703786 -0.07065886
0003f0 88 7b 0a 3d 20 ed 7b 3c 60 f8 eb bb d9 e0 24 bd
       0.033809215 0.015376359 -0.0072012395 -0.040253494

fc2.bias f4 [128]
000000 34 f0 2d bd a9 8b b5 3c b7 d5 81 3d ff 04 da 3c
       -0.042465404 0.022161322 0.06339591 0.02661371
000010 2b ec ec 3d 59 2a 0c 3d 73 39 89 3c a5 ec 87 3c
       0.11568483 0.034220073 0.016751027 0.016592333
000020 bd c5 2d bd c0 a2 af 3c 4f c2 2d 3d e5 d5 49 bd
       -0.042424906 0.02143991 0.042421635 -0.04927625
000030 ea aa 85 bd da 1d 68 3c 0a 04 a0 bd 50 60 c1 3d
       -0.0652674 0.014167273 -0.078132704 0.09442198
000040 5f 42 aa 3d 2a c6 04 3d f1 92 9e 3b 27 29 8d bd
       0.083134405 0.032415546 0.004839294 -0.06892615
000050 e4 dc db 3d fd 37 9b bc 1a da 34 bd 9d 88 9d 3c
       0.10735491 -0.018947596 -0.04415331 0.019230181
000060 98 9a 8e bd 0d 14 9c bd c4 ab 38 bd f6 56 1b bd
       -0.0696308 -0.07621012 -0.045085683 -0.03792473
000070 a7 98 9e bd 19 7d 95 3c ea c0 ca bc b0 1b 9d bb
       -0.0774396 0.018248128 -0.024750192 -0.0047945604
000080 52 e5 c8 3d ef b6 da 3d 2a 98 1c 3c de 3e 05 3d
       0.098093644 0.10679423 0.009557763 0.032530658
000090 20 ae a4 3c db 23 37 3c 14 15 3c bd be f2 3a bc
       0.02010256 0.011177982 -0.04591854 -0.011410413
0000a0 02 25 36 bd fa 56 0a bd df 25 3e bd ad 3a bd 3d
       -0.044468887 -0.033774354 -0.046422835 0.09239707
0000b0 e0 e0 42 3d 6c 34 1d bc e2 b5 34 3d b0 49 8e bd
       0.04757774 -0.009595018 0.04411877 -0.069476485
0000c0 9c bd b0 3c ba 4f 9e bd 08 c4 64 bc 53 5d b0 bd
       0.021574788 -0.077300504 -0.013962753 -0.0861155
0000d0 e0 2b eb 3b f7 b0 80 3d 60 d5 ff 3d 44 68 c2 3d
       0.007176861 0.06283753 0.1249187 0.09492543
0000e0 48 91 e4 3d ed 7e b1 3d 60 2e 68 3c 1f 02 86 3d
       0.11160523 0.08666787 0.014171213 0.06543373
0000f0 c0 2b 42 bc a0 45 7a 3d 22 dd b0 bd 3b b3 c3 3c
       -0.011851251 0.061101556 -0.08635928 0.023889175
000100 80 99 1a 3a 23 06 aa 3d 22 cb 85 bd ca 0f a8 bd
       0.0005897507 0.08301952 -0.06532885 -0.082061365
000110 e8 ac 4b 3d 31 94 ea 3c 18 3b 75 3c 85 b8 37 3d
       0.049725443 0.028635116 0.014967702 0.044853706
000120 c1 60 84 bd dc ae 8e 3c d9 cb c5 3c fd ef ee 3d
       -0.06463767 0.017417364 0.024145054 0.11666868
000130 9b 1e b3 3d 9a 06 06 3e c6 27 ce ba ea 95 20 3d
       0.08746072 0.13088456 -0.0015728406 0.03920547
000140 f0 b5 ce bb 40 c6 57 bc b0 29 3f bd fe fd 49 3c
       -0.0063083097 -0.013169825 -0.046670616 0.012328623
000150 b6 66 28 3d 47 e8 7e bc 76 99 81 bd 5b d9 37 bd
       0.041113578 -0.015558309 -0.063280985 -0.04488502
000160 19 14 5f bd 96 b4 01 bd 32 bd bf 3c 36 a8 e6 bc
       -0.054462526 -0.03166636 0.023405645 -0.028156381
000170 83 02 e1 3d 68 5e 52 bd af 8e 0d 3d aa d7 61 3d
       0.10986807 -0.051359564 0.0345599 0.055137314
000180 cc fa 82 3d 20 2f 74 bc 23 34 98 3d 7a 5d c3 bd
       0.06395492 -0.014903814 0.07431819 -0.095393136
000190 12 11 a9 3c 59 bb 6c bd ee 5d 19 bd 17 56 5d 3d
       0.020638023 -0.057795856 -0.037443094 0.05403718
0001a0 35 44 f5 3d 58 6a 4b 3d 7b 7a a2 3b 89 e2 a8 bd
       0.119759 0.049661964 0.0049584485 -0.08246333
0001b0 12 c4 e1 3c 05 73 6c bd 80 e3 c3 3c 5d 73 3f 3d
       0.027559314 -0.05772688 0.023912191 0.04674088
0001c0 1c 91 4a 3d b5 d8 0f bd b3 bf 43 bd b2 66 4a 3d
       0.049454793 -0.035118777 -0.04779024 0.049414344
0001d0 e3 39 b1 3b ba de 86 3d d9 d8 15 bd 1e 8e 4d bd
       0.005408512 0.065854505 -0.036583755 -0.05018436
0001e0 14 25 03 bd 92 95 a2 3d 17 62 c7 3d bf d1 b2 bd
       -0.032017782 0.079386845 0.09735506 -0.08731412
0001f0 e9 e5 9c bc d7 aa 6f 3c 06 82 81 3c 90 38 06 bd
       -0.019152598 0.014628134 0.01580907 -0.032768786

fc3.weight f4 [5, 128]
000000 ad be 2f 3c 83 07 7a bb 1d e1 4f 3c 24 5c 71 bd
       0.010726613 -0.003815145 0.0126879485 -0.058925763
000010 05 2a ee bd c7 c1 10 bb 5a 85 dd 3c 9e 05 43 3c
       -0.11629108 -0.0022088157 0.027041126 0.011903195
000020 a9 c2 de 3a 3c 8b 3f 3d 55 95 09 3c bc 93 ea 3c
       0.0016995269 0.046763644 0.00839742 0.028634898
000030 fc 7d 41 3c 4c fd f6 3c 85 20 af 3d 4f 98 5a bd
       0.011809822 0.030150078 0.085511245 -0.05336791
000040 d2 31 e8 bd 09 36 a6 bd 7d 96 ea 39 2c 2d 84 3d
       -0.113376275 -0.08115775 0.0004474408 0.06453928
000050 96 2f ec bc d0 bb 31 3d 05 f2 a8 3d 01 97 c1 bd
       -0.028831284 0.043392003 0.082492866 -0.0945263
000060 6c 65 8a 3d f2 77 9c bd d7 09 b0 3d 98 f1 a8 bd
       0.06757626 -0.07640065 0.08595627 -0.08249205
000070 8d 27 a4 3b 5c 13 da bd f4 dc 51 bd 6a 3d e2 bc
       0.0050095976 -0.10648224 -0.051236108 -0.027617175
000080 2b df 31 bd b7 15 c9 bd 11 95 5a bd cb 07 f3 3b
       -0.04342572 -0.09818595 -0.053364817 0.0074167005
000090 81 1b 9a 3d e2 28 8f bd be 9a f0 3c 57 52 92 bd
       0.07524777 -0.0699022 0.029370662 -0.07144611
0000a0 64 ac 89 bb f5 87 bb bd 31 96 bf 3b 1c dd 7a bd
       -0.0042014588 -0.09156791 0.0058467616 -0.061246023
0000b0 f0 9b 00 bd c5 74 86 3d c3 b7 79 bd 72 de 3b 3d
       -0.031398714 0.06565241 -0.060966264 0.045866437
0000c0 00 57 fb bd 06 19 a0 3d 4f 30 93 3d 12 70 71 bd
       -0.12272453 0.07817273 0.071869485 -0.05894477
0000d0 6b fe a5 3d 5b 84 b9 bc f7 2d 02 be e4 97 ec bc
       0.08105167 -0.02264612 -0.12712847 -0.02888102
0000e0 99 26 9d bd 0e 5f 19 3d 16 28 60 3d be e0 9e 3d
       -0.076733775 0.037444167 0.05472573 0.0775771
0000f0 d0 d6 25 bd 93 00 22 bc ce ab a0 bd 99 14 aa bc
       -0.040488064 -0.009887832 -0.07845269 -0.020761775
000100 a2 35 12 3d 10 2e 56 3c b5 ad 90 3d c6 66 7e 3d
       0.03569568 0.013072506 0.07064382 0.06210973
000110 68 f5 e3 3c ad db f9 bd a0 e1 93 bd 26 f0 98 3d
       0.02782698 -0.12200103 -0.07220769 0.0746768
000120 66 8d 77 3d b8 48 58 bc cc d6 62 bd a9 a0 68 bd
       0.060437582 -0.013200931 -0.055380628 -0.056793842
000130 aa 8d 25 3d bb 4f 8d bd 3a 66 0a 3d fe 0d 38 3d
       0.040418305 -0.06899973 0.033788897 0.04493522
000140 e0 f2 3f 3c 00 8c 1a bc 60 18 63 bb d8 59 47 3d
       0.011715621 -0.009432793 -0.003465198 0.048669666
000150 68 12 63 3d 9d 41 2d be 4d a6 8f 3c 81 f9 4d bd
       0.055437475 -0.1691956 0.017535353 -0.050286774
000160 91 27 58 3d 4b fa 23 bc c2 73 cf bc e6 f0 5f 3d
       0.05277211 -0.010008405 -0.025323752 0.054673098
000170 7b 6f e5 bd 91 66 7a bc ba 31 b6 bd de 1d b0 bd
       -0.11202904 -0.015283243 -0.08896203 -0.08599447
000180 3a d7 2e 3c ef d2 27 bd 07 04 5a 3c 2d e2 38 bd
       0.010671431 -0.040972646 0.013306624 -0.045137573
000190 99 90 16 3d 67 42 97 bb 5a 94 a3 3c ee 40 00 be
       0.036758993 -0.00461607 0.0199682 -0.12524769
0001a0 e3 06 cd bd 99 1f 00 3d 0b a6 d1 bc 39 dc 97 3d
       -0.10011079 0.031280134 -0.02559187 0.07415051
0001b0 4e 7b f5 bc 58 92 f2 3a c6 12 ed bc 48 9f e3 3b
       -0.029966023 0.0018506749 -0.028939616 0.006946478
0001c0 7a e5 42 3d e4 61 aa bd 43 ab 54 3d cc 34 87 3d
       0.047582127 -0.083194524 0.05192114 0.06601867
0001d0 39 b8 0e b8 c1 55 66 3d 03 4e 7c 3d 6d 05 0b 3d
       -3.402701e-05 0.056234125 0.061597835 0.03394072
0001e0 11 a7 25 3d 42 fc 96 bc 23 f1 33 3d b5 77 b1 3d
       0.04044253 -0.018430833 0.043931138 0.086654104
0001f0 27 08 f1 bd 3d e9 9c 3d 83 3d a6 bd eb fe 0c bd
       -0.11769133 0.07661674 -0.08117201 -0.034422796
000200 18 61 2a 3d ca 88 60 bd 66 e2 7f bd 9f b2 6d bd
       0.041596502 -0.054817952 -0.06247177 -0.058031674
000210 89 e5 15 bc 76 0d 96 3d a2 21 8f 3c e2 17 a3 3d
       -0.009148964 0.07326786 0.017472092 0.0796354
000220 16 fa 0c bc 43 3b 86 3d 20 07 ad bd 80 ca 10 3c
       -0.008604547 0.06554272 -0.084486246 0.008837342
000230 29 4b b6 3c 97 55 32 3b 62 0b 33 3d 6e f0 03 bd
       0.022252636 0.002721166 0.043712027 -0.032211713
000240 60 60 a5 3d bf 4e 6b bc b9 8d b4 bd 7b 54 ec 3c
       0.08075023 -0.014362036 -0.08816094 0.028848877
000250 01 78 a5 bd 4b 5c a7 bc 43 c8 b7 3c ca cf 8f 3d
       -0.080795296 -0.02042975 0.02243436 0.070220545
000260 48 82 3c bd e0 ba 33 bc 9f 48 92 3d b8 69 07 3b
       -0.046022683 -0.010969847 0.071427576 0.0020662379
000270 93 ef 74 3d 69 cb 52 bd 3b 2d 33 bd 7e 19 67 3d
       0.05979879 -0.05146352 -0.043744307 0.056420796
000280 f0 6a 06 bd d8 19 f5 bc 19 7f 03 3d 0f bb 84 3d
       -0.032816827 -0.02991955 0.03210363 0.06480991
000290 54 48 87 bc 88 9b 91 bd 1b d4 7a bd 66 d6 52 3c
       -0.01651398 -0.07109743 -0.061237436 0.012868499
0002a0 67 fc 20 bd 60 7c 9d 3d 4b 50 5f bc ba b3 21 3d
       -0.03930321 0.07689738 -0.013629983 0.03947804
0002b0 cb 3b 88 3b 7d 43 82 3b ce cc 98 bb 91 ac 83 3d
       0.0041575185 0.0039753304 -0.0046630865 0.06429399
0002c0 d3 07 be bd 5d 87 88 3d 19 17 75 bd a8 89 6e 3c
       -0.09278836 0.066664435 -0.05983648 0.014559187
0002d0 58 cf a4 bc eb 32 d9 3b 3a 2d 0b 3d 21 a5 51 bd
       -0.0201184 0.0066283843 0.03397868 -0.05118287
0002e0 34 f7 0c bd 60 d4 21 bc 6a cf 15 3d 12 0f a6 bc
       -0.03441544 -0.009877294 0.03657476 -0.020270858
0002f0 29 e4 8f 3d aa d1 a4 3d f0 cc c5 3c 5e 35 2d 3c
       0.0702594 0.08047803 0.024145573 0.010571806
000300 f9 3a 75 bd de ef 25 3d b8 b0 00 3c e0 d0 bb bc
       -0.059870694 0.04051196 0.007854633 -0.022926748
000310 bf dd 58 bb f2 ee b9 bd de 18 bc bc 05 16 69 bd
       -0.0033091155 -0.09078778 -0.022961076 -0.056905765
000320 c6 90 8c bd 6c 64 92 3c a2 81 fb bc 6b ef 88 bd
       -0.06863551 0.01787015 -0.030701462 -0.0668629
000330 80 4e 3d 3a 29 86 ed bb 8c 0e 1d 3c b4 aa 1f bd
       0.0007221475 -0.007248659 0.009585988 -0.038981155
000340 e8 25 9e 3c fa 1d 2b 3d 46 cb 6b 3d aa a7 a9 bd
       0.019305184 0.041776635 0.057566904 -0.082839325
000350 3b 13 86 bd 11 b7 48 bd 15 a4 a7 3c 2f 72 be bb
       -0.06546637 -0.04900271 0.020463983 -0.0058119516
000360 19 d1 c1 bd a4 d1 ae bd 9f 10 e2 3c ec e0 ad 3c
       -0.0946371 -0.085360795 0.027595816 0.021225415
000370 e3 15 67 bd 85 ac 83 3d 15 4c 9b bd 01 71 31 bd
       -0.056417357 0.0642939 -0.07582871 -0.04332066
000380 50 a2 35 bc 27 c3 0e 3c 09 38 92 bd 04 7a 34 bd
       -0.011086062 0.00871352 -0.07139594 -0.044061676
000390 d1 c0 6f 3d aa ff 96 3d 6e cb 43 bd ac c6 1a 3d
       0.058533493 0.07372983 -0.047801428 0.037787125
0003a0 7f 47 b7 3c ab 9f 8b bd 35 5f 83 bd 46 c7 0a 3d
       0.02237296 -0.068175636 -0.06414644 0.03388145
0003b0 c0 21 96 bd 57 f2 97 3d 08 7f 7c 3c 8c a3 66 bd
       -0.07330656 0.074192695 0.015411146 -0.056308314
0003c0 6f df 23 bd 9b da b0 bd 96 4c 2f 3d de 67 91 3d
       -0.040008005 -0.08635446 0.042797647 0.07099889
0003d0 48 0e 9e bd e9 29 f3 3c c8 7e c6 bd 99 fc 96 bd
       -0.07717568 0.02968307 -0.0969215 -0.07372398
0003e0 70 a5 a6 3d 90 9c 87 bc eb ff 05 bd 1f 9e 8c bd
       0.081370234 -0.016554147 -0.032714766 -0.06866097
0003f0 73 8a bf 3c c3 7b 04 3d 81 e7 01 3d 8e d3 a0 bd
       0.023381447 0.03234459 0.03171492 -0.07852851

fc3.bias f4 [5]
000000 f2 4e 56 bd f4 92 b9 bd eb 7f e8 bc 0b 12 81 3c
       -0.052321382 -0.09061232 -0.028381309 0.015755674
000010 3f 17 95 3c
       0.018199561
