CC_Reinforce/state_dict_model.pt (torch, 84127 bytes, 6 tensors)

fc1.weight f4 [128, 25]
00000000: 97b0 4c3e ba6c 3fbd 6d8c 15be d1cf 413e
00000010: f4fd 8abd 278f 253e 7c27 eeba c460 093d
00000020: 746c 2bbe 18b4 88bd dc84 e9bd dfb6 39be
00000030: eeac 39be 120f 61be 8e82 42be 5069 973d
00000040: d893 debc f6ad 0dbd 243a 0bbe 7414 10be
00000050: 1649 373d 5b90 0c3e 3995 273e 4b62 f5bc
00000060: 8f4f 32be 2396 13bd 5e0d 3a3e ee64 92bc
00000070: 7e56 aabd 0ad0 49be 1659 a03d 213f 9f3d
00000080: d287 acbd e784 d63c dda6 c7bd 86d0 d5bd
00000090: 8d39 49be 5b41 a33d 8625 22be 3dd6 1bbc
000000a0: ad88 173c e8e4 223e 1e80 2b3e a835 1f3c
000000b0: 5173 8c3c 2971 32be 3dc8 453e e7f0 d83d
000000c0: 3d6f 8cbd aeb3 2fbe 08cc c83b a064 4bbe
000000d0: 58de 873d 1d37 ba3d 0319 463e e4c9 1abd
000000e0: c94e 093e 0cfb c13c a3e0 0c3d dafa 513d
000000f0: b3f5 103c 9cc3 a33b d9fe 4fbd fa56 163e
00000100: 84f0 383e 3067 3bbd 3caf fdbc 210e 02bc
00000110: b0f3 ae3c 6e75 febd ad67 d1bd adf0 4abe
00000120: 2f5d 41be 6fce af3d e1e3 4bbc 73a9 29be
00000130: 5bbc 713d cb88 4fbe 7b91 5a3d 19a5 983d
00000140: ea1b 633c 603a ad3d 7a35 11be e675 0c3c
00000150: 3a10 d53c 45f6 b53d 868b 7b3d 5023 303e
00000160: c669 f73d 8b23 ee3d 6d1c 9a3d 3641 5e3d
00000170: 0788 493c 7650 26bc b14a e83d 2cf0 17be
00000180: 1fc1 c73c e5e4 9b3d d347 233e 08cb 0fbc
00000190: da0d fbbc 2750 35bd eb6f 883d 9e1b 81bb
000001a0: 5b48 c13d 16fb 613a 0ee9 de3d f79e 5a3d
000001b0: 8e01 9a3d 56d6 27be 9892 35be 0990 98bd
000001c0: 274c 2f3e de42 2e3e 0852 5bbd 2623 cc3d
000001d0: 975b 86bd 9b1c 15be 59f8 383d f1bc a9bd
000001e0: 6590 113c 4231 543d 63bf 163e 45a8 1abd
000001f0: d1c7 323e 23e8 adbd eadb 8fbd 8cfe 7cbd
00000200: e074 34bc 5062 d0bc b61f 893d 5273 33be
00000210: c495 4e3d d233 df3d f347 9abd f531 07be
00000220: e0ac b7bd 70df 17be 486d 3fbe 8045 c73a
00000230: 376a 31be 989b a3bc 9203 bc3d 8e04 a33d
00000240: b9a9 443e d3c7 17be 9849 993c 6c2e 80bd
00000250: dd05 31be e0d9 133d 15b1 5bbd fbb7 08be
00000260: c79b cbbc 2f08 c5bd 422a a93d 53d4 f6bd
00000270: 6d91 4e3e 0fef ba3c 7d93 693d 16fa 18be
00000280: fd53 3abd 8a19 a83c 7613 f2bc 9ade 2b3d
00000290: 6270 5dbe 476c 973d e412 8e3d 3665 e5bd
000002a0: dfb2 4cbc 88cc 2c3e 4b44 c83d 0d35 1f3e
000002b0: 3690 0fbe b47e d53d b807 42bd 993a eebd
000002c0: 84ea 1fbd c1c0 793d 8d3d 003e aea1 073e
000002d0: a537 393e e99a 413e 149e 8f3b d73b 033e
000002e0: 992d 3e3e 110a ef3d e145 f6bd 43f8 2cbe
000002f0: fcd2 1d3e 72ce 2fbe 7f77 b6bd ba35 38be
00000300: 59f4 e63d cef0 f1bd e6f4 033e 49ba 33be
00000310: 5f3b 413e 107b b43d ed36 233e 24ce 643d
00000320: 414a d6bd 93e7 f23d b611 bc3d af27 4ebd
00000330: f42a 2f3d 680c 403e 749d 2a3e b617 12be
00000340: 3a2a 67be 2d8e 9d3c 3eb6 843d 453f d0bc
00000350: 4ac8 15be af29 a03d 44ff fd3d 269d 243e
00000360: addc 2a3e 7999 c03d 7f24 4fbe aab7 03be
00000370: f223 623e 79e5 fdbd bdc9 ed3d 5a88 ddbd
00000380: f2a7 eb3d bbd8 0d3e 52db ddbc efb9 2abd
00000390: c26d 30bd d133 2ebe fef0 73bd 58bf fa3d
000003a0: 7bd2 193e 08eb 093e 22ae 0bbe f6f9 be3d
000003b0: d750 57be be32 d23d 4bbc 053c 67d9 1dbe
000003c0: aebd ac3d da96 283e e698 1e3d 01ba e43d
000003d0: dec3 2a3e 8114 dfbc c58c 0b3d f1f3 b73d
000003e0: 6f67 34be 4769 bc3d 11bd 3cbe 80e1 23be
000003f0: 265f cf3d 57e9 143e 1985 bfbc 902c 0d3d
0.19989239 -0.04673455 -0.1460435 0.18926932 -0.06786719 0.1616789 -0.0018169726 0.03353955
-0.1674059 -0.06674975 -0.11402294 -0.18136166 -0.18132374 -0.21978405 -0.18995115 0.07393134
-0.027170107 -0.03458973 -0.13596398 -0.14070302 0.044747435 0.13726942 0.16365518 -0.029954096
-0.17413162 -0.036031853 0.18169162 -0.017870393 -0.08317278 -0.19708267 0.07829492 0.07775713
-0.08424343 0.02618642 -0.097486235 -0.10440163 -0.1965086 0.0797145 -0.15834627 -0.009511528
0.009248895 0.15907633 0.16748092 0.0097173825 0.01714483 -0.1742598 0.19314666 0.105928235
-0.068571545 -0.17158386 0.006127838 -0.19862604 0.066342056 0.09092543 0.19345479 -0.037790194
0.1340896 0.023679279 0.034393918 0.05126462 0.008847642 0.0049976837 -0.05078015 0.14681616
0.180605 -0.045752704 -0.030967347 -0.007937939 0.021356434 -0.12424742 -0.10224853 -0.19818373
-0.18883203 0.08584296 -0.012444467 -0.16568546 0.05901752 -0.20267026 0.053361397 0.07453365
0.013861636 0.084584 -0.14180556 0.008573031 0.026008714 0.08884863 0.061412357 0.1720097
0.120807216 0.11627873 0.07524953 0.05426141 0.012300498 -0.010151019 0.11342371 -0.14837712
0.02438408 0.076120175 0.15945368 -0.008776434 -0.030646253 -0.044265892 0.06661972 -0.00394006
0.09437629 0.00086204836 0.108842954 0.053374257 0.07519828 -0.16390356 -0.17731702 -0.074493475
0.17118894 0.17017695 -0.053545028 0.099676415 -0.06560438 -0.14561693 0.045158718 -0.08287991
0.008884524 0.05180479 0.14721446 -0.03775813 0.17459036 -0.08491542 -0.07024367 -0.061766192
-0.011014193 -0.025437504 0.066955015 -0.1752446 0.050435796 0.10898556 -0.075332545 -0.13202651
-0.0896852 -0.14831328 -0.18694031 0.0015203208 -0.17325674 -0.019971654 0.091803685 0.07959853
0.19205369 -0.1482232 0.01871185 -0.06258854 -0.17287393 0.036096454 -0.053635675 -0.13351433
-0.024854554 -0.096207015 0.08260013 -0.120522164 0.20172663 0.02281907 0.05702542 -0.1493915
-0.045490254 0.02051999 -0.029550295 0.041960336 -0.21624902 0.07393699 0.06937197 -0.11200945
-0.012493818 0.16874897 0.09778651 0.15547581 -0.14019856 0.10424557 -0.047370642 -0.1163227
-0.03904201 0.06097484 0.1252348 0.1324527 0.18087633 0.1890675 0.004382858 0.12815796
0.18572082 0.11671842 -0.12025047 -0.1689158 0.15412515 -0.17168596 -0.08909511 -0.17989245
0.11277074 -0.11813508 0.1288639 -0.17551531 0.18870305 0.08812535 0.15938921 0.055860654
-0.104633816 0.118605755 0.091830656 -0.050330814 0.042765573 0.18754733 0.16661626 -0.14266858
-0.22574702 0.019232834 0.064800724 -0.025420794 -0.14627185 0.078204505 0.12402204 0.16075572
0.16685744 0.094042726 -0.20228766 -0.12863031 0.22084025 -0.12397284 0.11610744 -0.108170226
0.115066424 0.13852207 -0.02708212 -0.041681226 -0.043073423 -0.17011954 -0.059556 0.12243527
0.15021698 0.13468564 -0.13640645 0.0932502 -0.21026932 0.102635846 0.008162568 -0.15414964
0.08434616 0.16463795 0.038720034 0.1116829 0.1667628 -0.027231457 0.034069795 0.08982075
-0.17617582 0.091997676 -0.18431498 -0.1600399 0.1012557 0.14542137 -0.023378896 0.034466326

fc1.bias f4 [128]
00000000: 6a82 13bd 15db 103d 5737 083e 376f d0bc
00000010: 72ff b4bd a0c9 5dbc ef99 92bd bd80 f23c
00000020: 77e1 83bd f6f8 933d 993d 39be 92c8 533c
00000030: 16f7 ab3d 30ca c5bc 4016 08be d870 f9bd
00000040: d74a c3bd 26fc e43d 53cd 91bd 4439 d8bd
00000050: 1e4f 123e e2e6 26be 5bca 063e b0cf 193e
00000060: b866 81bc 9200 d43d 5486 32bd 7c8b 2b3e
00000070: 5424 b0bd f63f 23be a051 68bd e432 a5bd
00000080: 14dd 0ebe 0041 c7bc 3042 a23c 3bdf 683d
00000090: 8e6a 103e 4090 9f3d 5243 cb3d 9d7c 11bb
000000a0: 9663 2d3d e47c a43d c87c b63d 3096 a7bd
000000b0: c0aa 943b c3cb ffbd f056 d3bd d3c9 37be
000000c0: a5d1 d03d 9b2d 963c ce47 8ebd 6bff a93c
000000d0: c421 213e 3c27 09be 0051 94bd 33a1 6f3e
000000e0: e0f6 bdbd 6481 833c 6cf0 3a3d e352 203e
000000f0: 3caa 9fbc fdc0 f6bd 2d27 06be 5b9a 713e
00000100: 005f 9b3d 5bd2 21be cf36 513d 763d a23d
00000110: e69b a7bb bec0 a63c ab22 1a3d 5c43 d6bc
00000120: fa21 18be a73f 4bbd f7cd 7bbd 5da4 213e
00000130: 7646 dfbc 40f0 2c3e 6098 d53c db70 1d3d
00000140: 0586 343e dcb3 c5bd 36df 183e c74c fdbd
00000150: dd2a d53c 4046 e23b 0463 843c b45c 82bd
00000160: 814b 3c3e 3ea4 553e 3cbc a3bd abef 013e
00000170: 1e28 1c3e b3f1 d7bd 1064 ae3d 2960 0abe
00000180: 78dd 203e 7c8e ac3b 08e0 3b3d 0dc4 6e3c
00000190: 179b d73d 316b 1ebc d3b7 04bd 3c03 2d3e
000001a0: f1b5 08be bc99 32bd bfd5 283e 85aa 393e
000001b0: 3636 9ebd 133e e53d 2c2f 51bd c007 103e
000001c0: cdad bebd 1a3f a63d e1f7 1bbe 7971 03be
000001d0: 4759 ddbd 7ff9 2d3e 098f 68bd 5441 1e3e
000001e0: 6450 1c3e 7dcf d23d 0e9f 32bd 7c61 383e
000001f0: 3845 c3bc 2487 0a3e 329b ce3d 9cee 9a3d
-0.036013044 0.035365183 0.1330236 -0.025443656 -0.08837785 -0.013536841 -0.07158267 0.029602403
-0.064394884 0.0722522 -0.18089904 0.012926238 0.08396737 -0.024144262 -0.13289738 -0.12179726
-0.09535759 0.11180906 -0.071192406 -0.105577976 0.14287993 -0.16299012 0.1316313 0.15020633
-0.01579605 0.10351671 -0.043585137 0.16752428 -0.08600679 -0.15942368 -0.05671847 -0.08066347
-0.13951522 -0.024322987 0.019806951 0.056853514 0.14103147 0.077911854 0.0992495 -0.002219952
0.0423313 0.080316335 0.08910519 -0.08182943 0.0045369565 -0.12490036 -0.103193164 -0.17948084
0.101962365 0.018332293 -0.069472894 0.020751676 0.15735537 -0.13393873 -0.07242012 0.23401336
-0.09275603 0.01605291 0.04563944 0.15656619 -0.019490354 -0.12048528 -0.13100882 0.23594038
0.07586479 -0.158029 0.05107766 0.07921879 -0.00511502 0.020355579 0.03763072 -0.026155166
-0.14856711 -0.04962125 -0.06147572 0.15785356 -0.027255278 0.16888523 0.026073635 0.038437705
0.1762925 -0.09653446 0.14928898 -0.1236816 0.026021415 0.006905347 0.016160496 -0.06365338
0.18388177 0.20863435 -0.07994887 0.12689082 0.15249678 -0.10544147 0.08515179 -0.13513245
0.15709484 0.005266009 0.04586795 0.014573109 0.10527628 -0.009669111 -0.03240187 0.16895765
-0.13350655 -0.043603644 0.16487788 0.18131454 -0.07725184 0.1119348 -0.051070377 0.14065456
-0.093104936 0.081175044 -0.15231277 -0.12836255 -0.10808044 0.16989706 -0.056777034 0.15454608
0.15265042 0.102934815 -0.043608718 0.18005937 -0.023836717 0.13528115 0.10088195 0.075650424

fc2.weight f4 [128, 128]
00000000: 462f 24bd dad9 b53c 421d 63bd 26da 13bd
00000010: 007c 89bd f756 67bd 31c2 59bd 9d08 bb3c
00000020: cc31 b73d be79 583c 0503 0fbd c6a3 943c
00000030: f4f1 c73c c09b e03a e2a2 4abd 0c08 e43d
00000040: 7e9b 7f3d f051 69bd a6dc 8bbb a2d8 283d
00000050: e4a1 ac3d 5345 0b3d bf13 a83c 0cc9 07bd
00000060: 83e0 5a3c 4115 83bd 11c4 573c cc26 f13b
00000070: bb21 443d d468 c33c bb3f ad3d dedb 3fbd
00000080: 56af 073e 55fa 553a c4f1 f53c 844d 36bd
00000090: a920 223c 2a42 4c3d 80fb 37bd af7d bf3d
000000a0: d9c4 a0bc 4d5f e5bc 8565 fcbc d296 ad3d
000000b0: ef03 80bd bfcc a2bd c8fe fb3c 5183 61bd
000000c0: e05e 2bbd e8f0 a03b 2561 8abc 386a ad3c
000000d0: 5224 4fbd 1098 cdbb fec0 03bd 8667 d3bc
000000e0: 8be3 96bd f2b3 fabb 0fbc ebba 8595 de3d
000000f0: b1b9 f4bb 3deb adbc d878 91bd ef7a bd3c
00000100: d959 2a3d 178a b13d 8cbb a63d 8c01 81bd
00000110: a377 693d d481 913b ec94 623d 2b74 803d
00000120: c60b 773d ab56 a03d 423d b83d 6304 e93d
00000130: 4e2e 9abd 7bb4 b43c cf66 16bd a75d 043e
00000140: 8ef5 f23d 70a6 833d 8acf a8bc 7f9c 943d
00000150: cd71 89bd c8c5 9abd e8e9 393d e33c 953d
00000160: 83a4 db3d 2b29 533d bf01 ccbc 7c27 2d3d
00000170: 442e aebd d860 a23c 8501 95bd 3086 9c3d
00000180: 6f7e 013e 7ab3 d73d 0e1f 1d3d 10da 1b3d
00000190: 6701 913a 5499 103e 525d d63c 46f4 3d3c
000001a0: 95f7 7c3d 5434 7e3d 7534 95bd 466b 89bd
000001b0: f7f5 e53d 3b53 b8bc de8f 10bd 2b39 8c3d
000001c0: 0791 06bd 4b62 883d aa42 f13d 424a 5c3d
000001d0: 8900 3c3d 8645 bebd f120 c33d e5fa a13c
000001e0: d981 133c e157 2e3d 3b36 993d 2e74 82bc
000001f0: 92e3 8abd 7828 333d 5211 393d 0602 cc3d
00000200: 5b4c 1abc 19d4 893d 385a db3c 3ffc 1dbd
00000210: b46a 3c3d 5813 a73c 8830 de3a 1c83 fabc
00000220: 66c2 b53d 8040 95bd 6212 5ebd b8b5 21bd
00000230: 10b9 62bc bcb4 f33c 5a5e 7bbc b22d c23d
00000240: 838c 98bd 00dd 723a 1062 60bd 4f4c 853d
00000250: 77dd 333d afcb 3f3d e24e f33d 7dbe 0b3d
00000260: 2733 8cbd 9ff5 8a3d 7f53 b8bd d4a2 47bd
00000270: c658 db3d 00cc e6b9 23e9 9bbc 203b 3b3d
00000280: d549 2d3d a2fb ea3d 339f a43d dce3 c13d
00000290: e844 6d3d 9e37 f93c 8ae6 c33d 3d38 b03d
000002a0: 545d a1bd 8478 a13d 379a ce3d b971 3e3d
000002b0: 82b4 5a3d 08c2 2b3c d2a4 763d a3ca d03c
000002c0: 4270 4cbd 8ed3 01bd d49d cb3d 939d 38bc
000002d0: 36da 76bd 7336 2cbd fb00 9b3d a5b7 d13c
000002e0: f63c 2abd ec91 943d f36a bb3d 225d 01bd
000002f0: 36ce 8b3d c67c ab3d 118d a23d faac 743d
00000300: 21d6 9bbb e2a1 9a3d 588e 803c 868e 6f3d
00000310: 45e3 37bd 5705 14bd 3e8e 663d 1ae6 dabc
00000320: 407e e3ba 14cf f63c e267 a93d 33e3 c73d
00000330: 4a1d 74bc b957 103d 6ee6 bb3b 6abe da3d
00000340: 206d bbbb 5a62 5c3c b62b ee3c c49c 8bbd
00000350: 5a73 a3bd bc54 81bd 94a2 313d 47b3 43bd
00000360: 3749 c6bb a473 90bc b496 853d 7002 4fbd
00000370: f489 29ba f84c 7e3c f85a 07bc 45ad 5abd
00000380: a0f6 4abd 26ae 993d fae7 a5bd 84d2 70bd
00000390: 0de4 ddba 8cc5 aa3d 04c9 a9bc 7867 b23d
000003a0: 00a4 03be 93c6 edbc d635 18bd 78df 98bd
000003b0: ba5e 05bb 5182 a9bd fdd4 9e3d b86e 35bd
000003c0: e3c2 17bd 15c2 e5bb d489 8a3c e09d 3fbd
000003d0: 67f8 a2bc 4d03 b0bd c496 9e3d 2c9d b7bc
000003e0: 2413 0ebc 0112 803b fe17 f0bc 7ce6 9c3d
000003f0: f40f 743d c0b1 b83c 1a4f 203d b4ea 07bd
-0.040084146 0.022198606 -0.055447824 -0.036096714 -0.06713104 -0.05647942 -0.05316371 0.022831256
0.08945045 0.013212619 -0.03491499 0.0181445 0.024407364 0.0017136261 -0.049471743 0.11134347
0.06240415 -0.056962907 -0.0042682467 0.041222222 0.08429316 0.03400166 0.020517228 -0.033150718
0.013359192 -0.06400538 0.0131693045 0.0073593613 0.04788373 0.023853697 0.08459421 -0.04684054
0.13250479 0.00081626076 0.03002251 -0.04450752 0.009895482 0.049867786 -0.044917583 0.09350144
-0.019625114 -0.027999545 -0.030810127 0.08476032 -0.0625075 -0.079492085 0.030761138 -0.055056874
-0.041838527 0.0049115308 -0.016892025 0.021168813 -0.050571747 -0.006274231 -0.032166474 -0.0258062
-0.07367619 -0.0076508457 -0.0017985123 0.10868362 -0.007468425 -0.021230334 -0.07103127 0.023129908
0.04158959 0.08668917 0.081412405 -0.06299123 0.05699886 0.0044405255 0.055317804 0.06272157
0.060313962 0.078290306 0.08996059 0.1137779 -0.07528363 0.022058716 -0.03671914 0.1292635
0.11863242 0.0642823 -0.020606775 0.07256412 -0.06711159 -0.07557255 0.045389086 0.07287004
0.107247375 0.051552933 -0.024903176 0.042273983 -0.08504918 0.01982157 -0.072756805 0.07642782
0.12645887 0.10532279 0.038359694 0.038049757 0.001106304 0.1412099 0.026167545 0.011593884
0.06175955 0.062061623 -0.07285396 -0.06709914 0.11228555 -0.022500625 -0.035293452 0.068468414
-0.032853153 0.06659373 0.11780293 0.053781755 0.045898948 -0.09290604 0.095277674 0.019772956
0.009003126 0.042564277 0.07481047 -0.01592454 -0.06781687 0.043739766 0.045182534 0.099613234
-0.009417619 0.067299075 0.026776418 -0.03857064 0.046000198 0.020394966 0.0016951719 -0.030580096
0.08874969 -0.07287693 -0.05421675 -0.03947994 -0.013838068 0.029749267 -0.015342319 0.09481372
-0.074486755 0.0009264499 -0.05478102 0.06508695 0.043912377 0.046825107 0.1188028 0.03411721
-0.06845694 0.0678513 -0.090003006 -0.04873927 0.107102916 -0.0004402101 -0.019032067 0.045710683
0.04230674 0.114737764 0.08038177 0.09467289 0.057927042 0.030422028 0.09565456 0.086044766
-0.07879129 0.07884315 0.10088008 0.046495173 0.053394802 0.010483272 0.06021578 0.02548725
-0.049911745 -0.031695895 0.09942213 -0.011268037 -0.060266696 -0.042044114 0.075685464 0.025600264
-0.041562043 0.07254395 0.09151258 -0.03158296 0.06826441 0.08373408 0.079370625 0.059735276
-0.0047557508 0.07550408 0.015692875 0.05848553 -0.044894475 -0.036137905 0.056287996 -0.02672105
-0.0017356351 0.03012804 0.08271767 0.09760132 -0.014899561 0.03523991 0.0057342565 0.1068085
-0.005719796 0.013451183 0.029073577 -0.0681701 -0.07980986 -0.0631499 0.043367937 -0.047778394
-0.0060512084 -0.017633267 0.06522885 -0.050539434 -0.0006467395 0.0155212805 -0.008261435 -0.0533879
-0.049551606 0.07503919 -0.08100887 -0.058794513 -0.0016928926 0.0833846 -0.020725735 0.08711141
-0.1285553 -0.029025352 -0.037160717 -0.07464498 -0.002035065 -0.08276809 0.07755468 -0.044295043
-0.037051093 -0.007011662 0.016911425 -0.04678142 -0.019893838 -0.085943796 0.077436 -0.022413813
-0.008671556 0.0039083962 -0.029308315 0.07661149 0.059585527 0.022545695 0.039137937 -0.033182815

fc2.bias f4 [128]
00000000: 52e6 223d 574f cb3d 190c 86bd 34fc 76bd
00000010: 3919 89bd 46e7 373d 1089 49bd 2b08 39bd
00000020: 0717 9a3d d50e 8e3c 28d6 ec3b 84cf 4ebc
00000030: 6c6b 403d a0a8 c23b f5ad 8f3d 8491 803d
00000040: f676 253d 2b0f 193d 82ad 93bd 44f9 ee3d
00000050: 9ebf 92bd 8222 45bd 61a0 00bd 9dc3 ae3d
00000060: b78b b4bc 37a4 c43c 58a5 93bd 4a62 97bd
00000070: e75a 61bd fe7d 34bd 3e2c 623d 0c22 c2bc
00000080: d5db 4abd 1dd6 56bd f3d4 43bd 817c ddbc
00000090: 618c 73bd 3c65 0f3d 737d 4bbd 5ca1 8bbd
000000a0: c83b 923d ccd1 b3bc 13ea 0ebd bb26 d83d
000000b0: 0610 543d 9f39 54bd 5eed 593d 7ab6 cbbc
000000c0: f108 c53d 50fa 9b3c a6b8 053c 7815 753d
000000d0: f412 b0bc 8c1a 77bd 5a04 f5bc 8cef 313c
000000e0: 23f8 b73c 3806 cabb 839d 0ebc 1e39 d23d
000000f0: 8f96 f03c 2fe0 2bbd 624c 92bd 2f52 88bd
00000100: 7b0a 733d 065c f13c 9620 0cbd 98ef 20bd
00000110: ca2a 333d 7715 dfbc 536f b4bb 6ccf aaba
00000120: cbbe 813d 48f6 90bd 9bda aebd 33f2 853d
00000130: d256 9bbd 227e f33d d238 5ebd f203 783d
00000140: da02 823d bcd4 4dbd e14e 7f3d 2e0f 4b3d
00000150: fc5e 913c 3d10 713d b74e cc3d 4a8d a3bd
00000160: 7850 813d c0f1 f1bb c52e 993d d8c8 b5bd
00000170: 960d 93bd 21dd eebc 30bc 6c3d 227e 803d
00000180: 2ad1 863c f015 8abd 955b f43c 3b28 673d
00000190: 9226 c1bc c31a 9d3d 7638 023d 3150 b43d
000001a0: 74bf 943d cd88 bd3c 6174 403d d0bc a33d
000001b0: b502 383c 11e4 aa3c 69fa 393d 7d10 dd3d
000001c0: 3bcb 97bc 7547 a4bd 9aeb 67bd fe87 56bc
000001d0: e276 10bd a889 ccbc d887 48bd 2321 8abc
000001e0: c628 37bd b357 47bc 022e 25bd 751f 8b3d
000001f0: 09ee c23d 5d25 4fbd 87a2 303d fd7c 51bd
0.03977043 0.09927242 -0.06545276 -0.060299113 -0.06694264 0.044898294 -0.04920298 -0.045173805
0.07523923 0.017341057 0.007227678 -0.012622718 0.046977445 0.005940512 0.070156015 0.06277755
0.040396653 0.03736798 -0.07210828 0.116686374 -0.07165454 -0.048128612 -0.03140295 0.08533404
-0.022039277 0.024004085 -0.07209271 -0.07391794 -0.05501833 -0.044065468 0.055217974 -0.023697875
-0.049526054 -0.052450288 -0.047810506 -0.027036907 -0.059460048 0.035008654 -0.049680185 -0.06817886
0.071403086 -0.021950625 -0.0348912 0.10554262 0.051773094 -0.051812764 0.053204887 -0.024867285
0.09620846 0.019040257 0.008161699 0.059834927 -0.021493413 -0.06032805 -0.029909302 0.010860335
0.022457188 -0.006165292 -0.008704546 0.102648005 0.029368667 -0.041961845 -0.07143475 -0.066563
0.059336167 0.029462826 -0.034210764 -0.039290994 0.04374198 -0.027231915 -0.005506435 -0.0013031787
0.06335219 -0.070782244 -0.085377894 0.065403365 -0.07584919 0.11889292 -0.054253407 0.060550638
0.063482 -0.050251707 0.062331084 0.049575023 0.017745487 0.058853377 0.09975951 -0.07985933
0.06314176 -0.007383555 0.07479624 -0.088761985 -0.07180326 -0.029158177 0.057796657 0.06274058
0.01645716 -0.067424655 0.029828826 0.05643485 -0.023577962 0.0767112 0.031792127 0.08804358
0.07263079 0.02313652 0.046985988 0.079949975 0.011231114 0.020860704 0.045404825 0.107941605
-0.018529525 -0.08021442 -0.05662117 -0.0130939465 -0.035269625 -0.024967983 -0.048957676 -0.016861504
-0.04471662 -0.012166905 -0.04032708 0.06793109 0.09518058 -0.05057274 0.04312375 -0.05114459

fc3.weight f4 [5, 128]
00000000: b72d abbd 0e64 cdbd 2e98 6fbc f154 71bd
00000010: 1dfc 533d ea5b 75bd 6379 243d e442 373c
00000020: 4393 4ebd 4313 a6bd 017a 84bc 26cd 5cbd
00000030: 1b97 abbd 7802 133d fb30 193b 3d52 363d
00000040: 2f9a e4bc 330c 623c 69cf 9a3d b987 633d
00000050: 6503 b53d 5e81 7e3d c2d6 793d 20ea 353c
00000060: f1d3 893d c77d 853d 88f7 1b3c 144c 38bd
00000070: 845d 0dbd 9a7a f03c c9b3 a8bd af4d 883d
00000080: 57e4 a13d 6f47 84bd afa3 95bd f22e 483d
00000090: 9ac3 b1bd 8c10 94bd b931 23bd 6499 ba3c
000000a0: 50ac 613d 9724 fd3c 40c8 a6bd 2a34 15bd
000000b0: d808 9bbd 98eb 2b3c 2930 8b3c 621d 9dbc
000000c0: 847d ce3c ee41 923c 482e 753c 601b c0bd
000000d0: 6136 78bd a0fd c33c 79e2 883d 3ef8 fabc
000000e0: 9383 99bd aab9 30bd 6c1b 5b3d 8b07 d9bd
000000f0: 53ab 4abc 46ce 813d 5b1f a03d a3aa ae3c
00000100: 4c18 82bd f75d 1e3b 3ae2 953c 15da 8d3d
00000110: 8b57 993b 16e6 89bd 4b88 74bc ec0b f0bc
00000120: 249b 9dbc a8e4 823d 8e3f 44bb bcb6 a3bc
00000130: 7264 28bc aa47 69bd 1cfe 8ebd 1475 5dbd
00000140: 0035 1abb 3746 a13d fbf5 b6bd 605c 6abd
00000150: ae62 0a3d 84cb e33c 71f6 b2bd 5ad9 49bd
00000160: 60d9 20bd 2b5e 893d ceb9 373d 1dd8 a93d
00000170: 8efd 96bd 513d 9f3c 4ffb 3abd 26c1 743d
00000180: d9c0 f03c 5da7 46bd ee09 763d 62ba 31bd
00000190: cd75 a2bd 10d4 a23b d4a6 913c 765e 4a3d
000001a0: 7a88 ef3c a5a1 89bd d686 bebb 96a6 6dbd
000001b0: e9fa 113d a4a8 c43c ed37 2cbd 6721 cb3c
000001c0: 716f 32bd ade8 fabc ef7f 983d 5650 28bb
000001d0: be4a f53b b0b3 d3bc 99a8 343d 1aff 8abd
000001e0: f145 c7bc ca0d 9b3d 9cf0 72bd ac1d 823d
000001f0: cebd 2dbd c5ee 5dbd dc03 f93b e8a1 23bd
00000200: 6480 b63d d1a8 7ebb f5b0 273d 6118 9f3d
00000210: c91c 583c df93 5dbd d021 67bc c349 a43d
00000220: b6a7 5cbb b6df b73d 6427 6ebd ec41 66bd
00000230: 4cee eb3c 5f38 5e3d 8fac 86bd 9620 6f3c
00000240: 339b d63c 634f 87bc c52a 813d 140d 4e3d
00000250: bc55 b6bc eaab 8fbd 8ac4 833b 08a3 11bc
00000260: 4fb3 3b3d de34 9f3d a86e 093c 8013 8abd
00000270: 78c1 21bc 2fcb b13c 49af 8cbd 55a3 7abd
00000280: 7efb 51bd f8d5 7a3d 5bb6 123d 212f 8fbc
00000290: 564f 91bd 12b6 753d 3a89 49bd 8264 8bbd
000002a0: 3eba 793d 0656 3cbd 4dd3 0dbd f6f1 aebc
000002b0: f0e1 14bd 50b9 0a3d 096d c7ba efcf d6bc
000002c0: 51ee 323c 04f3 09bd 3d59 34bc 0269 b53d
000002d0: ef89 913c 819b 943d 4d94 9fbd cc86 b2bc
000002e0: eab5 8b3d 3159 243d f05e 423b d0fc 8f3b
000002f0: 71d1 4dbd 096f a13a 3ab7 9ebd 8f6e 77bd
00000300: 554a 3e3d 6671 5e3d 7e5a c53c d114 233c
00000310: 0941 5a3d a38e ecbc 9608 933d f3b2 93bd
00000320: b990 b03d ec18 f4bc 611e f039 e188 b0bd
00000330: 5c1d 93bd c001 c13c 1ad6 56bd f91e a73d
00000340: 43e0 8dbd 656e a63d 5975 0fbb 45c3 a33d
00000350: a6f7 203d b0f5 d03b 1684 cc3b dcfa da3c
00000360: 185f bbbc 90ec 54bc f610 ac3d a772 b2bc
00000370: 6a52 703d 3be0 593c 4041 a53d f907 bcbc
00000380: 09e3 02bd 6730 a0bd 13e9 8e3d f5c7 1f3c
00000390: 0448 f8bb b8a3 a53c 30db 91bc 2ca2 0d3d
000003a0: 6c10 33bd 7453 17bd ff1e 883d 348f df3c
000003b0: 01c4 d5bb 8df4 063d 2d41 65bd a376 42bd
000003c0: a2fe b93d 4880 a53c 9b14 113c f9f5 eabc
000003d0: 52e1 2abb 80e9 7f3c a927 59bd 7aaf 823d
000003e0: b1b6 323c 4871 56bd 9fae 053d 99b4 9d3d
000003f0: 21da b13d 2002 98bc ce78 8fbd d480 01bc
-0.08358329 -0.100288495 -0.014623685 -0.058918897 0.051754106 -0.05990211 0.040154826 0.011185382
-0.05043341 -0.08109143 -0.016171457 -0.053906582 -0.083784305 0.035891026 0.0023375142 0.044512022
-0.027905552 0.013796854 0.075590916 0.055549357 0.08838538 0.062135093 0.060995825 0.011103183
0.06729878 0.06518131 0.009519465 -0.04499443 -0.03451301 0.029355336 -0.08237416 0.06655442
0.079048805 -0.064589374 -0.07306611 0.048872896 -0.08679886 -0.072297186 -0.03984234 0.02277822
0.05509597 0.030901236 -0.081436634 -0.0364267 -0.07570046 0.010493182 0.016990738 -0.01917905
0.025206335 0.017853703 0.014964648 -0.09380221 -0.060598735 0.023924649 0.06683821 -0.03063595
-0.07495799 -0.043145813 0.05349295 -0.10597142 -0.012369948 0.06338172 0.078184806 0.0213216
-0.063522905 0.0024164894 0.01829635 0.069263615 0.0046796254 -0.067333385 -0.014925073 -0.02930256
-0.019239016 0.06391269 -0.0029945108 -0.019984595 -0.010277854 -0.05695311 -0.06982061 -0.054066733
-0.0023530126 0.078747205 -0.08933636 -0.057217002 0.033785515 0.027807005 -0.08738411 -0.04927955
-0.039269805 0.06707414 0.04485493 0.082931735 -0.073725805 0.019438418 -0.045649823 0.059754513
0.029388832 -0.048499454 0.060068063 -0.04339064 -0.07932625 0.0049691275 0.017779745 0.04940649
0.029239882 -0.067202844 -0.0058144135 -0.058020197 0.035639677 0.024006195 -0.042045522 0.0247962
-0.04356331 -0.030628527 0.074462764 -0.002568265 0.0074857166 -0.025842518 0.0441061 -0.06786938
-0.024325343 0.075709894 -0.059311494 0.06353316 -0.04241734 -0.054182786 0.007599337 -0.039949328
0.08911207 -0.0038857947 0.040940244 0.07768322 0.013190457 -0.0540961 -0.014107183 0.080218814
-0.00336693 0.08978216 -0.058143035 -0.05621521 0.028800152 0.05425298 -0.06575882 0.014595171
0.026197052 -0.016517347 0.06306986 0.05030544 -0.022257678 -0.07015212 0.004021232 -0.008888967
0.0458253 0.077737555 0.008388199 -0.067420006 -0.009872787 0.02170333 -0.068693705 -0.06119092
-0.051265232 0.061239213 0.03581844 -0.017478528 -0.0709521 0.05998809 -0.049203135 -0.0680628
0.06096863 -0.045980476 -0.03462534 -0.02135561 -0.036348283 0.033868134 -0.001521499 -0.026222197
0.010921077 -0.033679023 -0.011007604 0.08857919 0.017765967 0.072562225 -0.07791958 -0.021792792
0.06821807 0.040124122 0.0029658638 0.0043941513 -0.050248567 0.0012316416 -0.077497914 -0.06040817
0.046457607 0.054307364 0.024091002 0.0099536935 0.05328468 -0.028876608 0.07179372 -0.07211866
0.08621354 -0.02979704 0.00045799 -0.086198576 -0.07183334 0.023560405 -0.052450277 0.081602044
-0.0692754 0.08126525 -0.0021890013 0.07996229 0.039298676 0.0063769445 0.006241332 0.026730947
-0.022872493 -0.012995854 0.084016725 -0.021783186 0.058672346 0.01329809 0.08069086 -0.02295302
-0.0319548 -0.07821732 0.06978049 0.009752263 -0.0075769443 0.020219669 -0.017804712 0.034578487
-0.043716833 -0.03694482 0.06646537 0.027289964 -0.0065236096 0.032948066 -0.05597036 -0.047476422
0.090817705 0.02020277 0.00885501 -0.028681742 -0.0026074243 0.015619636 -0.05301634 0.06381126
0.010907815 -0.052354127 0.032637235 0.07700462 0.08684183 -0.0185557 -0.070054635 -0.00790425

fc3.bias f4 [5]
00000000: 56be b53c fc73 2e3d 65ce c9bd 8d2b 9dbc
00000010: 2118 f93c
0.022185486 0.04259108 -0.0985382 -0.019185806 0.030407013
