CC_Reinforce/state_dict_model_v2.pt (torch, 84151 bytes, 6 tensors)

fc1.weight f4 [128, 25]
0	0x3d4ff92c	0.05077474
1	0xbcb864a8	-0.022508934
2	0xbaae9c00	-0.0013321638
3	0xbddd8e93	-0.108182095
4	0xbd944f90	-0.07241738
5	0x3cafa2c0	0.02143991
6	0x3c9a35b0	0.018824428
7	0xbb7e2800	-0.0038781166
8	0xbe1f3c80	-0.15550423
9	0x3d91446e	0.0709313
10	0xbdf9bbf3	-0.121940516
11	0xbd35ec2c	-0.044414684
12	0xbdfddfb0	-0.12396181
13	0xbe0ab33d	-0.13544936
14	0x3d8f0146	0.06982665
15	0xbe371cd3	-0.1788209
16	0xbdae48e0	-0.085099936
17	0x3d0e152c	0.03468816
18	0xbe2a82c8	-0.16651452
19	0x3e4704e1	0.19435455
20	0x3cd85518	0.026407763
21	0xbdc8eab0	-0.09810388
22	0x3daf2722	0.08552386
23	0xbd191be0	-0.0373801
24	0xbe1a6d5b	-0.15080778
25	0xbd77759d	-0.0604149
26	0x3e3faa90	0.18717408
27	0xbdbdd42d	-0.09268985
28	0x3e634a48	0.22196305
29	0x3e214d94	0.1575225
30	0xbdffd9de	-0.12492727
31	0x3cff88f4	0.031193234
32	0x3d45cfae	0.048293762
33	0x3e23c871	0.15994431
34	0xbe30937a	-0.17243758
35	0x3e221ccb	0.15831296
36	0x3d346d77	0.044049706
37	0x3d4eabbb	0.050456744
38	0x3e33f90a	0.1757547
39	0x3e03be4f	0.12865566
40	0x3d73cbd5	0.05952056
41	0xbdd83cd2	-0.105584756
42	0x3e4aa309	0.19788755
43	0xbdcf08e7	-0.1010912
44	0x3c4d3586	0.012524968
45	0x3e1b65cd	0.15175553
46	0xbd3b2ef2	-0.045699067
47	0xbd90dbbd	-0.07073162
48	0xbbd6101e	-0.006532683
49	0x3c8a18b7	0.016857488
50	0x3dc2364e	0.09483014
51	0x3be44e92	0.006967374
52	0x3e315da9	0.17320885
53	0x3df0caf2	0.11757459
54	0x3e1e3f90	0.15453935
55	0xbde4ccd0	-0.111718774
56	0x3e34b39d	0.17646642
57	0xbc7315b4	-0.014836717
58	0x3dd290ec	0.10281548
59	0x3dd8beb8	0.10583252
60	0x3d47c163	0.048768412
61	0x3d342dd5	0.04398902
62	0xbe3152c2	-0.17316726
63	0xbdeab704	-0.11460689
64	0x3d4a46a9	0.049383793
65	0x3e13a5bb	0.1441869
66	0x3e22fca1	0.15916683
67	0xbd5143c3	-0.051090013
68	0x3e44c8e2	0.19217256
69	0xbe2913a4	-0.16511399
70	0xba017002	-0.000493765
71	0x3de66ff5	0.11251823
72	0x3e3fca5d	0.18729539
73	0xbdcf0e91	-0.101102
74	0x3d6c4ebe	0.057692282
75	0xbe231fb2	-0.1593006
76	0x3ca9f298	0.02074556
77	0xbe0fba8b	-0.14036004
78	0x3d1f244c	0.038852975
79	0x3e2eb8cf	0.17062686
80	0x3c7d82a0	0.015473038
81	0x3d4b0228	0.049562603
82	0xbe0a6070	-0.1351335
83	0xbe27ff6d	-0.16406031
84	0x3e389ea9	0.18029274
85	0x3db2f582	0.08738233
86	0x3b678600	0.0035327673
87	0x3cb422d0	0.021989256
88	0x3c49de20	0.012321025
89	0x3e2945af	0.16530488
90	0xbe195a3e	-0.14975831
91	0x3e378c01	0.17924501
92	0xbc179f20	-0.009254247
93	0x3dbeafd2	0.09310879
94	0x3e448d4b	0.19194524
95	0xbe08c188	-0.13355076
96	0x3cce61c0	0.025193095
97	0x3c98abd8	0.018636629
98	0x3e3427c5	0.17593296
99	0x3c48be50	0.012252405
100	0x3e5405fc	0.20705408
101	0xbdd4d062	-0.10391308
102	0x3e3bf2ac	0.1835429
103	0x3d8ad7bc	0.06779429
104	0xbd2b5493	-0.041828703
105	0x3de0c697	0.10975378
106	0x3e1167d4	0.14199764
107	0x3d9c1ce3	0.07622697
108	0x3dbf4301	0.09338952
109	0x3d3a6a0a	0.045511283
110	0x3c80e2fb	0.015733233
111	0x3d0feff9	0.035140965
112	0xbe1d58b8	-0.15365875
113	0xbe204ab1	-0.15653493
114	0xbe3864d4	-0.18007213
115	0x3e66a2ec	0.22523087
116	0x3e406271	0.18787552
117	0x3e1e81e7	0.15479241
118	0x39f337f8	0.00046390272
119	0x3dca67a2	0.09883048
120	0xbd241572	-0.040059514
121	0xbe1e73fa	-0.15473929
122	0x3d83a3d0	0.06427729
123	0x3daedf35	0.08538667
124	0x3d2ca1c2	0.04214645
125	0xbe20d9ed	-0.15708132
126	0x3d9ca4a9	0.07648594
127	0xbc977a02	-0.018490795
128	0xbe21b9c4	-0.1579352
129	0x3e4820c8	0.19543755
130	0x3e046ab9	0.12931336
131	0xbda65da3	-0.081233285
132	0xbddb37bc	-0.1070399
133	0x3dd3abc4	0.10335496
134	0x3d86bc52	0.06578888
135	0x3e188f71	0.14898469
136	0x3d16ba79	0.036798928
137	0xbe17e77d	-0.148344
138	0xbdec4654	-0.115368515
139	0x3e0603b9	0.13087358
140	0x3d435637	0.047689643
141	0xbe0e2028	-0.13879454
142	0xbe149ba0	-0.14512491
143	0x3da4c644	0.08045629
144	0x3e05ad4a	0.13054386
145	0xbe3547c5	-0.17703159
146	0xbb4cfeb0	-0.0031279735
147	0x3d6a09a9	0.05713812
148	0x3dd34677	0.103161745
149	0xbe15bcc4	-0.1462279
150	0xbdd38647	-0.10328346
151	0xbdcf1567	-0.10111504
152	0xbe1770ee	-0.14789173
153	0xbe435361	-0.19074775
154	0xbd4b52dc	-0.049639568
155	0xbd1ac347	-0.037783887
156	0x3e3b43ea	0.18287626
157	0xbd84ecf4	-0.06490508
158	0x3e2e2597	0.17006527
159	0x3d4d9839	0.050194
160	0xbda6f784	-0.081526786
161	0x3e07155a	0.13191739
162	0x3e266bd9	0.16252078
163	0x3d5da10d	0.054108668
164	0xbdcc1630	-0.099651694
165	0x3e218a47	0.15775405
166	0x3cf38a31	0.02972898
167	0x3e3d211c	0.18469661
168	0x3e2bb6a9	0.16768898
169	0xbd857a70	-0.06517494
170	0x3d523982	0.051324375
171	0xbd1f8702	-0.038947113
172	0x3d39e7e7	0.045387175
173	0xbb24a245	-0.0025121134
174	0x3daa0b33	0.08302917
175	0x3e12165d	0.14266343
176	0xbc1e3220	-0.009655505
177	0xbe2e31af	-0.1701114
178	0xbe019ffc	-0.12658685
179	0x3dbfc1a2	0.093631044
180	0xbd136158	-0.035981506
181	0x3e22179f	0.15829323
182	0x3da40162	0.08008076
183	0x3de63366	0.11240272
184	0xbe1d31fa	-0.15351096
185	0xbd7523cc	-0.05984859
186	0x3cf69350	0.030099541
187	0x3dca33c2	0.09873153
188	0xbd3b4f00	-0.045729637
189	0xbe292c2a	-0.16520754
190	0xbe462a43	-0.19352059
191	0x3de1ca7e	0.110249504
192	0xbd0f016c	-0.034913465
193	0x3cebbc98	0.028776452
194	0x3daab1d2	0.08334698
195	0xbe43bfa3	-0.19116072
196	0xbd88442a	-0.06653626
197	0xbdb7d0fa	-0.08975406
198	0xbd6e36e0	-0.0581578
199	0xbe43d812	-0.19125393
200	0xbd827894	-0.06370655
201	0xbe257b92	-0.1616042
202	0xbb169940	-0.0022979528
203	0xbe2eaee3	-0.17058901
204	0xbd424d40	-0.047436953
205	0xbe439148	-0.19098389
206	0x3d60b164	0.054856673
207	0xbe0aca12	-0.13553646
208	0x3d76305c	0.060104713
209	0x3d110a6c	0.03541033
210	0xbe248033	-0.16064529
211	0x3d5b8914	0.053597525
212	0x3defb2ea	0.11704047
213	0xbe46ecea	-0.19426313
214	0xbe10b340	-0.14130878
215	0xbe40b4e2	-0.18819001
216	0xbe3dd9b3	-0.18540077
217	0xbe38c06a	-0.1804215
218	0xbd31d968	-0.043420225
219	0x3ddcaa22	0.10774638
220	0xbe282a85	-0.1642247
221	0xbe398ef3	-0.18120937
222	0xbda325a3	-0.07966163
223	0x3d0234c8	0.031788617
224	0xbc06fcd0	-0.008238986
225	0x3e53b238	0.20673454
226	0x3e5d34b9	0.21602143
227	0x3e595324	0.21223122
228	0xbd1b1b1c	-0.03786765
229	0x3d13c4f2	0.036076494
230	0x3d04bbe0	0.032405734
231	0x3c1ff683	0.009763363
232	0xbbf6f6f1	-0.007536762
233	0xbe1e6d93	-0.15471487
234	0xbe277c71	-0.16356064
235	0xbd10c961	-0.0353483
236	0xbdf58d0a	-0.11989792
237	0x3e1b6646	0.15175733
238	0xbd103ce9	-0.03521434
239	0x3cb92412	0.022600207
240	0x3e16e15c	0.14734405
241	0x3deb7c9b	0.11498376
242	0x3e3f4517	0.186787
243	0x3d41b50a	0.047291793
244	0xbe4069d7	-0.18790375
245	0x3de3ac7f	0.111168854
246	0x3de08f75	0.10964862
247	0x3e478406	0.19483957
248	0x3e5300b8	0.20605743
249	0xbddfe94b	-0.10933169
250	0xbc40963c	-0.011754569
251	0xbc88f4f9	-0.016718375
252	0xbdcb14da	-0.099160865
253	0x3e74b552	0.23897293
254	0x3e034e92	0.12822941
255	0x3e02db1a	0.12778893

fc1.bias f4 [128]
0	0xbde13fc7	-0.10998493
1	0x3e2993d1	0.16560294
2	0xbe2df13b	-0.16986553
3	0x3d6942cc	0.056948468
4	0xbe0f7f7b	-0.14013474
5	0xbd7b99ff	-0.06142616
6	0x3df69283	0.12039664
7	0xbcab7f90	-0.02093485
8	0xbdf18ea3	-0.11794784
9	0xbdc9bf7c	-0.09850976
10	0x3dc05218	0.09390658
11	0xbd41c6e4	-0.047308818
12	0x3d83f01e	0.06442283
13	0x3c1448b5	0.009050538
14	0xbd68828c	-0.056765124
15	0xbe0677aa	-0.13131586
16	0x3c80d497	0.01572637
17	0xbd705536	-0.058675013
18	0x3dbd751b	0.09250852
19	0xbe1381dd	-0.14405008
20	0x3e05a3b9	0.13050736
21	0xbe0804c2	-0.13283065
22	0xbbd41b66	-0.0064729927
23	0x3db542ac	0.08850607
24	0x3d056764	0.032569304
25	0xbd2fedcc	-0.04295139
26	0xbc8dbd07	-0.01730205
27	0xbd15f3b8	-0.03660938
28	0xbc3c2abf	-0.011484801
29	0x3dc9f173	0.09860506
30	0x3e50f91d	0.20407529
31	0x3d9e0bf4	0.07717124
32	0x3d64bc58	0.05584368
33	0xbda35271	-0.07974709
34	0x3d0831a4	0.033250466
35	0xbce9f228	-0.028557852
36	0xbdadde5a	-0.08489676
37	0xbd66de7d	-0.056364525
38	0x3d49a083	0.04922534
39	0x3e130f50	0.1436131
40	0x3bd0b2c6	0.0063689677
41	0x3e3075c3	0.17232423
42	0x3c3b814d	0.011444402
43	0x3d0311c0	0.03199935
44	0x3c17b675	0.00925981
45	0xbe246810	-0.16055322
46	0x3e057fa0	0.13036966
47	0x3e190050	0.14941525
48	0xbd507661	-0.050894145
49	0x3d7b53ee	0.06135934
50	0x3de10a07	0.10988241
51	0xbe029cf6	-0.12755188
52	0xbd9efbd3	-0.077628754
53	0x3d463b79	0.04839656
54	0x3e2e68ba	0.17032138
55	0x3e0d13bf	0.13777064
56	0xbd4a1d59	-0.049344394
57	0x3ce0d869	0.027446942
58	0xbe119b04	-0.1421929
59	0x3e0cd607	0.1375352
60	0x3e27fbec	0.16404694
61	0x3c968258	0.0183727
62	0x3d8477fe	0.06468199
63	0x3ca4ecf3	0.020132517
64	0xbe20566c	-0.15657967
65	0x3df2c149	0.118532725
66	0x3cc10b75	0.023565033
67	0xbda9bead	-0.08288322
68	0xbd3c4778	-0.045966595
69	0x3dc78e7d	0.09743974
70	0xbd83566c	-0.06412968
71	0x3e4e9a59	0.20176066
72	0x3d568e4e	0.052381806
73	0x3d922ad3	0.07137074
74	0xbbe16cc0	-0.006879419
75	0x3dee0e9f	0.116238825
76	0x3cf2a3e7	0.02961917
77	0x3e009a2e	0.12558815
78	0x3ca911f4	0.020638444
79	0x3e775520	0.24153566
80	0xbe0c3adf	-0.13694333
81	0xbdb49f68	-0.08819467
82	0xbe3db7f7	-0.18527208
83	0x3e1804d6	0.14845595
84	0x3e202911	0.15640666
85	0x3d90be72	0.070675746
86	0x3e1d03fc	0.15333551
87	0x3d96a3d9	0.0735547
88	0xbe082268	-0.13294375
89	0xbe533ede	-0.2062945
90	0xbde58f23	-0.11208942
91	0x3c4986e0	0.012300223
92	0x3e26e2d9	0.16297473
93	0xbbf9b2a0	-0.0076201707
94	0x3e12a6e1	0.14321472
95	0xbe418d22	-0.18901494
96	0xbe0d70df	-0.13812588
97	0x3d3dc2e2	0.046328433
98	0xbca82d6b	-0.02052947
99	0x3da9ecab	0.08297094
100	0xbe0aa22e	-0.13538429
101	0xbcc06a69	-0.02348824
102	0x3e6a46c4	0.22878557
103	0xbdc3671d	-0.09541152
104	0x3e204640	0.15651798
105	0xbe2c886e	-0.16848919
106	0x3e4ea0c5	0.20178516
107	0xbd609414	-0.05482872
108	0x3e03ad3b	0.12859051
109	0x3e2c5949	0.16830935
110	0x3d7d777f	0.06188154
111	0xbd49ca54	-0.04926522
112	0xbda1d559	-0.07902021
113	0x3d2e3965	0.042535204
114	0x3df5ca8a	0.12001522
115	0x3e1325be	0.14369866
116	0x3e1cd0ea	0.1531407
117	0xbd95b1e9	-0.07309324
118	0x3e0a1f7d	0.13488574
119	0x3e0e48a7	0.13894902
120	0x3e05496b	0.13016288
121	0xbd97455c	-0.07386276
122	0xbd96057a	-0.07325263
123	0x3d65a1e6	0.0560626
124	0x3dc06ded	0.09395967
125	0xbd4b36ab	-0.049612682
126	0x3d8cab2d	0.06868587
127	0x3cdf8507	0.027285112

fc2.weight f4 [128, 128]
0	0xbd84ad63	-0.064783834
1	0xbb4b5ea0	-0.0031031743
2	0xbd8e6f49	-0.0695482
3	0xbcdbbae6	-0.026822519
4	0x3d43c8b2	0.04779882
5	0x3db00941	0.08595515
6	0xbd85f4b8	-0.06540817
7	0x3cd2503c	0.025673024
8	0xbd36cdc3	-0.044629823
9	0xbdb2a4ab	-0.08722814
10	0xbd2a5702	-0.041586883
11	0x3d547d7a	0.051877476
12	0x3c82017c	0.015869848
13	0x3c92f780	0.017940283
14	0xbdb12ade	-0.086507544
15	0x3d1a4012	0.03765876
16	0x3d35bf0e	0.044371657
17	0xbdb38f90	-0.08767617
18	0xbdaf4a77	-0.08559125
19	0xbd02af6b	-0.031905573
20	0xbd96eea6	-0.07369737
21	0x3c2eb9b8	0.010664396
22	0x3a472900	0.0007597357
23	0x3dade767	0.08491402
24	0x3d94300b	0.07235726
25	0xbcb4ce54	-0.022071041
26	0xbd5d9155	-0.054093678
27	0xbcbbe468	-0.022936061
28	0xbb81c700	-0.00396049
29	0x3daafe89	0.0834933
30	0x3ca738e4	0.02041287
31	0xbd8c55b8	-0.06852287
32	0x3bf5bc90	0.007499285
33	0xbcb16830	-0.021656126
34	0x3d073692	0.033011027
35	0xbc4031f0	-0.011730656
36	0x3cbdcd20	0.0231691
37	0x3d0c976c	0.034324095
38	0x3cfeac50	0.031088024
39	0xbd4124e8	-0.047154337
40	0xbc981010	-0.018562347
41	0xbda300a6	-0.07959108
42	0xbda850be	-0.08218525
43	0x3cb07524	0.021540232
44	0x3ca65de8	0.02030845
45	0x3d3196ea	0.043356813
46	0xbd8f4418	-0.0699541
47	0xbcebf5c4	-0.028803714
48	0xbd2a3dff	-0.04156303
49	0xbd0fa92a	-0.035073437
50	0xbcfb83e2	-0.030702535
51	0xbd76d1e1	-0.06025875
52	0xbdaa4c18	-0.08315295
53	0xbd6b9361	-0.0575136
54	0xbd00fb80	-0.03148985
55	0xbd9aa405	-0.075508155
56	0xbd06758c	-0.032826945
57	0xbbdcd380	-0.00673908
58	0xbca1cebc	-0.019751899
59	0x3d1e2222	0.03860677
60	0x3d3177ba	0.04332707
61	0x3ce4fb10	0.027951747
62	0x3bfae920	0.007657185
63	0x3ce01e78	0.027358279
64	0x3c9065e4	0.01762671
65	0xb9baf700	-0.00035660714
66	0xbcc68560	-0.02423352
67	0x3d06c906	0.032906555
68	0x3c4cbc28	0.012496032
69	0xbda5c75a	-0.08094664
70	0xbc6df748	-0.0145242885
71	0x3d3ea802	0.046546943
72	0x3d01c186	0.0316787
73	0xbdb3293d	-0.087481
74	0x3cf3da1c	0.029767089
75	0x3d41ce1a	0.047315694
76	0xbc020458	-0.007935606
77	0xbd6a404a	-0.057190217
78	0x3cb9b4f0	0.022669286
79	0xbd97d0f5	-0.07412902
80	0x3da1dd61	0.07903553
81	0xbd31a048	-0.043365747
82	0x3d68107a	0.05665634
83	0xbda0d8bd	-0.078538395
84	0x3d5ffd86	0.05468514
85	0x3cf48a00	0.02985096
86	0xbd152254	-0.03640969
87	0xbc478488	-0.012177594
88	0x3c9d4368	0.01919718
89	0x3d7fff1a	0.062499143
90	0x3d8b42a1	0.06799818
91	0xbd1ab6d7	-0.037772026
92	0x3d6254be	0.055256598
93	0xbd31f64e	-0.043447785
94	0x3cc27f84	0.023742445
95	0xbd85d549	-0.065348215
96	0xbd1a3a1a	-0.037653066
97	0xbda125c9	-0.07868535
98	0x3ce34d24	0.027746744
99	0x3d3ec236	0.046571933
100	0xbd0d1ba7	-0.0344502
101	0x3da8f5bf	0.08249997
102	0xbd94dceb	-0.07268699
103	0xbd5b7dd5	-0.0535868
104	0x3d5e11de	0.05421626
105	0x3d1f887a	0.038948514
106	0x3d355f7a	0.044280507
107	0xbd30784d	-0.043083478
108	0x3d1684fe	0.036747925
109	0x3c4d48c8	0.012529559
110	0x3cf76838	0.030201063
111	0x3d96f1a3	0.07370307
112	0x3da3555f	0.079752676
113	0xbd344aa9	-0.044016514
114	0xbd5bc9a8	-0.05365911
115	0x3d4a44de	0.049382083
116	0x3d9fe7a9	0.078078575
117	0xbd9ebf6a	-0.07751353
118	0x3d1a7176	0.03770586
119	0xbd9a864c	-0.07545146
120	0x3d818295	0.06323735
121	0x3db23c21	0.08702875
122	0xbd8ab0dd	-0.06772015
123	0xbbd39980	-0.0064575076
124	0x3d087f3a	0.033324458
125	0xbdb011a7	-0.08597117
126	0x3ce34260	0.027741611
127	0x3b8d08f0	0.004304044
128	0xbd6771fb	-0.056505185
129	0x3dc687ee	0.09693895
130	0x3d63df91	0.05563313
131	0x3da4bb77	0.080435686
132	0x3dc7c831	0.0975498
133	0x3d813c8e	0.06310378
134	0xbd4bdac1	-0.049769167
135	0x3cbd38fc	0.023098461
136	0xbc6af828	-0.014341392
137	0x3d1970c3	0.037461054
138	0x3d3593cc	0.044330403
139	0x3dc295fa	0.09501262
140	0x3d27438b	0.0408359
141	0xbc9860a3	-0.018600767
142	0x3d28af56	0.04118284
143	0xbcfd8ad6	-0.030949991
144	0xbc2a36e1	-0.010389061
145	0xbd320a6c	-0.04346697
146	0xbcc10510	-0.023561984
147	0x3d613646	0.0549834
148	0x39759a00	0.0002342239
149	0xbd6de858	-0.05808291
150	0x3dad3e80	0.084591866
151	0x3d8d38ce	0.068956
152	0x3d73c1b6	0.05951091
153	0x3c25fb78	0.010130756
154	0x3d44a8e2	0.04801262
155	0x3d8b6670	0.06806648
156	0x3dff8b66	0.1247776
157	0xbd39bc63	-0.045345675
158	0x3dfd8038	0.123779714
159	0x3c1f3ce6	0.009719109
160	0x3de995a0	0.11405492
161	0xbd648288	-0.055788547
162	0xbc32bb45	-0.010908906
163	0x3c8dba68	0.0173008
164	0xbd835d7d	-0.06414316
165	0x3d8ce0d0	0.06878817
166	0x3d88769b	0.06663247
167	0xbcd5c077	-0.026092751
168	0xbd9888d6	-0.074479744
169	0x3c218ab0	0.009859726
170	0x3b8d46e0	0.0043114275
171	0x3d99ac2f	0.075035445
172	0xbd26d8c0	-0.040734053
173	0x3bd60500	0.0065313578
174	0xba8fbf06	-0.0010966964
175	0x3db34213	0.08752837
176	0x3df1cd7a	0.1180677
177	0xbc9bfc47	-0.019041194
178	0x3d147aa7	0.036249783
179	0x3d49d09e	0.04927122
180	0xbd4c114e	-0.04982119
181	0x3c0c6c00	0.008570671
182	0xbd15b403	-0.036548626
183	0x3daddfe2	0.08489968
184	0xbd8b56dd	-0.06803677
185	0x3da4afdf	0.08041357
186	0x3de8fac1	0.113759525
187	0x3d0f963e	0.03505539
188	0x3d0d87ee	0.03455346
189	0xbd101c1d	-0.03518306
190	0x3cc0bdc8	0.023527995
191	0x3d7b2492	0.061314173
192	0xbd360043	-0.044433843
193	0x3e015cd5	0.12633069
194	0x3d495c84	0.049160495
195	0xbdb4a322	-0.088201776
196	0xbd461e81	-0.048368935
197	0xbc0cbb1b	-0.008589531
198	0xbd83601d	-0.064148165
199	0x3d707748	0.058707505
200	0xbc5349d9	-0.012896025
201	0xbd6fca57	-0.058542576
202	0xbdb0f953	-0.08641305
203	0x3d16ac53	0.036785435
204	0x3dd6b440	0.10483599
205	0xbd091e66	-0.033476256
206	0xbd5002d2	-0.05078394
207	0x3dd3213f	0.103090756
208	0xbd531c27	-0.05154052
209	0xb91603de	-0.00014306555
210	0xbc71b815	-0.014753361
211	0xbcbd3b28	-0.023099497
212	0x3d06d766	0.032920264
213	0x3e051cf7	0.1299933
214	0xbd90274e	-0.07038747
215	0x3dea36c9	0.11436231
216	0x3df853ed	0.121253826
217	0x3d283614	0.041067198
218	0xbd8e7c06	-0.06957249
219	0xbc30e420	-0.010796577
220	0x3df2889f	0.11842465
221	0xbb6fcf60	-0.003659211
222	0x3cb1f344	0.021722443
223	0x3d1b7cb6	0.03796073
224	0xbc08c35a	-0.008347357
225	0x3d69f4c9	0.05711821
226	0x3d14a2cb	0.036288064
227	0x3dddc008	0.10827643
228	0x3d93e94b	0.072222315
229	0x3d9313c5	0.07181505
230	0x3d645178	0.055741757
231	0x3d275505	0.040852565
232	0xbd32f7e6	-0.043693446
233	0xbd923a0e	-0.07139979
234	0xbc6d1cc1	-0.0144721875
235	0xbd46047c	-0.04834412
236	0xbc88bfb4	-0.016692974
237	0x3db79c6e	0.089653835
238	0x3e01c647	0.12673293
239	0x3c675b60	0.014120907
240	0x3bf7b6e9	0.0075596464
241	0x3c38d8dc	0.011282172
242	0x3decc8c9	0.11561734
243	0x3deb5a1f	0.114917986
244	0x3dc23705	0.094831504
245	0xbcd2b92b	-0.02572306
246	0xbca96618	-0.020678565
247	0x3c5d0efb	0.013492341
248	0x3d80a542	0.062815204
249	0xbd0d3be8	-0.03448096
250	0x3c3f52da	0.011677468
251	0x3d8c7938	0.06859058
252	0x3de01287	0.10941034
253	0xbcbc672c	-0.022998415
254	0x3da86e51	0.08224166
255	0x3d90ac5e	0.070641264

fc2.bias f4 [128]
0	0xbd983c7d	-0.07433412
1	0x3cfa3e33	0.030547237
2	0xbcd293b2	-0.025705192
3	0xbd2fb94b	-0.04290132
4	0x3d8ccea2	0.068753496
5	0x3d64bf0e	0.055846266
6	0x3d85d586	0.06534867
7	0xbdb051c0	-0.086093426
8	0xbd303415	-0.04301842
9	0x3d1fca26	0.039011143
10	0x3c3ef818	0.01165583
11	0x3d9c0405	0.07617954
12	0xbd6de34c	-0.058078095
13	0xbc5eb5ad	-0.01359312
14	0xbc8b1c64	-0.016981311
15	0xbdb4663a	-0.08808561
16	0x3d17d2dc	0.037066326
17	0x3da2ef9e	0.079558596
18	0x3d5da59c	0.054113016
19	0x3dac8a6f	0.084248416
20	0x3d8e4993	0.06947627
21	0xbc804ca0	-0.015661538
22	0xbb58309e	-0.0032987962
23	0x3dd66ff4	0.10470572
24	0x3d35bd76	0.044370137
25	0xbcca2a4f	-0.024678377
26	0x3ca38140	0.019959092
27	0x3bf848f0	0.007577054
28	0x3de7c962	0.113177076
29	0xbcdaba9a	-0.026700307
30	0xbd3ae11c	-0.045624837
31	0x3d167fe3	0.036743056
32	0xbd1b829b	-0.037966352
33	0x3def2db2	0.116786376
34	0x3c9bf01c	0.019035392
35	0x3d5156b7	0.05110809
36	0xb9c69327	-0.0003787514
37	0x3d696fdf	0.056991454
38	0x3c9e30d2	0.019310389
39	0xbd9ae3ab	-0.075629555
40	0x3d45ced7	0.04829296
41	0x3c8f94dc	0.017527036
42	0x3dbd6094	0.092469364
43	0x3dddf594	0.10837856
44	0x3dd7cedb	0.105375014
45	0xbc54f0bb	-0.012996848
46	0xbd9e32be	-0.07724522
47	0x3d12ecc4	0.03587033
48	0xbd36cc5c	-0.044628486
49	0xbcb5af3a	-0.022178281
50	0x3d6519c2	0.055932768
51	0x3d4c9f99	0.04995689
52	0xbd16c427	-0.03680816
53	0x3c9ab95b	0.018887212
54	0xbb979630	-0.004626058
55	0x3de3f326	0.11130361
56	0x3e0536ae	0.1300914
57	0x3c86d17d	0.016457314
58	0xbcb63e90	-0.022246629
59	0xbd4f9b3d	-0.050685156
60	0x3d81d970	0.06340301
61	0xbd070209	-0.032960925
62	0xbd44ff77	-0.048095193
63	0x3d39063c	0.04517196
64	0xbba80cbd	-0.0051284716
65	0x3dcdc456	0.10047214
66	0x3d8c9fda	0.06866427
67	0x3da27491	0.079323895
68	0x3da4a25f	0.08038782
69	0x3dcf1c3c	0.10112807
70	0x3cb9f850	0.022701412
71	0x3d6150fc	0.055008873
72	0x3d54293f	0.051797148
73	0x3c9a1d5b	0.018812826
74	0x3d5295f6	0.051412545
75	0x3da92f9a	0.082610324
76	0x3daade52	0.083431855
77	0xba21c50a	-0.00061710237
78	0x3c394fa6	0.011310494
79	0xbd93f993	-0.07225337
80	0xbd873e4c	-0.06603679
81	0x3d09cd45	0.033643026
82	0xbd49728f	-0.049181517
83	0x3cb47c66	0.022031974
84	0xbd42aae4	-0.047526255
85	0xbd78c31e	-0.060732953
86	0x3dd0a3d0	0.10187495
87	0x3db5be40	0.08874178
88	0xbc186272	-0.009300815
89	0x3d8d8293	0.06909671
90	0xbd50633d	-0.05087589
91	0x3c5e0944	0.013552014
92	0x3d2ba824	0.0419084
93	0x3c5129c1	0.012766303
94	0x3c02e338	0.0079887435
95	0xbc3c088d	-0.011476648
96	0xbd3978a3	-0.045281064
97	0xbd9c62cf	-0.07636034
98	0xbbbf2849	-0.00583366
99	0xbce3a434	-0.02778826
100	0xbad3e47b	-0.0016166115
101	0x3d2d4eb6	0.042311393
102	0x3de6ddb7	0.112727575
103	0xbd618ad6	-0.055064045
104	0x3d8a0a28	0.067402184
105	0x3d708ebe	0.05872988
106	0x3c39cc60	0.011340231
107	0xbc8d78cc	-0.017269515
108	0x3b044689	0.0020183644
109	0xbd40eaa8	-0.047098786
110	0xbda1d187	-0.07901292
111	0xbd124a8a	-0.035715617
112	0xba5e29e7	-0.0008474872
113	0xbda03d5e	-0.07824205
114	0xbd56ed86	-0.052472614
115	0x3d917eff	0.07104301
116	0x3d8a8c9a	0.06765099
117	0xbd435a17	-0.04769334
118	0x3d842f8b	0.064543806
119	0x3da94f01	0.08267022
120	0x3d100fb1	0.035171214
121	0xbce43a53	-0.027859842
122	0x3d9acc09	0.07558448
123	0xbc471e55	-0.012153228
124	0x3d7b7ac9	0.061396394
125	0x3d75b835	0.059990127
126	0x3d71d051	0.059036557
127	0x3d245903	0.04012395

fc3.weight f4 [5, 128]
0	0xbc005488	-0.007832654
1	0xbd8b7845	-0.06810049
2	0x3d485104	0.048905388
3	0x3c4b35a9	0.01240293
4	0xbc788148	-0.015167542
5	0xbda30440	-0.07959795
6	0xbcdb6db2	-0.026785705
7	0xbd19166d	-0.037374903
8	0xbcfd7422	-0.030939166
9	0x3d3f515e	0.046708457
10	0xbd90a831	-0.0706333
11	0xbda3db9d	-0.08000872
12	0x3dadd2eb	0.08487495
13	0xbc01c7af	-0.007921143
14	0xbd146bdd	-0.03623568
15	0xbaf2ed3f	-0.001853384
16	0x3d9ad49e	0.07560085
17	0xbcc6ddb8	-0.024275646
18	0x3d177dd8	0.03698525
19	0xbbc16a90	-0.005902596
20	0x3a33efd9	0.0006864048
21	0x3cfc5dc8	0.030806437
22	0xbdcd17a8	-0.10014278
23	0x3d09535e	0.03352677
24	0x3cd85d38	0.026411638
25	0x3d5d96e5	0.054098982
26	0xbd4223eb	-0.047397535
27	0xbc22b0f0	-0.0099298805
28	0xbd7750e2	-0.06037987
29	0xbc2c4f71	-0.010516987
30	0xbd216c75	-0.039410073
31	0xbd6e0109	-0.058106456
32	0xbd6f20da	-0.05838094
33	0xba4a3839	-0.00077140663
34	0x3d6a94e4	0.0572709
35	0xbda7ee33	-0.0819973
36	0x3d4ebc4d	0.050472546
37	0xbcc88179	-0.0244758
38	0xbcafea87	-0.021474136
39	0xbc8feebf	-0.017569898
40	0xbd27b901	-0.040947918
41	0xbda335a9	-0.07969219
42	0xbc930254	-0.017945446
43	0xbcce863f	-0.025210498
44	0xbc825c84	-0.015913256
45	0x3dabaaae	0.08382164
46	0x3d917b37	0.071035795
47	0xbb4d4e41	-0.003132716
48	0x3cae5182	0.0212791
49	0x3d76913e	0.060197107
50	0xbb5a6f79	-0.0033330603
51	0x3d248630	0.040167034
52	0x3d10efc8	0.035384923
53	0xbd9036af	-0.0704168
54	0x3d9b4999	0.07582397
55	0xbdc293eb	-0.09500869
56	0x3cf1da9b	0.029523185
57	0xbda6bfb3	-0.081420325
58	0xbd9a5cb4	-0.07537213
59	0xbd60364f	-0.054739293
60	0x3c7c799f	0.015409856
61	0xbd049d5b	-0.03237663
62	0xbdbba9ae	-0.09163223
63	0xbd82d9e3	-0.06389215
64	0xbd10b0e1	-0.035324935
65	0xbd6b60df	-0.05746543
66	0x3d51168a	0.051046886
67	0xbcb97a36	-0.022641283
68	0xbdc0ac39	-0.09407849
69	0xbd6ab134	-0.0572979
70	0xbda5ccb6	-0.08095686
71	0xb937e1e5	-0.00017536392
72	0xbba45af2	-0.0050157243
73	0xbbaa3ea3	-0.005195455
74	0x3d24c27e	0.040224545
75	0xbab295d3	-0.0013624973
76	0xbcd6c0b7	-0.02621494
77	0x3b8f75f4	0.004378075
78	0xbd7299b4	-0.059228614
79	0x3d1f92dc	0.038958415
80	0x3d4b9c62	0.049709685
81	0xbd465c26	-0.048427723
82	0xbbe7f225	-0.0070784264
83	0x3c2d35f5	0.010571946
84	0x3c0002dd	0.007813183
85	0x3d693dd6	0.056943737
86	0xbb85d6d1	-0.004084446
87	0xbd3e4c46	-0.04645946
88	0x3d515981	0.05111075
89	0xbd91ac90	-0.07112992
90	0x3d2a61b5	0.041597087
91	0x3d852d0a	0.06502731
92	0x3d917af4	0.071035296
93	0xbc4813ba	-0.012211734
94	0x3d0db03a	0.03459189
95	0x3d379446	0.04481914
96	0x3d0f43a8	0.03497663
97	0x3cdc689f	0.026905356
98	0x3d4e1697	0.050314512
99	0x3d4a6272	0.04941029
100	0xbc6f3a8c	-0.014601361
101	0x3da23558	0.07920331
102	0x3d8f87bf	0.070083134
103	0x3da9b169	0.082857914
104	0x3cc54643	0.024081355
105	0x3d9824d9	0.07428903
106	0x3ccdfdb8	0.025145397
107	0xbc3ef198	-0.01165428
108	0xbd897ba1	-0.067130335
109	0x3d722c49	0.059124265
110	0xbd3fbf03	-0.046813022
111	0xbd88f459	-0.066872306
112	0xbd961266	-0.07327728
113	0x3d4b050f	0.04956537
114	0xbda21c3d	-0.07915542
115	0xbbd2243a	-0.00641301
116	0xbd8ac6d9	-0.067762084
117	0x3d06e35a	0.032931663
118	0xbd2e3acb	-0.042536538
119	0x3d00a051	0.03140289
120	0x3cbffac2	0.023435
121	0xbd963ffb	-0.07336422
122	0x3cb41ff0	0.021987885
123	0xbce326db	-0.027728489
124	0xbdb66581	-0.08906079
125	0x3d2d8a63	0.042368304
126	0xbcb87639	-0.02251731
127	0xbd09d822	-0.033653386
128	0x3daae75d	0.0834491
129	0xbdc4f2a2	-0.09616591
130	0x3c9f893c	0.019474618
131	0xbcd58e64	-0.026068874
132	0xbbcb322d	-0.00620105
133	0xbd54f728	-0.05199352
134	0x3c3242b5	0.010880162
135	0xbd6b9ab8	-0.0575206
136	0x3afccc12	0.0019286892
137	0x3d9744e7	0.07386189
138	0xbcee6110	-0.029099017
139	0x3d1494bd	0.03627466
140	0x3ca1d99c	0.019757085
141	0x3d881cd8	0.066461265
142	0xbd98488a	-0.07435711
143	0x3d0172e3	0.031603705
144	0xbcd79611	-0.026316674
145	0xbc6e3e9c	-0.014541294
146	0xbcdcae9b	-0.026938727
147	0x3c5d2bb8	0.013499193
148	0x3d33e3e7	0.043918516
149	0x3d10179e	0.035178773
150	0x3d778e78	0.060438603
151	0x3c7424b6	0.014901331
152	0xbdb375bd	-0.08762691
153	0x3cc87621	0.02447039
154	0xbd77f442	-0.060535677
155	0x3d18270e	0.03714662
156	0xbd01bdbf	-0.031675097
157	0xbb57b1dd	-0.0032912411
158	0x3d8d709e	0.06906246
159	0xbdac8fad	-0.084258415
160	0xbda87f98	-0.082274616
161	0x3d3a1063	0.045425784
162	0xbd99c00d	-0.07507334
163	0x3cdc1a60	0.026868045
164	0x3d5eb0dc	0.054367885
165	0x3be1aebe	0.006887286
166	0x3d165021	0.03669751
167	0x3d9631de	0.0733373
168	0x3da85727	0.08219748
169	0x3d8f32a7	0.06992083
170	0xbcc5ff40	-0.024169564
171	0xbd9874bf	-0.074441426
172	0xbd50a0c6	-0.050934575
173	0x3cc54e15	0.024085084
174	0xbd33872c	-0.04383008
175	0xbd1320b1	-0.03591985
176	0xbd18ba91	-0.0372873
177	0xbcef1b44	-0.029187806
178	0x3c83b503	0.016077524
179	0xbd9f0be7	-0.07765942
180	0x3d9457c4	0.072433025
181	0x3d89b032	0.0672306
182	0xbd9f30a0	-0.07772946
183	0xbd23b798	-0.03997001
184	0x3ca484eb	0.020082911
185	0x3d677326	0.0565063
186	0xbd5bec09	-0.053691898
187	0x3d7ae89e	0.061256997
188	0x3d1320bd	0.035919894
189	0xbdacc366	-0.08435707
190	0x3d04968c	0.032370135
191	0x3d441a41	0.0478766
192	0x3d3d829d	0.04626714
193	0xbbcc640a	-0.0062375115
194	0xbbf9d802	-0.007624627
195	0x3d4cacdc	0.04996954
196	0xbc12f341	-0.008969129
197	0xbceed3fc	-0.029153816
198	0xbdb6d18a	-0.08926685
199	0x3da82183	0.08209517
200	0x3d9327cf	0.07185327
201	0xbd265337	-0.040606704
202	0xbdc26a60	-0.09492946
203	0xbafda499	-0.0019351422
204	0xbd8f04e3	-0.06983354
205	0xbc67306d	-0.014110667
206	0xbd23b128	-0.03996387
207	0x3d315dbf	0.043302294
208	0xba52de00	-0.0008043945
209	0x3d36a47b	0.044590455
210	0x3daf9b5a	0.08574553
211	0x3b4f18d8	0.0031600501
212	0x3d880aaa	0.06642659
213	0xbce7fdf2	-0.028319333
214	0xbc85aec9	-0.016318696
215	0x3c7b685d	0.015344706
216	0xbdaa9d08	-0.083307326
217	0xbce2c7d9	-0.027683185
218	0x3d0e4a1b	0.03473864
219	0xbc1f9b85	-0.009741669
220	0x3bf7a49b	0.0075574643
221	0xbdb3c7f2	-0.08778371
222	0xbd4fdbbb	-0.05074666
223	0xbcb465d9	-0.022021221
224	0xbd92951a	-0.07157345
225	0x3cb3eb41	0.021962764
226	0xbd9c7049	-0.07638604
227	0x3d42c6ae	0.047552757
228	0x3d861bfa	0.06548305
229	0xbda1a716	-0.07893197
230	0x3d8a5d5b	0.067560874
231	0xbd8eaaba	-0.06966157
232	0xbd423135	-0.04741021
233	0xbbebfa36	-0.0072014583
234	0x3cb68b24	0.022283144
235	0xbd4f0aa3	-0.050547253
236	0xbc830886	-0.015995275
237	0x3c719fff	0.014747619
238	0xbd06e956	-0.03293737
239	0x3d8ca6b9	0.06867737
240	0xbccd9ed5	-0.025100151
241	0x3cd7e00b	0.02635195
242	0x3da22ae3	0.07918336
243	0xbc9a9e4d	-0.018874312
244	0xbbf70f0f	-0.007539637
245	0x3c7ed675	0.01555406
246	0x3caad9b3	0.02085576
247	0x3cc24583	0.023714786
248	0x3cb45981	0.022015335
249	0xbdd705ba	-0.10499139
250	0xbda886eb	-0.082288586
251	0xbd3257a9	-0.04354063
252	0x3b39eeb2	0.0028371033
253	0xbd4aa880	-0.0494771
254	0x3b1899a7	0.0023284943
255	0x3cc546d3	0.024081623

fc3.bias f4 [5]
0	0xbc808fb7	-0.015693529
1	0x3d0005c6	0.031255506
2	0xbd8c8cad	-0.06862769
3	0xbda9a3c1	-0.08283187
4	0xbce85a97	-0.02836351
