CC_Reinforce_version_2/state_dict_model.pt (torch, 94367 bytes, 6 tensors)

fc1.weight f4 [128, 45]
000000 f0 88 35 3e 43 8e 6c bc 13 8d 2b 3e a9 13 4a 3b
       0.17728019 -0.014438215 0.16753034 0.0030834472
000010 f3 4b 87 3d 33 47 0d 3d 6d 1e 6b 3d b0 28 87 bd
       0.06606283 0.03449173 0.057402063 -0.065995574
000020 35 97 e2 3d 0b 2e be bd 7b f1 1c 3c 53 89 9b bd
       0.11063997 -0.09286126 0.009579058 -0.07594552
000030 0e 6d 8d 3d 47 7e 0d be 5b 09 bf bd 9d 0c 1d 3e
       0.06905566 -0.13817702 -0.09327956 0.15336843
000040 71 23 0b 3e 05 5d 92 bd ec 50 bf bd bf a6 11 3e
       0.13587739 -0.07146648 -0.093416065 0.14223765
000050 c8 00 42 3d 5f f4 d7 bd 9d 44 06 bd 5b e5 e2 bd
       0.047364026 -0.10544657 -0.03278028 -0.11078902
000060 8e 9a 28 3d 1e 44 42 3d af c4 af 3d 30 8d f8 3b
       0.04116302 0.047428243 0.08582436 0.0075851902
000070 28 f6 03 3e f5 da ce 3d 5f de 52 ba 57 5d 0a bd
       0.1288687 0.101003565 -0.0008044 -0.033780422
000080 1e 10 40 3e 78 9d c9 bd c8 ef 0f bc 4a 07 ed 3d
       0.18756148 -0.09844488 -0.008785196 0.11573656
000090 2c f0 d8 bd 1f 91 3f bd 06 e9 3f bd 8d fa e5 3d
       -0.10592684 -0.046769258 -0.046853088 0.112294294
0000a0 51 a2 32 3d 5c f9 01 be ea 48 00 be 6c 90 b0 3d
       0.04361183 -0.1269278 -0.12527815 0.08621296
0000b0 be a0 5e 3d 77 5e a2 bd 4b 98 08 3e c2 ef e9 3d
       0.054352514 -0.07928174 0.13339345 0.11422683
0000c0 f5 db 1b 3e 37 08 c8 bd ab ac 9f 3c 62 1f de 3d
       0.15220626 -0.09767192 0.019491514 0.108458295
0000d0 18 aa fb bd 9a 1f de 3d ff 45 d1 bd a9 6a d1 3d
       -0.12288302 0.10845871 -0.10218429 0.10225422
0000e0 90 55 0e 3e b0 60 c7 3d 84 66 ad bd 9c d5 1b 3d
       0.13899827 0.097352386 -0.08466819 0.03804551
0000f0 9e aa dc 3d 7b 99 e6 bc e1 ea 7d bd d4 90 2a 3e
       0.1077473 -0.028149357 -0.061991576 0.1665681
000100 dc c9 eb 3d 20 b4 a9 bd fc 04 8d bd e6 95 09 be
       0.11513111 -0.08286309 -0.06885716 -0.13436088
000110 5d 4a 34 3c 4d ce 18 be 38 dc bc bd 36 e6 1e 3e
       0.011004058 -0.14922448 -0.09221691 0.15517506
000120 1d 0c 0d be 1b 00 ea 3d ab f0 66 3d c7 30 00 bd
       -0.13774152 0.11425801 0.056381863 -0.031296518
000130 e0 a4 2f bc 7a d4 2b 3e 3b 97 dc 3d d5 0e ec bd
       -0.010720462 0.16780272 0.107710324 -0.115262665
000140 2c 00 1b bd 54 c6 cc bd ed a7 0b be 9d 71 a7 bd
       -0.03784196 -0.099987656 -0.13638277 -0.08175967
000150 85 2c 07 be c1 46 e9 3d 50 5d c5 bc d1 12 93 3d
       -0.13200577 0.11390448 -0.024092346 0.07181323
000160 e8 a5 62 3d 5b d1 58 3d a6 6e 0d 3e 21 1e 25 bd
       0.055334 0.052934032 0.1381174 -0.040311936
000170 93 5b 24 bc e7 17 43 bd c6 48 a8 bd c5 88 fa 3d
       -0.010031599 -0.047630217 -0.082170054 0.12233118
000180 64 6e 7a 3c 9c eb 52 bd 48 63 0f be fd 4d b7 3d
       0.015285108 -0.051494226 -0.14002717 0.08950422
000190 9c e7 53 3c e5 47 a8 3d a5 6d 05 bd f9 8b fc 3d
       0.012933638 0.08216838 -0.03257527 0.12331385
0001a0 ac 01 e8 bd c5 24 15 3e 40 b2 02 3e ae c9 ff 3d
       -0.11328444 0.14564808 0.1276331 0.12489639
0001b0 85 4b 03 3d da 40 2c 3e cc ea 0b 3d 2d 25 ed bd
       0.032054443 0.16821614 0.034159467 -0.11579356
0001c0 cf ad 6d 3b f1 f1 70 3c 5b b4 0b be a0 82 0e 3e
       0.0036266928 0.014706121 -0.13643019 0.13917017
0001d0 9f e0 7a 3d f3 51 10 3e 01 58 e3 bd 84 f5 92 bd
       0.06124937 0.14093761 -0.1110077 -0.07175735
0001e0 f3 c1 7c bd 59 76 c0 3c 9a da fc 3d ba f7 49 3c
       -0.061708402 0.023493933 0.123463824 0.012327129
0001f0 5a 3b 91 3d 19 a3 2e bc 35 13 93 bd 2f c0 26 be
       0.070913985 -0.010659003 -0.07181398 -0.1628425
000200 6e c2 34 3d 26 8d f9 bd 1f 71 b8 3d 0f d3 35 bd
       0.044130735 -0.12185125 0.09005951 -0.044390734
000210 4f db e3 3d 75 e1 94 bd 45 cf ce bd 67 69 ca 3c
       0.11125814 -0.07269565 -0.10098127 0.024708463
000220 e1 3f 5d bc fa e9 01 3e 63 d3 f1 3d ce e5 af bd
       -0.013503999 0.12686911 0.11807897 -0.08588754
000230 78 ef 5c 3c 09 70 9c 3d 4d 96 e6 bc ad 18 cd 3d
       0.013484828 0.076385565 -0.02814784 0.10014472
000240 08 a8 34 bd 57 93 dc 3d 66 31 56 3d d4 49 b5 bd
       -0.04410556 0.1077029 0.052293204 -0.08851972
000250 31 eb f9 bd b0 cb 0f 3d bd 3f 8b 3d 6e f4 c9 3d
       -0.12203062 0.03510636 0.067992665 0.098610744
000260 63 5b a5 3d 7e f7 13 be 0f 68 3e bc 57 8f b3 bd
       0.08074071 -0.1444988 -0.011621489 -0.08767574
000270 2c 63 a8 bd a1 87 cb 3c 2e 4f 9c bd 5d 7f c9 bd
       -0.082220405 0.024844946 -0.0763229 -0.09838746
000280 3d fa 3d 3e 59 b0 eb bc 8e 72 18 bd d4 da 20 3d
       0.1855249 -0.028770613 -0.037218623 0.03927119
000290 0c 55 4f bd f7 f6 99 bd 29 6a 01 3d 8b 08 50 3d
       -0.050618216 -0.07517808 0.031595383 0.050789397
0002a0 8d 32 fe 3d 5b 3a e9 3c 36 cf 0a be 59 7e 6b 3d
       0.124119855 0.028470209 -0.13555607 0.05749354
0002b0 18 0a 2f 3e 9c 59 38 bd 39 12 b7 3d 5f ce 48 3c
       0.17093694 -0.045007333 0.089390226 0.012256234
0002c0 2c 67 95 bd e8 3c 03 3e d2 57 32 3e b3 fd 11 3e
       -0.07295069 0.12816203 0.17416313 0.14256935
0002d0 9c 2c d1 bc 7a d8 18 3e f9 61 09 3e 73 dc 43 3d
       -0.025533967 0.1492633 0.1341628 0.04781766
0002e0 aa d0 18 3e 2d 79 01 3e a6 0f 14 3e c5 e5 c3 bd
       0.14923349 0.12643881 0.14459094 -0.095653094
0002f0 c9 36 a2 bc c2 e4 1f 3d de a9 2b 3e 11 e0 bf bc
       -0.019801514 0.03903652 0.16764018 -0.023422273
000300 df 26 6e bc 75 b6 92 3c 09 38 b1 bd b1 7e bc bd
       -0.014535635 0.017909268 -0.08653266 -0.09203852
000310 92 2b 37 3d 39 71 23 3e 05 23 3c 3e 95 4a 19 3d
       0.044719286 0.1596116 0.18372734 0.037424643
000320 14 7e 59 3d ee 01 9f bd 40 72 19 bc e2 f1 80 bd
       0.053098753 -0.0776404 -0.009365618 -0.062961355
000330 ca bc ca bd ce cb 9f bd 7c 86 e3 3d 3c c7 af 3d
       -0.0989929 -0.078025445 0.11109635 0.08582923
000340 11 76 26 3d fa 2a 21 3e c5 08 ba 3d 87 64 82 3d
       0.04063994 0.1573905 0.09083704 0.0636683
000350 ad d0 0c 3d f5 81 f3 3d 6b d1 be bd 32 62 90 bd
       0.034378696 0.11890022 -0.09317287 -0.07049979
000360 56 f8 3f 3d 6c f2 18 3e bb 7f 03 3e 68 f9 12 3e
       0.04686769 0.14936227 0.12841694 0.14352953
000370 f1 1e 7e 3d 11 ed 99 bd 16 b0 3f bd 07 21 b0 3d
       0.062041227 -0.0751592 -0.046798788 0.086000495
000380 36 db 65 bc 08 34 1b be fc b0 b4 bd 96 47 51 3c
       -0.014029315 -0.15156567 -0.088228196 0.012773415
000390 5e 4d 18 3d 48 4f 25 bd da ec c5 bd 77 53 d0 bd
       0.037183158 -0.04035881 -0.096643165 -0.1017217
0003a0 f9 45 a0 3d 5d 87 e3 3d 50 6a 88 bd 99 d1 08 3e
       0.07825846 0.11109803 -0.066609025 0.13361205
0003b0 ba 57 33 3c ed 3f ac bd 60 bd 7e bd 3c 06 38 bc
       0.010946209 -0.084106304 -0.06219232 -0.011231955
0003c0 99 36 c0 bd 11 e9 a5 bd 24 cc a6 3d 7c 83 4a bc
       -0.09385414 -0.081010945 0.081444055 -0.01236045
0003d0 10 5e 1d bd 7e 96 f1 3d 92 f5 48 3e 9b 63 2e 3d
       -0.038419783 0.11796282 0.19624928 0.04257546
0003e0 cb 49 6a bc da 69 4b bd d2 e8 22 3e 0a 4b 32 3e
       -0.01429982 -0.049661495 0.15909126 0.17411438
0003f0 3f 94 0f 3e 1e 6f 35 3e 38 dc d4 3b 49 26 01 be
       0.14021395 0.17718169 0.0064959787 -0.12612261

fc1.bias f4 [128]
000000 3b f9 57 bd 84 e1 bd 3d a7 ab df 3d 22 12 74 bd
       -0.05272792 0.09271529 0.10921412 -0.059587605
000010 2a 89 3a 3e e5 8e c6 bd ed ad a6 3d d7 2c 49 bc
       0.18216386 -0.09695224 0.081386425 -0.012278757
000020 3f 8c ad 3d c5 01 cf bc 99 0b 39 3d ea 84 ba bd
       0.084740154 -0.025269398 0.045177076 -0.091073826
000030 74 0a f2 3c 39 1d ee 3c fa 5a c5 3d 33 46 1a bd
       0.029546 0.029066669 0.09636493 -0.037664603
000040 f3 87 22 3e c5 31 7f 3d e0 fa c1 bd 0b 93 d9 bd
       0.15872173 0.062303323 -0.09471679 -0.10623749
000050 85 4b 5d bd 08 ea a5 3b 70 57 9f 3d 7c 7a c0 bd
       -0.0540271 0.005063299 0.07780349 -0.09398362
000060 1b 3e cc 3a be c0 fa bd 24 bd 34 3e e0 c6 b8 3d
       0.0015582474 -0.12243794 0.17650276 0.090223074
000070 9e 31 54 bd 5c 35 bd 3d f3 4a 0f 3e f7 bd 4a 3b
       -0.05180513 0.09238693 0.13993435 0.0030935982
000080 0e 38 3d bc d4 95 38 3e 97 90 0b bd a7 84 ed bd
       -0.011549009 0.18025905 -0.03407344 -0.11597567
000090 05 be a4 3d d7 26 2c 3d 25 14 d0 3d 23 32 74 3d
       0.08044056 0.042029228 0.10160092 0.059618127
0000a0 93 54 76 3d 54 2a fe bd 96 77 6c bd 70 15 8f bc
       0.06013925 -0.12410417 -0.057731234 -0.017466277
0000b0 48 25 e7 3d 21 a9 d9 bd 08 2f 06 bd bf 94 f7 bd
       0.11286408 -0.10627962 -0.032759696 -0.12088918
0000c0 67 40 e1 bd 2c 27 05 bd 09 1d bb 3c d1 c8 90 39
       -0.10998612 -0.03250806 0.022840993 0.0002761544
0000d0 82 bf 7c bd 8c b5 30 3e da 24 86 3d 2e 02 8b bd
       -0.061706074 0.17256755 0.06549998 -0.06787525
0000e0 73 d5 f6 bd 88 e4 cb bc 59 81 18 3e 46 5c f8 3d
       -0.12052431 -0.024889246 0.14893092 0.12126975
0000f0 07 b1 e1 3d b2 f3 e7 bc 0b 60 60 3a c7 7f 27 3b
       0.110200934 -0.028314445 0.00085592334 0.002555834
000100 c9 87 a4 3d 92 9c 1f bd a8 88 6d 3d 3e e5 c5 3c
       0.080337115 -0.038967676 0.057991654 0.024157163
000110 dd 09 6f bd 9e 3a 14 3d 7a f8 27 3e 1b 82 00 3e
       -0.058359016 0.036188714 0.1640338 0.12549631
000120 aa 68 1a be 56 23 21 bd c9 95 ea 3c fb 3d e7 bd
       -0.15078989 -0.03934034 0.028635876 -0.11291119
000130 d8 f4 c3 bd 05 63 1b bd 3e 0f 88 bd e6 e3 1f 3e
       -0.095681846 -0.03793623 -0.06643532 0.1561428
000140 63 77 b5 bd 84 30 0a 3e fa 68 64 3d ff b9 39 3e
       -0.08860662 0.1349507 0.055764176 0.18137358
000150 00 50 0b 3e 87 2c 10 3e 7f 52 d5 3d 17 bc d6 bd
       0.13604736 0.14079486 0.104161255 -0.10485094
000160 52 71 8b 3d c1 6f bf bd 9e 1d ea 3d 69 e2 ce 3d
       0.068087235 -0.09347487 0.1143143 0.10101778
000170 11 cd 03 be 74 df 98 3b fd d1 ee bc ac 80 9a bd
       -0.12871195 0.0046653096 -0.029152865 -0.075440735
000180 96 d8 5a bd db 36 a7 3d c7 dd d3 3d 4c 06 e9 3d
       -0.05342921 0.0816476 0.10345035 0.11378154
000190 50 2b b5 3d 6b 52 87 3d 12 39 80 bc a4 5a e5 bd
       0.08846152 0.06607517 -0.015652213 -0.11198929
0001a0 ee 43 0f bd 94 cb 2e bd 50 07 81 3d b4 55 54 bd
       -0.034976892 -0.042674616 0.06300223 -0.051839545
0001b0 b8 07 99 3c c3 92 15 3e b4 cb cd 3d e7 f1 1b bd
       0.018680438 0.14606766 0.10048619 -0.038072493
0001c0 52 a8 29 3d 68 8d 83 bd 85 ff 6b 3c 69 a6 1a bd
       0.04142029 -0.064234555 0.014404182 -0.037756357
0001d0 0c 64 65 bd 59 63 07 bd ca da bb bd c3 2d fb bd
       -0.056003615 -0.03305373 -0.0917259 -0.12264588
0001e0 79 6d f8 bb ad 60 ce bd d5 d8 97 3d 13 b5 bc bd
       -0.0075814095 -0.10077033 0.07414404 -0.09214225
0001f0 6a 0c 23 be 28 ea 2b 3e d7 31 d4 3d 7b a9 dd bd
       -0.15922704 0.16788542 0.10361069 -0.108233415

fc2.weight f4 [128, 128]
000000 87 80 fc bc 69 8c 2b bd db e3 63 bc 99 fd a2 3d
       -0.030823005 -0.041881952 -0.013909305 0.07958526
000010 ee fb 02 3e 60 aa 16 3e 1d 4b c1 bb 47 04 c1 3d
       0.12791416 0.1471343 -0.005898847 0.09424644
000020 24 54 57 bc 98 45 91 3d e8 76 46 3d 67 f7 07 3e
       -0.013142619 0.07093352 0.04845324 0.1327797
000030 63 be 29 bd f7 d0 d7 3d 92 cb ed 3d ec f7 95 3d
       -0.041441333 0.10537904 0.116110936 0.07322678
000040 2a 01 f8 3d 96 af b5 3b 28 4c 04 3e 8b 40 cf 3d
       0.12109597 0.005544613 0.12919676 0.101197325
000050 a0 bc 14 bd be a9 76 3d 7a 22 0a 3d 0b 88 1c 3d
       -0.0363127 0.060220473 0.033724286 0.03821568
000060 0a 75 77 3d ae 2e 4a 3d 66 23 ae 3d 40 7d c2 3d
       0.06041435 0.049360923 0.085028455 0.09496546
000070 44 ef d6 bc b6 33 d9 3d aa 85 e8 3d d9 3e 0d 3d
       -0.026237138 0.10605566 0.113536194 0.034483764
000080 f7 ec 05 3e e4 fa ca 3d ca 52 ae bd b7 f4 52 3c
       0.13078676 0.09911135 -0.085118845 0.012875727
000090 da 83 1a 3d de ee 8b 3c 9c 7d c8 3d 94 56 40 3c
       0.0377234 0.017081674 0.09789583 0.011739392
0000a0 32 7d 9b bd 6c 04 ad bc c6 10 b2 bc a8 9b bb 3c
       -0.075922385 -0.021120273 -0.021736514 0.022901371
0000b0 25 2f 95 3d 64 4c 87 3d 2f f4 92 3a 66 8e 68 bd
       0.07284383 0.06606367 0.0011211688 -0.056776427
0000c0 d0 53 da bb 47 2b c2 3d de ac 60 bd 7f 4e af 3d
       -0.0066628233 0.09480911 -0.05485236 0.08559894
0000d0 00 a8 f7 bb a5 67 b0 bc 79 63 8a 3d a1 e9 84 bc
       -0.007557869 -0.021533797 0.06757254 -0.016224684
0000e0 1c 9e 94 3d 00 9f 2f 3d ae b8 37 b9 c1 60 49 bd
       0.072567195 0.042876244 -0.00017521039 -0.049164537
0000f0 be cc ce 3d 8b ac 2c 3d 33 03 e2 bb 83 cd 07 3d
       0.10097645 0.042156737 -0.006897354 0.033154976
000100 06 4d 97 bd 89 24 50 3c c2 ce 75 bc fe 36 78 3d
       -0.07387738 0.012704023 -0.015002908 0.06059932
000110 64 d9 2d 3d b4 b4 49 3d b5 aa b2 3d 08 03 b5 3d
       0.042443648 0.049244598 0.08723966 0.08838469
000120 e0 18 59 bd 74 11 fb 3d 31 d0 07 3d ac f8 11 3c
       -0.05300224 0.12259188 0.03315753 0.008909386
000130 7b bd c0 3c de d2 b1 3d 8f 9f c0 bc d3 df c3 3c
       0.023527851 0.08682798 -0.023513583 0.023910439
000140 59 d6 6b 3d 49 32 a3 3b c7 ab dd 3d 8d 77 71 3d
       0.057577465 0.0049803597 0.108237796 0.058951903
000150 91 03 22 3d 2b 04 83 3c 5c 10 b4 39 42 1a b3 bc
       0.039554182 0.015993198 0.00034344464 -0.021863107
000160 ca b8 35 3d 24 7b 84 3d 26 aa f0 3d 25 3a e8 3d
       0.04436568 0.064688 0.11751203 0.11339215
000170 e5 fc b3 ba 3d 12 6a bd d6 97 63 3d c6 5d 2f 3c
       -0.0013731985 -0.0571463 0.055564724 0.01070351
000180 27 20 01 3e 06 46 08 3c 37 dd 78 3d db 63 91 3d
       0.12609921 0.008317476 0.060757842 0.07099124
000190 66 ba 61 3d 21 d3 f1 bc 65 25 c7 3c f8 c8 48 3d
       0.055109404 -0.02951962 0.024309823 0.049019784
0001a0 82 de e0 3d 1d c1 f7 3c 25 4f 09 3d a6 eb b2 3c
       0.1097994 0.03024345 0.033522744 0.021840882
0001b0 89 48 28 bd 4c 7f db bc c1 f0 d3 3c bd a0 37 3d
       -0.0410848 -0.026794098 0.025871636 0.044831026
0001c0 03 fd 12 3d 79 9e a5 3d 31 e5 c3 3d d3 3e e7 bc
       0.035885822 0.08086867 0.09565199 -0.0282282
0001d0 e7 e8 28 bc f0 39 d9 bc 93 e0 3f bc 66 1f 57 3d
       -0.0103094345 -0.026516885 -0.0117112575 0.05252018
0001e0 81 0f 55 bd 62 94 be bb 25 3b b7 3d 78 ea 27 bd
       -0.05201674 -0.0058160285 0.08946828 -0.04099509
0001f0 ff 3f 24 bd e3 39 81 3c 73 1f 06 3e 50 57 d0 bc
       -0.040100094 0.015774673 0.13097934 -0.025432259
000200 0f 1e aa bc da a0 76 3d 04 55 49 3c e4 b4 64 bd
       -0.020766286 0.060211994 0.012288336 -0.055836573
000210 97 70 b6 3d 77 00 86 bc 4c 71 eb 3d 84 e1 6f 3d
       0.089081936 -0.016357644 0.11496219 0.058564678
000220 60 5c b9 3d 7b 37 dc 3d 45 88 2f 3d 69 fc e7 bd
       0.09050822 0.107527696 0.042854566 -0.1132744
000230 56 21 4b 3d 8f 8f 54 3d 60 a4 84 3c 59 46 b1 3d
       0.04959234 0.05189472 0.016191661 0.08655996
000240 1d 44 21 3d 18 9a 4e 3d 2a 8c d0 3c 60 04 c9 3d
       0.0393716 0.050439924 0.02545746 0.098152876
000250 3e 7d 38 3d 1c 24 9c 3b d0 6b e9 3d 3c bf 1a bd
       0.045041315 0.0047650468 0.11397517 -0.03778003
000260 09 80 0d bc dc 3e f2 3c c4 74 c5 3c 6c b4 94 3c
       -0.008636483 0.02957099 0.02410353 0.018152438
000270 db 7f 27 bd b5 c6 99 3c e9 50 c0 bd f3 85 72 3d
       -0.040893417 0.018771509 -0.093904324 0.059209775
000280 09 e9 80 bd 16 5c e7 3d 7a f0 2b 3b 2e ef 31 bd
       -0.06294448 0.11296861 0.0026235864 -0.04344099
000290 cb a8 ad 3d 05 45 15 3d d8 9e db 3d c4 5f f2 3d
       0.0847946 0.036442775 0.107236564 0.11834672
0002a0 03 b3 96 bd 0a 46 ac bd 84 b4 b4 bc 16 e8 26 3d
       -0.073583625 -0.084117964 -0.022058733 0.04074868
0002b0 02 b9 a7 bd ee 5f 72 3d 4f 57 50 3b 12 13 5f 3d
       -0.08189584 0.059173517 0.0031790321 0.054461546
0002c0 e2 7c a3 bd 50 e2 45 bc 63 01 88 bc 23 54 55 bd
       -0.07982804 -0.012077883 -0.016602224 -0.052082192
0002d0 c0 8f 89 bd 20 ac 2c bd ac b9 25 bc 68 f5 42 bd
       -0.06716871 -0.04215634 -0.010115068 -0.04759732
0002e0 9c 79 0b bd ee 7d 4d 3d 27 22 e8 bd 78 10 57 3d
       -0.034051523 0.050168924 -0.11334639 0.05250594
0002f0 66 c3 be 3d 42 aa 5f bb 41 45 15 3d ab 7c 7c bc
       0.09314613 -0.0034128581 0.036443 -0.015410583
000300 ed e5 4f 3b 4f db 7f 3d ac 9c 6d bd 8f 7d 51 3a
       0.003172274 0.06246501 -0.058010742 0.0007991427
000310 23 67 90 bd 7e f7 0c bd 96 d4 0e bc 5a 7d 20 3d
       -0.07050922 -0.034415714 -0.008717677 0.039182045
000320 7c e1 83 bc ff 70 05 3e ee 50 e2 3c d5 c0 f4 3b
       -0.01609873 0.13031386 0.02762648 0.0074692764
000330 bf d1 b9 3c a9 86 3a bd 74 21 81 3d 20 d9 e3 3c
       0.022683023 -0.04553858 0.06305209 0.027813494
000340 5a 9d 4e bd a7 89 d6 ba ed a5 9f 3c 3e 71 15 3d
       -0.05044303 -0.0016367928 0.0194883 0.03648495
000350 60 4e 94 bd e7 d3 15 bd 88 07 32 3d a8 10 47 3d
       -0.07241511 -0.03657904 0.043464214 0.04859987
000360 e6 af a2 bc e4 4b af 3c 96 70 9e bd 29 c3 b4 3d
       -0.019859266 0.021398492 -0.07736318 0.08826286
000370 da 0d 81 bd d3 e3 8c 3d 29 53 ef 3c 3f 5a 1e bd
       -0.0630147 0.068793915 0.029214459 -0.038660284
000380 3a a6 22 3c bc de 38 bc fe 54 0d 3d 73 17 91 3d
       0.009927327 -0.011283573 0.034504883 0.07084551
000390 6e 95 8d 3d 4c 29 0e 3c 12 40 5e 3d 0c 66 56 3d
       0.06913267 0.008676838 0.05426032 0.052343413
0003a0 2f ca fd ba 45 5a 0d bc 5a 20 38 bb 62 b6 16 3d
       -0.0019362624 -0.008627479 -0.0028095455 0.036795028
0003b0 57 e2 f0 3b 80 ef 06 3c 06 2b 85 3d 67 65 89 3c
       0.0073512006 0.008235812 0.06502347 0.016771985
0003c0 89 5f 4e ba 9b 36 30 3d dc 4e d9 bd 15 51 69 3c
       -0.0007872512 0.043020826 -0.10610744 0.014240523
0003d0 07 a9 82 bd db 9c a4 3c 04 a1 9c 3d 2a 46 77 bd
       -0.06379896 0.020094326 0.07647899 -0.060369648
0003e0 e4 60 5c bc 1e d0 d3 3d 0c f0 8e 3d 91 70 7e bc
       -0.013450835 0.103424296 0.06979379 -0.015529768
0003f0 84 3b c4 3c ad 6b 86 bc 45 72 9d bc ae 1f 1d 3a
       0.02395416 -0.016408766 -0.019219527 0.00059937953

fc2.bias f4 [128]
000000 20 10 b2 3d 34 2e 5c 3d 82 91 4a bd 04 c5 24 38
       0.08694482 0.053755 -0.049455173 3.9284132e-05
000010 49 a9 b0 3d 8b c8 80 bc df 8b 1b bd 4f bd f3 3c
       0.086260386 -0.015720626 -0.03797519 0.029753355
000020 75 be cf 3d 53 6b 17 3a 6f 37 8a bc 19 a6 a5 3d
       0.10143749 0.00057761854 -0.016872136 0.08088321
000030 70 7a 42 3d c7 92 08 3d 73 e2 c3 3d 59 5e c9 bb
       0.047480047 0.033343103 0.09564676 -0.0061452803
000040 bc fb a6 3a f0 cb cf 3c d6 f4 60 bd d1 59 0f bd
       0.0012739818 0.0253658 -0.054920994 -0.034997765
000050 e0 4f d0 3d 97 09 bc bb 9e 3c 5d 3d 2e b0 bf bc
       0.10171485 -0.005738448 0.054012887 -0.023399439
000060 67 ca da bc f4 85 15 bd 9d 7c 0a 3d 7b fb 30 3d
       -0.026707841 -0.0365047 0.033810247 0.04320858
000070 cd f1 11 bd 1d 90 51 bd 82 26 c2 3d 15 fa f6 3c
       -0.03563099 -0.051162828 0.09480001 0.030148545
000080 7e 33 ae bc 31 31 0c bd 90 2d 22 bd 6e 07 35 bd
       -0.021264788 -0.0342266 -0.039594233 -0.04419654
000090 00 58 c2 3d 7b d3 51 bd 57 5d 97 3b b6 82 31 bd
       0.09489441 -0.051227074 0.0046192813 -0.043337546
0000a0 19 69 52 3c af cd 29 bc e4 31 e0 3d 82 6c 9e 3d
       0.01284244 -0.01036398 0.10947016 0.0773554
0000b0 53 f1 49 bd 58 a2 19 bc 65 91 95 3d ab 0f 52 bd
       -0.04930241 -0.009377085 0.073031224 -0.051284473
0000c0 87 29 66 bd a9 6d 7e 3c 70 02 04 3d 55 70 15 bd
       -0.056191947 0.015529075 0.032228887 -0.03648408
0000d0 c1 4d 1e bc d9 2e 58 3d 14 b8 42 3d 15 8c 1b bd
       -0.009662093 0.052779052 0.04753883 -0.03797539
0000e0 8a af a0 3d 83 33 45 3c 94 dc 81 bd c1 af 5a 3d
       0.078459814 0.012036207 -0.063409 0.05339027
0000f0 f4 1a 0a bd db fd 33 3c af 13 68 bd 5a 3f 04 3d
       -0.03371711 0.010985817 -0.056659397 0.03228698
000100 aa e8 89 3c f4 b1 60 bb 57 f1 53 3b 06 0c 35 bd
       0.016834576 -0.0034285756 0.0032339895 -0.04420092
000110 e1 2a 24 3d a9 a5 5b bc 91 3f 34 bc 1f 8a b7 bd
       0.040079955 -0.013406196 -0.011001484 -0.089618914
000120 31 c1 a5 bd b7 ad 70 bd eb 78 5f 3d ce 8b b2 bd
       -0.08093489 -0.058759417 0.054558676 -0.08718072
000130 2b c7 ab bd 58 4d 1e bd c8 22 ef 3d 3d 67 68 bd
       -0.08387598 -0.03864798 0.11676556 -0.05673908
000140 07 e9 2d bd 06 d6 a8 bd e7 c7 de 3d 4a a8 2b bd
       -0.04245856 -0.08243947 0.10877972 -0.04190854
000150 87 6a 93 3d 63 71 85 3d 84 d3 b8 bd 80 01 b6 3c
       0.07198053 0.065157674 -0.090247184 0.022217512
000160 9c 47 a3 bd 8c 2c 4c 3a 4b f4 c6 3d 34 74 84 bc
       -0.07972643 0.00077886204 0.09714564 -0.016168691
000170 64 20 bb bd 6a a2 87 bd 51 52 28 bc a9 80 8c bd
       -0.091370374 -0.06622775 -0.010273532 -0.068604775
000180 b6 1f df 3d ea e7 e5 bc d2 a2 59 3d 60 eb ce bb
       0.1089472 -0.028064687 0.053133793 -0.00631468
000190 f5 3e 3d bd 00 48 47 3c 65 05 f4 3c 3d 8f 96 bd
       -0.04620262 0.012163162 0.029787729 -0.07351539
0001a0 5f 09 9f bd 6e 03 ff 3d bc 89 eb bb ba e8 60 3c
       -0.07765459 0.12451826 -0.00718805 0.013727361
0001b0 52 57 b9 3d c0 83 9d 3d ff 85 97 3a fd ea 2c 3d
       0.09049858 0.07691145 0.001156032 0.04221629
0001c0 dc 30 5f bc f9 47 90 bd 38 07 c4 bc 24 48 f7 3c
       -0.013622489 -0.07044978 -0.023929223 0.030185767
0001d0 f0 2d cf bc d3 70 0a bd 12 72 96 3d a5 f6 3a 3d
       -0.02529046 -0.033799004 0.07345976 0.045645375
0001e0 db fa 19 bd 16 af cf bb db cb e1 bc c7 f3 3f bd
       -0.03759275 -0.0063380105 -0.027563026 -0.046863344
0001f0 4e 18 ae 3d 61 df f6 bc f0 09 90 bd b0 fd 68 bd
       0.085007295 -0.030135812 -0.070331454 -0.05688256

fc3.weight f4 [5, 128]
000000 ea bf a1 3c 89 bf ab bd 43 9a 3b bd 8a a0 2d bd
       0.019744832 -0.08386142 -0.045801412 -0.04238943
000010 b2 d5 84 bd 63 b4 d2 3d 71 59 d6 3b a6 4e 4c bd
       -0.06486072 0.10288312 0.006541424 -0.049879692
000020 04 aa 2f 3d 14 7d 92 3d a9 1f a5 bd ee 70 61 3b
       0.04288675 0.07152763 -0.08062679 0.0034399587
000030 f4 39 86 bd 38 bb c0 3d 7b 35 10 3c 4e b9 73 bd
       -0.065540224 0.09410709 0.008801813 -0.059502892
000040 4c 07 bb 3d ff 86 46 bd c8 ce 75 bd 04 f6 a1 3c
       0.09132251 -0.048468586 -0.060011655 0.01977063
000050 15 46 11 3c 32 81 aa 3c 8c 6c 4e 3d 18 58 bf bd
       0.0088668065 0.020813558 0.050396487 -0.093429744
000060 21 a9 ad 3d 80 dd a3 3d 61 7c b3 3d 82 b7 62 3d
       0.084795244 0.08001232 0.08763958 0.055350788
000070 18 a4 59 bd 3a 60 17 3c 34 4f d9 3d c7 9a bf bc
       -0.053135008 0.009239251 0.1061081 -0.023389233
000080 b1 dc 70 bc a2 b4 d8 3c 6b 0a ca bc 40 7e 42 bc
       -0.014701054 0.02645332 -0.02466317 -0.011870921
000090 cf 1a 1a 3d 0b 14 9e bd bb c4 15 3d aa 8d ec 3d
       0.037623223 -0.07718667 0.03656457 0.11550458
0000a0 4b de 47 bc b2 d7 8f 3d 9d 13 ad 3d e6 8d 9b 3d
       -0.012198995 0.070235625 0.084510066 0.07595424
0000b0 55 f7 27 bd 2d 5c 07 bd ef 11 a4 bc 1d 39 37 bd
       -0.04100736 -0.03304689 -0.020028083 -0.0447322
0000c0 b8 79 34 bd a6 ce a3 3d 7a 5c 16 bd 99 04 56 3d
       -0.044061393 0.079983994 -0.036709286 0.05225048
0000d0 54 90 93 bd fc 27 3b bd ce 74 81 3d 23 23 b1 3d
       -0.07205263 -0.04569243 0.06321107 0.0864928
0000e0 fb db 4a 3d 42 ac af bd e0 c4 2c 3c 3d 9c 98 3d
       0.049526196 -0.085777774 0.0105449855 0.07451675
0000f0 c7 54 d9 bc d8 e3 ee bc 2f 07 d7 3a 6f 75 b5 3d
       -0.026529683 -0.029161379 0.0016405339 0.08860289
000100 4c 2c f8 3c a4 07 9e 3c 98 01 a9 3b 03 d3 60 bb
       0.03029456 0.019290753 0.0051576607 -0.003430546
000110 5b a8 d3 3d 65 cd aa 3c 98 c4 a0 bd 9f c3 9c bd
       0.10334846 0.020849893 -0.07849997 -0.07654499
000120 ae 12 b7 3c 06 c3 64 bd f4 6a bb bd 82 45 a8 bd
       0.022347774 -0.05585005 -0.09151259 -0.082163826
000130 ba 23 2a bd e2 07 5c bc fb b7 a5 3d cb 16 8b 3d
       -0.041537978 -0.013429614 0.08091732 0.06791457
000140 6f 3b 32 bc b0 8e 88 bd 7a e5 68 3d d3 6c d8 3d
       -0.010878428 -0.066678405 0.05685947 0.105676316
000150 e9 aa cf 3c 5e 04 84 bd df 31 74 bd 6c d2 19 3c
       0.025350051 -0.064461455 -0.059617873 0.009388547
000160 ef 68 16 3d 27 49 1b 3d f2 aa c6 bd a7 cd a6 3d
       0.036721166 0.03791156 -0.09700574 0.08144694
000170 dd a3 8c bd 40 62 1e bd 30 10 a7 3c 49 b8 8b 3c
       -0.06867192 -0.038667917 0.020393461 0.017055647
000180 c4 5c e4 3c c8 52 85 bd 26 97 e2 bb ec 8f f0 bb
       0.027876265 -0.0650993 -0.006914991 -0.0073413756
000190 36 63 47 bd 87 e9 9f bd 1e 4a 9b 3d f2 6f ab bd
       -0.0486786 -0.07808214 0.07582496 -0.08370961
0001a0 fa 2f 4f bd 50 e0 dd 3c f8 c4 46 3d 5b d3 3a 3d
       -0.050582863 0.0270845 0.048527688 0.04561172
0001b0 dc 33 a2 3d bd 20 02 3e a6 33 b6 bb bc 90 f0 3d
       0.07920048 0.12707801 -0.005560356 0.11746356
0001c0 51 d2 c1 bc 82 b9 68 bd bc 3c 88 bd 07 25 83 bd
       -0.023659857 -0.05681754 -0.06652209 -0.06403547
0001d0 11 8c ce 3c 60 6e a8 3d 9d 32 a4 3d ea e3 e1 3d
       0.025213273 0.08224177 0.08017466 0.11029799
0001e0 95 89 c9 bc 41 0b 04 3c b2 bc 34 bd c3 b3 5a bd
       -0.024601737 0.008059324 -0.044125266 -0.05339409
0001f0 98 0a a2 bd e5 82 56 bd c8 a3 8b bd 82 a8 91 bd
       -0.07912177 -0.052370925 -0.06818348 -0.071122184
000200 0e a6 18 3d ab 5d 82 3d 08 f0 43 3c 1e 4e 80 bd
       0.037267737 0.06365522 0.011959083 -0.062649
000210 e8 92 b6 3d 6d d6 3b bd 84 a4 3a 3d cb 7d eb 3d
       0.08914739 -0.04585879 0.04556705 0.114986025
000220 10 86 95 3c 16 b0 8b bd 60 4a b1 3d d6 01 d3 39
       0.018252403 -0.06820695 0.08656764 0.00040246424
000230 f7 89 5f 3c a8 7b 6a bd 80 98 ef 3c ca fb a4 3d
       0.013643733 -0.057246834 0.029247522 0.080558375
000240 b0 c1 b4 bd 4a 95 9d bd 04 e7 23 3d 48 10 20 bd
       -0.088260055 -0.0769449 0.040015236 -0.039078027
000250 f0 b3 d5 3d 4a 45 ad bc ad d2 93 3d e4 cd ee 3d
       0.10434711 -0.021151204 0.072179176 0.11660364
000260 0c be c8 3d 35 2f 8c 3d 0d e0 db 3d 44 c5 b5 3c
       0.098018736 0.068449415 0.10736094 0.02218879
000270 2e 23 f6 3c ae 10 75 bd ce 17 85 3d 50 ee 5d bd
       0.030046072 -0.05983036 0.06498681 -0.05418235
000280 c9 32 96 3d d3 40 ba 3d 2a 7e 56 3d 64 c4 ab 3d
       0.07333905 0.090943955 0.052366413 0.08387068
000290 b3 41 47 3c a2 8e 9d 3d 87 30 6a bd 01 ee 9c bd
       0.01216166 0.07693221 -0.057175186 -0.07662583
0002a0 41 34 8d bb cb a6 9a bc 7c 79 4f 3c 8e 6f 2b bd
       -0.0043092077 -0.018878361 0.0126632415 -0.041854434
0002b0 95 2a 24 bd 54 fa 98 3c fe 05 e9 3d 83 36 55 3c
       -0.040079672 0.018674053 0.11378096 0.013013485
0002c0 47 10 68 3d 77 4f d6 3d 48 80 63 3d ea a6 4d 3d
       0.05665615 0.104643755 0.05554226 0.05020801
0002d0 ee 20 81 bc eb 98 1d bd 97 d9 55 bd f9 a2 00 3d
       -0.015762772 -0.038475912 -0.052209463 0.031405423
0002e0 1c b1 ea 3d 27 bc bc bc 9c 13 a3 3c 09 fe ab 3d
       0.11459562 -0.023038937 0.019906811 0.08398063
0002f0 42 f1 33 3b 33 df 42 3d ee 80 3a bd 17 97 8d 3d
       0.0027457033 0.04757614 -0.045533113 0.06913584
000300 e8 f5 95 ba ae e8 b0 3d 73 68 96 3d 89 16 42 3d
       -0.0011441084 0.0863813 0.07344141 0.047384772
000310 32 0e 57 bd e6 f7 b5 bd 5b 74 b1 3a 88 e3 37 bd
       -0.052503772 -0.088851735 0.0013538705 -0.044894725
000320 94 c2 2e 3c aa 14 cd 3a 5f 9f c0 3d aa 73 30 bd
       0.010666508 0.0015646417 0.094053976 -0.043079056
000330 2b d5 1a bd d5 12 b9 bc 93 25 48 3d 02 44 3e bd
       -0.03780095 -0.022591988 0.04886396 -0.046451576
000340 53 d4 5c bd 45 72 03 bd 6a 5f e5 3c 29 6d 0f 3d
       -0.053913426 -0.032091398 0.027999599 0.035016213
000350 ca 9c b5 3c 77 03 08 3d fb c6 dc 3c 75 74 d0 3d
       0.02216949 0.03320643 0.02695035 0.101784624
000360 68 b1 57 bd ec ff 23 ba 1e 50 f7 3d 72 ca 04 3d
       -0.052659422 -0.0006256092 0.12075828 0.03241963
000370 ca fa 0b 3d 3d 9b 4c bd 0d 99 a2 3d ac f1 ae bd
       0.034174718 -0.049952734 0.07939348 -0.08542189
000380 7f f6 10 3d 66 a6 a7 3d 6b 35 9f 3d 8f 86 a9 bd
       0.035391327 0.08186035 0.077738605 -0.08277618
000390 da b6 a7 3a 23 06 af bc 70 a7 b7 3c 4a 91 d2 3c
       0.0012795583 -0.02136523 0.022418708 0.025704045
0003a0 65 2c b1 bd eb ff 2e 3c cc df 0f b9 32 95 10 bc
       -0.08651046 0.010681133 -0.00013720914 -0.008824633
0003b0 7d f3 a5 3d 3b 8d 5d bc 9c 8a 8b 3d 49 a3 95 bd
       0.08103082 -0.0135224415 0.06813547 -0.07306535
0003c0 35 36 23 bd d5 b3 8c 3c 1d 3f 89 3d 34 a2 47 bd
       -0.039846618 0.017175594 0.06701491 -0.048738673
0003d0 79 b9 31 3d 1c 8a a2 3d ee b0 25 bc a0 ae 39 bd
       0.04338977 0.079364985 -0.010112984 -0.04533255
0003e0 4a a7 2d 3d 71 fc d4 3b 2f 94 9f bd 29 83 ba 3c
       0.042395867 0.00649982 -0.07791936 0.02276762
0003f0 e1 82 94 bc a6 bc c5 bc 7a b9 f5 bc dc 97 02 3c
       -0.018128814 -0.024137806 -0.029995669 0.007970776

fc3.bias f4 [5]
000000 fc 5b 0b 3c 64 99 db 3d ca d4 17 bd ff 89 f3 3c
       0.0085058175 0.10722616 -0.037068166 0.029728888
000010 29 2e 01 bc
       -0.007884541
