CC_Reinforce_version_3_copy/materails/state_dict_model_v12.pt (torch, 84159 bytes, 6 tensors)

fc1.weight f4 [128, 25]
0	0x3e0a142d	0.13484259
1	0x3ddc1b6e	0.10747419
2	0x3dd28640	0.102795124
3	0x3e137bb2	0.14402655
4	0x3def43a8	0.11682826
5	0x3d277487	0.040882614
6	0xbd07cc17	-0.03315362
7	0x3cbdb933	0.023159599
8	0xbdcd2531	-0.10016859
9	0xbd8e630d	-0.06952486
10	0xbdda3107	-0.106538825
11	0xbc729564	-0.014806125
12	0xbdcae5ee	-0.09907137
13	0x3dfac754	0.1224505
14	0xbe0442f9	-0.12916173
15	0x3e0ab211	0.1354449
16	0x3d4b6911	0.049660746
17	0xbe5aa0f2	-0.21350458
18	0xbe27babe	-0.1637983
19	0x3c2c03a7	0.010498918
20	0xbdb79dc5	-0.08965639
21	0x3dc5c3ae	0.096564636
22	0x3dd855bf	0.1056323
23	0x3e1293b4	0.14314157
24	0xbdd4c45d	-0.10389016
25	0x3dfe22ef	0.12409007
26	0x3e2a541d	0.16633649
27	0xbbdf44b3	-0.0068136095
28	0xbbc3af96	-0.005971859
29	0xbda6d646	-0.08146338
30	0x3e51959d	0.20467229
31	0x3d560805	0.05225374
32	0x3c8460d3	0.01615945
33	0x3d680003	0.056640636
34	0xbdee8abf	-0.116475575
35	0x3e0e4510	0.13893533
36	0x3d9c821f	0.07642006
37	0x3e049213	0.12946348
38	0x3e13adad	0.14421721
39	0x3dd153c4	0.10221055
40	0x3dcb460b	0.09925469
41	0x3cbdc5e1	0.023165645
42	0x3d01c0da	0.03167806
43	0x3c90c7bf	0.017673371
44	0xbd69ffbe	-0.05712866
45	0x3e4dd2a5	0.20099886
46	0x3d957862	0.07298352
47	0xbdfe9f29	-0.12432701
48	0x3d7abb40	0.06121373
49	0xbd3583d0	-0.04431516
50	0x3d9ed472	0.077553645
51	0xbe4a14a0	-0.1973443
52	0x3d2fd5cc	0.042928502
53	0x39025800	0.00012430549
54	0xbe330d37	-0.1748551
55	0x3ddec27e	0.1087694
56	0xbdf9cb7d	-0.121970154
57	0x3d8242be	0.06360386
58	0xbcc74710	-0.024325877
59	0xbe4c4a42	-0.19950202
60	0xbe3bb2b2	-0.18329886
61	0xbe28712d	-0.16449423
62	0xb9cd3600	-0.0003914088
63	0x3d8b28d6	0.06794898
64	0xbe4283bb	-0.18995564
65	0xbdb4d5c7	-0.08829837
66	0xbe1e433e	-0.15455338
67	0xbe4a7e30	-0.19774699
68	0x3e4235e9	0.18965878
69	0xbdc18c23	-0.09450557
70	0x3c212720	0.009835988
71	0x3e09fe57	0.13475929
72	0x3e1f2fb9	0.15545548
73	0xbda0e98a	-0.07857044
74	0xbe288dfe	-0.16460416
75	0xbdeec3e3	-0.11658456
76	0x3dd7e9a2	0.10542609
77	0xbcccfdf0	-0.02502343
78	0xbdcf6990	-0.10127556
79	0x3d716c24	0.05894102
80	0x3e10ef0b	0.14153688
81	0xbdb34b90	-0.08754647
82	0xbe433a4a	-0.19065204
83	0xbddf2e2a	-0.10897477
84	0x3e2fed6f	0.17180417
85	0xbe4b6ca7	-0.19865666
86	0xbd8e4a2c	-0.06947741
87	0x3d244fac	0.040115044
88	0xbe0625dd	-0.13100381
89	0x3da79206	0.08182149
90	0xbdbc8dcd	-0.09206734
91	0xbd501a18	-0.050806135
92	0x3e47ad89	0.19499792
93	0xbd35044c	-0.04419355
94	0x3e266799	0.16250457
95	0xbe2a3ede	-0.16625544
96	0x3c4b3e30	0.012404963
97	0x3d828676	0.06373303
98	0x3e3cc8a9	0.18435921
99	0x3e33dc11	0.17564417
100	0xbe50b6a8	-0.20382178
101	0x3e31d36d	0.17365809
102	0xbd5eb5a4	-0.054372445
103	0x3d006d7f	0.031354424
104	0xba58ee89	-0.00082752906
105	0xbbb42fe5	-0.0054988735
106	0xbcc308b2	-0.023807857
107	0xbe239ba5	-0.15977342
108	0xbe06c2e1	-0.13160278
109	0xbda52127	-0.08062964
110	0x3ce21255	0.027596632
111	0x3e2821ad	0.16419096
112	0x3dc018e9	0.09379751
113	0xbe2b0818	-0.16702306
114	0x3e431124	0.19049507
115	0xbd8c759c	-0.0685837
116	0x3c3c90cd	0.011509133
117	0xbe207333	-0.15668945
118	0xbe314360	-0.17310858
119	0x3b800504	0.003906848
120	0xbe469abe	-0.19394967
121	0x3dc96c85	0.098351516
122	0xbe1b2575	-0.15151007
123	0xbd04815f	-0.03234994
124	0xbdd5d08f	-0.1044017
125	0x3e0f13d0	0.13972402
126	0x3d9c2aa6	0.07625322
127	0x3e3afeed	0.18261309
128	0xbdcbcd15	-0.09951226
129	0x3de6860f	0.112560384
130	0xbde1bf56	-0.110228226
131	0x3c20d96e	0.009817464
132	0x3c365cae	0.011130495
133	0x3dddacc6	0.108239695
134	0x3da44cc6	0.08022456
135	0xbd345ba6	-0.044032715
136	0x3de2fb99	0.11083145
137	0x3bc0ac25	0.005879896
138	0x3e3b10a5	0.18268068
139	0xbe028a50	-0.12748075
140	0x3e4523ff	0.19252013
141	0xbd82b965	-0.063830175
142	0x3dcef049	0.101044245
143	0x3ab5aa34	0.0013859929
144	0x3d4431dd	0.047899116
145	0x3e4881e3	0.19580798
146	0xbdfa9393	-0.12235179
147	0x3e238713	0.15969495
148	0xbd88b814	-0.06675735
149	0xbe1f1869	-0.15536655
150	0xbdcaff83	-0.09912016
151	0x3e58fcad	0.21190138
152	0x3e715ffa	0.23571768
153	0x3e69c50a	0.2282907
154	0x3e1be9d7	0.15225922
155	0x3e1ede3b	0.15514462
156	0x3d9677d7	0.073470764
157	0x3bb52eb5	0.0055292496
158	0xbda8c072	-0.08239831
159	0x3de2eb3f	0.11080026
160	0x3db5a30b	0.088689886
161	0x3e77976b	0.24178855
162	0xbda26cc1	-0.079308994
163	0xbd222089	-0.03958181
164	0xbde3b108	-0.111177504
165	0xbd8f4f77	-0.069975786
166	0x3dc06318	0.09393901
167	0xbe2d59bf	-0.16928767
168	0xbe32ff65	-0.17480238
169	0x3e2d593e	0.16928574
170	0x3de36905	0.11104015
171	0xbced13b7	-0.028940065
172	0x3cc29293	0.023751533
173	0x3e11af77	0.14227091
174	0xbe32b9fa	-0.17453757
175	0xbd01297f	-0.031533714
176	0x3de2ef7b	0.110808335
177	0xbe027b69	-0.1274239
178	0x3d4e76b3	0.05040617
179	0x3e06e493	0.13173132
180	0x3c84b578	0.016199812
181	0x3e79b78a	0.24386421
182	0x3dd8efc6	0.10592608
183	0xbe32c73a	-0.17458811
184	0xbe4d94bc	-0.20076269
185	0x3db36813	0.08760085
186	0x3d7175b5	0.058950145
187	0x3d7e2c2b	0.06205384
188	0xbc12e071	-0.008964644
189	0xbde07243	-0.10959294
190	0x3d35eb43	0.044413816
191	0x3e3845ce	0.17995378
192	0xbaac245a	-0.0013133392
193	0x3e40e067	0.18835603
194	0x3e00c808	0.12576306
195	0xbdd3bdd7	-0.103389435
196	0x3e4f32eb	0.20234267
197	0x3d131de3	0.035917174
198	0xbe02efea	-0.12786832
199	0x3e10e63c	0.14150327
200	0xbdf67497	-0.120339565
201	0xbe4902ca	-0.1962997
202	0x3dfdfaea	0.12401374
203	0xbd7be358	-0.06149611
204	0x3e278ec3	0.16363053
205	0xbd98b2dc	-0.0745599
206	0xbda2d5ea	-0.07950957
207	0xbda8bd20	-0.08239198
208	0x3d2a4e94	0.041578844
209	0x3b224340	0.0024759322
210	0xbddc3980	-0.10753155
211	0xbe3dffff	-0.18554686
212	0xbc5bd560	-0.013417572
213	0xbd8b42f6	-0.06799881
214	0xbda89037	-0.08230632
215	0x3cbd6f90	0.023124486
216	0xbd277274	-0.040880635
217	0xbd8d2f36	-0.068937704
218	0xbe140f76	-0.14459023
219	0xbe29be56	-0.16576514
220	0xbda19ff7	-0.07891839
221	0xbd44e8f8	-0.04807374
222	0x3dff3b82	0.12462522
223	0x3e1de1d9	0.15418185
224	0xbd0104c8	-0.0314987
225	0x3d2f0eb4	0.04273863
226	0x3e063769	0.13107075
227	0x3d1e08ec	0.038582727
228	0x3e363b4b	0.17796056
229	0xbd0e1f2c	-0.034697697
230	0xbe13385b	-0.14376967
231	0xbd197dc0	-0.03747344
232	0x3d5b03e4	0.053470507
233	0x3e450631	0.19240643
234	0x3d8095d2	0.06278576
235	0xbc7d1f60	-0.015449375
236	0xbd9bbab7	-0.076039724
237	0xbd349e08	-0.044096023
238	0xbd63a7f4	-0.055580094
239	0x3db7d2ce	0.08975755
240	0xbd8468a0	-0.06465268
241	0xbdc20fe3	-0.094756864
242	0x3e27df2d	0.16393729
243	0x3d9b5096	0.0758373
244	0xbd6eb06c	-0.058273718
245	0x3d0dd5d8	0.034627765
246	0xbe0d90ae	-0.13824722
247	0xbe02c534	-0.1277054
248	0xbdf2829d	-0.11841319
249	0xbd4eb738	-0.0504677
250	0xb9e6c4d5	-0.0004401567
251	0xbe4090bb	-0.1880521
252	0xbd441e99	-0.047880743
253	0x3e368dac	0.17827481
254	0xbdf0e1cc	-0.11761817
255	0x3d85a5e4	0.06525782

fc1.bias f4 [128]
0	0x3d8a49bc	0.06752345
1	0x3e0d910f	0.13824867
2	0x3d2e2a98	0.04252109
3	0xbe1f2495	-0.15541299
4	0xbd57c256	-0.052675568
5	0x3e55fa37	0.2089623
6	0x3e08c5df	0.13356732
7	0x3e5b8d07	0.21440516
8	0xbe18a252	-0.1490567
9	0xbe2fce2d	-0.17168494
10	0xbe2ae047	-0.16687118
11	0x3dd29b24	0.10283497
12	0x3e7da19a	0.24768677
13	0xbe27f3cc	-0.16401595
14	0x3df27a46	0.11839728
15	0x3e606ae9	0.21915783
16	0x3e7001a5	0.23438127
17	0xbd94a856	-0.0725867
18	0x3a1113f1	0.00055342825
19	0x3d89cd66	0.0672863
20	0xbdc8b3c0	-0.097999096
21	0x3dfcbaba	0.12340303
22	0x3e442488	0.1915456
23	0x3e0c6ae8	0.13712656
24	0xbd4aa4e4	-0.04947366
25	0xbd1c0a15	-0.038095552
26	0xbe073ee0	-0.13207579
27	0x387e9488	6.069665e-05
28	0x3d9f5176	0.07779209
29	0x3e49e4f6	0.19716248
30	0xbe089395	-0.13337548
31	0x3cfd0da6	0.030890297
32	0x3d2898bb	0.04116128
33	0xbe4bc4b2	-0.19899252
34	0xbd874237	-0.06604426
35	0x3e340fe3	0.17584185
36	0x3da74a3e	0.081684574
37	0x3c73475a	0.0148485545
38	0xbe0b2c35	-0.13591082
39	0x3e2e293e	0.1700792
40	0x3c4ea67f	0.012612938
41	0xbdc1f6e0	-0.09470916
42	0x3d496c3d	0.04917549
43	0x3dc0195f	0.09379839
44	0xbdd73a36	-0.1050915
45	0xbd32906a	-0.043594755
46	0xbdbfe67f	-0.093701355
47	0x3e461f87	0.19347964
48	0x3e104493	0.14088659
49	0x3e0a7a6a	0.1352326
50	0x3dcf5cae	0.10125099
51	0x3d704029	0.058654938
52	0xbab450b7	-0.0013756965
53	0x3dfc453c	0.12317893
54	0x3e052f31	0.13006283
55	0xbc54cc19	-0.012988114
56	0x3e020837	0.12698446
57	0xbcde061f	-0.027102528
58	0x3caa0bdc	0.020757608
59	0x3d707359	0.058703754
60	0x3d23738d	0.03990512
61	0x3deeff96	0.11669843
62	0xbdd3cfc0	-0.103423595
63	0x3dfcaeda	0.12338038
64	0xbd48e073	-0.049042176
65	0x3e3f2541	0.18666555
66	0x3e13e653	0.1444333
67	0x3d84261f	0.064525835
68	0xbd973686	-0.073834464
69	0x3d0a8798	0.03382072
70	0x3e065bab	0.13120906
71	0x3e45cb46	0.19315824
72	0x3dc24359	0.09485502
73	0xbe3ff78f	-0.1874678
74	0xbdba4e15	-0.09096924
75	0xbe32300f	-0.17401145
76	0xbda6690a	-0.08125503
77	0x3e618a90	0.22025514
78	0xbdd3138f	-0.10306465
79	0x3d9ca79e	0.07649158
80	0x3c92a6b5	0.017901758
81	0xbde3c677	-0.111218385
82	0x3d3f25b8	0.04666683
83	0x3e5f600a	0.2181398
84	0x3d6fe6b5	0.05856963
85	0x3d664cf8	0.056225747
86	0xbe0256d9	-0.12728442
87	0x3e79f26d	0.24408884
88	0xbcae4218	-0.02127175
89	0x3e23cc59	0.15995921
90	0xbd21dbcc	-0.039516255
91	0xbe130571	-0.14357544
92	0x3df7430c	0.12073335
93	0x3e508c38	0.20365989
94	0xbd365c40	-0.04452157
95	0x3e50faec	0.20408219
96	0x3e2bebcb	0.16789167
97	0x3cc9e0ff	0.02464342
98	0x3dbecb84	0.09316161
99	0xbc78b428	-0.015179671
100	0xbdbdc67d	-0.09266374
101	0x3c573ab6	0.013136556
102	0xbc39f85f	-0.01135072
103	0x3d9095f1	0.07059849
104	0xbd884f0d	-0.06655703
105	0xbda9b9a3	-0.082873605
106	0x3d74f668	0.059805304
107	0xbe4af652	-0.19820526
108	0xbe49e3dd	-0.19715829
109	0xbdf20290	-0.11816895
110	0xbd674c00	-0.056468964
111	0xbe52bdfd	-0.20580287
112	0xbcdb1901	-0.026745321
113	0xbb3b9e9d	-0.0028628476
114	0xbe4be0e0	-0.19910002
115	0xbd1ffd78	-0.039060086
116	0x3e1e6fa4	0.15472275
117	0x3ded9997	0.116015606
118	0xbdec3ff6	-0.11535637
119	0x3dfcf125	0.12350682
120	0x3d32d920	0.043664098
121	0x3cadae90	0.021201402
122	0x3e293a66	0.16526183
123	0x3e737341	0.23774435
124	0xbd95d4c2	-0.07315971
125	0xbdfd729f	-0.12375378
126	0x3e3d505b	0.18487684
127	0x3d441db3	0.047879886

fc2.weight f4 [128, 128]
0	0xbd08ac65	-0.033367533
1	0xbd2610c6	-0.04054334
2	0xbd90e00e	-0.07073985
3	0x3d561fae	0.052276306
4	0x3d6bbeaa	0.05755488
5	0x3d488ede	0.048964374
6	0xbd78a259	-0.0607017
7	0xbcafac30	-0.02144441
8	0xbd3aad26	-0.045575283
9	0xbd10941d	-0.0352975
10	0x3ccf2db8	0.025290355
11	0xbd8f33ec	-0.06992325
12	0x3bedde60	0.007259175
13	0xbd81e290	-0.063420415
14	0x3d1ecea2	0.03877128
15	0xbcbcdb18	-0.02305369
16	0xbd0fd660	-0.035116553
17	0x3d63ed62	0.055646308
18	0x3d8bffb7	0.06835883
19	0x3cb039ec	0.021511994
20	0xbd12ba4f	-0.03582221
21	0x3d23839a	0.039920427
22	0xb8b1d800	-8.480251e-05
23	0x3d230466	0.039799117
24	0x3bdd67a0	0.006756738
25	0xbd0408b0	-0.032234848
26	0xbdab51b9	-0.08365197
27	0x3d3520f6	0.044220887
28	0x3d341c26	0.043972157
29	0x3d8efe8d	0.069821455
30	0x3d70adc2	0.05875946
31	0x3d87c2cd	0.06628952
32	0x3d84ecf5	0.064905085
33	0xbce2379a	-0.027614404
34	0x3d1b9686	0.037985347
35	0xbae2d280	-0.0017305166
36	0x3c7d3400	0.015454292
37	0xbd679dad	-0.056546856
38	0x3d1327d0	0.03592664
39	0xbd6628bb	-0.056191187
40	0x3c92694c	0.017872475
41	0xbc86aa60	-0.016438663
42	0x3b93df40	0.0045126975
43	0x3daec69b	0.08533975
44	0xbd9bf240	-0.07614565
45	0xbd2a6a66	-0.041605376
46	0xbd08a23e	-0.03335785
47	0xbd5be75e	-0.053687446
48	0xbda4c410	-0.080452085
49	0x3d8ee399	0.069770046
50	0xbd636466	-0.05551567
51	0xbc3e7778	-0.011625163
52	0x3c352ea0	0.01105848
53	0x3d2f0afa	0.042735077
54	0x3da0c6af	0.07850396
55	0x3d31310a	0.043259658
56	0x3d9c0021	0.07617212
57	0x3ab11240	0.0013509467
58	0xbdadb309	-0.08481414
59	0xbb872400	-0.0041241646
60	0x3cdc5dc8	0.026900187
61	0x3c1c9678	0.009557359
62	0xbcc749ac	-0.024327122
63	0x3c3fedf8	0.011714451
64	0x3cb52ca8	0.02211602
65	0xbdac42b4	-0.0841116
66	0xbd8b8d4c	-0.068140596
67	0xbd8b93a4	-0.068152696
68	0x3d6d16c2	0.05788303
69	0xbd635877	-0.05550429
70	0xbdad3b57	-0.08458584
71	0x3d47221e	0.04861652
72	0xbd0a0291	-0.033693854
73	0xbc65ff10	-0.014037862
74	0x3d7acf7a	0.06123302
75	0x3d8f78f5	0.070054926
76	0xbcee93b0	-0.029123157
77	0xbd21fcf6	-0.039547883
78	0x3b8d14e0	0.004305467
79	0x3dac61f9	0.08417124
80	0x3c515b40	0.012778103
81	0xbd5b18bd	-0.05349039
82	0x3d8cf401	0.068824776
83	0xbda0ed4a	-0.07857759
84	0x3d544262	0.05182112
85	0x3c0c32a0	0.008556992
86	0xbd9bb728	-0.07603294
87	0x3c60c928	0.013719834
88	0xbdb000fb	-0.08593937
89	0x3caf8504	0.021425731
90	0xbd12d4db	-0.035847526
91	0x3d69b3ea	0.057056345
92	0x3d7a1196	0.061051928
93	0x3c59d8d0	0.013296321
94	0x3d7a41fa	0.061098076
95	0xbd6c44bb	-0.057682734
96	0xbdb063a8	-0.08612758
97	0xbcf9265c	-0.030413799
98	0xbdb35c85	-0.08757881
99	0x3cc86098	0.024460122
100	0x3da3bbc7	0.079948
101	0x3c03e140	0.008049309
102	0x3d3bb002	0.04582215
103	0x3da760c9	0.08172757
104	0xbd4a4dc8	-0.049390584
105	0xbd4a78c0	-0.049431562
106	0x3c5a1c90	0.013312474
107	0xbd0b1aa0	-0.03396094
108	0xbc7e8e60	-0.0155368745
109	0x3bf6caf0	0.0075315163
110	0xbda3bd95	-0.07995144
111	0x3d1eeffe	0.038803093
112	0xbd88044a	-0.06641443
113	0xbd944cb2	-0.07241191
114	0xbd80f5f8	-0.06296915
115	0xbd9b9f7a	-0.07598777
116	0x3d6c7b3a	0.057734706
117	0xbd77acee	-0.060467653
118	0x3d6c0b0e	0.05762773
119	0x3bedac70	0.007253222
120	0x3a045380	0.0005047843
121	0xbdab8537	-0.08375018
122	0xbd11b09a	-0.03556881
123	0x39525e00	0.00020062178
124	0x3d3cf206	0.04612925
125	0x3d9ef8ab	0.077622734
126	0xbd43b128	-0.04777637
127	0x3da92c3f	0.082603924
128	0x3e95a9f3	0.29231223
129	0x3e4fb923	0.20285468
130	0xbc873400	-0.016504288
131	0xbdb10668	-0.086438
132	0xbd4dcefa	-0.050246216
133	0x3e557f64	0.20849377
134	0x3e5d28d5	0.21597607
135	0x3e6c1182	0.23053554
136	0x3d1a26aa	0.03763453
137	0x3d8a84e9	0.06763632
138	0x3dd76701	0.10517693
139	0x3e8b2c68	0.27182317
140	0x3e867805	0.26263443
141	0xbd7fb0cc	-0.062424466
142	0x3e63f05d	0.2225966
143	0x3e3387a6	0.17532215
144	0x3e879fdf	0.2648916
145	0x3e2f4f6c	0.17120141
146	0x3e0028d0	0.12515569
147	0xbcd5e88f	-0.02611187
148	0xbccac8ec	-0.02475401
149	0xbd4b8b9d	-0.049693692
150	0x3e584cb6	0.21123013
151	0x3e3d1829	0.18466248
152	0xbc028b98	-0.007967852
153	0x3e725bab	0.23667781
154	0xbd36da04	-0.04464151
155	0x3e5acaa7	0.21366368
156	0xbc61d478	-0.013783567
157	0x3e9f7cac	0.31149805
158	0x3cd35fdc	0.025802545
159	0x3e152b30	0.14567256
160	0x3e5ab771	0.2135904
161	0x3b4f1940	0.0031600744
162	0x3e88e924	0.26740372
163	0x3e7e8d4c	0.24858588
164	0x39d26000	0.00040125847
165	0x3e0f187a	0.13974181
166	0xbdb0a05b	-0.086243354
167	0x3d193bd1	0.03741056
168	0x3e10c129	0.14136185
169	0x3d1bb4ea	0.03801433
170	0x3e9b8892	0.30377632
171	0x3e19c63e	0.1501703
172	0x3e89df07	0.2692797
173	0x3dfb94f2	0.122842684
174	0x3df59b85	0.119925536
175	0x3e2e67b9	0.17031755
176	0x3e949b8b	0.2902492
177	0x3e9df11d	0.30848017
178	0x3d4a792a	0.049431957
179	0x3e889548	0.26676393
180	0x3e24f492	0.16108921
181	0x3d8c4d17	0.06850641
182	0x3e841f2f	0.2580504
183	0x3e140257	0.14454018
184	0x3e60e09b	0.2196068
185	0x3a4db491	0.0007847036
186	0x3d070495	0.032963354
187	0x3e1f0c7e	0.15532109
188	0x3e8b236d	0.27175465
189	0x3e80438c	0.25051534
190	0x3daf06d9	0.08546228
191	0x3e4ecd28	0.20195448
192	0x3e527138	0.20551002
193	0x3e1cd69a	0.15316239
194	0x3e68da9a	0.2273964
195	0x3e68c32f	0.22730707
196	0xbd10de97	-0.03536853
197	0x3e4fd568	0.20296252
198	0xbd6d3830	-0.057914913
199	0x3dcc41e4	0.09973505
200	0x3e85a3c8	0.26101518
201	0xbbc1df60	-0.005916521
202	0xbd0c8fa6	-0.03431668
203	0x3e0d78e6	0.1381565
204	0xbcd827d6	-0.026386183
205	0x3e84ba08	0.2592318
206	0x3c51ef70	0.012813434
207	0x3e777558	0.24165857
208	0x3e7a5cc8	0.24449456
209	0x3df2c854	0.11854616
210	0x3d17bcd6	0.037045322
211	0x3e9b7ed8	0.30370212
212	0x3e4bc299	0.19898452
213	0xbcf9049e	-0.03039771
214	0xbcd62858	-0.026142284
215	0x3e24051e	0.16017577
216	0xbd93aa29	-0.0721019
217	0x3e942953	0.28937778
218	0xbd23093e	-0.039803736
219	0x3c2922fb	0.010323281
220	0x3e707bf8	0.2348479
221	0x3e134ef5	0.14385588
222	0xbd8d41f7	-0.068973474
223	0x3e06c65e	0.13161609
224	0x3e86f216	0.26356572
225	0x3e1012a8	0.14069617
226	0x3e8ab61f	0.27092072
227	0x3e810fc0	0.2520733
228	0xbd06ee03	-0.03294183
229	0x3e52f6ef	0.2060201
230	0x3da030c5	0.07821802
231	0x3e5d59d3	0.21616296
232	0x3e2f8b26	0.17142925
233	0xbcf5549a	-0.029947568
234	0xbd8871f2	-0.06662358
235	0xbc1b5d50	-0.009482697
236	0x3ce5c520	0.028048098
237	0xbd03860f	-0.03211027
238	0x3e920d66	0.28525847
239	0xbd8d1ba1	-0.068900354
240	0x3ddac36e	0.106818065
241	0x3e9bbffe	0.30419916
242	0xbdad2105	-0.084535636
243	0x3e734738	0.23757637
244	0x3d85b06f	0.06527793
245	0x3e8fd43b	0.28091606
246	0x3da6c3bb	0.081428014
247	0x3e63fa0b	0.22263353
248	0xba6e3a00	-0.0009087622
249	0xbbe93fa0	-0.0071181804
250	0x3e78523c	0.2425012
251	0x3e580367	0.21095048
252	0x3e801d0b	0.25022158
253	0x3e923a12	0.2855993
254	0x3e2793e6	0.16365013
255	0x3e82da05	0.2555696

fc2.bias f4 [128]
0	0xbc00a450	-0.007851675
1	0x3e2486d6	0.16067061
2	0xbd0b16f8	-0.03395745
3	0xbd49d415	-0.049274523
4	0xbd30c459	-0.043156
5	0xbd9edc01	-0.07756806
6	0x3c0d1f33	0.0086133955
7	0x3dc65832	0.09684791
8	0x3d3cfe92	0.046141215
9	0xbca2fd70	-0.019896239
10	0xbcb89ba1	-0.022535147
11	0x3c0f1c81	0.008734823
12	0xbcc8b706	-0.024501335
13	0xbc32565f	-0.01088485
14	0x3df2d46b	0.11856922
15	0xbd655ddc	-0.055997714
16	0xbcc22539	-0.02369939
17	0xbd2cc3c3	-0.04217888
18	0x3d80721b	0.06271764
19	0xbd068d8e	-0.03284984
20	0x3dae4d0d	0.0851079
21	0xbc569e53	-0.013099271
22	0x3d22ee28	0.039777905
23	0x3d5d80b2	0.05407781
24	0xbdc34126	-0.095339105
25	0xbda93eaa	-0.08263905
26	0x3dc8f3a1	0.098120935
27	0x3cc942e9	0.024568038
28	0x3c90f4ec	0.017694913
29	0x3d2960f3	0.041352224
30	0xbd022360	-0.031772017
31	0x3dea85f0	0.11451328
32	0x3d6bcc16	0.05756768
33	0xbc23e730	-0.01000385
34	0xbd79fdde	-0.061033122
35	0x3bd349f0	0.006448023
36	0x3d75bbbd	0.059993494
37	0xbd1bba57	-0.038019504
38	0x3d403898	0.046928972
39	0x3d2197a8	0.03945127
40	0xbc5dba30	-0.01353316
41	0x3dbbaa12	0.09163298
42	0xbdcd2ae3	-0.100179456
43	0x3c9eecc7	0.019400014
44	0xbcc92b96	-0.024556916
45	0x3d4302f8	0.047610253
46	0x3c2f758c	0.010709178
47	0x3c83784b	0.016048571
48	0xbc9a352d	-0.018824184
49	0x3df787ae	0.12086426
50	0xbd4a4864	-0.049385443
51	0xbd8aca68	-0.06776887
52	0x3ce76ad0	0.028249174
53	0x3d8ca533	0.06867447
54	0x3d3016ac	0.04299037
55	0xbd0442d6	-0.032290302
56	0x3be5a6fd	0.007008432
57	0x3cb71eb7	0.022353513
58	0xbda24846	-0.07923941
59	0x3d8bf36d	0.06833539
60	0x3dcc5a68	0.09978181
61	0x3d8f2823	0.06990077
62	0x3d944369	0.0723942
63	0x3decf8ee	0.11570917
64	0xbb50c7e0	-0.0031857416
65	0xbd6496f4	-0.055808023
66	0x3d98fdcf	0.07470285
67	0xbdafacec	-0.08577904
68	0xbcd04a4c	-0.025426053
69	0x3dee1f61	0.11627079
70	0x3bb26f8c	0.0054454263
71	0xbc7cb9c8	-0.015425153
72	0x3d4f58ca	0.050621785
73	0x3da36bd0	0.07979548
74	0x3d844270	0.064579844
75	0x3e09029b	0.133799
76	0x3d3faeb4	0.04679747
77	0x3d85813f	0.06518792
78	0x3d4ab789	0.04949144
79	0xbd426fb5	-0.047469813
80	0xbd963287	-0.07333856
81	0x3e042579	0.1290492
82	0xbd897b77	-0.06713002
83	0x3d2a01de	0.041505687
84	0x3d4439d9	0.04790673
85	0x3cbdc3d8	0.023164675
86	0x3e00b00d	0.12567158
87	0x3e113e06	0.14183816
88	0x3c4d415a	0.012527788
89	0x3d99fe9f	0.07519268
90	0x3dab4973	0.08363619
91	0xbcfea0ba	-0.0310825
92	0x3e1b0a9f	0.1514077
93	0xbd0351ce	-0.032060437
94	0xbcf6be2e	-0.030119982
95	0x3ca74709	0.020419614
96	0x3dd4281b	0.10359212
97	0xbcfea571	-0.031084748
98	0x3da7018f	0.08154594
99	0x3c1c90f8	0.009556048
100	0xbd6d7bcd	-0.057979394
101	0xbd363348	-0.0444825
102	0x3d172b5e	0.036906593
103	0xbcb39f98	-0.021926686
104	0xbd9a2453	-0.075264595
105	0x3d1d6101	0.03842259
106	0xbd2e466a	-0.04254762
107	0x3dd33c90	0.10314286
108	0x3bb1c537	0.005425121
109	0xbda2ea79	-0.07954878
110	0x391ca575	0.00014938957
111	0x3d92110d	0.071321584
112	0x3de5e8fc	0.11226079
113	0x3d54e82e	0.051979236
114	0x3d8503b1	0.06494845
115	0x3da64bd7	0.08119934
116	0xbb84f680	-0.0040577054
117	0x3c1cc88c	0.0095692985
118	0x3d9d47f1	0.07679737
119	0xbd8f5a5c	-0.069996566
120	0x3d7d6eed	0.061873365
121	0xbda50347	-0.08057266
122	0x3d782c42	0.060589083
123	0xbc1aabf6	-0.009440413
124	0x3d99ceef	0.075101726
125	0xbda0d7e5	-0.078536786
126	0x3d4782ea	0.048708834
127	0x3dad75a5	0.084697045

fc3.weight f4 [5, 128]
0	0x3d1ecfde	0.038772456
1	0xbe9fe61c	-0.31230247
2	0xbd7698bc	-0.060204253
3	0xbd35bd6d	-0.044370104
4	0x3bb6b310	0.005575545
5	0xbcef576b	-0.029216489
6	0x3d85b8f2	0.06529416
7	0xbc0bb7d4	-0.008527715
8	0xbbbb00e7	-0.0057068947
9	0x3ce2bdd0	0.0276784
10	0x3ce7c901	0.028294088
11	0xbd900063	-0.07031324
12	0x3d6f1465	0.05836906
13	0x3b3fa1f1	0.0029240812
14	0xbc3d5355	-0.011555512
15	0xbd230f4f	-0.03980952
16	0x3d64ee93	0.055891585
17	0x3d2af73a	0.04173968
18	0xbdb85c37	-0.090019636
19	0x3ca32072	0.019912932
20	0x3d0c7a8e	0.034296565
21	0x3d0ba932	0.034096904
22	0xba63cf3b	-0.00086902425
23	0x3c6042cd	0.013687802
24	0xbdaa1b90	-0.083060384
25	0xbd94761b	-0.07249089
26	0xbd9d851b	-0.076914035
27	0xbd43b91b	-0.047783952
28	0x3da507e7	0.08058148
29	0xbda01452	-0.07816376
30	0x3dae572e	0.08512722
31	0xbd7db9c3	-0.061944734
32	0xbd580164	-0.0527357
33	0xbd9a7657	-0.07542103
34	0xbc13c098	-0.009018086
35	0xbc4d0b10	-0.012514845
36	0xbd8aba06	-0.067737624
37	0x3d30b014	0.04313667
38	0xbcaaa48a	-0.020830411
39	0x3bfdcdd0	0.007745482
40	0xbd841abc	-0.06450412
41	0xbd9dc9ae	-0.07704483
42	0x3b993fb3	0.004676783
43	0x3dbbc131	0.09167708
44	0xbc71d1f8	-0.014759533
45	0xbc869c60	-0.016431987
46	0x3cdb1e24	0.02674777
47	0x3b9b8c29	0.004746933
48	0xbdd1b378	-0.10239309
49	0x3ce9cda0	0.028540432
50	0x3c569270	0.013096437
51	0x3d7b3fc6	0.061340116
52	0xbdb6cd37	-0.089258604
53	0x3d59e304	0.053195015
54	0x3d193c29	0.03741089
55	0xbcf8d897	-0.030376716
56	0x3d50e004	0.050994888
57	0xbc33c4cf	-0.010972216
58	0x3b319b80	0.0027100742
59	0x3d12d02e	0.035843067
60	0x3c40aaa7	0.011759437
61	0xbd1f2d49	-0.038861547
62	0x3da52652	0.0806395
63	0xbc325e24	-0.010886703
64	0xbc8b4d50	-0.017004639
65	0xbb820d9c	-0.0039689075
66	0xbd87d9aa	-0.06633313
67	0xbca82dfb	-0.020529738
68	0x3da47973	0.08030977
69	0xbdda0063	-0.10644605
70	0x3cb16b61	0.021657648
71	0x3d2097fe	0.03920745
72	0xbdc07e29	-0.09399063
73	0x3b5a87cb	0.00333451
74	0x3d2324f0	0.03983015
75	0xbde066a5	-0.10957078
76	0xbd5dd9c3	-0.054162752
77	0x3cac252d	0.02101382
78	0xbd512926	-0.051064633
79	0x3d05d504	0.03267385
80	0xbc90f531	-0.017695041
81	0x3d25c806	0.04047396
82	0x3c146fb0	0.0090598315
83	0x3d436e5d	0.047712673
84	0x3d670cf0	0.056408823
85	0xbcf5e73e	-0.030017491
86	0x3ad1e42a	0.0016013433
87	0xbc8f6330	-0.017503351
88	0xbd4f662a	-0.05063454
89	0x3cb1e208	0.021714225
90	0xbd186d18	-0.037213415
91	0x3d675db2	0.05648584
92	0xbdc15cca	-0.09441526
93	0x3cd820f6	0.026382904
94	0x3afcdc80	0.0019291788
95	0xbc2c82c1	-0.010529221
96	0xbd458d6a	-0.048230566
97	0xbb8bd2d9	-0.0042670784
98	0xbdbe8790	-0.093032
99	0xbd977377	-0.0739507
100	0xbc9c8fcd	-0.019111538
101	0x3dad47bd	0.084609486
102	0x3cc62d79	0.024191605
103	0xbd92526a	-0.071446255
104	0xbca7d7e0	-0.02048868
105	0x3d09cd0a	0.033642806
106	0xbd4c3024	-0.049850598
107	0x3cb78226	0.022400927
108	0x3d257d51	0.040402714
109	0xbd1e6423	-0.038669717
110	0x3d81c350	0.06336081
111	0x3d98e283	0.07465079
112	0xbd895cc1	-0.067071445
113	0xbdc93a2e	-0.0982555
114	0xbd4beb03	-0.04978467
115	0x3d44a77b	0.048011284
116	0xbd597a69	-0.053095255
117	0xbd1e5ccc	-0.038662717
118	0x3a729700	0.0009254068
119	0xbd4acbc5	-0.049510736
120	0x3d9a082d	0.07521091
121	0xbd6f7e7d	-0.058470238
122	0xbdcf1544	-0.10111478
123	0x3d04f3c3	0.03245903
124	0xbc8aa552	-0.016924534
125	0x3c9f1355	0.019418398
126	0x3d74e723	0.05979074
127	0xbd8e608b	-0.06952008
128	0x3d9f50af	0.07779061
129	0xbe97ec99	-0.29672697
130	0xbdaea3b1	-0.085273154
131	0x3d5b1ca2	0.053494103
132	0xbceea556	-0.029131573
133	0xbd9c0898	-0.07618827
134	0x3d8cae68	0.06869203
135	0xbd52ac45	-0.05143382
136	0xbcadf2ea	-0.021233995
137	0xbb3fa9c0	-0.0029245466
138	0x3d082e75	0.03324743
139	0xbc7d16ba	-0.015447313
140	0xb9c30524	-0.00037197128
141	0xbda6ca4e	-0.08144055
142	0x3d273316	0.040820204
143	0x3cd4a010	0.02595523
144	0xbe146787	-0.14492618
145	0x3dbda5f5	0.092601694
146	0xbca6bc2b	-0.020353397
147	0x3c273fac	0.010208052
148	0xbbbaa710	-0.005696185
149	0x3da4e26f	0.08051001
150	0xbd195997	-0.037438955
151	0x3daad223	0.08340862
152	0xbd2322cc	-0.039828107
153	0xbdaf9fee	-0.08575426
154	0xbc56f763	-0.013120505
155	0x3d086752	0.03330166
156	0xbdb4495b	-0.08803054
157	0x3cb2771e	0.021785315
158	0xbcb2b4b6	-0.021814685
159	0xbd94097a	-0.0722837
160	0x3c3e6b43	0.011622253
161	0x3c305000	0.010761261
162	0x3cf97954	0.030453362
163	0xbd9d59b8	-0.07683128
164	0xbd563302	-0.05229474
165	0x3c2cf251	0.01055582
166	0x3d880430	0.06641424
167	0xbc965b84	-0.018354185
168	0xbbc8b640	-0.0061252415
169	0xbbbf9ebf	-0.0058477814
170	0xbd6bf7fa	-0.057609536
171	0x3ca88bf9	0.020574557
172	0xbda5337e	-0.08066462
173	0x3d10d86b	0.035362642
174	0x3c08b084	0.008342866
175	0x3c8f52b5	0.017495492
176	0x3ced02b1	0.028931947
177	0x3cc17f20	0.023620188
178	0xbcfdd542	-0.030985478
179	0x3cf31928	0.029675081
180	0x3bce9024	0.006303804
181	0x3cadc803	0.021213537
182	0x3cdfaa0c	0.027302764
183	0xbc6c7075	-0.014431109
184	0xbd2287cf	-0.0396803
185	0xbd680322	-0.056643613
186	0x3d9b5dfb	0.07586285
187	0xbd2e79cb	-0.04259662
188	0xbc2d9c56	-0.010596355
189	0xbd771c45	-0.060329694
190	0x3c7ae646	0.0153136905
191	0xbdc84a7c	-0.09779832
192	0x3d5d42de	0.054018848
193	0xbd27367e	-0.040823452
194	0xbdadc9f4	-0.08485785
195	0xbaecef4c	-0.0018076687
196	0xbd9cd576	-0.07657902
197	0x3d7bac84	0.06144382
198	0xbce0007c	-0.027343981
199	0xbd58ecd1	-0.05296022
200	0xbc21a1f8	-0.0098652765
201	0x3beab457	0.0071626115
202	0x3da835db	0.08213397
203	0x3b9614c1	0.004580111
204	0x3b4ff8e3	0.0031734041
205	0xbd87b10f	-0.06625568
206	0xbd990f1c	-0.07473585
207	0x3d1e4627	0.03864112
208	0x3c8c6cb4	0.017141677
209	0x3c86935b	0.016427686
210	0x3db0fded	0.086421825
211	0xbd0af427	-0.033924248
212	0x3d5f34b6	0.05449363
213	0x3cb6e72c	0.022327028
214	0x3b86f256	0.004118244
215	0x3c97ab19	0.018514203
216	0x3c83e69e	0.016101178
217	0xbdb266b3	-0.087109946
218	0x3d1f6bab	0.03892104
219	0x3c5696e0	0.013097495
220	0xbd58ee99	-0.05296192
221	0xbdb81d73	-0.08989992
222	0xbd92a1b8	-0.07159752
223	0xbd8da6ff	-0.069166176
224	0x3b56c1b5	0.0032769267
225	0xbc4495f6	-0.011998644
226	0xbc833396	-0.016015809
227	0x3c095630	0.008382365
228	0x3c9b0ec7	0.018927945
229	0x3d44e0cb	0.04806594
230	0x3da18b93	0.0788795
231	0x3d6bbe36	0.057554446
232	0xbda31976	-0.07963841
233	0x3d366233	0.044527244
234	0x3d4c162a	0.049825825
235	0x3d2e2bcf	0.042522248
236	0xbd5e1c42	-0.054226168
237	0xbd7f318a	-0.062303104
238	0x3d93d2b5	0.072179236
239	0xbbf4e091	-0.0074730595
240	0xbca159f5	-0.019696215
241	0xbcdf833c	-0.027284257
242	0x3c4bd43b	0.012440736
243	0x3d8744a7	0.06604891
244	0x3da51f25	0.08062581
245	0xbc95c84d	-0.018283987
246	0x3d9663db	0.07343265
247	0xbce975e2	-0.028498594
248	0x3d97be89	0.074093886
249	0x3d8e2a07	0.0694161
250	0x3cdef71f	0.027217446
251	0xbb979ae8	-0.0046266206
252	0xbdbc240e	-0.091865644
253	0x3d17af24	0.03703226
254	0x3bf4f172	0.0074750716
255	0xbd8c0c9b	-0.06838342

fc3.bias f4 [5]
0	0x3d7de6df	0.061987754
1	0x3d923c54	0.07140413
2	0xbd3d0f3b	-0.046157103
3	0x3c6cba3d	0.0144487
4	0x3d64f167	0.05589428
