CC_Reinforce_version_3_copy/materails/state_dict_model_v2.pt (torch, 84151 bytes, 6 tensors)

fc1.weight f4 [128, 25]
-0.08742859 -0.078525834 -0.14811678 -0.09504459 -0.1299198 0.043663416 -0.15431282 0.19123152
-0.12898472 -0.046812095 0.19508597 0.03420608 0.1553918 -0.21027707 0.1132432 -0.03677022
-0.08905564 0.19974755 0.05730601 0.15500583 0.0014450963 -0.06195784 -0.14018984 -0.028154852
-0.12510875 -0.03250822 -0.02105196 0.10402081 0.16378808 0.2000892 0.09180981 0.17200328
-0.040453978 0.16876698 0.05638217 0.12729856 -0.016813911 0.2018709 0.1694568 -0.13252424
0.10057327 0.07782469 0.18904726 -0.030725693 0.042092927 0.06586543 -0.020774106 -0.090287685
0.1123979 0.08838593 -0.03634821 0.10438619 0.0903596 -0.121625364 0.060081385 -0.20458122
0.1966474 -0.028357796 -0.10521751 0.16727804 -0.13945393 0.18532479 0.027797557 0.087960824
-0.023016764 -0.014941908 0.08442962 -0.10242227 0.030807246 -0.10286476 0.1501616 -0.054500207
0.17279474 -0.17225067 0.03348688 0.18826132 -0.17847595 0.098321825 -0.057426147 0.09978804
0.025659595 0.12927917 -0.1662717 0.088176966 -0.19838235 -0.033453092 -0.05339624 -0.062023733
0.14263819 0.15557607 0.00741584 -0.06392562 0.103442796 -0.01159324 -0.07766847 0.06371048
0.003023629 0.054580435 -0.16512942 0.15003665 -0.09755877 0.21181138 0.12519863 0.0999537
0.09262171 0.17696504 0.13748418 0.111592844 0.055281386 0.15583295 -0.090958826 0.19975431
0.0205908 -0.0143315345 0.13137615 0.19899635 0.19206044 0.12331649 0.011964572 0.16866308
0.15305997 0.008072714 0.16663468 -0.07697072 -0.026842589 0.08571541 0.13983746 -0.008479713
0.090627156 0.103903055 0.1493294 0.03688675 0.06771085 -0.10148455 0.063326776 -0.14186543
0.06932533 0.046240445 -0.199072 -0.14588505 0.030102832 -0.20799376 0.1634478 -0.12954772
0.048620604 -0.1369793 0.10988664 0.021598391 -0.13361129 -0.13879454 -0.045520194 -0.017613357
0.14867617 -0.13798414 -0.025662983 0.1640735 0.17302473 0.12413064 -0.13976102 -0.06674683
0.12557894 -0.05634133 -0.11841704 0.07826335 0.0040843342 0.18572089 -0.041804384 0.14067492
-0.13213597 -0.083757244 0.12872946 0.1611296 0.033012565 -0.09735841 -0.12001114 -0.14940937
-0.1357756 -0.011219947 0.1645884 -0.053245902 0.028539725 0.00016884321 -0.036282144 -0.0195524
0.06411064 -0.19158147 0.11323787 0.054558102 -0.18518776 0.18361399 0.15708548 0.18886349
0.12161274 0.19690025 0.034171112 -0.032177877 0.029120805 -0.06466475 0.09580248 -0.03679158
0.14515704 0.03855912 0.19069715 -0.089520656 0.12075559 0.12822711 0.17875859 0.106083624
0.11873558 0.10504029 -0.13573496 -0.15499035 -0.0048609884 -0.20092064 -0.1934646 -0.10078546
-0.14715709 0.057512168 0.09072129 0.09854328 0.17048419 -0.16924468 0.15572265 -0.18130797
0.1163782 0.061149403 0.11453176 -0.04816292 0.20519151 -0.12737568 0.12069288 -0.12687698
0.11516921 0.039205655 -0.1561333 0.05339889 0.17450947 0.1123942 0.025630437 0.14970766
0.19911578 0.1635016 -0.14698146 -0.16090713 0.019443635 -0.12806055 0.1410871 0.1471093
-0.16544475 0.077516295 0.0079475595 0.1477241 -0.081881315 0.22757944 -0.17223178 0.03326653
00000000: c30d b3bd 27d2 a0bd edab 17be bda6 c2bd
00000010: b209 05be 69d8 323d 2e04 1ebe 32d2 433e
00000020: 9214 04be 0abe 3fbd 9ec4 473e ad1b 0c3d
00000030: 071f 1f3e df52 57be 0dec e73d 5f9c 16bd
00000040: ce62 b6bd 9f8a 4c3e b5b9 6a3d d9b9 1e3e
00000050: 6369 bd3a 81c7 7dbd ed8d 0fbe 01a5 e6bc
00000060: 821c 00be 5727 05bd 2975 acbc dd08 d53d
00000070: 10b8 273e 2fe4 4c3e c806 bc3d a121 303e
00000080: 12b3 25bd 40d1 2c3e fef0 663d 8e5a 023e
00000090: 54bd 89bc 3fb7 4e3e 1586 2d3e 6fb4 07be
000000a0: 5cf9 cd3d 8d62 9f3d 9b95 413e 73b4 fbbc
000000b0: a269 2c3d 74e4 863d 752e aabc c0e8 b8bd
000000c0: df30 e63d af03 b53d dce1 14bd 6dc8 d53d
000000d0: 740e b93d b816 f9bd e617 763d bd7d 51be
000000e0: f05d 493e 9c4e e8bc 477c d7bd ef4a 2b3e
000000f0: 03cd 0ebe c8c5 3d3e b4b7 e33c ce24 b43d
00000100: a78d bcbc e8ce 74bc 70e9 ac3d c4c2 d1bd
00000110: 7a5f fc3c c2aa d2bd f6c3 193e 9c3b 5fbd
00000120: 1bf1 303e 7b62 30be 8a29 093d 93c7 403e
00000130: 66c2 36be f45c c93d ae37 6bbd ac5d cc3d
00000140: 1234 d23c c261 043e 2143 2abe 2096 b43d
00000150: be24 4bbe 1c06 09bd 04b6 5abd 990c 7ebd
00000160: bf0f 123e 554f 1f3e 9300 f33b 6feb 82bd
00000170: d1d9 d33d 93f1 3dbc a610 9fbd a47a 823d
00000180: 1428 463b bc8f 5f3d b017 29be 35a3 193e
00000190: e4cc c7bd 15e5 583e 1234 003e 87b4 cc3d
000001a0: 73b0 bd3d 5336 353e a7c8 0c3e ca8a e43d
000001b0: bc6e 623d ac92 1f3e 9f48 babd 658c 4c3e
000001c0: 0aae a83c d0ce 6abc 7887 063e b3c5 4b3e
000001d0: 7eab 443e 5b8d fc3d 0d07 443c 04b6 2c3e
000001e0: c1bb 1c3e 6b43 043c 48a2 2a3e d3a2 9dbd
000001f0: fde4 dbbc 908b af3d 8d31 0f3e 7fee 0abc
00000200: bb9a b93d 20cb d43d cee9 183e 9016 173d
00000210: fcab 8a3d 22d7 cfbd 78b1 813d 2c45 11be
00000220: 70fa 8d3d 9f66 3d3d 88d9 4bbe e462 15be
00000230: 379a f63c 51fc 54be dc5e 273e 28a8 04be
00000240: 6626 473d 4d44 0cbe 3f0c e13d 1cef b03c
00000250: 66d1 08be 2820 0ebe 6273 3abd e349 90bc
00000260: 913e 183e b74b 0dbe 2d3b d2bc e202 283e
00000270: 652d 313e 3438 fe3d 831d 0fbe 90b2 88bd
00000280: c497 003e 2bc6 66bd a284 f2bd 8948 a03d
00000290: e1d5 853b 9e2d 3e3e 133b 2bbd 160d 103e
000002a0: a74e 07be eb88 abbd a8d1 033e 28ff 243e
000002b0: 2f38 073d d963 c7bd 67c8 f5bd c5fe 18be
000002c0: c208 0bbe ded3 37bc dd89 283e 6018 5abd
000002d0: 24cc e93c 810b 3139 969c 14bd 5b2c a0bc
000002e0: 704c 833d ef2d 44be 42e9 e73d 5178 5f3d
000002f0: dca1 3dbe 4e05 3c3e 04db 203e 6e65 413e
00000300: 1a10 f93d 38a0 493e 02f7 0b3d f3cc 03bd
00000310: c18e ee3c f46e 84bd 1734 c43d c5b2 16bd
00000320: 0ca4 143e 2bf0 1d3d 1d46 433e 9b56 b7bd
00000330: b54e f73d f84d 033e 7e0c 373e 5f42 d93d
00000340: a42b f33d 5d1f d73d 1bfe 0abe cab5 1ebe
00000350: ed48 9fbb 24be 4dbe 961b 46be 9b68 cebd
00000360: 59b0 16be e191 6b3d 15cc b93d 0fd1 c93d
00000370: 6893 2e3e 7a4e 2dbe c275 1f3e cca8 39be
00000380: b257 ee3d cc77 7a3d a18f ea3d 7b46 45bd
00000390: b91d 523e c56e 02be d42d f73d 0aec 01be
000003a0: d6dd eb3d 1c96 203d 68e1 1fbe cbb8 5a3d
000003b0: 9cb2 323e ee2e e63d ecf6 d13c f74c 193e
000003c0: 02e5 4b3e f76c 273e 4f82 16be d7c4 24be
000003d0: 4248 9f3c 4e22 03be 2379 103e d2a3 163e
000003e0: 596a 29be ddc0 9e3d 7b36 023c fd44 173e
000003f0: 64b1 a7bd 960a 693e 875d 30be 7c42 083d

fc1.bias f4 [128]
0.025074907 -0.15270898 -0.021731718 -0.0758092 0.02415522 0.084287465 -0.06254198 0.13957325
0.14600459 -0.080166176 0.045228407 -0.17405568 -0.18776222 -0.054990888 -0.07967509 0.12970123
0.007371074 0.012491271 0.10138579 0.18764335 -0.16451259 0.043820232 -0.053743243 0.08882122
-0.19701241 0.11989342 -0.08523799 -0.03974381 0.07341822 0.14583565 0.10120292 0.12522104
-0.10051688 0.016151354 -0.17479056 -0.15722716 0.15099701 -0.09567245 0.13333908 -0.18382485
-0.18124615 -0.04441423 0.18530203 -0.050388694 -0.04645805 0.044539526 -0.09642719 -0.0054728594
-0.06773648 0.13931939 0.13302839 -0.09273236 0.05974333 -0.09139784 -0.13777056 -0.1631766
-0.11162693 -0.16090819 0.07642115 0.035554722 -0.037256867 0.034758028 0.033142533 0.21694909
-0.080051616 -0.08530453 0.1454493 0.053945906 0.0936703 0.024051933 0.08566696 0.19304256
0.12533641 0.121716514 0.01284598 0.06257627 0.22013003 0.18138088 0.11130062 -0.15530488
-0.116100006 0.04184853 0.06626703 -0.15754943 -0.008196297 -0.02321869 -0.18544224 -0.1274929
-0.16095822 0.18150927 0.09515742 -0.02750082 0.17339268 0.20897181 -0.16758355 0.19730456
0.11377001 0.19535889 -0.122848555 0.18250574 -0.1964546 -0.19624875 -0.087344855 0.1732506
0.031848688 -0.07831492 -0.11484567 -0.074986205 0.15335266 0.13490954 0.0114629865 0.12200561
0.22349621 -0.17098434 0.091625854 0.15671249 -0.15588817 -0.035556436 0.15228038 -0.05339819
-0.17089513 -0.025260331 0.17386225 -0.13583525 0.05584049 0.14820299 -0.124660715 0.11685996
00000000: e469 cd3c be5f 1cbe b706 b2bc db41 9bbd
00000010: 2be1 c53c e89e ac3d 0216 80bd 4aec 0e3e
00000020: 3a82 153e 2a2e a4bd 6c41 393d a73b 32be
00000030: bd44 40be 203e 61bd b22c a3bd 66d0 043e
00000040: 0d89 f13b 30a8 4c3c 5aa3 cf3d 9425 403e
00000050: fd75 28be d87c 333d e021 5cbd e6e7 b53d
00000060: 9fbd 49be ae8a f53d 4191 aebd 68ca 22bd
00000070: 4b5c 963d f155 153e 7a43 cf3d f239 003e
00000080: cbdb cdbd d84f 843c 4cfc 32be 2800 21be
00000090: f69e 1a3e ebef c3bd 0a8a 083e 953c 3cbe
000000a0: 9798 39be b2eb 35bd d1bf 3d3e 6064 4ebd
000000b0: cc4a 3ebd 146f 363d 9e7b c5bd ac55 b3bb
000000c0: 6cb9 8abd bea9 0e3e 9838 083e 77ea bdbd
000000d0: 6cb5 743d ca2e bbbd ba13 0dbe c417 27be
000000e0: a99c e4bd 1ec5 24be b182 9c3d d4a1 113d
000000f0: a89a 18bd 6f5e 0e3d 77c0 073d e727 5e3e
00000100: 1af2 a3bd 24b4 aebd a9f0 143e 62f6 5c3d
00000110: 37d6 bf3d 8f08 c53c 2972 af3d f3ac 453e
00000120: 3058 003e 8246 f93d f277 523c fd27 803d
00000130: c469 613e e9bb 393e 94f1 e33d 3e08 1fbe
00000140: d7c5 edbd 5d69 2b3d 02b7 873d a354 21be
00000150: c349 06bc 1f35 bebc 92e4 3dbe 808d 02be
00000160: 3bd2 24be 91dd 393e e5e1 c23d 6649 e1bc
00000170: da8d 313e b5fc 553e 069b 2bbe 350a 4a3e
00000180: 4000 e93d 290c 483e 0698 fbbd c9e2 3a3e
00000190: 652b 49be 6ff5 48be dce1 b2bd 9b68 313e
000001a0: c573 023d 9363 a0bd 3534 ebbd 5e92 99bd
000001b0: 7b08 1d3e ba25 0a3e 40cf 3b3c 14de f93d
000001c0: 31dc 643e 8516 2fbe 56a6 bb3d 3d79 203e
000001d0: 26a1 1fbe a0a3 11bd 63ef 1b3e 0fb8 5abd
000001e0: 22ff 2ebe c1ee cebc f208 323e 6518 0bbe
000001f0: ffb8 643d 86c2 173e 1e4e ffbd 4654 ef3d

fc2.weight f4 [128, 128]
-0.05682569 -0.062125318 0.057029553 0.08195951 -0.049971294 -0.02413296 0.02783943 0.0005804077
-0.00086636096 -0.08691949 -0.08381566 -0.004322119 0.033069395 -0.059516102 0.057638533 -0.06717113
0.034170054 -0.0104466975 -0.06313169 -0.01901006 0.07076139 -0.06807834 -0.067857966 -0.014227882
0.0730116 0.08721513 -0.06513135 0.04533107 0.0832519 -0.008966446 0.06989858 -0.0025492087
0.054894052 0.06130985 0.008354463 -0.0056319013 0.05495455 0.057462595 -0.07720914 0.05741518
-0.050655898 0.050195746 -0.022057034 -0.06811034 0.016986802 0.061479904 0.043375574 0.028133802
-0.007718697 0.0033614114 -0.048536785 -0.007391736 0.04888787 0.040871404 0.046301074 -0.07404672
0.05817569 0.06775331 -0.08596488 0.030391797 -0.06355833 -0.028503187 -0.020310767 -0.055793617
-0.081359096 -0.073895775 0.036918186 0.044383608 -0.0056579113 -0.047405098 -0.033418752 -0.023880519
0.070643835 0.03525526 0.018436529 -0.021495916 -0.013716124 -0.078438215 -0.041127115 -0.045031495
0.023071028 0.05164475 -0.039152894 0.04504729 -0.086218596 0.08409012 0.040582024 -0.04312554
-0.0059305355 0.035635836 -0.027957551 0.003246151 -0.017724633 -0.015543118 0.05234181 -0.038914997
-0.018711641 -0.07405037 0.037733696 0.047642805 -0.02655422 0.07343779 0.027702764 -0.024578616
-0.037105463 -0.005143188 0.037459977 -0.028643861 -0.07917751 -0.04524522 0.00022114813 0.07352143
0.023859426 -0.08332802 -0.011631206 -0.006829582 0.054645427 0.07493139 -0.04575288 0.020771936
0.031503238 0.0039612874 -0.018137537 0.05941037 -0.0075273216 0.063910894 -0.088221185 0.02105096
0.079700895 0.08434745 0.062314637 0.072503515 -0.0032058582 -0.070531756 -0.08212208 -0.024818636
0.081993125 0.08173851 -0.015851311 -0.03444959 0.08315096 0.019607663 -0.007056996 -0.033319507
0.0444678 0.017587796 -0.059959866 -0.0049505904 -0.050620377 0.080840506 -0.082897514 0.012165636
0.06489345 0.0396697 0.034980252 0.045992993 -0.032954376 -0.032909237 -0.03423933 0.058314376
0.01519572 -0.06932813 -0.04910469 -0.067976445 0.075201236 -0.024941586 -0.033398878 -0.061861075
-0.0538603 0.033354692 0.013405614 0.041796096 0.012038976 0.07040783 -0.08253395 0.022899449
0.053776182 0.06355997 -0.060136892 0.06676371 -0.053095344 0.048526146 -0.009749241 -0.0053881705
-0.051199865 0.038565673 -0.018810757 -0.07861036 -0.06049613 -0.017175905 -0.028380971 -0.08058126
0.014550023 0.04616601 -0.06764648 0.021002993 -0.013858072 -0.051092368 0.019531727 -0.07864304
-0.048154313 0.027973756 -0.064104535 0.07475438 0.031654097 -0.037467588 -0.026691314 -0.041589078
-0.016885057 -0.026105475 -0.08087478 -0.08589849 0.026986763 0.021736339 0.036211036 0.04648658
0.0729892 0.01331459 0.052969106 -0.03894983 0.07422886 -0.07946784 0.07085767 -0.021756202
-0.04450936 0.041690506 0.045310713 -0.07325849 -0.0119307265 0.051020257 -0.072312884 -0.009126507
-0.062206484 0.004368849 -0.076152705 0.006744288 0.034525096 -0.0075811967 -0.057269044 0.06339463
0.049673565 -0.051257353 -0.026825257 -0.021337442 0.0552214 0.032823473 0.003767699 0.040194474
-0.031048592 -0.021389619 -0.020998992 -0.029652838 -0.05603931 -0.074043274 0.010861903 -0.05257467
00000000: 0ec2 68bd 1e77 7ebd d297 693d 63da a73d
00000010: b3ae 4cbd 7cb2 c5bc 840f e43c 8026 183a
00000020: 801c 63ba d802 b2bd 8ba7 abbd 90a0 8dbb
00000030: c673 073d 28c7 73bd 6216 6c3d 0491 89bd
00000040: e6f5 0b3d a028 2bbc 304b 81bd fcba 9bbc
00000050: 59eb 903d a86c 8bbd 1ef9 8abd 101c 69bc
00000060: 1b87 953d d99d b23d 9663 85bd 12ad 393d
00000070: f97f aa3d 00e8 12bc fd26 8f3d a010 27bb
00000080: 96d8 603d 0a20 7b3d 28e1 083c d08b b8bb
00000090: 0618 613d e65d 6b3d d31f 9ebd 2e2c 6b3d
000000a0: 8f7c 4fbd 0e9a 4d3d f4b0 b4bc 6f7d 8bbd
000000b0: e827 8b3c 5ad2 7b3d 96aa 313d dc78 e63c
000000c0: 20ed fcbb 204b 5c3b 82ce 46bd 6036 f2bb
000000d0: a63e 483d c668 273d 32a6 3d3d cfa5 97bd
000000e0: a249 6e3d 3fc2 8a3d 5b0e b0bd 38f8 f83c
000000f0: df2a 82bd 847f e9bc c462 a6bc d987 64bd
00000100: 999f a6bd ab56 97bd 8637 173d 96cb 353d
00000110: 0066 b9bb d92b 42bd 1ae2 08bd 14a1 c3bc
00000120: b7ad 903d d267 103d 3408 973c 3418 b0bc
00000130: 98b9 60bc 37a4 a0bd e874 28bd f272 38bd
00000140: 74ff bc3c 7289 533d c95e 20bd 8283 383d
00000150: 6093 b0bd 7137 ac3d 5639 263d 68a4 30bd
00000160: f054 c2bb e2f6 113d 3c07 e5bc 60bd 543b
00000170: 4033 91bc 90a8 7ebc 5e64 563d 5565 1fbd
00000180: 2849 99bc b8a7 97bd a68e 1a3d 1a25 433d
00000190: 3c88 d9bc 8d66 963d e8f0 e23c 1859 c9bc
000001a0: e6fb 17bd 3088 a8bb a26f 193d 88a6 eabc
000001b0: d227 a2bd 0d53 39bd 00e4 6739 6792 963d
000001c0: d874 c33c e2a7 aabd d090 3ebc b0ca dfbb
000001d0: e2d3 5f3d a175 993d 5f67 3bbd e829 aa3c
000001e0: 8a09 013d b0cd 813b 2c95 94bc 4a58 733d
000001f0: c0a7 f6bb b7e3 823d 4fad b4bd 1073 ac3c
00000200: 393a a33d 5bbe ac3d a23d 7f3d b97c 943d
00000210: 6019 52bb f472 90bd 9f2f a8bd 7450 cbbc
00000220: 03ec a73d 8566 a73d 9cda 81bc 031b 0dbd
00000230: 0d4b aa3d 40a0 a03c 603e e7bb 097a 08bd
00000240: de23 363d 4814 903c 7a98 75bd 9038 a2bb
00000250: 5057 4fbd b58f a53d 2cc6 a9bd 6052 473c
00000260: dbe6 843d b27c 223d 7447 0f3d 2663 3c3d
00000270: 2bfb 06bd d6cb 06bd 8a3e 0cbd 0edb 6e3d
00000280: 78f7 783c e8fb 8dbd 0022 49bd 3c37 8bbd
00000290: 1b03 9a3d 4c52 ccbc 43cd 08bd 0a62 7dbd
000002a0: 9e9c 5cbd ee9e 083d 38a3 5b3c 6232 2b3d
000002b0: 203f 453c fb31 903d 8f07 a9bd a097 bb3c
000002c0: 6a44 5c3d bb2b 823d 1a52 76bd 69bb 883d
000002d0: 817a 59bd 5ac3 463d 48bb 1fbc 408f b0bb
000002e0: f3b6 51bd 0af7 1d3d 0419 9abc 78fe a0bd
000002f0: caca 77bd 7cb4 8cbc 367f e8bc ca07 a5bd
00000300: 3863 6e3c 9218 3d3d 3d8a 8abd 780e ac3c
00000310: f80c 63bc 3b46 51bd 0001 a03c 9a0f a1bd
00000320: 753d 45bd 3829 e53c 3d49 83bd d318 993d
00000330: baa7 013d 9d77 19bd bea7 dabc 4f59 2abd
00000340: 8852 8abc 26db d5bc ada1 a5bd 8ceb afbd
00000350: 5813 dd3c 6810 b23c 0652 143d b668 3e3d
00000360: 5d7b 953d 7025 5a3c 22f6 583d db89 1fbd
00000370: 4d05 983d 09c0 a2bd d31d 913d 103a b2bc
00000380: 724f 36bd aac3 2a3d ba97 393d 8c08 96bd
00000390: 1879 43bc 9efa 503d c718 94bd 5887 15bc
000003a0: 3acc 7ebd 9028 8f3b f3f5 9bbd 30ff dc3b
000003b0: 306a 0d3d b06b f8bb f292 6abd 0bd5 813d
000003c0: 8276 4b3d 3bf3 51bd a4c0 dbbc dccb aebc
000003d0: d62f 623d e871 063d 80eb 763b f6a2 243d
000003e0: 9e59 febc 4839 afbc 1406 acbc 82ea f2bc
000003f0: 7a89 65bd 00a4 97bd 20f6 313c 8a58 57bd

fc2.bias f4 [128]
0.053627975 -0.019390978 -0.084147714 0.040755343 0.007599861 -0.02229292 0.037892748 0.046552457
-0.032872204 -0.01845832 0.034424588 -0.079796836 -0.00052872964 -0.017468512 0.08524668 0.073014535
-0.06550017 -0.0035643242 -0.0038547963 -0.08769262 -0.07355944 -0.012774547 -0.018463762 0.04499811
-0.027108002 0.016784605 -0.05173117 0.034525435 -0.070348166 -0.04904262 0.027722955 0.038273375
0.0002020225 0.049046528 0.03460951 0.10335084 -0.00063875015 -0.04085171 0.03802768 0.02768367
0.034982946 -0.045185257 -0.03935891 -0.027789151 -0.051316112 0.027778441 -0.06387943 -0.058755554
0.017580353 -0.05019555 -0.043250408 -0.046630085 0.074806444 -0.015608067 -0.0738263 0.08213125
0.017629005 -0.03627437 -0.012210349 -0.071745165 0.07326277 0.07614532 -0.020737018 0.023233056
-0.08748544 0.052888196 -0.07136046 0.060800444 -0.03624765 -0.043194763 -0.03030784 0.02411709
0.06682097 -0.014576026 0.06178662 -0.017775398 -0.042358257 0.045950428 0.06049971 0.00036189664
-0.04007093 -0.016719468 0.06092266 -0.048219983 -0.009871811 0.08070981 0.09035925 -0.012070223
-0.087710954 -0.084695116 -0.006404581 0.05948236 0.09027867 -0.016610686 0.071717605 -0.031051219
0.04509741 0.021573499 -0.013569826 -0.033399187 0.014841203 0.07601866 0.001171164 -0.078701854
-0.08074485 0.08569343 0.067972794 0.009888774 0.02363703 0.090115406 0.0051224977 -0.01806374
-0.093082495 0.10044814 0.06963837 0.053225074 -0.023281688 -0.061433863 0.01903296 -0.028808525
-0.026237983 -0.023904338 0.045697987 0.040228225 0.023505066 0.07396708 -0.03337988 0.06917226
00000000: 02a9 5b3d d4d9 9ebc a355 acbd 13ef 263d
00000010: 4108 f93b a49f b6bc 6d35 1b3d caad 3e3d
00000020: 01a5 06bd e735 97bc cc00 0d3d 866c a3bd
00000030: 729a 0aba 201a 8fbc d095 ae3d a588 953d
00000040: f424 86bd 7097 69bb c0a0 7cbb 3098 b3bd
00000050: 55a6 96bd 554c 51bc 5141 97bc f04f 383d
00000060: 9a11 debc de7f 893c 10e4 53bd 8b6a 0d3d
00000070: b312 90bd eae0 48bd 401b e33c 8bc4 1c3d
00000080: 00d6 5339 03e5 483d b4c2 0d3d 9ba9 d33d
00000090: cc71 27ba 1f54 27bd eac2 1b3d ddc8 e23c
000000a0: 474a 0f3d 2d14 39bd cf36 21bd 13a6 e3bc
000000b0: d830 52bd 9d8f e33c 38d3 82bd aaa9 70bd
000000c0: ac04 903c d999 4dbd 5727 31bd 30ff 3ebd
000000d0: 1f34 993d fab8 7fbc 3e32 97bd 6e34 a83d
000000e0: b46a 903c 6f94 14bd ea0d 48bc 21ef 92bd
000000f0: cb0a 963d 14f2 9b3d aee0 a9bc 4053 be3c
00000100: 912b b3bd 4ba1 583d 6f25 92bd e309 793d
00000110: 6a78 14bd feec 30bd 2648 f8bc 3491 c53c
00000120: 6fd9 883d 49d0 6ebc f813 7d3d b69d 91bc
00000130: da7f 2dbd 8436 3c3d 8bce 773d f2bc bd39
00000140: 6a21 24bd 44f7 88bc 0a8a 793d 5182 45bd
00000150: 60bd 21bc 2f4b a53d 450e b93d 2fc2 45bc
00000160: cda1 b3bd a274 adbd 85dd d1bb c6a3 733d
00000170: 06e4 b83d 2213 88bc aee0 923d 205f febc
00000180: 10b8 383d e8ba b03c fa53 5ebc 96cd 08bd
00000190: 8428 733c acaf 9b3d be81 993a 702e a1bd
000001a0: 8e5d a5bd 0980 af3d 5235 8b3d 8604 223c
000001b0: 72a2 c13c 6d8e b83d a0da a73b 69fa 93bc
000001c0: 09a2 bebd c1b7 cd3d 909e 8e3d 8902 5a3d
000001d0: 3db9 bebc 13a2 7bbd 03eb 9b3c dbff ebbc
000001e0: 0af1 d6bc 08d3 c3bc d02d 3b3d 5ac6 243d
000001f0: b28d c03c 0d7c 973d 57b9 08bd 30aa 8d3d

fc3.weight f4 [5, 128]
-0.05645735 0.07597429 -0.051810402 -0.01778043 -0.06354007 -0.062330022 -0.020513656 -0.07142259
-0.082050584 -0.012978216 -0.07006742 -0.043001827 -0.05643533 -0.027209237 0.084740825 -0.04576298
-0.11162347 0.04544449 -0.063327 -0.016724234 0.07146046 -0.06784646 0.05747474 0.084691875
0.020936823 0.028183313 0.08087571 -0.07994045 -0.0029333117 0.06224545 -0.08492862 -0.07754814
-0.06751227 0.028096724 0.042257473 -0.1077373 0.07535439 -0.020518288 -0.08470076 0.040410586
-0.06181177 0.01350186 -0.07841664 -0.059363566 -0.03977796 0.055648558 0.01200217 -0.010223661
0.012496006 0.0250763 0.06805842 0.08731381 0.026354846 0.032938115 -0.08149405 -0.12242332
0.07110938 0.058159716 0.021537105 0.024932884 0.03859181 0.0006994723 -0.094690524 -0.004005565
0.034998838 0.0037376652 0.021979004 0.08684348 -0.046711687 0.00327779 0.007269025 0.03318607
-0.017443433 -0.058340877 -0.08609093 0.021478202 -0.11992935 0.089571886 -0.029877083 -0.019190025
0.047058363 -0.045193803 -0.0822333 0.019764952 0.027587637 -0.055933 -0.087060675 0.06376007
0.015851209 0.055197172 0.03508827 -0.1105414 -0.09511811 0.080293074 -0.048067845 0.017487315
-0.12524006 0.05680094 0.049427215 0.019214854 -0.076754205 0.011017002 -0.11585912 0.0120209865
-0.110468715 -0.052999455 0.018686745 -0.08506362 0.012463476 -0.05433702 -0.077630065 0.010159775
-0.068844825 -0.042999648 -0.10567573 -0.02690439 0.062068235 0.023558896 0.08453106 -0.12739633
0.0043245214 -0.108582236 -0.12207804 0.01791453 -0.028889878 -0.005334208 -0.08318773 -0.057068154
-0.08539835 -0.084739126 0.0049952934 0.062062364 -0.056717973 0.03750435 0.0047548343 0.049206212
0.048319258 0.04024226 0.019172624 -0.038607903 -0.019503972 -0.007991612 0.015440978 -0.003514377
-0.037154056 -0.0043965154 0.025957115 0.04929621 0.08668464 -0.0057161534 -0.007356389 0.057617135
0.03199346 0.027358841 0.005438586 -0.025768304 0.02594417 0.021710932 0.05236227 0.023910018
-0.03763763 0.0323115 0.04643547 -0.067140035 0.023808146 0.022247382 0.043233022 0.036597885
0.0146814855 -0.051570844 0.031821482 0.036825903 0.056290783 0.065884516 0.08814434 0.08531388
-0.023456287 -0.004263364 0.029422345 0.083026156 -0.079059154 0.027008355 0.056321196 0.054375935
-0.039681964 -0.0061288252 0.077877365 -0.0035618942 0.0063875243 -0.036781583 0.007960378 -0.077450715
0.019035928 -0.013794548 -0.05449955 -0.011494227 0.07025186 -0.0216473 0.012378119 0.025268871
-0.027976781 -0.039541703 -0.010160407 0.02363613 -0.047350854 0.06382248 -0.03470718 0.025655134
-0.06392752 0.02783888 -0.021953262 -0.07315591 -0.043257996 -0.03908999 0.071423575 -0.056756195
0.017216686 0.035773583 -0.009052956 0.0097633125 -0.04716969 -0.0600655 0.082279265 0.02863461
-0.06859189 0.037595488 -0.07970946 -0.081284665 0.046079487 -0.02988007 -0.049657777 0.031085959
0.047090217 -0.01924088 0.028704442 -0.033475723 -0.04849474 0.053469196 0.01235732 -0.0004761613
-0.03471225 0.06948914 -0.039285548 -0.07982106 -0.035535865 -0.06679016 0.06480098 0.08851764
0.021148058 0.02127086 -0.023798944 0.041595705 -0.0049335593 0.066350535 0.025940292 -0.021300403
00000000: d23f 67bd 6998 9b3d 2537 54bd 44a8 91bc
00000010: 4c21 82bd c44d 7fbd 410c a8bc 0246 92bd
00000020: 230a a8bd 95a2 54bc 827f 8fbd af22 30bd
00000030: bc28 67bd e8e5 debc 998c ad3d f671 3bbd
00000040: d99a e4bd 0024 3a3d 96b1 81bd 4301 89bc
00000050: dd59 923d 16f3 8abd a26a 6b3d ef72 ad3d
00000060: b383 ab3c b1e0 e63c 2aa2 a53d d2b7 a3bd
00000070: ce3c 40bb 16f5 7e3d 0eef adbd 8fd1 9ebd
00000080: df43 8abd 1a2b e63c 2c16 2d3d 60a5 dcbd
00000090: 6753 9a3d f815 a8bc 9877 adbd 9285 253d
000000a0: 572e 7dbd e836 5d3c e798 a0bd 3627 73bd
000000b0: 37ee 22bd beef 633d c0a4 443c 2481 27bc
000000c0: 0cbc 4c3c d06c cd3c 3762 8b3d 95d1 b23d
000000d0: 1ee6 d73c 1eea 063d 5ae6 a6bd 14b9 fabd
000000e0: cba1 913d e238 6e3d 956e b03c 0c40 cc3c
000000f0: 7212 1e3d cb5c 373a 1bed c1bd 1d41 83bb
00000100: f15a 0f3d 9ef3 743b 500d b43c ffda b13d
00000110: c154 3fbd 31d0 563b 0031 ee3b 1eee 073d
00000120: 88e5 8ebc d8f6 6ebd 7150 b0bd 0ef3 af3c
00000130: 859d f5bd 7771 b73d c9c0 f4bc 6634 9dbc
00000140: 45c0 403d 231d 39bd ef69 a8bd 1cea a13c
00000150: 78ff e13c 001a 65bd de4c b2bd a494 823d
00000160: 65da 813c 6e16 623d b8b8 0f3d 8863 e2bd
00000170: 49cd c2bd b270 a43d cae2 44bd 8f41 8f3c
00000180: ee3e 00be 1aa8 683d 3174 4a3d 7868 9d3c
00000190: 4f31 9dbd a880 343c 8c47 edbd acf3 443c
000001a0: 6c3d e2bd f515 59bd f214 993c d635 aebd
000001b0: 9b33 4c3c 7f90 5ebd 83fc 9ebd 2f75 263c
000001c0: 84fe 8cbd 6620 30bd 846c d8bd 9866 dcbc
000001d0: 433b 7e3d 96fe c03c 9f1e ad3d 2f74 02be
000001e0: b7b4 8d3b 5d60 debd 0d04 fabd 7ec1 923c
000001f0: 77aa ecbc 94ca aebb 545e aabd 4cc0 69bd
00000200: 55e5 aebd b58b adbd 8faf a33b 1b35 7e3d
00000210: 1b51 68bd 299e 193d 71ce 9b3b 748c 493d
00000220: 6aea 453d 11d5 243d e80f 9d3c 5223 1ebd
00000230: cbc6 9fbc 40ef 02bc 28fc 7c3c 7651 66bb
00000240: da2e 18bd a510 90bb 04a4 d43c d3ea 493d
00000250: b787 b13d 924e bbbb dd0d f1bb f2ff 6b3d
00000260: 930b 033d a61f e03c 2b36 b23b 0d18 d3bc
00000270: de88 d43c 20db b13c d279 563d f1de c33c
00000280: ea29 1abd 1059 043d 1f33 3e3d b780 89bd
00000290: 4d09 c33c 2440 b63c 1c15 313d aae7 153d
000002a0: 9d8a 703c f33b 53bd 3e57 023d c2d6 163d
000002b0: 2a91 663d 76ee 863d 0585 b43d 0bb9 ae3d
000002c0: 6627 c0bc b0b3 8bbb 2107 f13c 9e09 aa3d
000002d0: c4e9 a1bd a040 dd3c 0eb1 663d 4db9 5e3d
000002e0: 8e89 22bd 50d4 c8bb 2b7e 9f3d ab6e 69bb
000002f0: 704e d13b 49a8 16bd 3f6c 023c 7b9e 9ebd
00000300: 3cf1 9b3c 8702 62bc ec3a 5fbd 4852 3cbc
00000310: 35e0 8f3d ae55 b1bc 98cd 4a3c aa00 cf3c
00000320: 902f e5bc 7bf6 21bd d677 26bc 8fa0 c13c
00000330: f8f2 41bd 5cb5 823d 1e29 0ebd b72a d23c
00000340: 6eec 82bd 5d0e e43c 54d7 b3bc c4d2 95bd
00000350: 4c2f 31bd d31c 20bd 8646 923d 2f79 68bd
00000360: 020a 8d3c 5287 123d d952 14bc 4df6 1f3c
00000370: 0135 41bd 3e07 76bd 0882 a83d 2193 ea3c
00000380: e879 8cbd bafd 193d b73e a3bd 9378 a6bd
00000390: d8bd 3c3d 0cc7 f4bc f465 4bbd fba7 fe3c
000003a0: ace1 403d 0d9f 9dbc 9425 eb3c d71d 09bd
000003b0: 6ca2 46bd 8402 5b3d 5b76 4a3c 4aa5 f9b9
000003c0: 6f2e 0ebd 5250 8e3d e2e9 20bd 3979 a3bd
000003d0: 0e8e 11bd 48c9 88bd 60b6 843d bd48 b53d
000003e0: b13e ad3c 3a40 ae3c 01f6 c2bc 4260 2a3d
000003f0: b2a9 a1bb cae2 873d bc80 d43c 2f7e aebc

fc3.bias f4 [5]
0.028825609 0.08760404 -0.06734469 0.049688477 0.11703693
00000000: af23 ec3c bf69 b33d 03ec 89bd 2586 4b3d
00000010: 0fb1 ef3d
