CC_Reinforce_version_3_copy/materails/state_dict_model_v13.pt (torch, 84159 bytes, 6 tensors)

fc1.weight f4 [128, 25]
0	0xbde88c03	-0.1135483
1	0x3e0d1521	0.13777591
2	0xbe3564d7	-0.17714249
3	0xbe13e332	-0.14442137
4	0x3dc80142	0.09765865
5	0xbd818a06	-0.06325154
6	0x3c43e7b0	0.011957094
7	0x3cf528d0	0.029926687
8	0xbe169c8e	-0.14708158
9	0xbe38d482	-0.18049815
10	0xbe266cfd	-0.16252513
11	0xbd9e8fca	-0.07742269
12	0xbdedc8bd	-0.116105534
13	0x3d168b34	0.03675385
14	0xbd8966d6	-0.067090675
15	0xbe37dcaa	-0.1795527
16	0x3da90e9e	0.08254741
17	0xbda9aeed	-0.082853176
18	0xbe0a5528	-0.13509047
19	0xbe2c82e0	-0.168468
20	0x3db0b192	0.08627619
21	0xbd9697ac	-0.07353148
22	0x3dfe88ae	0.12428413
23	0xba2f8800	-0.0006695986
24	0x3df64cce	0.12026368
25	0x3d6cc728	0.057807118
26	0xbe0711da	-0.13190404
27	0x3dfca259	0.12335653
28	0x3e07c484	0.13258559
29	0x3d814978	0.06312841
30	0xbe06a9a6	-0.13150653
31	0x3dcf6fcc	0.101287454
32	0x3dac485d	0.0841224
33	0xbdf2f243	-0.11862614
34	0x3d046cb4	0.03233023
35	0xbe1541e4	-0.14575917
36	0xbe428afa	-0.18998328
37	0xbdaf28a2	-0.08552672
38	0xbdf06d9c	-0.11739656
39	0x3e271ae4	0.16318852
40	0xbd8190ad	-0.06326423
41	0x3acf28f2	0.0015805049
42	0xbe232436	-0.15931782
43	0x3df4cf03	0.11953547
44	0xbcb7c953	-0.022434866
45	0x3d396bb6	0.045268737
46	0x3d485b04	0.048914924
47	0x3e23271b	0.15932886
48	0xbd14dabe	-0.03634142
49	0xbe253e83	-0.16137128
50	0xbe3dd09d	-0.18536611
51	0xbd821fe0	-0.06353736
52	0xbe2616dd	-0.16219659
53	0x3c186c30	0.009303138
54	0xbc15f280	-0.009152055
55	0xbda22960	-0.07918048
56	0xbd5d8c08	-0.054088622
57	0xbdb78e7d	-0.08962724
58	0xbe021bb2	-0.12705877
59	0x3e4adc07	0.19810496
60	0xbdf7eda3	-0.121058725
61	0xbe0c6084	-0.13708693
62	0xbdc73260	-0.09726405
63	0x3e2d48b1	0.16922261
64	0xbd68aa08	-0.05680278
65	0xbe203143	-0.15643792
66	0xbca18bc0	-0.019719958
67	0x3df844b6	0.121224806
68	0xbd0b6fcc	-0.034042165
69	0x3dcfc966	0.101458356
70	0x3d7e01ec	0.06201355
71	0x3e04bbb1	0.12962224
72	0x3dc7fbe2	0.0976484
73	0xbe2cfcdb	-0.16893332
74	0x3db20896	0.08693044
75	0xbc5c35e9	-0.013440588
76	0xbe325117	-0.17413746
77	0x3e31f054	0.17376834
78	0xbdf44493	-0.11927142
79	0x3d837e6d	0.06420598
80	0x3e29f72f	0.165982
81	0xbe30c5d0	-0.1726296
82	0xbe3cfcb9	-0.18455781
83	0x3d6d1767	0.057883646
84	0xbdda41e3	-0.10657098
85	0xbe4f9c97	-0.20274578
86	0x3d9b71b9	0.0759005
87	0x3d68c9d5	0.056833107
88	0xbd5d8824	-0.054084912
89	0x3e3e5552	0.18587235
90	0xbe13649f	-0.14393853
91	0xbe47e513	-0.19520979
92	0xbb82406f	-0.0039749662
93	0xbe401284	-0.18757063
94	0xbde45719	-0.11149425
95	0x3dd67b59	0.104727454
96	0x3dbfd1e5	0.09366206
97	0x3dd70873	0.104996584
98	0x3dce63c4	0.100776225
99	0x3d72826c	0.05920641
100	0xbd09e34b	-0.03366403
101	0xbd3d3ceb	-0.046200674
102	0x3d9081c5	0.070560016
103	0x3e11fe43	0.1425715
104	0xbe26ac17	-0.16276585
105	0x3e0b175a	0.13583127
106	0xbe2e48da	-0.17019978
107	0x3cc59a1f	0.024121342
108	0xbe7bf4de	-0.24605128
109	0xbe21cf6d	-0.15801783
110	0x3c9c1b48	0.019055977
111	0x3e43ca9a	0.19120255
112	0x3c1d64fb	0.009606595
113	0x3e34d6c3	0.1766005
114	0xbdcfd015	-0.101471104
115	0xbdbda42b	-0.09259828
116	0x3dc0fb6b	0.09422954
117	0x3d8794d8	0.066201866
118	0x3cb01890	0.021496087
119	0xbe178cc3	-0.1479979
120	0xbc37d8a4	-0.011221085
121	0xbc67f998	-0.014158629
122	0x3e1001a4	0.14063126
123	0x3dc0eef0	0.09420574
124	0xbe2b6e82	-0.16741374
125	0xbcef6190	-0.029221326
126	0x3d9cb63e	0.076519474
127	0x3d803712	0.06260504
128	0xbe4767bb	-0.19473164
129	0x3e238831	0.15969922
130	0xbe24d516	-0.16096911
131	0xbd3bebe8	-0.045879275
132	0xbc393760	-0.011304706
133	0xbe48604a	-0.19567981
134	0xbe28b74b	-0.1647617
135	0xbe18824b	-0.14893453
136	0xbdedb193	-0.11606135
137	0xbdc85207	-0.097812705
138	0xbdf9d7e7	-0.12199383
139	0xbbd8a5a0	-0.006611541
140	0x3c572050	0.0131302625
141	0x3d0fd7f4	0.03511806
142	0x3e1ed681	0.15511514
143	0x3bc06760	0.0058716983
144	0xbe1e6bc2	-0.15470794
145	0xbe489bcf	-0.19590686
146	0x3e2bc031	0.16772534
147	0x3dca710e	0.09884845
148	0xbc33f300	-0.010983229
149	0x3ca82ea8	0.02053006
150	0x3d587d35	0.05285378
151	0x3d1cdaa2	0.038294442
152	0x3e280caa	0.16411081
153	0xbd155a4b	-0.036463063
154	0x3c947f7f	0.018127201
155	0x3e0307e0	0.12795973
156	0x3bf9ebb9	0.0076269773
157	0xbcce3194	-0.025170125
158	0xbdb0f2d0	-0.08640063
159	0xbdcb3c5f	-0.09923624
160	0xbe14e646	-0.14540967
161	0x3dad4634	0.08460656
162	0xbd4d32c6	-0.05009725
163	0xbdc35d20	-0.095392466
164	0x3e43f08e	0.19134733
165	0xbe141189	-0.14459814
166	0xbdbfab05	-0.09358791
167	0x3b65b2c2	0.0035049175
168	0xbcd0faf4	-0.025510289
169	0xbe2ac9ce	-0.16678545
170	0xbe0b42d2	-0.13599709
171	0x3e2151b2	0.1575382
172	0xbe093459	-0.13398875
173	0x3d98c524	0.074594766
174	0x3d876454	0.06610933
175	0x3a8fb66e	0.0010964402
176	0x3e001d5c	0.125112
177	0x3d8a0895	0.06739918
178	0xbe080ebf	-0.13286875
179	0xbbb7d64e	-0.005610264
180	0x3e171524	0.14754158
181	0xbba25f76	-0.0049552275
182	0xbe027369	-0.12739338
183	0xbccc9ee2	-0.024978105
184	0x3d8f3b60	0.06993747
185	0x3e0ef8e8	0.13962138
186	0x3e03dba0	0.12876749
187	0x3ddd9430	0.1081928
188	0x3e06893e	0.13138291
189	0xbd30dbb9	-0.043178294
190	0x3e452262	0.19251397
191	0xbdf76bd0	-0.120811105
192	0xbbfe41a8	-0.0077592917
193	0xbe08b98c	-0.1335203
194	0xbdb735cf	-0.0894581
195	0x3e481434	0.19538957
196	0x3dd3efbe	0.103484616
197	0x3d7432b4	0.059618667
198	0xbddb9347	-0.1072145
199	0xbd90f51c	-0.07078001
200	0x3e34163d	0.17586608
201	0x3dde0455	0.1084067
202	0x3df61171	0.120150454
203	0x3e4cc1c1	0.19995786
204	0xbcfe10c9	-0.031013863
205	0x3e3d6d67	0.18498765
206	0xbe21ba3c	-0.15793699
207	0xbd7a3e58	-0.061094612
208	0xbe5ce84a	-0.21572986
209	0xbdec87a8	-0.11549312
210	0xbc350348	-0.011048146
211	0x3e53e92d	0.20694418
212	0xbdaf9f05	-0.085752524
213	0xbcf0324d	-0.02932086
214	0x3d3b8851	0.0457843
215	0x3e268c2d	0.1626441
216	0xbe298dd2	-0.16558006
217	0x3dd2a05b	0.10284492
218	0x3d391078	0.04518172
219	0xbd16f5a3	-0.03685535
220	0xbdd11cc8	-0.10210568
221	0xbddcb28b	-0.10776242
222	0x3d8aa28b	0.06769284
223	0x3e062e1f	0.13103531
224	0x3e19861b	0.14992563
225	0x3dd9f19b	0.10641786
226	0x3d77f9ee	0.060541086
227	0xbdbc445e	-0.091927275
228	0x3cba432a	0.022737104
229	0xbdbf7d65	-0.09350089
230	0x3c5324bf	0.012887179
231	0xbe171002	-0.147522
232	0x3e6dab27	0.2320982
233	0xbc71647a	-0.014733428
234	0xbd930ba4	-0.07179955
235	0xbd5f5a20	-0.05452931
236	0x3e540e1e	0.2070851
237	0x3e70efc3	0.23528962
238	0x3e212ee6	0.15740547
239	0x3decebd3	0.115684174
240	0xbdd7e375	-0.10541431
241	0xbd7f9e3b	-0.06240676
242	0xbdd88ebd	-0.105741
243	0xbe42bcfb	-0.19017403
244	0xbe408300	-0.18799973
245	0x3dfdcc5d	0.12392495
246	0x3dc89208	0.09793478
247	0x3da13b79	0.07872672
248	0xbe082682	-0.1329594
249	0x3d4eb23c	0.050462946
250	0x3c0a8194	0.008453745
251	0x3d05f97c	0.03270863
252	0x3d5246d8	0.051337093
253	0x3e37bfd3	0.17944269
254	0xbca3a300	-0.019975185
255	0x3c10fc52	0.00884922

fc1.bias f4 [128]
0	0xbc7fad30	-0.015605256
1	0x3e038d28	0.12846816
2	0x3dd56c3a	0.10421033
3	0x3d5b3725	0.053519387
4	0x3e424b18	0.18973958
5	0xbdfc5eb7	-0.12322753
6	0xbe1b40af	-0.15161394
7	0xbd0c11d3	-0.034196686
8	0xbe0edbd5	-0.13951047
9	0xbb983697	-0.0046451795
10	0x3db0afec	0.086273044
11	0xbd0f49c0	-0.034982443
12	0xbe1eaa6a	-0.15494695
13	0xbe12a117	-0.14319263
14	0xbe479a0d	-0.1949236
15	0x3da9a1ca	0.08282812
16	0xbde6f60e	-0.112774
17	0x3da42832	0.08015479
18	0x3e1f69f0	0.15567756
19	0x3e35087d	0.1767902
20	0xbdbbce25	-0.09170178
21	0x3e16f681	0.14742471
22	0x3e51dff4	0.20495588
23	0xbc96dff3	-0.018417334
24	0xbe30e92c	-0.17276448
25	0xbe12b512	-0.14326885
26	0x3e135d08	0.14390957
27	0xbdf71a02	-0.120655075
28	0x3e3cc9e5	0.18436392
29	0x3e0565fd	0.13027187
30	0xbbf573ad	-0.0074905963
31	0x3e1f2965	0.15543135
32	0x3c99e8c0	0.018787742
33	0xbe144355	-0.1447881
34	0x3cf96ff0	0.030448884
35	0xbdce3c03	-0.1007004
36	0x3d852b45	0.06502394
37	0x3c4ff1ee	0.012691958
38	0xbd5109a1	-0.051034573
39	0x3ded3e13	0.11584105
40	0x3dad83be	0.084723935
41	0x3c0c6f2a	0.008571425
42	0xbdeeacdd	-0.11654065
43	0xbd5445ac	-0.051824257
44	0x3ad78556	0.0016442935
45	0xbd522f0c	-0.0513144
46	0x3b84fd29	0.0040584994
47	0xbe003f61	-0.12524177
48	0x3dd34c79	0.103173204
49	0xbd145dac	-0.036222145
50	0x3d446f28	0.04795757
51	0x3e403f2c	0.18774098
52	0xbdf54ed1	-0.11977924
53	0xbe189755	-0.14901479
54	0x3e077883	0.13229565
55	0x3d0645c3	0.032781374
56	0xbca65b01	-0.020307066
57	0x3d967cf5	0.073480524
58	0x3d52198c	0.051293895
59	0xbe25541e	-0.1614537
60	0xbddf401c	-0.109009
61	0x3e103d77	0.14085947
62	0x3cb204c4	0.021730788
63	0x3d634fa9	0.05549589
64	0x3da1c105	0.07898144
65	0xbcf51611	-0.029917749
66	0x3d7e6831	0.062111083
67	0x3cb260c0	0.02177465
68	0xbd9c7733	-0.07639923
69	0x3b243682	0.0025056903
70	0xbe154910	-0.14578652
71	0xbd8eaa53	-0.069660805
72	0xbe086334	-0.13319093
73	0xbdb55351	-0.08853782
74	0xbde5921b	-0.11209508
75	0x3e162559	0.14662685
76	0xbe216a15	-0.15763123
77	0xbccee315	-0.025254766
78	0xbdfd7159	-0.12375135
79	0x3dc34477	0.09534543
80	0x3e57bd42	0.2106829
81	0xbe195786	-0.14974794
82	0x3d659313	0.056048464
83	0xbd86a9fc	-0.06575391
84	0x3cea796b	0.02862235
85	0x3d8c4c55	0.06850497
86	0xbcaff216	-0.02147774
87	0x3e5e3097	0.21698223
88	0x3e033976	0.12814888
89	0xbe416e78	-0.18889797
90	0xbe08b855	-0.13351567
91	0xbe27c764	-0.16384655
92	0x3d7851e0	0.060624957
93	0xbe49a9bc	-0.19693655
94	0xbe0d6a97	-0.13810192
95	0x3d89ce83	0.06728842
96	0x3dc05b30	0.09392393
97	0x3dc2252f	0.094797485
98	0x3de385a1	0.11109472
99	0xbe5308a0	-0.20608759
100	0xbe18b2e3	-0.1491199
101	0xbc141280	-0.009037614
102	0x3e056ec9	0.13030542
103	0x3ddd1802	0.10795595
104	0x3d1ecb54	0.038768128
105	0xbdce443d	-0.10071609
106	0x3cd35644	0.02579797
107	0xbd84aede	-0.06478666
108	0xbd3438de	-0.043999545
109	0xbce63f23	-0.028106278
110	0xbd964cd4	-0.073388726
111	0xbdbf619e	-0.09344791
112	0xbc9f1536	-0.019419294
113	0xbd80e2db	-0.06293269
114	0xbdd97b6d	-0.10619245
115	0xbd445782	-0.047935016
116	0x3dd8f049	0.10592706
117	0xbe24a65c	-0.16079086
118	0x3db5f3cd	0.08884392
119	0x3e06c097	0.13159405
120	0xbe103b95	-0.14085229
121	0xbe2297a6	-0.15878162
122	0x3e380a6d	0.17972727
123	0x3e0543e2	0.13014176
124	0x3cdf4b63	0.027257627
125	0xbb0cfad1	-0.0021511803
126	0x3dc13e48	0.09435707
127	0xbdfa2dba	-0.12215753

fc2.weight f4 [128, 128]
0	0xbda1b310	-0.078954816
1	0xbc4c5f18	-0.012473844
2	0x3daaee47	0.08346229
3	0xbcdbbc7c	-0.026823275
4	0xbdabbe13	-0.08385863
5	0xbdb43564	-0.08799246
6	0x3d68e102	0.05685521
7	0xbc9e37f9	-0.0193138
8	0x3d0a5efe	0.033781998
9	0x3cb24fcb	0.021766564
10	0x3c158d0d	0.009127867
11	0xbd5ea349	-0.05435494
12	0xbd82a74e	-0.06379567
13	0x3b0cb276	0.0021468676
14	0x3d9c3cfd	0.0762882
15	0x3d099bee	0.03359597
16	0xbd5ab4d9	-0.053395126
17	0x3bb92038	0.0056495927
18	0xbd17824d	-0.0369895
19	0xbd125cd8	-0.035733074
20	0xbd04256a	-0.032262243
21	0x3da5a59b	0.08088227
22	0x3d8b1ecd	0.06792984
23	0xbcf5a881	-0.029987575
24	0xbd90ec86	-0.07076363
25	0x3ca48e1c	0.020087294
26	0x3d25821b	0.04040728
27	0x3d822795	0.06355206
28	0xbd985982	-0.07438947
29	0x3c26ceef	0.010181173
30	0xbd76e657	-0.060278263
31	0x3d8c34c5	0.068460025
32	0xbd81f8a2	-0.06346251
33	0x3da59625	0.080852784
34	0xbdae592c	-0.08513102
35	0x3d6c9652	0.057760544
36	0x3d3715d3	0.044698548
37	0xbd90ee6b	-0.070767246
38	0xbc321b93	-0.010870832
39	0x3bb719c0	0.0055877864
40	0x3c923734	0.017848589
41	0xbd6efe4a	-0.058347978
42	0xbdb489c1	-0.08815337
43	0x3d1bf176	0.038072072
44	0xbced6680	-0.02897954
45	0xbd5b7a5d	-0.05358349
46	0x3da1fa8b	0.079091154
47	0x3d51e72e	0.05124586
48	0xbcec9145	-0.028877864
49	0xbd27661d	-0.040868867
50	0xbd488cc8	-0.048962384
51	0xbd1f48d7	-0.038887825
52	0xbc83bbbc	-0.01608073
53	0xbd0c8c6c	-0.034313604
54	0x3d6bcfee	0.057571344
55	0xbc8cd044	-0.017189153
56	0xbad5e05a	-0.0016317472
57	0x3c6b1bad	0.01434986
58	0xbbc60000	-0.0060424805
59	0x3d71cf40	0.05903554
60	0x3d4d16e1	0.050070647
61	0xbd90ebca	-0.07076223
62	0xbcb71a3c	-0.022351377
63	0x3cb3bb9e	0.021940049
64	0x3d0a7fac	0.033813164
65	0xbd2c8644	-0.042120233
66	0xbc3e8c80	-0.0116301775
67	0xbd230730	-0.039801776
68	0xbd50c83b	-0.050972205
69	0xbca14e7e	-0.019690748
70	0xbd39e22a	-0.045381702
71	0x3d180700	0.03711605
72	0xbd9f967b	-0.07792374
73	0xbc4588ee	-0.012056572
74	0xbd20c568	-0.03925076
75	0xbcfc40ba	-0.030792583
76	0x3ac34d00	0.0014900267
77	0xbc86adf5	-0.016440371
78	0x3db33bab	0.08751615
79	0x3d654352	0.055972405
80	0x3d82067e	0.063488945
81	0xbd214742	-0.039374597
82	0x3d6d82d7	0.057986107
83	0xbd9bfc02	-0.07616426
84	0xbc1a521f	-0.009418993
85	0xbcd24af4	-0.025670506
86	0x3d24a553	0.040196728
87	0xbd55304e	-0.05204802
88	0x3d8e9c97	0.06963461
89	0x3da00c35	0.07814828
90	0xbdab04aa	-0.08350499
91	0x3d909daf	0.07061326
92	0xbd78e653	-0.06076653
93	0x3b2be7a0	0.0026230589
94	0xbda27538	-0.07932514
95	0xbd06f46e	-0.03294795
96	0xbd0f353b	-0.034962874
97	0xbdadb001	-0.08480836
98	0x3b168c7c	0.0022971919
99	0x3d9af1c5	0.07565645
100	0xbc8f6ca8	-0.017507866
101	0xbd0bc639	-0.034124587
102	0x3d9de4ef	0.07709681
103	0xbce6e4bc	-0.02818524
104	0x3d9306d3	0.07179036
105	0xbda26fd0	-0.07931483
106	0xbd984a07	-0.074359946
107	0xbdb29e86	-0.08721642
108	0xbd3cd969	-0.046105776
109	0x3d1d36bb	0.038382273
110	0x3d8f22f1	0.069890864
111	0x3d36cfd2	0.044631787
112	0xbd5e3969	-0.05425397
113	0xbd0a9a80	-0.03383875
114	0x3d641a9c	0.05568944
115	0xbd426ab0	-0.047465026
116	0xbb3ed460	-0.0029118285
117	0x3c52cba8	0.012865938
118	0xbc840464	-0.016115375
119	0xbced533c	-0.028970353
120	0x3d644bba	0.05573628
121	0xbd465844	-0.04842402
122	0x3cfa0d1c	0.03052383
123	0x3b8433d6	0.0040344996
124	0x3d0c7881	0.03429461
125	0xbc7ae353	-0.015312987
126	0xbb7030db	-0.0036650214
127	0x3c2996c3	0.010350886
128	0xbdad8575	-0.084727205
129	0xbd81d97e	-0.063403115
130	0xbd61e74a	-0.055152215
131	0xbc7d5c58	-0.015463911
132	0x3d78af12	0.060713835
133	0x3d8ff95b	0.07029983
134	0x3d2c3b22	0.04204858
135	0xbc5b4c98	-0.013384961
136	0xbd995282	-0.0748644
137	0x3d81112b	0.06302103
138	0x3db460df	0.08807539
139	0xbda753fe	-0.08170317
140	0xbd95c510	-0.07312977
141	0xbce22d20	-0.027609408
142	0x3ceac1e8	0.028656915
143	0xbdace647	-0.084423594
144	0xbd37aed2	-0.044844456
145	0xbd4c218b	-0.049836677
146	0xbd4cb576	-0.049977742
147	0x3c02f418	0.007992767
148	0x3dad1bd1	0.08452571
149	0x3d513162	0.051072486
150	0xbd886fc2	-0.06661941
151	0x3c24b368	0.010052539
152	0x3d5f5bda	0.054530956
153	0x3db46b99	0.08809585
154	0x3da48ee1	0.080350645
155	0xbcb32384	-0.021867521
156	0xbcd93018	-0.02651219
157	0x3d6464f6	0.055760346
158	0x3be31b30	0.0069307312
159	0xbd38358f	-0.044972952
160	0x3daaba67	0.08336335
161	0xbd23d618	-0.039999098
162	0x3d262d46	0.04057052
163	0xbd6063d7	-0.054782715
164	0xbd7ab848	-0.0612109
165	0x3cb02378	0.021501288
166	0x3d4633e6	0.048389338
167	0xbd2745a2	-0.04083789
168	0xbd88a019	-0.06671161
169	0x3da81ef5	0.082090296
170	0xbc124a80	-0.008928895
171	0xbdabf594	-0.0839645
172	0x3d0527c8	0.03250864
173	0xbd59ed8e	-0.053205065
174	0x3bb0f8b0	0.0054007396
175	0xbd15f512	-0.03661067
176	0xbcf63802	-0.030056003
177	0xbd5e200f	-0.054229792
178	0xbc741e50	-0.014899805
179	0xbd2e5b60	-0.04256761
180	0xbd8b36ed	-0.06797586
181	0xbd4264d9	-0.047459457
182	0x39b0e500	0.00033739954
183	0x3cefb5f8	0.029261574
184	0xbd4b3244	-0.049608484
185	0xbc5b2450	-0.013375357
186	0xbd7bd08a	-0.061478175
187	0xbd9eafdc	-0.07748386
188	0x3d8b1741	0.06791545
189	0xbbf503a0	-0.007477239
190	0x3d8120af	0.06305062
191	0xbaabc700	-0.0013105571
192	0xbcb37d4c	-0.021910332
193	0x3d709b0a	0.058741607
194	0xbc6a2da8	-0.014293112
195	0xbdad10fb	-0.084505044
196	0x3d116f84	0.03550674
197	0xbd8fccc9	-0.070214815
198	0x3d8ce559	0.06879682
199	0x3cf3bb14	0.029752292
200	0xbcf31b52	-0.029676113
201	0xbb007f00	-0.0019606948
202	0xbd20983a	-0.039207675
203	0xbd8bfec2	-0.068357006
204	0x3d5a7132	0.053330608
205	0x3cf519ec	0.029919587
206	0x3c5f19c0	0.013616979
207	0xbd9838d6	-0.074327156
208	0x3b9dd730	0.004816912
209	0xbd8c6017	-0.06854265
210	0xbc0db678	-0.008649461
211	0xbd05ffdf	-0.03271472
212	0x3d01b89e	0.031670205
213	0xbb3ab040	-0.00284864
214	0xbcc2a8a0	-0.023762047
215	0x3caf2b08	0.021382824
216	0xbd4c7fca	-0.049926557
217	0xbc248678	-0.0100418255
218	0x3d9e7cb3	0.07738628
219	0xbd744102	-0.05963231
220	0x3d42dc36	0.04757329
221	0xbcc32eb4	-0.02382598
222	0x3c20aa88	0.009806283
223	0x3c615dd8	0.013755284
224	0x3ce5a8a8	0.028034523
225	0x3dafd4bf	0.085855
226	0x3d1fe0da	0.039032795
227	0x3cdafb74	0.02673123
228	0x3d08fc24	0.033443585
229	0xbd1faca9	-0.03898302
230	0x3d0640c0	0.032776594
231	0x3d442c72	0.04789395
232	0xbd1fd85b	-0.039024692
233	0xbcbd4628	-0.023104742
234	0x3d8ecbcb	0.06972464
235	0xbcb0d898	-0.021587655
236	0x3c818268	0.015809253
237	0xbc9fab20	-0.019490778
238	0xbcb05ef0	-0.021529645
239	0xbc7997e8	-0.015233971
240	0xbd69fbdb	-0.057124954
241	0x39e85300	0.00044312328
242	0xbda29793	-0.07939067
243	0xbd940ba7	-0.07228785
244	0x3d686336	0.05673524
245	0x3c918ba4	0.017766781
246	0xbcf3eb18	-0.029775187
247	0x3db3b407	0.08774572
248	0xbd877830	-0.06614721
249	0xbd3c8333	-0.04602356
250	0x3d2755e2	0.04085339
251	0xbcd436e8	-0.025905088
252	0xbdb22b06	-0.08699612
253	0x3c777a20	0.0151048
254	0xbd19d4ad	-0.03755634
255	0xbc7c3ed8	-0.0153958425

fc2.bias f4 [128]
0	0x3bcb3da0	0.0062024146
1	0x3d34bef6	0.044127427
2	0xbc81f201	-0.015862467
3	0x3c49f864	0.012327287
4	0x3c95fb11	0.018308194
5	0x3c8f8061	0.01751727
6	0x3b256b02	0.0025240784
7	0x3d373e15	0.04473694
8	0x3d94cf4a	0.072661
9	0x3da07e61	0.07836605
10	0xbc9f3e24	-0.01943881
11	0xbbb30e49	-0.0054643494
12	0xbd0e7592	-0.034780093
13	0x3d9666d1	0.073438294
14	0x3d9b8dcf	0.07595407
15	0xbc2682e0	-0.010163039
16	0x3d4d8aba	0.050181128
17	0xbd87c3a2	-0.06629111
18	0x3dcbc149	0.099489756
19	0xbc3ba759	-0.011453473
20	0xbd77a8a8	-0.060463578
21	0x3a64b8d3	0.0008725051
22	0xbcc5f630	-0.024165243
23	0x3d9e6216	0.07733552
24	0x3cf18f94	0.029487409
25	0x3d0e61f2	0.034761377
26	0x3c8d867a	0.017276037
27	0x3d54f465	0.051990885
28	0x3d981baf	0.07427155
29	0x3d8da630	0.069164634
30	0x3d3b5329	0.045733605
31	0xbc3ed3cb	-0.011647175
32	0x3dcd1422	0.10013606
33	0xbd9a0968	-0.07521325
34	0x3dc5957e	0.09647654
35	0xbd6ba63e	-0.057531588
36	0xbd0f234d	-0.034945775
37	0xbd724926	-0.05915179
38	0x3db93f87	0.0904532
39	0x3dc5079b	0.09620591
40	0xbd4393b2	-0.047748275
41	0xbd705cd1	-0.058682267
42	0xbb60c1f3	-0.003429529
43	0x3c129741	0.008947195
44	0x3d888eeb	0.066678844
45	0xbd90b9e0	-0.07066703
46	0xbbc7ccce	-0.0060974127
47	0x3d726231	0.059175674
48	0xbcdd0913	-0.026981866
49	0x3d3b523c	0.04573272
50	0x3d123113	0.035691332
51	0xbcf7a087	-0.030227913
52	0xbb4765ed	-0.0030425743
53	0x3d2c0062	0.041992553
54	0xbd327086	-0.043564342
55	0xbc64af50	-0.013957813
56	0xbd8232df	-0.06357359
57	0x3be3fe01	0.00695777
58	0xbdb12f93	-0.08651652
59	0xbd0c2b01	-0.0342207
60	0x3d3e1777	0.046409097
61	0xbd95e11a	-0.07318325
62	0xbd8702a3	-0.065923
63	0x3c089734	0.008336831
64	0x3d18b9e2	0.037286647
65	0x3d496aea	0.049174227
66	0x3d85a630	0.065258384
67	0x3d9b8cf0	0.07595241
68	0xbdad1c46	-0.08452658
69	0x3c0de3f1	0.0086603025
70	0x3d6d5fe9	0.057952795
71	0x3da2561f	0.079265825
72	0x3c8d9733	0.017284011
73	0x3dbb8350	0.09155905
74	0xbda1f905	-0.07908825
75	0xbcf15587	-0.029459728
76	0xbca549b0	-0.020176739
77	0xbd7d9a3c	-0.061914667
78	0x3c8968c2	0.016773585
79	0x3d77acf7	0.060467687
80	0x3b926e25	0.0044686967
81	0x3d257221	0.040392045
82	0xbca67e30	-0.020323843
83	0x3d56e2f1	0.052462522
84	0x3dd2cef3	0.10293379
85	0xbc1d5b6a	-0.009604314
86	0x3d3ae6aa	0.045630135
87	0xbd7f902b	-0.06239335
88	0xbcb70762	-0.022342388
89	0x3cc52632	0.024066065
90	0xbc69a662	-0.01426086
91	0x3d5f2f70	0.0544886
92	0x3d1d0c0f	0.038341578
93	0xbd636d10	-0.055523932
94	0x3d47adf4	0.04874988
95	0xbd8a5124	-0.067537576
96	0xbd7a38fe	-0.06108951
97	0x3da27beb	0.07933792
98	0x3b160860	0.0022893175
99	0xbdbf3b58	-0.09337491
100	0x3d5cb720	0.05388558
101	0xbd575b09	-0.052577052
102	0x3d4b22d7	0.049593773
103	0x3de2cdce	0.110744104
104	0x3da692ee	0.08133493
105	0xbca9ee65	-0.020743558
106	0x3d462cab	0.048382442
107	0x3cf5a113	0.029984033
108	0xbd042b91	-0.03226811
109	0xbd91d2dd	-0.07120297
110	0xbd4e05c5	-0.05029847
111	0xbdbeaaf2	-0.09309949
112	0xbd2fecfc	-0.042950615
113	0x3d6fb917	0.058526125
114	0xbb678440	-0.003532663
115	0x3c935271	0.017983647
116	0x3cb51591	0.02210501
117	0xbc05b716	-0.008161327
118	0x3d4b7457	0.049671497
119	0xbd6810d9	-0.056656692
120	0x3d9163e5	0.070991315
121	0x3d685540	0.056721926
122	0x3cb01ba2	0.021497551
123	0xbdad8830	-0.08473241
124	0xbbebbda0	-0.007194236
125	0x3c28e0b2	0.010307478
126	0x3d0060e8	0.031342417
127	0x3d82b6d5	0.06382529

fc3.weight f4 [5, 128]
0	0xbd2e8362	-0.042605765
1	0xbd64fb5f	-0.05590379
2	0xbd038fbf	-0.03211951
3	0x3c03f448	0.008053847
4	0xbc2b8da3	-0.010470781
5	0xbdc6ed40	-0.097132206
6	0x3c7219e3	0.01477668
7	0x3c87e1c4	0.016587146
8	0x3d66c87c	0.05634354
9	0x3d111d1b	0.035428148
10	0xbd994d66	-0.07485466
11	0x3d20d048	0.039261132
12	0xbd876f90	-0.06613076
13	0x3d995527	0.07486945
14	0xbc173382	-0.009228589
15	0x3c597a18	0.013273738
16	0xbd188da7	-0.037244465
17	0xbd4847ed	-0.04889672
18	0x3ce2dc65	0.027692983
19	0x3da4f19d	0.080538966
20	0xbdc2af47	-0.09506088
21	0xbd6f3404	-0.058399215
22	0x3be1eb0d	0.0068944753
23	0x3d0a4f32	0.033766933
24	0xbc869698	-0.01642923
25	0xbc141ab1	-0.009039567
26	0xbd7ca19f	-0.06167757
27	0xbd6ae372	-0.057345815
28	0xbd5d2046	-0.053985856
29	0x3cb2f4b0	0.021845192
30	0x3bc2a6c3	0.0059402897
31	0x3c0387c1	0.008027972
32	0xbdb151b1	-0.086581595
33	0xbc041f60	-0.008064121
34	0xbda83005	-0.08212284
35	0xbcac1b18	-0.021009013
36	0x3da54a59	0.08070821
37	0x3d868b1d	0.065695025
38	0xbd13ccf1	-0.03608412
39	0xbd4184f2	-0.047245927
40	0xbd65d24b	-0.056108754
41	0x3ce9e697	0.028552337
42	0x3d1eabdd	0.03873812
43	0xbcef0259	-0.029175924
44	0x3d01e7a3	0.031715047
45	0xbda485a5	-0.08033303
46	0x3d55471b	0.052069765
47	0x3caf7fc6	0.021423232
48	0xbd585e43	-0.05282427
49	0xbd840a23	-0.06447246
50	0xbb6d3835	-0.0036196832
51	0x3d3a03e8	0.04541388
52	0xbc498dab	-0.012301843
53	0x3d87a3d1	0.066230424
54	0x3bee0a00	0.0072643757
55	0x3c99181a	0.01868825
56	0xbc72e230	-0.014824435
57	0x3da04bc8	0.07826954
58	0xbda3a6d4	-0.07990804
59	0x3cf572d0	0.029961973
60	0xbc5e124e	-0.013554169
61	0xbd518d49	-0.05116013
62	0xbdb36ffb	-0.08761593
63	0xbd5af715	-0.053458292
64	0x3d2b1ca7	0.041775372
65	0x3b977cda	0.0046230378
66	0xbd15d63b	-0.03658126
67	0xbce620c6	-0.0280918
68	0x3d801db2	0.06255664
69	0x3d5a26a4	0.053259507
70	0xbd187ca9	-0.03722826
71	0x3d165aac	0.036707565
72	0x3d948f2c	0.0725387
73	0x3be53585	0.0069949054
74	0x3d740160	0.059571624
75	0x3b6dd59a	0.0036290647
76	0x3cb7060c	0.02234175
77	0xbd963fee	-0.07336412
78	0xbd92df44	-0.07171491
79	0x3d23c54b	0.039983075
80	0xbd9741f1	-0.07385624
81	0xbcee24e6	-0.029070329
82	0xbcf58a54	-0.029973187
83	0xbc5105f7	-0.01275777
84	0x3d38d91f	0.045128938
85	0xbd6cafac	-0.05778472
86	0xbd5f799d	-0.05455934
87	0xbd8617b6	-0.06547491
88	0x3d8ab40f	0.06772625
89	0x3cb965e9	0.022631602
90	0x3d48e525	0.049046654
91	0xbd9e1129	-0.07718117
92	0x3da45d93	0.0802566
93	0xbd34fdbc	-0.044187292
94	0x3d5ef8a3	0.054436337
95	0x3d35c47e	0.044376843
96	0x3bd470d0	0.006483175
97	0xbd811de9	-0.06304533
98	0x3cdfc603	0.027316099
99	0x3d50e47a	0.050999142
100	0x3d0080bb	0.031372767
101	0x3d88d399	0.06680984
102	0xbd833319	-0.064062305
103	0x3bbcfea3	0.0057676597
104	0xbd960134	-0.07324448
105	0x3c5a54c1	0.013325871
106	0x3d863301	0.06552697
107	0xbcbe14ec	-0.023203336
108	0xbd01e227	-0.031709816
109	0xbdb1755d	-0.086649634
110	0x3c0f4a08	0.008745678
111	0xbd8038d7	-0.06260841
112	0xbdce42b2	-0.10071315
113	0xbc9714b0	-0.018442482
114	0x3d5aa52a	0.05338017
115	0x3d1b5698	0.03792438
116	0x3c803e83	0.015654808
117	0xbc5944d9	-0.0132610435
118	0xbd74300b	-0.05961613
119	0x3c9aeeb5	0.018912653
120	0xbd822898	-0.06355399
121	0xbd162848	-0.03665951
122	0x3bd28e5d	0.0064256624
123	0xbdacaf2f	-0.08431851
124	0x3d6b4b36	0.057444774
125	0xbdac4f07	-0.08413511
126	0x3db17045	0.08663992
127	0x3b296aaa	0.002585093
128	0x3c9a9270	0.018868655
129	0x3bea3990	0.0071479753
130	0xbc7a6704	-0.01528335
131	0xbbeb2133	-0.0071755885
132	0xbd09f31f	-0.033679124
133	0xbd31ac52	-0.043377228
134	0xbd35122d	-0.044206787
135	0xbd79294e	-0.060830407
136	0x3d93508f	0.071931
137	0x3d09ab09	0.033610377
138	0xbd611597	-0.05495223
139	0x3c7ed8e8	0.015554644
140	0x3d9a1215	0.0752298
141	0xbdafc842	-0.08583118
142	0x3d2fc454	0.042911842
143	0x3d1d263a	0.038366534
144	0x3d85deb1	0.06536616
145	0xbbc0ae00	-0.0058801174
146	0x3cb219f1	0.021740885
147	0xbd9a52be	-0.07535313
148	0xbc11e0da	-0.008903706
149	0xbd07db08	-0.03316787
150	0x3cee6bfc	0.029104225
151	0x3d6f72a7	0.05845895
152	0xbd06c209	-0.03289989
153	0xbd9d3826	-0.07676725
154	0x3d9560b5	0.07293836
155	0x3d117e80	0.03552103
156	0xbd716eb3	-0.05894346
157	0xbd6fd4d4	-0.058552578
158	0xbd7a20ad	-0.06106632
159	0xbb6db33b	-0.003627016
160	0xbc1a735a	-0.009426916
161	0xbcb4ae41	-0.022055747
162	0x3d6f6a3a	0.058450915
163	0x3d0a4404	0.03375627
164	0x3d910757	0.07081478
165	0xbd2ac0af	-0.041687664
166	0xbc4c1f2b	-0.012458603
167	0x3d0c49f5	0.03425022
168	0x3d6f5b2a	0.05843655
169	0xbd28c458	-0.041202873
170	0x3dbe7517	0.09299677
171	0xbc0c9875	-0.00858127
172	0x3c259d64	0.010108326
173	0xbd662053	-0.05618317
174	0xbd588ff7	-0.05287167
175	0x3c97f7bf	0.018550752
176	0xbd2f6a38	-0.042825907
177	0xbc5de4e6	-0.013543343
178	0x3db1c207	0.08679586
179	0xbd9af3a2	-0.075660005
180	0xbd1ea3c2	-0.03873039
181	0x3c867124	0.016411372
182	0xbda95742	-0.08268596
183	0x3d362b13	0.044474673
184	0x3d5fbd1e	0.054623716
185	0xbd95f4b9	-0.07322068
186	0xbd996676	-0.07490246
187	0xbda6abfe	-0.08138274
188	0x3d962c84	0.073327094
189	0x3da3d7f4	0.08000174
190	0x3c0a3e48	0.008437701
191	0xbd2e30aa	-0.04252688
192	0xbd76edf9	-0.060285542
193	0x3d86f47c	0.065896004
194	0xbcf4a86d	-0.029865468
195	0x3d2cd214	0.042192534
196	0xbcd3d056	-0.025856178
197	0xbd89bf06	-0.06725888
198	0x3d68cb65	0.056834597
199	0x3da9e9a0	0.082965136
200	0xbd3de988	-0.04636529
201	0x3d0702ee	0.03296178
202	0x3d63fd7b	0.05566166
203	0x3d998169	0.07495386
204	0x3d2d0122	0.04223741
205	0x3d45362e	0.048147373
206	0x3c353c23	0.011061701
207	0xbce05dea	-0.027388532
208	0xbd15476a	-0.03644506
209	0x3d948024	0.072510034
210	0x3b414e98	0.0029496308
211	0x3cc7392a	0.02431925
212	0xbce6edba	-0.028189529
213	0x3c412576	0.011788717
214	0xbd84c912	-0.064836636
215	0xbd0a2c27	-0.033733513
216	0x3d7cb754	0.061698273
217	0x3d9dfb14	0.07713905
218	0x3ba7e76d	0.0051240236
219	0xbd49471d	-0.049140085
220	0xbd8f1e98	-0.06988257
221	0x3da0dd51	0.07854713
222	0xbc2cd833	-0.010549593
223	0xbcda203e	-0.026626702
224	0x3d9b5fc5	0.07586626
225	0x3c7aede7	0.015315509
226	0xbd817644	-0.063213855
227	0x3d8df84b	0.06932124
228	0xbd7aef6e	-0.061263494
229	0xbd8bdf45	-0.06829695
230	0x3d937817	0.0720064
231	0x3ced19c5	0.028942952
232	0x3db87516	0.09006707
233	0xbc0880a3	-0.008331451
234	0xbd47ae70	-0.04875034
235	0x3cc86e8e	0.02446678
236	0x3cde0c3f	0.027105449
237	0xbc76ca48	-0.015062876
238	0x3c65f102	0.0140345115
239	0x3d959945	0.073046245
240	0xbd0a3450	-0.033741295
241	0x3b56abbd	0.0032756173
242	0xbd3e867e	-0.04651498
243	0x3d94d0b1	0.07266367
244	0x3d234217	0.03985795
245	0x3bfe46c9	0.007759903
246	0x3d0fc808	0.035102874
247	0xbd834dde	-0.06411336
248	0xbc61adc2	-0.013774337
249	0x3d9884bd	0.07447193
250	0x3b206587	0.0024474578
251	0xbc8e287c	-0.017353289
252	0x3c919e34	0.017775632
253	0xbcbee629	-0.023303108
254	0xbd658975	-0.056039292
255	0x3cdf6c76	0.027273398

fc3.bias f4 [5]
0	0x3d12a6f9	0.03580377
1	0xbd953b46	-0.07286696
2	0xbd388630	-0.045049846
3	0x3c96a01a	0.01838689
4	0xbc864a51	-0.016392859
