CC_Reinforce_version_3_copy/materails/state_dict_model_v1.pt (torch, 84151 bytes, 6 tensors)

fc1.weight f4 [128, 25]
0	0xbdaab685	-0.08335594
1	0x3dca9d11	0.09893239
2	0xbe0e178c	-0.1387617
3	0xbdabf1f8	-0.08395761
4	0x3d39c402	0.045352943
5	0x3e44851e	0.19191405
6	0x3e41df5c	0.18932861
7	0x3df0e63a	0.11762662
8	0xbda29e9f	-0.07940411
9	0xbcd2430e	-0.02566674
10	0xbd89cec5	-0.06728891
11	0x3e55231d	0.20814176
12	0xbe147561	-0.14497901
13	0xbd5ab56c	-0.053395674
14	0x3c4f4390	0.0126503855
15	0x3e270db6	0.16313824
16	0xbd9d7e5b	-0.07690116
17	0x3d9b2c05	0.075767554
18	0xbe113965	-0.1418205
19	0x3cd0833c	0.025453202
20	0x3e22eaea	0.15909925
21	0x3df995e4	0.121867925
22	0xbdabca88	-0.08388239
23	0xbe0b7cea	-0.1362187
24	0xbd872059	-0.06597967
25	0x3e197f68	0.14990008
26	0x3ca8cd69	0.02060576
27	0x3d9a850b	0.07544907
28	0x3c7435d4	0.014905412
29	0xbde6f432	-0.11277045
30	0x3d5ee893	0.05442102
31	0xbdf52964	-0.11970785
32	0xbd2557c6	-0.04036691
33	0xbe09b3c3	-0.1344748
34	0x3e28b096	0.16473612
35	0x3d52128e	0.051287226
36	0xbdc303a1	-0.095221765
37	0x3dc34858	0.09535283
38	0xbdc53bbc	-0.09630534
39	0xbe1bc0a4	-0.15210205
40	0x3d9bc923	0.07606723
41	0x3e7623c5	0.24037082
42	0xbe3cc989	-0.18436255
43	0x3e09bccc	0.13450927
44	0x3dcbe48e	0.09955703
45	0x3d7a9813	0.061180186
46	0x3d175a7a	0.03695152
47	0xbe55d702	-0.208828
48	0x3d952b5f	0.07283663
49	0xbdcc0803	-0.099624656
50	0xbe2e930f	-0.17048286
51	0xbe35de5f	-0.17760609
52	0x3db7f6e6	0.08982639
53	0xbe26b4c6	-0.16279897
54	0x3d4f2224	0.05056967
55	0x3e419909	0.18906035
56	0x3df1fc26	0.118156716
57	0xbe2258d0	-0.15854192
58	0x3d3cc598	0.046086878
59	0x3e417975	0.18893988
60	0xbb7dd180	-0.0038729608
61	0x3e3accfd	0.1824226
62	0x3e13e001	0.1444092
63	0x3c81e7d8	0.015857622
64	0x3c9e3ed8	0.019317076
65	0xbe195d68	-0.14977038
66	0xbe2d2e88	-0.16912282
67	0xbcf29c70	-0.02961561
68	0xbe478012	-0.19482449
69	0x3df177e6	0.11790447
70	0xbdb5c0c3	-0.08874657
71	0xbe22fa08	-0.15915692
72	0x3daa527e	0.083165154
73	0xbe3b7775	-0.18307288
74	0x3d0c4394	0.034244135
75	0xbd5f8f9e	-0.054580323
76	0x3e186422	0.14881948
77	0x3d57b140	0.052659273
78	0x3dec1bc9	0.11528737
79	0x3e089952	0.13339737
80	0x3e33de1b	0.17565195
81	0xbcbf2fa0	-0.023338139
82	0xbe4e0a2b	-0.20121066
83	0xbde4fc24	-0.111809045
84	0x3dca4b39	0.09877629
85	0xbdb29547	-0.08719879
86	0x3e477bff	0.19480895
87	0x3d922b6e	0.0713719
88	0xbcc3b546	-0.023890149
89	0xbc8571e9	-0.016289668
90	0xbe07c15e	-0.13257357
91	0x3e058898	0.13040388
92	0xbe30f266	-0.17279968
93	0x3d92b1a7	0.07162791
94	0x3d117ef2	0.035521455
95	0x3e1d847f	0.15382574
96	0x3df06d0b	0.11739548
97	0xbd7cc15c	-0.06170784
98	0x3dca75b2	0.0988573
99	0x3d135b10	0.035975516
100	0x3e1fb056	0.1559461
101	0x3e6b55ed	0.22981997
102	0x3e31d64c	0.17366904
103	0xbbd7fcb5	-0.0065914043
104	0x3e37181f	0.17880295
105	0xbe13c68d	-0.1443121
106	0x3dc628cc	0.0967575
107	0xbe0bdd04	-0.1365853
108	0xbe1eaec0	-0.1549635
109	0x3db0ba04	0.0862923
110	0x3d9e4abc	0.07729098
111	0x3da61a5f	0.08110499
112	0xbe00a4d5	-0.12562878
113	0x3dd6fde7	0.10497647
114	0xbb86dc3e	-0.0041156104
115	0xbccdc0f7	-0.025116427
116	0xbc1731ba	-0.009228164
117	0xbe39e8ec	-0.18155259
118	0xbc65bfdf	-0.014022796
119	0x3e405ea8	0.18786108
120	0xbdafc9ac	-0.08583388
121	0xbde7439d	-0.11292193
122	0x3d95ee4f	0.073208444
123	0xbe3c30d0	-0.18377995
124	0x3d17a855	0.03702577
125	0x3d9db2ef	0.077001445
126	0x3ca399a7	0.019970728
127	0xbe2ea69a	-0.17055741
128	0x3e1ecbef	0.15507482
129	0xbe304371	-0.17213227
130	0x3ddf559f	0.10905003
131	0x3e5d6045	0.21618755
132	0x3e092d88	0.13396275
133	0x3e035cc7	0.1282836
134	0xbb47b923	-0.003047534
135	0x3de94265	0.11389617
136	0xbd26f134	-0.040757373
137	0xbe1eca8a	-0.1550695
138	0x3e131c67	0.14366303
139	0xbdfe64b1	-0.12421549
140	0xbde9e96d	-0.114214756
141	0x3e06a343	0.13148217
142	0x3ce28e67	0.027655793
143	0xbe092433	-0.13392715
144	0x3cfb55f3	0.030680632
145	0xbd8a7011	-0.06759656
146	0x3da990a4	0.08279541
147	0x3e1eca1a	0.15506783
148	0xbc9096c8	-0.017650023
149	0xbe3c3844	-0.18380839
150	0x3d707c5c	0.05871235
151	0x3d002333	0.03128357
152	0xbd6d091a	-0.057870008
153	0x3cb7373d	0.022365207
154	0x3e311ea0	0.17296839
155	0xbdae0c45	-0.08498434
156	0xbdef9162	-0.116976514
157	0xbe35c237	-0.17749868
158	0xbd06c512	-0.032902785
159	0xbe31d3f8	-0.17366016
160	0x3e2d71ad	0.16937895
161	0xbc739308	-0.014866598
162	0xbde58fb2	-0.11209048
163	0x3e390851	0.18069579
164	0x3dff4d4f	0.12465917
165	0xbdf2e408	-0.118599
166	0xbd7644af	-0.060124096
167	0xbd0ecde9	-0.03486434
168	0xbcb4ac8e	-0.022054937
169	0xbe2c62d8	-0.16834581
170	0xbe4f07f1	-0.20217873
171	0x3a446082	0.00074911874
172	0xbddd6333	-0.108099364
173	0xbd36f492	-0.044666834
174	0x3d4d8e81	0.05018473
175	0x3bfcda2a	0.007716437
176	0xbe584868	-0.21121371
177	0xbdf95655	-0.1217467
178	0x3cedd005	0.029029856
179	0xbe2713a2	-0.16316083
180	0x3e1f889e	0.15579459
181	0xbe35d1fd	-0.17755885
182	0x3ded62e9	0.11591131
183	0xbde2d99a	-0.110766605
184	0x3d0136f2	0.03154654
185	0x3cb85f1e	0.022506293
186	0x3aeb5762	0.0017955119
187	0x3d3928f3	0.045205068
188	0xbdb1a10c	-0.086732954
189	0x3db188b4	0.08668652
190	0xbe5d64cb	-0.2162048
191	0x3dac2fa9	0.08407528
192	0x3da55c0b	0.080741964
193	0x3c63634d	0.013878656
194	0x3e1d5044	0.1536265
195	0xbdad4fac	-0.08462462
196	0x3e275cf5	0.16344054
197	0x3e33bb59	0.17551936
198	0xbdae8f3b	-0.08523413
199	0xbd4d3cc9	-0.050106797
200	0x3d5022a9	0.050814305
201	0x3d677e10	0.056516707
202	0x3d2144b8	0.039372176
203	0x3e31a3cf	0.17347644
204	0x3db2edbf	0.08736753
205	0x3df5d966	0.12004356
206	0xbd3c98fe	-0.046044342
207	0x3c36ea48	0.011164255
208	0x3e4595d2	0.19295433
209	0x3dff3ddf	0.12462973
210	0xbcba97f5	-0.022777537
211	0xbdd432e0	-0.10361266
212	0x3dd2a154	0.10284677
213	0x3d96be8f	0.07360565
214	0xbe566c2d	-0.20939703
215	0xbe0f3159	-0.13983668
216	0x3e6159ea	0.22006956
217	0xbd975d72	-0.0739087
218	0x3da3a0e1	0.079896696
219	0xbe2ad47d	-0.1668262
220	0x3e46f427	0.19429074
221	0xbe0786cb	-0.13235013
222	0xbdf7c710	-0.12098515
223	0x3e2c3092	0.16815403
224	0xbd42c5ca	-0.047551908
225	0x3c099054	0.008396227
226	0x3dcdc787	0.100478224
227	0xbdfb25bc	-0.12263057
228	0xbe1a0ee5	-0.15044744
229	0xbe0b639b	-0.13612215
230	0xbdd1c999	-0.1024353
231	0xbd813235	-0.06308404
232	0x3e506d05	0.20354088
233	0x3d95e99d	0.07319949
234	0xbd252d73	-0.040326547
235	0xbd611e17	-0.054960337
236	0xbe1e27c3	-0.15444855
237	0xbddf4498	-0.10901755
238	0x3da9fcb8	0.083001554
239	0xbd249025	-0.04017653
240	0x3bb47e19	0.005508196
241	0xbe301406	-0.17195138
242	0x3d729141	0.059220556
243	0x3dc1dfa3	0.094664834
244	0xbdf2c6a3	-0.11854293
245	0x3e467588	0.19380772
246	0xbe0bd76d	-0.13656397
247	0x3c42a45c	0.011880007
248	0x3e074b56	0.13212332
249	0xbe14d2d6	-0.14533553
250	0x3e228d96	0.15874323
251	0x3d408173	0.046998452
252	0x3d2aa6f3	0.04166312
253	0xbd912b35	-0.07088319
254	0x3dacd1e1	0.08438469
255	0x3e4012ae	0.18757126

fc1.bias f4 [128]
0	0x3d87e949	0.066362925
1	0x3e619cac	0.22032422
2	0xbccf5430	-0.025308698
3	0xbdd15eed	-0.10223184
4	0x3e651c14	0.22373992
5	0xbe14342b	-0.14473026
6	0xbdb713b5	-0.08939306
7	0xbc8dd809	-0.017314928
8	0x3e33df8d	0.17565747
9	0x3b74a145	0.003732757
10	0x3e61e9de	0.2206187
11	0xbdae5130	-0.08511579
12	0xbe18df9d	-0.14929052
13	0x3d0429c7	0.032266404
14	0x3e55b86f	0.20871137
15	0x3e36ccba	0.17851534
16	0x3e0824eb	0.13295333
17	0xbe1c2638	-0.15248954
18	0xbdc5f118	-0.096651256
19	0xbe263ae4	-0.16233402
20	0xbd453dc1	-0.048154596
21	0x3e11d366	0.14240798
22	0x3e35ed7a	0.17766371
23	0x3e5a9b68	0.21348345
24	0x3da7f517	0.08201044
25	0xbe3f8ffa	-0.18707266
26	0x3e0f3742	0.13985923
27	0x3d4f554c	0.050618455
28	0x3d6d1b91	0.057887617
29	0x3e067b19	0.13132896
30	0x3a61c093	0.00086117646
31	0xbd703f0f	-0.058653887
32	0x3c8ce97b	0.017201176
33	0x3e7dc96a	0.24783865
34	0xbdbcd3f5	-0.09220115
35	0x3e22f075	0.1591204
36	0xbd72270f	-0.05911928
37	0x3dd722af	0.10504662
38	0xbdc394d0	-0.09549868
39	0xbad6f400	-0.0016399622
40	0xbde1bb69	-0.11022074
41	0xbe1002bf	-0.14063548
42	0x3ccfb427	0.025354458
43	0x3e2c3099	0.16815414
44	0x3e3d9678	0.1851443
45	0x3deab122	0.11459567
46	0xbe0e7534	-0.13911897
47	0xbd90efd0	-0.070769906
48	0x3dc97366	0.09836464
49	0xbe4064dd	-0.18788476
50	0xbcc11f39	-0.023574458
51	0x3c423417	0.0118532395
52	0x3e4a96a0	0.19784021
53	0x3e204b2b	0.15653674
54	0xbd7ff7e6	-0.062492274
55	0x3de69be9	0.11260206
56	0xbe185026	-0.14874324
57	0x3ded9e2f	0.11602437
58	0xbe0730b5	-0.13202174
59	0x3dfdf6b1	0.12400568
60	0xbe03ff85	-0.12890442
61	0xbe198a60	-0.14994192
62	0xbdd9edd0	-0.10641062
63	0x3da54b2b	0.08070978
64	0x3dec2d29	0.11532051
65	0x3e1e0dcf	0.15434955
66	0xbd5481d4	-0.051881626
67	0xbe12b02e	-0.1432502
68	0x3e7d36d0	0.2472794
69	0xbe3964c7	-0.1810485
70	0xbdd0c99f	-0.10194706
71	0x3c8c0cdd	0.017095977
72	0xbe0ea9d7	-0.13931976
73	0x3e686a84	0.22696882
74	0xbd920908	-0.07130629
75	0x3e33e8ba	0.17569247
76	0xbe01e278	-0.12684047
77	0xbe307f17	-0.17235981
78	0xbdd88a1c	-0.10573217
79	0xbbc00240	-0.005859643
80	0x3e5ddeed	0.2166707
81	0xbd68b4d7	-0.056813087
82	0xbdb76a3d	-0.0895581
83	0x3e261eb1	0.16222645
84	0xbd1780cb	-0.03698806
85	0xbddf4133	-0.10901108
86	0x3d713d6a	0.05889646
87	0x3c6838e9	0.014173725
88	0x3d438cd5	0.04774173
89	0xbdd676f2	-0.10471906
90	0x3d021425	0.031757493
91	0xbdeb64a2	-0.114938036
92	0xbddff093	-0.10934558
93	0xbd02a558	-0.031895965
94	0x3d22da36	0.039758883
95	0x3e18a335	0.14906009
96	0xbe0914ed	-0.13386889
97	0x3d4d94c4	0.050190702
98	0x3b71c2ec	0.0036889864
99	0x3d974d6e	0.073878154
100	0xbe263270	-0.16230178
101	0x3e39e986	0.18155488
102	0x3d2c2a7b	0.0420327
103	0x3e4b45fc	0.19850916
104	0x3e761cc2	0.24034408
105	0x3ca0da97	0.019635482
106	0x3da29781	0.07939053
107	0xbda692da	-0.081334785
108	0x3dc1ebc8	0.094688
109	0x3dbee458	0.09320897
110	0xbd830207	-0.06396871
111	0xbd4cbc20	-0.049984097
112	0xbd70eee8	-0.05882159
113	0x3dc82ac2	0.097737804
114	0x3d11dc45	0.035610456
115	0x3e3ef22d	0.1864707
116	0xbd50c27c	-0.050966725
117	0x3cd220e9	0.025650458
118	0x3de27487	0.11057382
119	0xbde9fc96	-0.1142513
120	0x3e419c58	0.18907297
121	0xbcd79568	-0.02631636
122	0x3e2650aa	0.16241708
123	0x3c2dc476	0.010605922
124	0x3e44ad41	0.19206716
125	0x3dbaeb19	0.091268726
126	0xbc1de2c3	-0.009636584
127	0x3dec3219	0.11532993

fc2.weight f4 [128, 128]
0	0x3d294686	0.041327022
1	0x3ab536c0	0.0013825521
2	0xbd4c9079	-0.049942467
3	0x3d68ab8e	0.056804232
4	0x3d64d3c2	0.05586601
5	0xbcee2664	-0.02907104
6	0xbc3fee48	-0.0117145255
7	0x3d330912	0.043709822
8	0x3d95287b	0.07283112
9	0xbd59d3d8	-0.053180546
10	0xbcda829e	-0.026673611
11	0xbd69c0f4	-0.05706878
12	0xbd7fba33	-0.062433433
13	0x3d251802	0.0403061
14	0xbd8ed58f	-0.06974327
15	0x3da6c90f	0.08143818
16	0xbd307f68	-0.043090254
17	0x3d59af8a	0.053145923
18	0xbbd55920	-0.0065108687
19	0xbd5b24cd	-0.053501893
20	0xbd4126f0	-0.047156274
21	0x3d120fe2	0.03565968
22	0xbb4753e0	-0.0030414984
23	0x3d9a1c31	0.07524908
24	0x3d1ef002	0.038803108
25	0xbd4cd1fa	-0.050004937
26	0x3d6e64b6	0.058201514
27	0x3d802dd9	0.06258745
28	0xbcde2c22	-0.027120654
29	0x3cd5831c	0.026063494
30	0xbccdcee8	-0.025123075
31	0xbd3b5491	-0.045734946
32	0x3d8a2127	0.067446046
33	0x3d1e5fde	0.038665645
34	0xbd8bdade	-0.06828855
35	0xbdadedec	-0.084926456
36	0x3d53b836	0.05168935
37	0x3c9910dc	0.018684797
38	0x3d2a8e6a	0.041639723
39	0xbd011a7b	-0.031519394
40	0x3d097782	0.033561237
41	0x3d576c6a	0.052593626
42	0x3cb6eb04	0.022328861
43	0xbcfc2668	-0.030780032
44	0x3d820907	0.06349378
45	0xbd2bc022	-0.04193128
46	0xbd8fd6ae	-0.07023369
47	0xbd85ee67	-0.06539612
48	0x3baac6a0	0.005211666
49	0x3bb6c230	0.005577348
50	0x3d9570a9	0.07296879
51	0xbc94b51c	-0.018152766
52	0xbd4f5219	-0.050615404
53	0xbb065ae0	-0.0020500943
54	0xbd7f18e4	-0.062279597
55	0xbda0cc83	-0.078515075
56	0x3caa3df4	0.020781495
57	0xbd184d12	-0.037182875
58	0xbcf89ac0	-0.030347228
59	0xbd72e848	-0.059303552
60	0xbda7ac0a	-0.08187111
61	0x3d7a76d2	0.061148472
62	0xbd3d37da	-0.046195842
63	0x3d146d00	0.036236763
64	0xbd2471f2	-0.04014773
65	0xbd30cbc0	-0.04316306
66	0xbda562cf	-0.08075487
67	0xbd9cc5d2	-0.07654919
68	0xbd27255f	-0.040807124
69	0x3d89f0b7	0.06735366
70	0xbc8e42b8	-0.017365798
71	0xbc8aa85c	-0.016925983
72	0x3d69c4d6	0.057072483
73	0xbd3ffec5	-0.046873827
74	0x3d8ea911	0.069658406
75	0xbdb4e4a3	-0.088326715
76	0x3c8a1198	0.016854092
77	0x3d8d1d89	0.06890399
78	0x3cba1c68	0.022718623
79	0x3cbd3e80	0.023101091
80	0xbd6fb1aa	-0.058519043
81	0xbd141cab	-0.036160152
82	0x3d7effd6	0.062255703
83	0xbda36366	-0.07977943
84	0x3d9c025f	0.0761764
85	0xbc415b28	-0.0118015185
86	0x3c311960	0.0108092725
87	0xbca01540	-0.019541383
88	0x3cf5ada8	0.029990032
89	0xbcee6a3a	-0.029103387
90	0xbc5f5290	-0.013630524
91	0x3c9f4450	0.019441754
92	0xbc74f210	-0.01495029
93	0x3c73b348	0.014874287
94	0x3d97ef87	0.07418733
95	0xbc299240	-0.01034981
96	0xbcf03184	-0.029320486
97	0xbd8d88ff	-0.069108956
98	0x3c8dd288	0.017312303
99	0xbd46af73	-0.048507165
100	0xbca4f990	-0.020138532
101	0x3cf0fdac	0.029417835
102	0xbd864e3a	-0.06557889
103	0xbc5cccf0	-0.013476595
104	0x3b2a1820	0.002595432
105	0xbd9f4ce1	-0.07778335
106	0x3a3eb780	0.00072752684
107	0x3d5c7d86	0.053830646
108	0xbcf2d10c	-0.029640697
109	0xbcbdece8	-0.023184255
110	0x3bc89c30	0.0061221346
111	0x3cebab4c	0.028768204
112	0xbd998206	-0.07495503
113	0x3d20cc12	0.039257117
114	0x3da25029	0.079254456
115	0xbc8af180	-0.01696086
116	0x3d4904fe	0.049077027
117	0x369a4000	4.5970082e-06
118	0x3cefdef8	0.029281124
119	0x3b649140	0.0034876615
120	0xbc5696f0	-0.01309751
121	0x3db2a469	0.08722765
122	0xbbc8cfc0	-0.0061282814
123	0x3d0418f0	0.032250345
124	0xbcd19a60	-0.025586307
125	0xbad92b80	-0.001656875
126	0x3d77768a	0.060415782
127	0xbc3f0d38	-0.011660866
128	0xbca9ba13	-0.02071861
129	0xbd2757ee	-0.04085534
130	0x3d9c385f	0.076279394
131	0x3ced76e0	0.028987348
132	0xbd277edb	-0.040892463
133	0xbd04980c	-0.032371566
134	0xbab32ee2	-0.0013670588
135	0xbda38993	-0.079852246
136	0x3db5fb4a	0.0888582
137	0xbcb4e444	-0.022081502
138	0xbc5ae36a	-0.013359884
139	0xbd916b80	-0.07100582
140	0x3d519ac2	0.05117298
141	0xbc93a689	-0.018023746
142	0x3d98f00f	0.074676625
143	0x3d10c55d	0.03534447
144	0xbce0dfec	-0.027450524
145	0x3ba59a47	0.0050537917
146	0xbd16277b	-0.036658745
147	0x3d78cb11	0.060740534
148	0xbd20e353	-0.039279293
149	0x3cfb0bc0	0.030645251
150	0x3c5ff49b	0.013669158
151	0xbd4adb11	-0.049525324
152	0x3cfe38cc	0.031032942
153	0xbcf59554	-0.029978432
154	0x3d458741	0.04822469
155	0xbd1e8939	-0.038705084
156	0x3d889ffa	0.06671138
157	0x3d2546fa	0.04035089
158	0x3d79745e	0.060901992
159	0x3cd7ee5a	0.026358772
160	0x3cd0fd20	0.025511324
161	0xbd9fe5dd	-0.07807515
162	0x3d1c39ef	0.038141187
163	0x3cf081cf	0.029358773
164	0x3c660b2b	0.014040749
165	0xbd826874	-0.06367579
166	0x3d58e64e	0.05295401
167	0xbd42f8e6	-0.04760065
168	0x3c3155d1	0.010823683
169	0xbd93d54f	-0.0721842
170	0xbc91f03e	-0.017814752
171	0x3d84389f	0.06456112
172	0x3d7e1476	0.06203123
173	0xbc9daf54	-0.019248642
174	0xbd958edc	-0.07302639
175	0x3d9f85b1	0.077891715
176	0xbdad783c	-0.084701985
177	0xbd54b20f	-0.051927622
178	0xbcd5e0e5	-0.026108215
179	0xbda5c92a	-0.080950096
180	0xbd8195e6	-0.06327419
181	0x3c8f9982	0.017529253
182	0x3cf63f65	0.030059526
183	0xbd86b27d	-0.06577013
184	0x3d804757	0.06263607
185	0xbd8310d0	-0.06399691
186	0x3dc0aa62	0.09407498
187	0x3ceb8f18	0.028754756
188	0x3d8f17ac	0.06986937
189	0x3ca59c62	0.02021617
190	0x3cd10040	0.025512815
191	0xbbe5c71a	-0.00701226
192	0x3d6a5331	0.057208244
193	0xbd8f9517	-0.070108585
194	0xbd271453	-0.040790867
195	0xbd9831aa	-0.07431348
196	0x3d297652	0.041372605
197	0x3b919940	0.0044433177
198	0xbc446ad7	-0.011988363
199	0x3d2ef15c	0.042710647
200	0x3d6a2711	0.057166163
201	0x3ca72d9f	0.020407496
202	0x3db0c401	0.08631135
203	0xbd22c154	-0.039735153
204	0x3dac1c5c	0.084038466
205	0xbd6116ea	-0.054953493
206	0xbd8717a7	-0.06596308
207	0xbd85a688	-0.06525904
208	0x3c55f072	0.013057815
209	0x3cc8c5fe	0.024508473
210	0x3d04a2e2	0.0323819
211	0x3ceb710b	0.028740427
212	0x3dbb591b	0.09147855
213	0xbd7b93f0	-0.06142038
214	0xbc42a7a9	-0.011880794
215	0xbca7d996	-0.020489495
216	0xbcc64c9f	-0.024206458
217	0x3da0eac2	0.078572765
218	0x3d6ab066	0.057297133
219	0xbd18dc92	-0.037319727
220	0x3d87062f	0.06592976
221	0x3c8bd948	0.017071381
222	0xbaf9cb15	-0.0019057716
223	0xbd04ce76	-0.03242346
224	0x3da5a5ee	0.08088289
225	0x3d985a7d	0.07439134
226	0x3dc189e3	0.09450128
227	0xbc26c073	-0.010177719
228	0x3da1e8db	0.07905742
229	0xbbbba093	-0.005725929
230	0xbd54fb06	-0.051997207
231	0xba4fcbef	-0.0007926812
232	0xbdb0a1b7	-0.08624595
233	0xbda8c30f	-0.082403295
234	0x3d98ef69	0.07467539
235	0x3da51299	0.08060188
236	0x3d56e3f0	0.052463472
237	0xbc0e1f20	-0.008674413
238	0x3d7768db	0.060402732
239	0x3d393266	0.04521408
240	0x3d6a965a	0.057272293
241	0x3d327b72	0.043574758
242	0x3d807d71	0.06273926
243	0xbda64260	-0.08118129
244	0xbc3e5908	-0.011617906
245	0x3d10c234	0.035341457
246	0xbd86b3fa	-0.065772966
247	0xbdb0d87f	-0.08635043
248	0x3d500496	0.050785623
249	0x3d8331f5	0.06406013
250	0xbbc0a016	-0.0058784587
251	0x3daa2a72	0.08308877
252	0xbd60b249	-0.054857526
253	0x3c5e8b1c	0.013582971
254	0xbd5ef81d	-0.054435838
255	0x3b849e2c	0.004047176

fc2.bias f4 [128]
0	0x3c1ab318	0.009442113
1	0xbc8ac276	-0.01693843
2	0x3d36a952	0.04459507
3	0x3d2d4ba1	0.042308453
4	0x3d9ca75d	0.076491095
5	0xbdbc66a0	-0.09199262
6	0xbd565c2e	-0.052334003
7	0xbb8f3718	-0.0043705814
8	0xbccd7d40	-0.025084138
9	0xbccf78e8	-0.025326207
10	0x3ddb579d	0.1071007
11	0x3d8e9cb4	0.069634825
12	0xbda77a82	-0.081776634
13	0x3df9d254	0.1219832
14	0x3db59302	0.0886593
15	0x3dab0484	0.08350471
16	0xbd90d7c2	-0.070724025
17	0x3b84d720	0.004053965
18	0xbc310286	-0.010803824
19	0x3d032985	0.032022018
20	0x3ccbfe1c	0.024901442
21	0x3c15d3a2	0.0091446955
22	0xbd8d8cf8	-0.06911653
23	0xbd359790	-0.044333994
24	0xbd45fcc7	-0.04833677
25	0xbd2380b9	-0.03991768
26	0x3d6011c1	0.05470443
27	0xbce2c922	-0.027683798
28	0xbc0f9393	-0.008763212
29	0x3d9d4281	0.076787
30	0xba865461	-0.0010248536
31	0xbd8a7a19	-0.067615695
32	0x3d221b10	0.03957659
33	0xbd6acac9	-0.057322297
34	0xbd82e0d3	-0.06390538
35	0xbd4b2003	-0.049591076
36	0xbd97dfbc	-0.07415721
37	0xbd9ed470	-0.07755363
38	0x3df230ab	0.11825689
39	0x3cae9adf	0.021314083
40	0x3c34f8e4	0.011045668
41	0x3e01222f	0.12610696
42	0x3d7bb17a	0.06144855
43	0x3ccc5406	0.02494241
44	0x3e0140d5	0.12622388
45	0xbd5caeb8	-0.053877562
46	0xbc189c50	-0.009314612
47	0xbd95fa88	-0.07323176
48	0xbc1be428	-0.009514846
49	0xbd0859c3	-0.03328873
50	0xbd9a09f4	-0.0752143
51	0x3ca39363	0.01996774
52	0x3cb0b39a	0.021570016
53	0x3d86eaef	0.06587779
54	0x3df17d8b	0.117915235
55	0xbcf39a81	-0.02973676
56	0x3c9584d5	0.018251816
57	0xbc6b87cd	-0.014375639
58	0xbda9d58a	-0.082926825
59	0x3db17b3f	0.086660855
60	0xbd655b87	-0.05599549
61	0x3ce776cc	0.028254889
62	0xbd271f79	-0.0408015
63	0x3c96dbd6	0.018415373
64	0xbae8a2ee	-0.0017748752
65	0x3d16535c	0.03670059
66	0xbd46ff58	-0.04858336
67	0xbd208014	-0.039184645
68	0xbc7f2dc5	-0.015574877
69	0xbdb96ddc	-0.09054157
70	0xbd4e3b77	-0.05034968
71	0xbcc041bc	-0.023468845
72	0xbdc73358	-0.0972659
73	0xbc57cfbf	-0.013172089
74	0xbd74f6c8	-0.05980566
75	0xbd1e0e01	-0.038587574
76	0x3cdbc53c	0.026827447
77	0xbd095aa6	-0.033533715
78	0xbd94a4b2	-0.07257976
79	0xbd93b085	-0.07211403
80	0xbcd88866	-0.026432227
81	0xbcbb0bd9	-0.022832798
82	0xbd0a08db	-0.03369985
83	0x3dab35dd	0.08359883
84	0xbc065493	-0.008198875
85	0xbbffd29a	-0.007807088
86	0x3dc1b9ed	0.09459291
87	0xbd827637	-0.06370204
88	0x3b8750f6	0.0041295243
89	0x3d40a39c	0.04703103
90	0xbc437b25	-0.011931215
91	0xbd90a04e	-0.07061826
92	0xbd71d94e	-0.05904513
93	0x3d9e3595	0.07725064
94	0x3d91e6d9	0.07124109
95	0xbc61ef8d	-0.0137900235
96	0x3d394b3f	0.045237776
97	0xbd8e9fcb	-0.06964072
98	0x3d045c5e	0.03231465
99	0xb75a1f62	-1.3001119e-05
100	0xbd6bacfc	-0.057538018
101	0xbd13c981	-0.03608084
102	0x3d88eb5b	0.066855155
103	0xbcf33333	-0.0296875
104	0xbd192778	-0.037391156
105	0xbd65dc82	-0.056118496
106	0xbcb48fc6	-0.022041213
107	0x3d79467d	0.06085824
108	0x3cc90a81	0.024541141
109	0x3aff6bd5	0.0019487093
110	0xbd91b202	-0.071140304
111	0x3ca21895	0.019787112
112	0x3c16ca96	0.009203574
113	0x3ddd8035	0.10815469
114	0xbd5933af	-0.053027805
115	0xbd328362	-0.043582328
116	0x3cc22045	0.023697028
117	0x3cc695b4	0.024241306
118	0xbcb20aaf	-0.02173361
119	0x3c448766	0.011995172
120	0x3c292210	0.010323063
121	0xbbadc9b8	-0.0053035878
122	0x3dbeb718	0.09312266
123	0xbdb161db	-0.086612426
124	0xbda8ae09	-0.082363196
125	0xbdbf2eaf	-0.09335076
126	0x3dab0855	0.083511986
127	0x3d54f8ba	0.051995017

fc3.weight f4 [5, 128]
0	0x3d541862	0.051781066
1	0xbd1889b0	-0.037240684
2	0x3d68cc05	0.056835193
3	0xbd993307	-0.07480436
4	0x3c52c53a	0.012864405
5	0x3cecd385	0.028909454
6	0xbd0fa061	-0.03506506
7	0xbdb67463	-0.08908918
8	0x3cc5cffc	0.024147026
9	0x3c712090	0.014717236
10	0xbd993d81	-0.07482434
11	0xbdcca2b1	-0.099919684
12	0x3d18691b	0.03720961
13	0xbda47983	-0.08030989
14	0x3bece994	0.007229993
15	0x3bfe1c0f	0.0077548097
16	0xbcc85913	-0.024456536
17	0x3c7721d0	0.015083745
18	0xbd20043e	-0.039066546
19	0x3beb8c0a	0.007188325
20	0xbd0e0e50	-0.03468162
21	0xbb6ca8e0	-0.00361114
22	0xbb76349d	-0.003756798
23	0xbd9f5b72	-0.07781114
24	0xbdaf9a50	-0.08574355
25	0xbc5e5830	-0.01357083
26	0x3d44509f	0.04792845
27	0x3bd559c0	0.006510943
28	0xbd10bb62	-0.035334952
29	0xbda51a52	-0.08061661
30	0xbd26b80f	-0.040702876
31	0xbaec599f	-0.001803208
32	0xbbd3b8fe	-0.006461262
33	0xbc559659	-0.013036334
34	0xbd867381	-0.06564999
35	0x3d5e260a	0.054235496
36	0xbd8586f8	-0.06519884
37	0xbd3b1ed2	-0.04568369
38	0xbd18fde4	-0.037351504
39	0x3b2430b1	0.0025053436
40	0x3cd39750	0.025828987
41	0xbda193fe	-0.078895554
42	0x3d716bea	0.058940805
43	0x3cdf9e2d	0.027297104
44	0xbd57f0c1	-0.052719835
45	0xbd99f8e1	-0.07518173
46	0x3b98e4a7	0.0046659294
47	0x3d7945e2	0.06085766
48	0xbd11361d	-0.035451997
49	0xbdbfa984	-0.093585044
50	0x3d5ad156	0.053422295
51	0xbca5d142	-0.020241383
52	0xbdbdc403	-0.09265902
53	0xbd83f184	-0.0644255
54	0xbd0f5276	-0.03499075
55	0xbd0803eb	-0.03320686
56	0xbc22181c	-0.009893443
57	0xbca81fb3	-0.020522928
58	0xbd2d952d	-0.042378593
59	0xbd4033c2	-0.04692436
60	0x3ccbfabc	0.024899833
61	0xbd6a8250	-0.057253182
62	0xbd0bc7e4	-0.034126177
63	0xbdc0254c	-0.09382114
64	0x3b41533f	0.0029499081
65	0x3c2fa876	0.010721317
66	0x3d3b9f58	0.04580626
67	0xbc33b7b0	-0.0109690875
68	0xbdc74d73	-0.09731569
69	0xbd85382b	-0.06504854
70	0x3d9cf436	0.07663767
71	0xbda21f44	-0.0791612
72	0xbd72c88c	-0.059273288
73	0xbd86b486	-0.06577401
74	0x3c5dd4e0	0.013539523
75	0xbccdfefc	-0.025146
76	0xbdb2e4a7	-0.08735018
77	0xbcc6b47a	-0.02425598
78	0x3d90b17d	0.07065103
79	0xbcd776c4	-0.026301749
80	0xbd08b25d	-0.033373225
81	0x3bb8c853	0.005639115
82	0xbd5ba56b	-0.05362455
83	0xbdaa3ea2	-0.083127275
84	0xbd44cf23	-0.048049103
85	0x3c9ec560	0.019381225
86	0xbcb866f6	-0.022510033
87	0x3c466908	0.012110002
88	0xbdcc893f	-0.09987115
89	0xbd90c74d	-0.070692636
90	0xbbb21ace	-0.0054353243
91	0xbc6f8039	-0.014617973
92	0x3cf37cc4	0.029722579
93	0x3d991b61	0.07475925
94	0x3d8aeccd	0.067834474
95	0xbd867199	-0.06564636
96	0xbd5d08a1	-0.053963307
97	0xbc3423d5	-0.010994871
98	0xbd3d8df1	-0.046277944
99	0xbd3854ca	-0.045002736
100	0xbd35e174	-0.044404462
101	0x3c205af0	0.009787306
102	0x3d0f0593	0.034917425
103	0x3d9317e6	0.07182293
104	0xbd90876e	-0.07057081
105	0x3d95f0b9	0.07321305
106	0xbe41d858	-0.18930185
107	0x3d2e166b	0.04250185
108	0xbd4af4e9	-0.04954997
109	0xbb8ec959	-0.0043574986
110	0x3d986d3e	0.07442711
111	0xbdc04eab	-0.09390005
112	0xbd7f1280	-0.062273502
113	0xbdbe470e	-0.09290896
114	0x3d90d081	0.07071019
115	0xbd2d57c2	-0.04232002
116	0xbd79f1f4	-0.06102176
117	0xbcd4388a	-0.025905866
118	0xbc51c545	-0.01280338
119	0x3d90265c	0.070385665
120	0xbd3c8ba6	-0.046031617
121	0x3d5a9f95	0.053374846
122	0x3cbcb082	0.023033384
123	0x3cb0470a	0.021518249
124	0x3da51e20	0.080623865
125	0x3d4810bf	0.048844095
126	0xbdd124d7	-0.10212105
127	0xbcee8ed2	-0.029120836
128	0x3b8c6dc0	0.004285544
129	0xbde094e2	-0.10965897
130	0x3ca8bf37	0.02059899
131	0x3bf4a88a	0.0074663805
132	0x3b836c5b	0.0040107197
133	0x3d5724fa	0.052525498
134	0x3cb939ad	0.02261051
135	0xbd0f1f9a	-0.034942247
136	0x3d0d98ae	0.034569435
137	0x3da45e27	0.08025771
138	0xbd50f019	-0.051010225
139	0xbced11ed	-0.028939212
140	0xbd94452a	-0.072397545
141	0xbd352e59	-0.044233654
142	0xbd61e8db	-0.05515371
143	0xbde83425	-0.11338071
144	0x3c2afdae	0.0104364585
145	0x3c818b70	0.01581356
146	0x3d4d78c1	0.050163988
147	0xbd497b05	-0.049189586
148	0xbc933c64	-0.017973132
149	0xbd73a332	-0.059481807
150	0xbdaf69d3	-0.08565106
151	0xbd5a15bf	-0.053243395
152	0xbdde760c	-0.108623594
153	0xbd1fa013	-0.038971018
154	0xbd937df9	-0.07201762
155	0xbdeb81b9	-0.11499352
156	0xbcc64473	-0.024202561
157	0xbd4dcaba	-0.050242163
158	0xbdd9acc9	-0.10628659
159	0xbd6ea951	-0.05826694
160	0xbda033ee	-0.07822405
161	0x3c8e8ff8	0.017402634
162	0x3d154388	0.036441356
163	0xbd8e168a	-0.06937893
164	0x3dae8a73	0.08522501
165	0x3ceb2cc7	0.028707875
166	0xbb149c8c	-0.0022676317
167	0xbde9117a	-0.113802865
168	0x3cf3abc2	0.029744986
169	0xbd11704c	-0.035507485
170	0xbd25d249	-0.040483747
171	0x3c935cc6	0.017988574
172	0xbd97c016	-0.07409684
173	0x3d545832	0.051841922
174	0xbd9b193e	-0.07573174
175	0xbc8740dc	-0.01651042
176	0xbdcdb8a9	-0.10044987
177	0xbdcee64d	-0.1010252
178	0x3d491e8a	0.04910139
179	0xbd26697a	-0.040627934
180	0x3db499ac	0.08818373
181	0xbd062534	-0.032750323
182	0xbd988807	-0.0744782
183	0xbdbe92d7	-0.09305351
184	0xbd9ee678	-0.07758802
185	0xbd731dc0	-0.059354544
186	0xbce0dacf	-0.027448086
187	0x3c0e5c7c	0.008689042
188	0xbd005d79	-0.031339142
189	0x3d6a5073	0.05720563
190	0x3bc30040	0.0059509575
191	0x3b17c15a	0.0023156018
192	0x3d0fc495	0.035099585
193	0xbc2e910d	-0.0106547
194	0x3d3977ec	0.045280382
195	0xbda06607	-0.0783196
196	0xbd9c8f70	-0.07644546
197	0xbd6f1bc4	-0.05837609
198	0xbd1afd18	-0.037839025
199	0xbdb3b556	-0.087748215
200	0xbcdfe84f	-0.027332453
201	0x3c593c84	0.013259057
202	0x3d188f85	0.037246246
203	0xbcec71ec	-0.028862916
204	0xba664b80	-0.0008785054
205	0x3c8a8e63	0.016913598
206	0xbd0166f0	-0.03159231
207	0x3da2cad9	0.07948846
208	0xbc8b2b61	-0.016988458
209	0xbc5fcb44	-0.013659302
210	0x3c99512c	0.018715464
211	0x3c6276bf	0.013822257
212	0x3cdec07c	0.027191393
213	0xbc4332cb	-0.011913965
214	0xbdada2c7	-0.08478313
215	0xbce417a6	-0.027843308
216	0xbcc486fc	-0.023990147
217	0xbd1dbeb3	-0.038511943
218	0xbd2ed645	-0.042684812
219	0xbbccbd24	-0.0062481333
220	0xbd314346	-0.043277048
221	0x3d5b1c82	0.053493984
222	0xbd89e12a	-0.067324
223	0xbc5224d8	-0.012826167
224	0x3d8ef4da	0.069802955
225	0xbd67baef	-0.05657476
226	0x3d25ec14	0.040508345
227	0x3cb9e10c	0.022690319
228	0xbb8865e8	-0.004162539
229	0xbd12f01d	-0.03587352
230	0x3c4d2d38	0.012522988
231	0x3d3dade8	0.046308428
232	0xbcc83ab6	-0.024442058
233	0xbd4cbdbd	-0.049985636
234	0xbe57a216	-0.21057925
235	0x3da1eb51	0.07906211
236	0x3c940fee	0.018074002
237	0xbd31e351	-0.043429676
238	0x3d860eaf	0.065457694
239	0xbbb82594	-0.005619714
240	0xbbfa1ca3	-0.0076328083
241	0xbd53105e	-0.05152928
242	0xbd1df671	-0.038565103
243	0x3d389d96	0.04507216
244	0xbd104c1a	-0.035228826
245	0xbd49297b	-0.049111824
246	0x3d82b9a7	0.063830666
247	0xbd95fcfb	-0.07323643
248	0xbd3184de	-0.043339603
249	0x3da27a5c	0.079334944
250	0xbdb10f4a	-0.08645494
251	0x3d6a46c7	0.057196405
252	0xbc773152	-0.0150874425
253	0xbd86a34d	-0.06574116
254	0xbd957802	-0.0729828
255	0xbd2063a3	-0.03915752

fc3.bias f4 [5]
0	0xbdb37f11	-0.0876447
1	0x3d60b8d5	0.05486377
2	0x3d0b4bc5	0.034007806
3	0xbd4a9d0c	-0.049466178
4	0xbd251f3e	-0.040312998
