CC_Reinforce_version_3_copy/materails/state_dict_model_v6.pt (torch, 84151 bytes, 6 tensors)

fc1.weight f4 [128, 25]
000000 bf 54 a0 3d 64 cb 4c be b2 aa 13 be 86 a7 9f 3c
       0.07828664 -0.19999462 -0.14420584 0.019489061
000010 40 b0 c2 3d 6b 6f 4e be c6 d6 12 bd 8b 88 f2 3d
       0.09506273 -0.2015969 -0.035849355 0.1184245
000020 bb 91 be 3d c6 69 94 3c b0 2f 89 bd 7c 8f 58 bd
       0.0930514 0.018116843 -0.06698549 -0.052871212
000030 04 49 01 be 5b 57 4d bd 7a 27 bc 3c 00 6c 2d 3c
       -0.1262551 -0.050132137 0.022968043 0.010584831
000040 52 16 5d be 2a 98 08 3e 22 25 24 bd 15 f7 c9 3d
       -0.21590546 0.13339296 -0.040074475 0.0986158
000050 4e 65 14 3d 1f 4e fb bd 59 8c 0a be a7 a0 2b be
       0.036229424 -0.1227076 -0.13530101 -0.16760503
000060 11 45 42 3e a4 4f 8a 3d 58 fc cd bd dc 66 85 3d
       0.18971659 0.067534715 -0.100578964 0.065137595
000070 a0 a3 2d be 3f a5 27 3e 82 18 86 3c 1f b7 9a 3d
       -0.16956949 0.1637163 0.016369108 0.07554459
000080 e2 a7 ca 3d da a3 19 bd 9c 66 6b 3d ad d9 a4 b8
       0.09895302 -0.037509777 0.057470903 -7.860675e-05
000090 0b 2f 36 3e f7 78 31 be f0 32 45 be 85 55 0d be
       0.17791383 -0.173313 -0.19257712 -0.13802154
0000a0 9c 5c bd bd 89 cb 1c be a1 77 00 bd 22 0a 15 bd
       -0.092461795 -0.15312018 -0.031364087 -0.036386617
0000b0 e8 e3 06 3e 5f 9d 7f 3d 34 50 37 3e 8f 0d 0a 3e
       0.13172877 0.06240594 0.17901689 0.13481735
0000c0 92 0a 20 3e 0d 06 42 3e 8f 2b 79 3d 9d 22 a3 bd
       0.15629032 0.1894762 0.060832556 -0.07965586
0000d0 c1 9b 07 3d 84 30 35 bd 3d f4 29 3e 14 6a 38 be
       0.033107523 -0.04423572 0.16597076 -0.18009216
0000e0 72 11 82 3d 8b 30 ab bd 58 78 15 3e de b2 92 bd
       0.06350984 -0.08358868 0.14596689 -0.071630225
0000f0 ae 77 1a be 58 a9 dd 3d 66 c9 89 3d b4 b0 40 3e
       -0.15084717 0.108233154 0.06727867 0.18817407
000100 3d 32 92 3d 9c c8 5b bd e9 0a 0d 3e 87 d0 34 be
       0.071384884 -0.053658113 0.13773693 -0.17657672
000110 09 f0 09 3e b7 2e d9 bd b7 d0 12 3e 3b 60 68 bd
       0.13470472 -0.10604613 0.14337431 -0.056732398
000120 4e 7b 07 bd 15 f4 37 be 7c 8d 01 3e 71 3b 5c 3e
       -0.033076577 -0.17964204 0.12651628 0.2150705
000130 ac 28 01 be 44 31 ef 3d c8 b5 ab 3d 17 c6 db bd
       -0.12613171 0.116793185 0.083842814 -0.10731142
000140 98 f0 dc bd d9 8a 82 bd 64 f2 03 3d 9e 68 3f 3d
       -0.10788077 -0.06374139 0.032213584 0.04673063
000150 2b ab d3 bd 1d 97 1c be 91 f5 75 3b f7 9a 20 be
       -0.10335382 -0.1529202 0.0037530402 -0.15684114
000160 ce 9d 27 be 4a 26 31 be b1 f8 2f 3c b4 aa 8e 3d
       -0.16368791 -0.17299762 0.010740445 0.06966153
000170 22 23 57 be ac ff 0a 3e 53 89 cf bd ed c9 3f 3e
       -0.21009496 0.13574094 -0.101336144 0.18729372
000180 dc 8c 73 3b 0f 64 bd 3c b9 ca 74 bc 4f e9 08 bd
       0.0037162816 0.023119 -0.014940911 -0.033425625
000190 6c cf a5 3b a1 a0 5c 3e b8 ed a2 3d 1e f3 2f 3e
       0.005060127 0.2154565 0.079554975 0.17182586
0001a0 f9 90 26 3d ed 36 8e bc de ff 1d be 43 ff 11 be
       0.0406656 -0.017360175 -0.15429637 -0.14257531
0001b0 b0 99 47 be 7a e9 d1 3d a4 08 cb 3d 21 65 4c 3d
       -0.19492221 0.1024961 0.099137574 0.04990113
0001c0 9e c4 9f 3d 80 38 66 be d6 fb d6 3d 41 18 36 3e
       0.078011736 -0.2248249 0.10497253 0.1778269
0001d0 88 c6 ac bc 1e 76 98 3d ee 74 05 3e 5b ec 7d bd
       -0.02109076 0.07444404 0.13032886 -0.061992984
0001e0 d0 dc 3c 3d 2c eb 25 bb ec 9a 3f 3d 16 86 28 bd
       0.04610902 -0.0025317175 0.046778604 -0.0411435
0001f0 77 31 e4 bd 89 34 11 be 06 95 be bd ee bf 4c 3a
       -0.11142247 -0.14180197 -0.09305768 0.0007810582
000200 b8 d0 8c bd ad 0f 04 be 2c c5 e7 3d f5 9b f0 3d
       -0.068757474 -0.12896605 0.113169044 0.117484964
000210 df 7c 18 3e 9b f7 0f be 65 ac 9c bd 94 e2 12 3e
       0.14891385 -0.14059298 -0.07650069 0.14344245
000220 54 96 11 3e 93 67 40 be 4f 49 41 3c 49 cb a0 3b
       0.14217502 -0.1878951 0.011797263 0.004907046
000230 bd bf a0 bc f0 2b aa 3d e3 b8 a2 bd 9b 9b a0 3c
       -0.019622678 0.08309162 -0.079454206 0.019605448
000240 2f 0e 0c be dd 35 40 bd 4c 33 58 3d f9 18 2e be
       -0.13677286 -0.046926368 0.052783296 -0.17001714
000250 0e b3 05 be 3f 37 2c bd 58 3e 23 bc 7c ea 21 3e
       -0.13056585 -0.042044874 -0.009963594 0.15812105
000260 70 d7 35 3d 47 95 50 bd 78 3f 08 be 69 83 ae bd
       0.04439491 -0.050923612 -0.13305461 -0.08521158
000270 08 cf 49 3d 60 61 91 3c 54 aa 09 3e 48 dc 05 3e
       0.049269706 0.017746627 0.13443881 0.13072312
000280 55 53 19 3e 26 78 82 bc b1 ba c6 3d 39 2b ec bc
       0.14973195 -0.015926432 0.09703577 -0.028829204
000290 c3 83 4f 3e a5 b4 3f 3e f5 c6 1f bb 23 ff d4 3d
       0.20265107 0.18721254 -0.0024380062 0.10400226
0002a0 41 15 1b 3e 89 01 23 bc 44 dd 9e bb c4 9a c2 bd
       0.15144826 -0.0099490965 -0.0048481543 -0.095021755
0002b0 92 b2 2f be e5 ac 66 3d 28 4c 31 3e e0 c2 5a 3e
       -0.17157963 0.05631723 0.17314208 0.21363401
0002c0 ab 11 53 3e a5 3c 91 3d 6e 4b 06 be 8d 20 c6 3d
       0.20612209 0.07091645 -0.13114712 0.09674177
0002d0 d8 e1 2e 3e 0c 9c 19 be 9a cb 0f 3e 26 d7 35 be
       0.1707834 -0.15000933 0.14042512 -0.17757854
0002e0 09 42 e7 3d ee 99 01 be 20 e3 bb bd 28 a4 b0 3d
       0.11291892 -0.12656376 -0.0917418 0.0862506
0002f0 53 1c 11 bd 93 9c 33 be 5e 2f 27 3e 76 4a 15 3e
       -0.035427403 -0.17540197 0.16326663 0.14579186
000300 5b 18 28 3d ea 7b 23 be ab 31 c4 3d 5e 65 64 3e
       0.041038852 -0.15965238 0.09579786 0.22304294
000310 ec 61 fe 3d f0 37 c0 bd 75 5c 34 be b4 3e 2a 3c
       0.12421021 -0.09385669 -0.17613395 0.010390926
000320 c1 51 12 3e ec fa 68 3d 6b a1 30 3e 91 67 31 3e
       0.14288999 0.056879923 0.17249076 0.17324664
000330 6a fb 4c be 97 a7 9c 3d 87 b6 3f 3d 84 e4 19 3e
       -0.20017782 0.07649153 0.04680493 0.15028578
000340 71 b0 a7 bc 16 83 d3 bd d6 f7 17 3e 69 01 41 3e
       -0.020469876 -0.10327737 0.14840636 0.18848194
000350 52 07 3c 3e 34 07 18 bc 8c 07 4b be b5 b2 b2 3b
       0.18362167 -0.009279061 -0.19827098 0.0054534324
000360 c5 a9 46 bd 20 4f c2 3d c2 df cd 3d d1 f5 be 3d
       -0.04850175 0.09487748 0.10052444 0.093242295
000370 5c bb ec 3d 8b 7e 0f 3d 9c c9 3f 3d 7b d2 3f 3e
       0.115591735 0.03503279 0.04682313 0.18732636
000380 9f 3c 07 3e de aa f5 3d 7a 25 a8 bd 16 82 93 bd
       0.13206719 0.11995481 -0.08210273 -0.07202546
000390 51 96 21 3e a0 d5 64 bc 43 e0 ab bd 18 09 d1 bc
       0.15779997 -0.013966948 -0.08392384 -0.025517032
0003a0 a0 c0 47 3c 1a 6d a1 3d a0 7b 9f bd bb 63 3e be
       0.0121919215 0.078821376 -0.077872515 -0.18592732
0003b0 0a 03 81 3d a3 5a 34 be 05 2a 2c be d1 e8 25 3e
       0.06299408 -0.176127 -0.16812904 0.16202094
0003c0 5c ae 86 bd dd be 24 be 10 7d 92 bd a3 84 fa bd
       -0.06576225 -0.16088434 -0.0715276 -0.1223233
0003d0 31 9f 3a 3e 1a 97 a1 bd d5 9e 07 3e 30 b3 bb bc
       0.18224789 -0.078901485 0.13244183 -0.022912592
0003e0 45 b3 11 3e 77 7d b8 bd 24 d3 05 be b3 be fa bd
       0.14228542 -0.090083055 -0.13068825 -0.12243404
0003f0 8c f2 87 bd b6 9a aa 3d 82 e4 d3 3d d2 ec fa 3d
       -0.06638059 0.0833029 0.10346319 0.12252201

fc1.bias f4 [128]
000000 0a be 1c 3e cf ce 65 bc 18 cf 0a bd cc 18 77 bd
       0.15306869 -0.014026358 -0.033888906 -0.060326383
000010 b0 26 92 3d bc 2d 25 3c a3 0d 19 3e 2c 69 23 3e
       0.07136285 0.010081705 0.14946608 0.15958089
000020 ac f3 ae bd 72 19 ab 3d 20 a9 6f bd cf 1c 1c 3e
       -0.085425705 0.08354463 -0.0585109 0.15245365
000030 fc 97 76 bc 28 1d 8f 3c 71 fb 52 bc e0 5c b7 3d
       -0.015050884 0.017469957 -0.012877331 0.089532614
000040 b0 94 35 be ec 3f 50 3e 5f 92 0b 3e 50 33 09 be
       -0.17732501 0.20336884 0.13630055 -0.1339848
000050 7a 87 6b 3d 71 02 a7 3d ff 06 20 3c 6a 43 9a 3d
       0.057502247 0.081547625 0.009767293 0.075323895
000060 28 92 1d 3e 24 6e a4 3d 22 96 4c be 58 02 1a 3e
       0.15387785 0.0802882 -0.19979146 0.15039957
000070 7d f5 e2 3b ca e6 b1 bd d6 a1 e5 bd bf 6b 34 3e
       0.006926237 -0.08686598 -0.112125084 0.17619227
000080 a0 ec ed bb 17 dd b1 bd c0 82 68 bd 55 1b 22 be
       -0.007260874 -0.08684748 -0.056765318 -0.15830739
000090 fb a2 44 be b3 de 76 bd 57 7a 9c bd a4 c0 6d 3d
       -0.19202797 -0.060270976 -0.07640522 0.058045045
0000a0 18 2c 09 bd f2 9c 42 be c8 80 60 bd 44 e2 8d bd
       -0.033489317 -0.19005182 -0.054810315 -0.06927922
0000b0 9a ee 0b be d0 ec 9f bc 64 51 13 be 58 b1 27 3e
       -0.13665238 -0.0195221 -0.14386517 0.16376245
0000c0 55 70 2b 3e 74 d7 a2 3d f7 ca 5a 3e 3a 9b 11 3e
       0.1674207 0.07951251 0.21366487 0.1421937
0000d0 94 60 14 bd fa b5 7c 3d 9e 47 ac 3c aa 85 32 be
       -0.036224917 0.061696984 0.021030243 -0.17433801
0000e0 d0 10 12 be 10 21 27 3e cc 26 23 3d 1e 5e f6 bc
       -0.14264226 0.16321206 0.03983192 -0.030074175
0000f0 03 2b 5d 3e 46 f1 b4 bd 9c 31 77 bd 79 bc 3f be
       0.21598439 -0.08835082 -0.060350046 -0.1872424
000100 4f 84 c1 3d f9 0d db bc 5e ca 2a bd 9b 46 24 3e
       0.09449064 -0.026740061 -0.0416969 0.16042559
000110 b6 c2 92 bd 68 b5 29 be a3 76 5e ba 76 c2 2d 3d
       -0.071660444 -0.16573107 -0.0008486306 0.04242178
000120 73 22 98 bd 1f 57 dd 3d b4 89 3a bd 8e 0a f4 bd
       -0.07428446 0.10807633 -0.04554148 -0.11916076
000130 ac a9 57 3d d5 b3 02 3e 94 0f b9 bd 9b 55 11 3d
       0.052652046 0.12763913 -0.090361744 0.03548203
000140 61 e5 40 3e 58 7b 1a bd 61 8d a0 bd d8 0a 44 3e
       0.18837501 -0.037715286 -0.07839466 0.19144762
000150 44 38 0c bc 4a 52 86 bd ee 07 8d bd f3 46 5c 3e
       -0.008558337 -0.06558664 -0.06886278 0.2151144
000160 50 13 a8 bd 34 08 e0 3d 7b e7 dc 3c 5d 5a 2d 3d
       -0.082068086 0.109390646 0.026965847 0.042322505
000170 fb ce 7b bd 5e 1e 61 3e 70 27 ca bc 00 86 3b 3e
       -0.06147669 0.2198424 -0.024677008 0.18312836
000180 35 ce 20 3e 8c 86 3e be 5a cc 27 be 3a 4e 42 bb
       0.15703662 -0.18606013 -0.16386548 -0.0029648677
000190 be c4 d5 bd 5c f3 25 3e c3 a2 08 3e f2 89 23 be
       -0.10437916 0.16206115 0.13343339 -0.1597059
0001a0 10 1c 10 be b2 4e 38 be 78 3d 4c be 7c a7 d9 3d
       -0.14073205 -0.1799877 -0.19945323 0.10627648
0001b0 05 4a 3f 3e 4c aa d9 3c 26 8d 25 3e cd 17 c2 bd
       0.1868058 0.026570462 0.16167125 -0.09477196
0001c0 3d 74 33 be ea 56 31 be 3b ea 27 3d 70 5a 9e bd
       -0.1752481 -0.17318311 0.040994864 -0.07732093
0001d0 ea 59 4f 3e b0 18 b2 bd bd 6e 80 3b b6 e1 e7 bd
       0.20249143 -0.08696115 0.003919451 -0.11322348
0001e0 89 8b 42 3d ed b8 04 3d e3 a8 4a be 5c 1f 02 be
       0.047496352 0.03240292 -0.19790988 -0.12707275
0001f0 f8 88 13 3e 66 ef b5 3d 7b 88 14 3e af 8c 3f 3e
       0.14407718 0.08883552 0.14505188 0.1870601

fc2.weight f4 [128, 128]
000000 83 34 1b 3d aa 2c 6f 3d f8 48 ba 3c 4e 40 a3 bc
       0.037891876 0.058392204 0.022739872 -0.019928124
000010 52 f5 71 bd cf 3c bb 3d 84 06 84 bc 18 4c 7b bd
       -0.059071846 0.09142458 -0.016116388 -0.061351866
000020 e9 1b 95 3d 70 86 9b 3b d2 54 3c 3d ce 50 2c bb
       0.07280714 0.004746251 0.04597933 -0.002629328
000030 a0 38 30 bd 74 61 f3 3c 9a 63 9f 3c 49 c5 ad 3d
       -0.04302275 0.029709555 0.019456673 0.08484895
000040 9c 87 76 3d 14 e2 b6 3d 4d 2b 04 3d 9e d4 b7 3d
       0.06018792 0.0892984 0.032267857 0.089761004
000050 ed 45 2c 3d 14 8d d8 3d 7b 1d cb 3d 0b 13 c6 3d
       0.042058874 0.105737835 0.09917732 0.09671601
000060 75 28 ba bc 33 79 1d bd f5 73 a3 3d 5d e6 67 3b
       -0.02272437 -0.038445663 0.079811014 0.003538511
000070 cd f2 25 3c f0 67 f9 bb b0 c0 e7 3d a3 a3 6d 3d
       0.010128689 -0.0076112673 0.11316049 0.058017384
000080 44 1c 0a 3d e1 a5 75 3d 10 f1 d5 3b e1 12 22 bd
       0.033718362 0.059972648 0.006528981 -0.039568786
000090 9a 64 25 3d 9e b1 a1 3d 9a bc a8 bd ca dc a5 bd
       0.040379144 0.07895206 -0.08239098 -0.08098753
0000a0 86 62 ed bc bf ac 14 3c 1a 18 3a 3d 83 9e 98 bc
       -0.028977644 0.009074389 0.04543314 -0.018630272
0000b0 66 ad 53 3d 2a 26 62 3d 19 f9 b3 bd 39 d3 01 3d
       0.051679038 0.055212177 -0.08787746 0.03169558
0000c0 14 2c 5c bd 4e cb c9 3d 45 b8 a3 3d ed 56 df 3d
       -0.053752974 0.098532304 0.07994131 0.10905252
0000d0 8b 29 af 3d 55 43 ca 3d 78 77 ad bc 8d e1 97 3d
       0.085528456 0.09876124 -0.021175131 0.07416067
0000e0 fd 39 2e 3d f1 1c b9 bc 80 ce ad 3b b9 43 ce 3d
       0.04253577 -0.022596808 0.0053041577 0.10071511
0000f0 5e e0 32 3c 81 3f 93 3d 9e e1 b8 3d 19 19 b6 3d
       0.010917751 0.07189847 0.09027408 0.08891506
000100 28 b4 58 bd 62 b7 5e 3c 08 4f 19 3a 49 1d 13 bd
       -0.052906185 0.013593527 0.00058482634 -0.0359166
000110 80 62 ad ba ef 94 a6 3d b8 09 04 3d 09 02 32 bd
       -0.0013228208 0.081338756 0.03223583 -0.043458972
000120 92 07 be 3d 25 3f 4f bd f1 67 cd 3c 9b 53 ee 3c
       0.09278788 -0.05059733 0.025073977 0.0290926
000130 d2 60 60 3d ae ab 43 3d fc 2f cc 3d 3c 48 b9 3d
       0.054779835 0.04777115 0.0997009 0.09046981
000140 21 96 b2 3d 80 bc 84 3c b5 20 88 bd 5c 6b 92 3d
       0.08720041 0.016203165 -0.06646863 0.071493834
000150 83 de df 3d f7 d8 99 3d 49 ff 62 bd 2a b5 93 bd
       0.109311126 0.07512086 -0.05541924 -0.07212289
000160 ee 5e b5 3d ef 31 26 bd 44 91 64 3d aa 13 8d bd
       0.08855997 -0.040574964 0.0558026 -0.06888516
000170 39 5d a7 3d 7d 03 9d 3d 26 16 69 3d 7f 85 6a 3d
       0.08172078 0.07666681 0.056905888 0.057256218
000180 e7 f4 0f bd db 85 20 bd 7f e9 b9 3b 31 58 ea 3b
       -0.035145666 -0.039190155 0.005673587 0.0071516265
000190 b2 71 6d bc e1 51 31 3d 61 aa 2d 3d 1c 97 18 bd
       -0.014492439 0.043290976 0.042398814 -0.037253484
0001a0 c7 9f 93 bd ed 3d 90 3d ca d3 a1 bd 54 fa b5 3d
       -0.072082095 0.070430614 -0.07901724 0.08885637
0001b0 6a e7 a4 bd 1a 74 db 3d 90 c1 70 bd ab fe 74 bd
       -0.08051951 0.10715504 -0.058778346 -0.059813183
0001c0 91 e0 92 3d 4d 6f 80 3d 2e f2 87 bc 88 88 bb bc
       0.07171739 0.06271229 -0.016594972 -0.022892252
0001d0 03 2b da 3d d4 bd c0 3d 02 23 99 3d 9f 13 78 bc
       0.10652735 0.09411207 0.0747738 -0.015141397
0001e0 ea c8 99 3b 52 a8 01 bd d2 a6 11 3d 03 9d 14 bc
       0.0046931403 -0.031654663 0.035559483 -0.009070638
0001f0 f6 4f 19 bd 97 fa 51 bd a2 17 bb 3d 08 97 52 3d
       -0.037429772 -0.05126437 0.09135367 0.051413566
000200 88 8c 51 bc 91 08 44 bd 5d c5 2b bd b2 a6 ba 3d
       -0.012789853 -0.047859732 -0.041936267 0.09113826
000210 49 63 c5 3d e0 fc 25 3d 10 24 54 bd 25 e8 9a bb
       0.09638078 0.040524364 -0.051792204 -0.004727381
000220 d2 fe 0d 3d f0 0d aa bc 8f 16 9e bd 4b 4d 3f 3d
       0.034666844 -0.020758599 -0.077191465 0.04670457
000230 be 2a 4f bd 18 f2 22 3c d3 7b 10 3d 5d f3 24 3d
       -0.05057787 0.009945415 0.035274338 0.04027115
000240 4d 93 f6 bc 15 71 b5 3d 55 e0 95 bc b0 f2 1b bd
       -0.030099535 0.08859459 -0.018295446 -0.03807324
000250 c6 98 19 bd 90 c6 bc 3d ab 72 3b 3d c5 e3 8d 3d
       -0.03749921 0.0921756 0.045763653 0.06928209
000260 07 72 bc 3b 53 66 00 3d c0 b5 d6 bc f2 72 f3 bc
       0.005750898 0.031347584 -0.026209712 -0.029717896
000270 c6 0f be bc a0 b7 2b bd 26 00 54 bd 9c 1c 4b bd
       -0.02320088 -0.041923165 -0.051757954 -0.04958783
000280 07 29 84 3d 9a df fb bc 20 cf 0b 3b 3c 24 8a bd
       0.06453138 -0.03074627 0.0021333173 -0.067451924
000290 3c b0 99 bc 16 da 20 3d 49 8f 8f 3d ae 18 7d 3d
       -0.018760793 0.039270483 0.07009751 0.061791115
0002a0 e0 2b 37 3c d3 ef 7f bc 5c f4 09 bd 5d 1e 12 3d
       0.011179894 -0.015621143 -0.033680305 0.035673488
0002b0 80 fc fe bb 24 8a b6 3c 67 5d f4 bc ef 4f 61 bd
       -0.007781565 0.022282667 -0.029829694 -0.05500787
0002c0 c5 3c 86 3d ec 1d 86 3d 0c 2f 5e 3d f2 e3 95 3d
       0.065545596 0.06548676 0.054244086 0.07318868
0002d0 52 13 43 3d df b8 25 3d 5e 36 7d bd 00 1e f9 ba
       0.047625847 0.04045951 -0.061819427 -0.0019006133
0002e0 85 db 18 3b 5c 4c 53 bc 70 69 5b 3c d5 b0 96 3d
       0.0023324203 -0.012896623 0.0133918375 0.07357947
0002f0 6c 64 87 3d 0a 2d 0b 3d d4 e1 3e 3d 47 fe 85 bd
       0.06610951 0.0339785 0.046602085 -0.0654264
000300 e6 cf 94 3d f9 c2 b1 3c cf 1b b8 3d bb 2e 9c 3d
       0.07266216 0.021699416 0.08989679 0.07626101
000310 f6 87 41 3d 00 92 da ba d8 b6 28 3d d9 8a f2 bc
       0.047248803 -0.0016675591 0.04119 -0.029607223
000320 03 ca bd 3d cb 32 55 3c ce b5 9b 3d b1 ed 96 3d
       0.09267046 0.013012598 0.07603036 0.07369555
000330 a0 b6 4b bc 97 0e 5d bd bf cf 84 3d 7c 76 b2 3d
       -0.012433678 -0.053968992 0.06484937 0.08714005
000340 69 8f b4 3d 11 38 9f 3d 29 cc 82 3d 7c 54 2b 3d
       0.08816416 0.07774366 0.06386597 0.041828617
000350 46 a0 bd 3d d0 4d a3 3b 11 33 49 bd 6f 17 92 3c
       0.09259085 0.004983641 -0.049120966 0.01783344
000360 90 a9 82 3d 48 99 dd 3d 3a 75 84 3d a1 b4 5c bd
       0.06379998 0.10820252 0.06467672 -0.0538832
000370 60 5e 69 bd f6 37 a1 3c 5a 77 5d 3d 4b d9 27 bd
       -0.05697477 0.019680005 0.0540689 -0.04097871
000380 e3 9b 7e bd 7b 49 5d 3c 79 9e a4 bd 22 84 1c 3d
       -0.062160384 0.013506289 -0.08038039 0.03821195
000390 3e 24 cb bd ab fa ad 3d 01 0a 0c bd bc d9 47 bd
       -0.09919022 0.08495077 -0.034189228 -0.048791632
0003a0 1e 88 aa 3d 40 93 3b 3b f7 55 a8 3d 6c d4 5a bd
       0.083267435 0.0028621703 0.082195215 -0.053425238
0003b0 97 9e 05 bd 72 9d 24 bd 27 5e ce bc 79 ee b2 3d
       -0.032621946 -0.040189214 -0.02519138 0.08736891
0003c0 29 f9 69 bd 64 56 b4 3d 14 02 18 bd 82 b1 0f bd
       -0.057122383 0.0880554 -0.037111357 -0.035081394
0003d0 44 25 56 bd ab 97 cf bc 65 a1 9d 3a 49 90 15 3c
       -0.052281633 -0.025340876 0.0012026249 0.009128639
0003e0 fc 47 63 3c 09 ec 52 3d 3c 37 d0 3c 5f 4e 8f 3d
       0.013872143 0.051494632 0.025416963 0.0699737
0003f0 a7 6e bd 3d 25 47 13 bd a6 a2 cb bc 9c 80 2c 3d
       0.09249621 -0.03595652 -0.02485783 0.04211484

fc2.bias f4 [128]
000000 e3 e2 ab 3d 9b 73 3d 3c 30 dc a5 3d cd a2 63 39
       0.083928846 0.011563207 0.08098638 0.00021709055
000010 1d 2a d1 3d 3d e3 be bc 76 d7 94 3d e6 2e 95 bd
       0.102131106 -0.023301715 0.072676584 -0.07284336
000020 41 2e c6 3d 95 cd 02 3e 47 37 84 3d 34 10 9b bd
       0.09676791 0.12773736 0.06455856 -0.0757145
000030 e6 08 89 bd 99 d7 13 3d 7a 6c 13 3a 53 e1 36 bd
       -0.0669115 0.03609428 0.0005623769 -0.04464848
000040 3d 7a da bc 3e 83 ef bc 12 23 cc 3c 8e f0 6d 3d
       -0.026669616 -0.029237386 0.024919067 0.05809074
000050 f7 f7 6d 3d 82 7f 5c 3d c1 f2 40 3d a3 3c 68 3c
       0.058097806 0.05383254 0.04710651 0.014174613
000060 59 c7 bf 3c a2 7f 56 bd 82 e6 01 3c 0b c4 95 3d
       0.023410486 -0.052367814 0.0079284925 0.07312783
000070 7d 85 0c 3c 4c 50 6c bd c6 ce d4 ba 9a 0a 8f bc
       0.008576748 -0.057693765 -0.001623594 -0.01746111
000080 df f5 3b 3d 74 cd d0 bc 6c 44 e2 3d 6d 6a 2e 3d
       0.045888778 -0.025488593 0.11048207 0.042581964
000090 a1 9f 8b bd ff 7f 64 3d f4 e4 bc bc 83 42 88 bd
       -0.06817556 0.05578613 -0.023058392 -0.06653311
0000a0 1c ed f3 3b c1 b5 92 3c 27 d9 6b bd 00 0b eb 3a
       0.007444037 0.017908933 -0.05758014 0.0017932355
0000b0 35 f4 51 3d 54 29 7f 3c bb b4 86 3d 88 9a 21 bd
       0.051258285 0.015573818 0.0657744 -0.039454013
0000c0 9a 95 97 bd 2b 13 b1 bd 22 f8 66 3d 28 ab af 3c
       -0.07401581 -0.08646234 0.05638898 0.021443918
0000d0 05 6d 56 bd 0d d3 97 bd ef af c2 3d ea b4 89 bd
       -0.052350063 -0.074133016 0.09506213 -0.0672396
0000e0 30 db 85 bc 29 ee ad bc ff 76 45 3d 69 0f 09 3d
       -0.016339868 -0.021231728 0.048209187 0.033461962
0000f0 d1 52 f7 bc 55 0f 86 bd 89 82 96 3d 04 3d ba 3d
       -0.030190857 -0.06545893 0.07349116 0.09093669
000100 54 3f 72 bc 04 51 9a bd a0 31 32 3c 91 e8 18 3d
       -0.014785606 -0.07534984 0.010876089 0.037331168
000110 91 b8 4b bc a7 49 87 3c 4d 25 8e 3d 07 dc 0e bd
       -0.012434141 0.016514612 0.06940708 -0.034877803
000120 e2 3f bf bc 46 f8 70 3d 30 17 ad 3d 62 f4 48 bd
       -0.023345891 0.058830522 0.08451688 -0.049061187
000130 34 c4 9f 3c 72 10 b4 3d 15 44 4a bd 73 c3 d0 3d
       0.019502737 0.08792199 -0.049381334 0.10193529
000140 d2 4d f8 b9 f4 3e 65 bd 18 08 49 3c ae 51 49 3d
       -0.00047360227 -0.05596824 0.012269996 0.04915016
000150 cc b5 8b bd ca ce 94 3c e6 f5 85 bd 44 ff 9f 3c
       -0.068217844 0.018165011 -0.06541042 0.0195309
000160 fd e0 a1 3c 58 72 9d bc 50 e3 56 3c ee d3 89 3d
       0.019760603 -0.019219562 0.013115719 0.067298755
000170 15 95 2d 3d 67 b3 72 3d fc 7e b7 3c 00 be 28 3b
       0.042378504 0.059253123 0.022399418 0.0025748014
000180 55 5b 15 3d 50 45 93 bc f4 c1 51 3c 3f c2 b3 3d
       0.036464054 -0.017977387 0.01280259 0.08777284
000190 bf 85 26 bd b4 25 a3 bc 21 65 a0 3d d8 bc 74 3d
       -0.040654894 -0.01991544 0.07831789 0.059750408
0001a0 13 af fa 3d 29 4d dc 3d 38 8a 1f 3d 20 3f 21 bd
       0.12240424 0.10756905 0.038950175 -0.03936684
0001b0 cd d0 c9 3d 9e 85 70 bd 0d 57 1e 3d 45 ae 37 3d
       0.09854279 -0.058721177 0.038657237 0.04484393
0001c0 5b 7b 76 3d d6 ef 95 3d 0f 38 63 bc 41 7e 82 bb
       0.060176235 0.07321136 -0.013868346 -0.003982336
0001d0 9f 83 65 bd d8 9f 0d bc 79 6d 83 bc 56 d7 f6 bc
       -0.056033727 -0.008644067 -0.016043412 -0.030131977
0001e0 fd 69 b0 3b 7e de 79 bd c2 f2 bc 3c 9e 63 52 bd
       0.0053837285 -0.0610032 0.023064975 -0.051364534
0001f0 fa f1 c6 3d 99 89 e7 bb ca 3a dd 3d 98 7b 9c 3d
       0.09714122 -0.0070659635 0.10802229 0.07640761

fc3.weight f4 [5, 128]
000000 60 63 39 bd 40 1c 00 bd 69 b7 9c bd 3a 93 9a 3d
       -0.045260787 -0.03127694 -0.0765217 0.075476125
000010 9f ab 98 3d 42 dd 8b bd 11 fc 8e 3d 3e b2 38 3d
       0.07454609 -0.06829311 0.069816716 0.04509186
000020 72 e1 36 3d dd 64 bb 3d 08 b5 1c 3c 3b 5c 97 3d
       0.044648595 0.091500975 0.009564646 0.073906384
000030 ae 28 b0 bc 5d 18 9f bd 43 75 10 3c 4a cc 93 3d
       -0.021503773 -0.07768319 0.00881702 0.072166994
000040 35 d6 8f bd 25 d1 4d bd 80 cf 85 3d 67 49 09 3c
       -0.070232786 -0.050248284 0.06533718 0.008379317
000050 03 2d 88 bc 07 22 56 3d be 2e 11 3d dd bf 9a bd
       -0.016623026 0.052278545 0.035444967 -0.07556126
000060 b2 e2 a4 3c b5 1c 8c bd 90 fa a3 3d ea b9 11 3d
       0.020127628 -0.06841413 0.080067754 0.035577692
000070 08 7d e6 bc 80 59 94 bd 1d f7 7c bc cf 09 1b bd
       -0.028135791 -0.07243633 -0.015439776 -0.03785115
000080 cc 79 28 3d 8c 6e e9 bc da ac 27 bc 77 1e 92 bd
       0.04113178 -0.028495096 -0.010234082 -0.07134717
000090 59 cd 71 bd 42 45 63 3d b0 a4 b0 3b 80 16 51 3a
       -0.059033725 0.05548597 0.005390726 0.000797607
0000a0 bf 0f 99 bd 07 39 66 3d 82 b7 93 3d 09 45 43 bd
       -0.074737065 0.05620673 0.07212736 -0.04767326
0000b0 09 af 4b bd f3 58 14 bd 94 32 98 3d c0 14 ff 3c
       -0.049727473 -0.03621764 0.07431522 0.031137824
0000c0 2d 5e 32 bd fe 81 0c 3c 1d 3b 92 bd e4 a8 dc 3c
       -0.043546844 0.008575914 -0.07140181 0.026936002
0000d0 cc ff b1 3c 95 14 86 3d 4f 60 91 bd f4 f8 6a bd
       0.021728419 0.065468945 -0.070984475 -0.057366326
0000e0 af 64 1b 3d cf 64 4b 3d ec 59 e7 bb 46 70 a4 3d
       0.037937816 0.049656685 -0.00706028 0.08029227
0000f0 ca fd a1 3d 1a 86 21 bd d6 b5 09 bd 01 1a 1a bc
       0.079097345 -0.03943453 -0.033620678 -0.009405614
000100 dd 10 c1 3c 20 fd 7b bc fb ee 67 bd 29 e6 93 bd
       0.023567611 -0.015380174 -0.056624394 -0.07221634
000110 6b 4e b8 3d 47 22 ab bd 41 81 83 3d 8d 90 78 bc
       0.08999332 -0.08356147 0.064211376 -0.015171182
000120 82 f5 15 3d 45 a9 12 3a 01 5e 9a 3b 28 2d 22 3d
       0.036611088 0.0005594681 0.004710913 0.039593846
000130 10 f5 2d bc a6 82 a3 bd 18 d4 83 3b d7 5c 3f 3d
       -0.0106175095 -0.079839036 0.0040230863 0.0467194
000140 70 a1 96 bd 91 2d a6 bc dd ec 8a bd 38 ca 5a 3d
       -0.073550105 -0.0202854 -0.06783459 0.053415507
000150 fa 5b 81 bd 38 d2 82 3c f2 58 32 bd c5 d6 07 bd
       -0.06316371 0.01596938 -0.043541856 -0.033163805
000160 5d 41 9e 3d ee e4 94 bd e3 c8 7c 3c 2f 72 92 3d
       0.07727311 -0.072702274 0.0154287545 0.07150685
000170 44 c1 f7 bc 2e fc 4f 3d 22 61 a2 bd ca fe 44 bd
       -0.030243523 0.050777607 -0.07928683 -0.04809455
000180 6e 07 04 3a 9d fd 9f 3d a3 85 18 3d 78 b8 6d 3d
       0.00050365075 0.07812045 0.03723682 0.05803725
000190 25 1b 00 3d 3f ef a7 3d a5 bf 89 3d 84 9c 6e 3d
       0.031275887 0.081999294 0.067260064 0.058254734
0001a0 0c 7f a9 bc ab 0a 40 3b 84 e6 90 3d 34 8e 91 3c
       -0.020690463 0.0029303234 0.07075217 0.017768003
0001b0 f8 2a 9f 3d d0 65 5f bc 61 36 fb 3b dd 9d fa bc
       0.077718675 -0.013635114 0.0076663946 -0.030592853
0001c0 6c c3 c3 3d 4a 6f b7 bd 77 30 01 3d af 9b 58 bc
       0.09558758 -0.089567736 0.03154036 -0.013220712
0001d0 ea 9e 11 3d db 65 87 3d 50 e5 f0 3c 25 40 11 3d
       0.035551943 0.06611224 0.02940622 0.035461564
0001e0 00 2c 13 bd 81 cd 05 3c d8 4b 4f bc 18 36 c3 3b
       -0.035930634 0.008166672 -0.01265236 0.005957376
0001f0 b2 f5 66 3d 54 1f 89 3d 32 b1 bd 3d 11 dc 81 bc
       0.056386657 0.066954285 0.09262313 -0.015852006
000200 06 8c a9 bc da 37 49 3d 10 b9 48 bd 47 45 8b bc
       -0.020696651 0.04912553 -0.049004614 -0.017000807
000210 8b 1f 08 bd 7e 64 a9 bd 06 5a c0 bd a0 aa 7c bb
       -0.033233207 -0.082711205 -0.093921706 -0.003855385
000220 37 62 e6 bc 42 ca 2a 3b 6d 95 8a 3d 5d a6 70 3d
       -0.028123004 0.0026060496 0.06766782 0.058752406
000230 51 a3 3f bd 3b ba 27 bc 3c 68 bb bc 69 a4 77 bc
       -0.04678661 -0.010237272 -0.022876851 -0.015114882
000240 62 52 7b ba 34 e3 f0 3c 29 6c 46 bd d0 8c 43 bd
       -0.0009587166 0.029405214 -0.048442993 -0.04774171
000250 10 f4 3b bd ed e1 20 bd ad fd b5 bd 8a 59 76 3d
       -0.045887053 -0.03927796 -0.088862754 0.060143985
000260 7b 54 d9 3c 6a 39 05 3c bc 31 3e 3b 8f 42 9c bc
       0.026529541 0.008131364 0.0029021343 -0.019074706
000270 f6 4e 69 bd 58 04 99 3c 38 d4 21 3d 77 3c 9d 3d
       -0.05696007 0.01867883 0.03950903 0.076775484
000280 cc 04 66 3d 65 01 1d bd 86 47 ee bc b6 d8 85 bd
       0.05615692 -0.038331408 -0.02908684 -0.06535475
000290 01 7f 78 bd 43 dc 78 3d 18 a3 b6 3c d4 35 89 bd
       -0.060667995 0.060756933 0.022294566 -0.0669972
0002a0 83 86 70 38 ea eb 01 bd f2 7d af bc bd 3f 35 bd
       5.7345733e-05 -0.031719126 -0.02142236 -0.04425024
0002b0 12 05 51 bd cc ed a6 bd 48 4e 8e bc 61 f6 27 bd
       -0.051030226 -0.08150825 -0.017371312 -0.04100645
0002c0 c2 5c 49 3c 2f 8d 24 bd 17 b4 11 bd c4 45 f6 bb
       0.012290182 -0.040173706 -0.035572138 -0.007515641
0002d0 f9 77 2b bd 68 65 a3 bc 81 8f aa bb d6 fe 4d 3d
       -0.04186246 -0.019945815 -0.0052050953 0.05029186
0002e0 57 ce d3 bc de 80 3f ba c2 bf 94 3d 6b 77 d2 bd
       -0.025855226 -0.00073052745 0.072631374 -0.102766834
0002f0 fb 9a 2a bc 0f 93 2a bd 10 84 ff 3c e1 fa 87 bc
       -0.010412927 -0.041644152 0.031190902 -0.01659912
000300 37 5e 87 bd 59 9e ac 3d c8 b9 1b bc 7a 4b bb bd
       -0.06609767 0.0842864 -0.009504743 -0.091452554
000310 25 d3 db bc f3 f4 a6 3d fe cb 51 bd ab 7e 91 bd
       -0.02683408 0.08152189 -0.051219933 -0.07104238
000320 0d 11 8c 3b 39 5d 73 bd 64 80 be bd be 37 87 bd
       0.0042744935 -0.059415076 -0.09301832 -0.06602429
000330 ec 75 5d bd 83 92 91 bd 93 b7 5b 3d ca dd 11 bd
       -0.054067537 -0.07108023 0.053641867 -0.035611905
000340 78 86 f8 3c d7 8d ef 3c c6 ee 7a 3d cb c5 1e 3d
       0.030337557 0.02924244 0.06126287 0.03876285
000350 3e 21 2d bd 8d 85 a1 3d f4 ea d7 3c 96 a9 71 3d
       -0.04226803 0.07886801 0.026357152 0.05899962
000360 3c 1b aa 3d fa 77 40 3d 8f ff de 3c c8 e0 85 3d
       0.08305976 0.04698942 0.02722147 0.06537014
000370 ed 1d 8d bd ed a6 ac bd 0b 64 91 bd 80 9d a5 3a
       -0.068904735 -0.08430276 -0.0709916 0.001263544
000380 02 c3 25 bd 47 01 89 3d 94 f1 bd bd 48 b6 b2 bd
       -0.040469177 0.06689697 -0.09274593 -0.08726174
000390 2f 45 45 bd 8d ee 3f bd 96 3b 0b 3d 6b 33 64 3d
       -0.04816168 -0.04685836 0.033992372 0.0557131
0003a0 e5 09 e1 bc de 61 bc bd 2d ca fe 3c 79 47 33 bd
       -0.027470538 -0.09198354 0.031102264 -0.043769334
0003b0 65 b3 47 bd 2d a0 8b 3d 76 22 34 bb 1d 24 a1 bd
       -0.04875507 0.068176605 -0.002748636 -0.07868216
0003c0 77 33 79 bd 07 56 41 bd e3 5b 5d 3b 98 bd 7d 3d
       -0.060840096 -0.047201183 0.0033776693 0.06194839
0003d0 50 47 a8 bc c7 26 88 bd b6 c2 29 3d 24 23 79 bd
       -0.020541817 -0.06648021 0.041445456 -0.06082453
0003e0 21 aa a3 bd 0e 58 51 3d b2 94 a7 bc 2f 24 33 3d
       -0.07991434 0.051109366 -0.020456646 0.04373568
0003f0 00 56 e3 3b ed 96 12 3c 9b f5 a2 bd 04 27 36 3c
       0.0069377422 0.008947116 -0.07957002 0.0111177005

fc3.bias f4 [5]
000000 1b 92 7e bd 6d 3b 63 3c 1f fb f4 bd 17 c3 1a 3d
       -0.062151056 0.013869149 -0.1196196 0.03778371
000010 a1 02 dc 3c
       0.026856722
