CC_Reinforce_version_3_copy/materails/state_dict_model_v11.pt (torch, 84159 bytes, 6 tensors)

fc1.weight f4 [128, 25]
-0.1349726 0.14174846 0.1944282 0.21684295 -0.023796508 0.13367513 -0.054883618 -0.10440876
0.090535946 0.14613792 -0.13802806 0.17595759 -0.0134411035 -0.0068911617 0.12587874 0.22801116
0.2391686 0.13514417 -0.20385915 0.13531165 0.055982683 -0.15053348 -0.14396657 -0.074697964
0.032078624 0.15932365 0.20787221 0.07145962 0.14457422 -0.018643206 0.13733147 0.11178159
0.083927155 -0.15415223 0.05658416 -0.07794829 -0.11881027 -0.023012726 0.13246606 0.06904985
-0.020764919 -0.06788547 -0.07809394 0.069976844 0.15481843 0.11101243 0.19759382 0.008211307
0.016274069 0.1585766 -0.061674803 -0.13883848 0.1740336 0.13354231 -0.15899095 -0.15432732
0.14707889 0.09439792 0.076401815 -0.15366766 -0.19223268 0.0010253489 0.060247257 0.09738128
-0.15523009 -0.09778941 -0.18986593 -0.056797415 0.046848923 0.053204075 -0.038446397 -0.16990188
0.13879777 -0.045078516 -0.053664163 -0.107106924 0.08793763 -0.008590282 -0.087849565 0.1276073
0.08043515 0.17292842 -0.125661 -0.0515653 -0.18303186 0.080138944 0.075285025 -0.14274131
0.07187767 -0.10200977 -0.12422252 0.054649472 -0.1260476 -0.108822696 0.11800185 -0.193247
-0.06291402 -0.09293675 0.1879847 0.021774814 0.15323146 0.10282673 -0.004299134 -0.12021406
-0.034379393 -0.16716938 -0.16937438 0.023859888 0.088444605 0.05325432 -0.08630865 0.10999213
0.14082517 -0.1630551 0.17194168 -0.18148807 0.024322823 -0.12884247 0.11513676 0.061384305
-0.17033337 0.031786278 -0.081863165 -0.10077822 0.14614488 -0.19876961 -0.17265382 -0.18601365
0.1162328 0.11607285 0.19099377 0.056697413 0.09829615 -0.15175049 0.013418108 0.00466612
0.040043265 -0.16815114 0.0028237104 0.057874337 0.018150836 -0.16932546 0.18897091 -0.13656718
-0.021308988 -0.03822227 -0.114675954 0.04283543 -0.076220654 0.14446889 -0.035225272 -0.17392436
0.009735793 -0.10027464 -0.11098619 0.12105094 -0.07070859 -0.09169781 0.059666708 -0.00105986
-0.13998613 -0.10139086 -0.18305825 -0.13683492 -0.09470632 -0.05463907 -0.09014912 0.038996935
-0.057874873 -0.044884756 -0.15320675 0.10801889 -0.01843533 -0.012873843 0.015712619 0.20910455
0.20292827 0.15009373 0.125529 0.15266997 0.0854006 -0.105858244 0.013735116 -0.06118195
0.15750083 0.03768188 -0.16723682 0.17603466 0.08875038 -0.0466339 -0.08609457 0.18968216
-0.12230473 -0.09170072 0.2013201 0.12530944 -0.03925935 0.14430417 0.15088497 -0.09837212
-0.18708694 0.0013109148 0.12341456 0.10831262 -0.060379937 -0.18128061 0.045822427 -0.14496255
0.05085002 0.12551482 -0.15017776 0.19807042 0.02233544 -0.12135639 -0.009169176 -0.15700419
-0.16800657 -0.17184971 -0.14209647 0.10551761 0.15061347 -0.041185424 0.19137569 0.088131085
-0.074055105 -0.17187642 -0.18618284 -0.06356564 0.1744005 -0.012839884 -0.066690564 -0.028642848
0.17277382 0.048596233 0.001303032 0.005834937 0.12241216 0.10629524 -0.16425762 -0.054460496
-0.049114376 0.06225179 0.19631507 0.09183918 0.09346001 -0.17518227 0.082216725 0.100532785
-0.13311186 -0.18351208 0.012755513 -0.070073366 0.18530996 0.07718934 -0.18454424 -0.15698525
00000000: 4236 0abe 8226 113e 3018 473e 140c 5e3e
00000010: e5f0 c2bc 22e2 083e a5cd 60bd 43d4 d5bd
00000020: e96a b93d 2ea5 153e 3a57 0dbe 3a2e 343e
00000030: 1338 5cbc 41cf e1bb 5be6 003e c27b 693e
00000040: 9de8 743e 3c63 0a3e 74c0 50be 238f 0a3e
00000050: 194e 653d 7325 1abe f96b 13be 3ffb 98bd
00000060: e064 033d bd25 233e 74dc 543e 6c59 923d
00000070: 440b 143e a3b9 98bc 9fa0 0c3e bfed e43d
00000080: 00e2 ab3d 15da 1dbe cbc4 673d 5aa3 9fbd
00000090: cd52 f3bd 2f85 bcbc 2fa5 073e 026a 8d3d
000000a0: 311b aabc 8a07 8bbd b7ef 9fbd 0550 8f3d
000000b0: b988 1e3e 7c5a e33d 0956 4a3e b888 063c
000000c0: 3251 853c e761 223e b89e 7cbd ad2b 0ebe
000000d0: dd35 323e 51bf 083e 86ce 22be fb07 1ebe
000000e0: d99b 163e b253 c13d 8e78 9c3d 0e5b 1dbe
000000f0: a5d8 44be 0065 863a d4c5 763d d66f c73d
00000100: a3f4 1ebe d045 c8bd 376c 42be 68a4 68bd
00000110: a8e4 3f3d 84ec 593d f879 1dbd c2fa 2dbe
00000120: 0121 0e3e 40a4 38bd f4ce 5bbd e05a dbbd
00000130: a518 b43d 41be 0cbc 79ea b3bd 7dab 023e
00000140: 2fbb a43d 2614 313e 47ad 00be 2336 53bd
00000150: b46c 3bbe e31f a43d 092f 9a3d c72a 12be
00000160: 9a34 933d 80ea d0bd 6068 febd 20d8 5f3d
00000170: 9f12 01be 6fde debd f4aa f13d 8be2 45be
00000180: 11d9 80bd 9f55 bebd 107f 403e 1861 b23c
00000190: b5e8 1c3e d296 d23d c0df 8cbb ca32 f6bd
000001a0: 68d1 0cbd 732e 2bbe 7a70 2dbe d075 c33c
000001b0: 7222 b53d 3421 5a3d 97c2 b0bd 8e43 e13d
000001c0: 7934 103e ebf7 26be 7b11 303e 02d8 39be
000001d0: a840 c73c 48ef 03be d2cc eb3d 1c6e 7b3d
000001e0: df6b 2ebe 5432 023d e0a7 a7bd d064 cebd
000001f0: 01a7 153e 438a 4bbe 2acc 30be 5d7a 3ebe
00000200: 760b ee3d 9ab7 ed3d df93 433e 8c3b 683d
00000210: 7e4f c93d 7b64 1bbe a0d7 5b3c 40e6 983b
00000220: 6804 243d d02f 2cbe 000e 393b a40d 6d3d
00000230: 10b1 943c a763 2dbe 9781 413e 44d8 0bbe
00000240: 3090 aebc f48e 1cbd 3adb eabd 3474 2f3d
00000250: 9319 9cbd a7ef 133e 6048 10bd 3a19 32be
00000260: e082 1f3c ca5c cdbd ba4c e3bd 8ee9 f73d
00000270: aacf 90bd 10cc bbbd 1465 743d 00eb 8aba
00000280: 8658 0fbe 03a6 cfbd 9f73 3bbe 741e 0cbe
00000290: 63f5 c1bd 38cd 5fbd 1aa0 b8bd 40bb 1f3d
000002a0: 340e 6dbd 14d9 37bd 3be2 1cbe 0239 dd3d
000002b0: b005 97bc d0ec 52bc c0b7 803c 811f 563e
000002c0: 6ecc 4f3e 2cb2 193e ad8a 003e 8455 1c3e
000002d0: 83e6 ae3d 35cc d8bd 4109 613c ed99 7abd
000002e0: e647 213e 5158 1a3d 2140 2bbe 6e42 343e
000002f0: c2c2 b53d 3003 3fbd 5a52 b0bd 0a3c 423e
00000300: e77a fabd 96cd bbbd db26 4e3e 1e51 003e
00000310: 6ace 20bd 79c4 133e 9781 1a3e 5277 c9bd
00000320: b893 3fbe 00d3 ab3a c6c0 fc3d 02d3 dd3d
00000330: f450 77bd a0a1 39be 4cb0 3b3d 1071 14be
00000340: 1c48 503d f586 003e 33c8 19be f9d2 4a3e
00000350: d0f8 b63c b389 f8bd 503a 16bc b5c5 20be
00000360: ea09 2cbe 5ff9 2fbe bd81 11be 9e19 d83d
00000370: 6b3a 1a3e 0cb2 28bd fdf7 433e 127e b43d
00000380: 34aa 97bd 5f00 30be b7a6 3ebe b42e 82bd
00000390: 0b96 323e 605e 52bc 1095 88bd 68a4 eabc
000003a0: 9feb 303e d80c 473d 80ca aa3a 0033 bf3b
000003b0: 3ab3 fa3d 52b1 d93d 2633 28be f811 5fbd
000003c0: 282c 49bd bcfb 7e3d d106 493e 2e16 bc3d
000003d0: f667 bf3d fb62 33be 3e61 a83d 22e4 cd3d
000003e0: 7a4e 08be 97ea 3bbe 80fc 503c a082 8fbd
000003f0: e5c1 3d3e 7215 9e3d 2af9 3cbe bec0 20be

fc1.bias f4 [128]
0.12262681 0.086857095 0.13112162 0.16270442 0.14182235 -0.12321832 0.09057726 -0.03872432
0.12440641 -0.058682233 -0.004977733 0.15221366 0.0981545 0.22442089 0.16344017 0.17886509
0.03912279 -0.054973226 0.0738451 0.22718503 0.20110323 0.039063767 0.14398073 0.15478694
-0.14907983 -0.09939915 0.18000339 0.02004334 -0.008462596 -0.12127949 -0.13603349 -0.123917
-0.057431057 -0.07796121 0.10605774 0.13404445 -0.19679776 -0.17178634 0.13748997 -0.014612512
0.084000446 -0.093929045 -0.19221418 0.030022949 0.012850794 0.06465533 0.18818071 0.03224829
-0.07109884 -0.19100432 0.10397419 -0.12244737 -0.16189086 0.118253484 0.10928743 -0.018595904
0.19122934 0.12235153 0.071452215 0.053786725 0.1612512 0.010486484 0.21269982 -0.15414827
-0.07581226 0.15927698 0.14742488 0.04445991 0.08286605 0.1100956 -0.069691844 -0.072281115
-0.13650122 -0.12160342 0.20772277 -0.088317595 0.042681824 -0.021214793 -0.17559765 0.08801675
0.11506399 -0.18378061 0.220134 -0.16231182 -0.15048909 0.07670516 0.11218849 0.17462607
0.028383233 0.22427288 0.1662192 -0.13627185 0.09170746 -0.14619672 -0.00611098 -0.20624775
-0.15706794 0.053576723 -0.02255606 0.17541103 0.16801839 0.13875891 -0.19003995 0.097409874
0.087802306 0.027075201 -0.04501237 0.063485436 0.0050207376 0.14582852 -0.16989902 -0.09990396
-0.025774341 -0.05134739 0.03076998 -0.00011582881 -0.13280135 0.061067052 0.016942885 0.21362273
-0.05776315 -0.1298255 0.0028448694 0.06521592 -0.18941824 -0.009519977 0.027360588 -0.075342394
00000000: c423 fb3d 22e2 b13d bf44 063e fd9b 263e
00000010: e139 113e e359 fcbd 9280 b93d 649d 1ebd
00000020: cac8 fe3d c85c 70bd 401c a3bb e6dd 1b3e
00000030: 3a05 c93d 97ce 653e dc5c 273e 6928 373e
00000040: 383f 203d 9b2b 61bd 1a3c 973d 31a3 683e
00000050: 01ee 4d3e 5401 203d af6f 133e 7880 1e3e
00000060: 62a8 18be c891 cbbd cf52 383e ee31 a43c
00000070: b3a6 0abc 6261 f8bd 5d4c 0bbe 32c8 fdbd
00000080: d43c 6bbd 20aa 9fbd cd34 d93d f342 093e
00000090: 5a85 49be c2e8 2fbe 2cca 0c3e 5169 6fbc
000000a0: 6d08 ac3d df5d c0bd cbd3 44be b0f2 f53c
000000b0: 238c 523c 036a 843d 72b2 403e c816 043d
000000c0: 459c 91bd a396 43be 6cf0 d43d b0c5 fabd
000000d0: b8c6 25be e22e f23d 17d2 df3d 7056 98bc
000000e0: a0d1 433e 7093 fa3d 8a55 923d 784f 5c3d
000000f0: 091f 253e 80cf 2b3c fbcd 593e 0bd9 1dbe
00000100: 7543 9bbd 8119 233e 8cf6 163e 981b 363d
00000110: adb5 a93d cd79 e13d 99ba 8ebd 1f08 94bd
00000120: fac6 0bbe 370b f9bd 47b5 543e dbdf b4bd
00000130: 23d3 2e3d a5ca adbc dfcf 33be 2042 b43d
00000140: aba6 eb3d fc30 3cbe cf6a 613e 1235 26be
00000150: d019 1abe 9817 9d3d 14c3 e53d 2dd1 323e
00000160: f483 e83c caa7 653e 5e35 2a3e d98a 0bbe
00000170: 1fd1 bb3d 98b4 15be 9e3e c8bb 9c32 53be
00000180: 6bd6 20be 4473 5b3d 7dc7 b8bc f39e 333e
00000190: 030d 2c3e d116 0e3e d599 42be d47e c73d
000001a0: b2d1 b33d d0cc dd3c e45e 38bd a704 823d
000001b0: 0085 a43b 1254 153e 02fa 2dbe 739a ccbd
000001c0: b624 d3bc a451 52bd 5311 fc3c 1ee9 f2b8
000001d0: 14fd 07be 7221 7a3d cecb 8a3c ebbf 5a3e
000001e0: 0e99 6cbd faf0 04be fd70 3a3b ed8f 853d
000001f0: dbf6 41be adf9 1bbc 5023 e03c 1d4d 9abd

fc2.weight f4 [128, 128]
-0.040600356 -0.05370492 0.06736446 0.0659449 -0.087818466 0.071459614 0.04527574 -0.024067925
0.030830652 -0.047390874 -0.086341664 0.0707703 0.030121371 0.059279777 -0.02342212 -0.068368286
-0.085632846 -0.041453406 0.046512764 -0.09082526 -0.009353672 0.06254583 0.018774696 -0.06475852
-0.07432454 0.030040069 0.018959966 -0.07036575 -0.030412717 -0.06105785 -0.055229776 0.041344892
-0.08081939 -0.06729909 0.035878636 -0.04299404 -0.058666788 -0.010755926 0.038768895 0.0737958
-0.05501462 -0.01953001 -0.08160903 0.06504888 -0.020680146 0.014194 0.07136176 -0.05430559
-0.05764955 -0.016730592 -0.058252227 0.019119613 -0.05495094 0.04739108 0.013264666 -0.07582007
0.013453725 -0.033265024 -0.04170762 -0.052535176 -0.093137905 -0.030144364 -0.030107943 -0.029592952
-0.06583528 -0.009906986 0.039365064 0.038668327 -0.044002235 0.020115511 0.046910446 0.0665834
-0.029987043 -0.016575314 -0.043507338 -0.011517651 0.0555474 -0.08436227 0.0025216043 0.05339299
-0.013767979 -0.03915101 0.050906915 -0.023853809 0.05356224 0.0513491 -0.009249473 -0.060619913
0.04834457 0.05489587 0.023683691 0.06776583 0.054157987 -0.032958265 0.011975276 -0.0025158247
-0.026737416 0.050334133 -0.094370976 -0.05979543 -0.083307184 -0.057087515 0.02051916 -0.03439012
0.03161455 0.0076657757 0.0440375 -0.09023736 0.08464808 -0.08543943 -0.043550886 -0.065283224
0.0328643 0.022560265 0.019272946 -0.077024244 -0.009154715 0.04464765 -0.014376312 0.06568654
0.079267815 0.044009693 -0.041470155 -0.05445608 0.00449085 -0.071906984 0.03713966 0.044034693
-0.014991958 -0.08102473 -0.06325151 0.015793126 -0.065733075 0.07358896 0.013126351 0.00044828927
-0.06296064 0.03739784 -0.005499512 0.07959952 -0.043820478 0.054230247 -0.025368895 0.043273903
-0.02788524 -0.08667539 0.010174918 0.07827646 -0.030913714 0.0010170266 0.06773212 -0.06536782
-0.07398965 -0.08096446 0.06345897 -0.022488337 -0.060365748 -0.059128303 0.08558834 -0.01865926
-0.016344309 -0.06324804 0.084271915 -0.07869379 -0.05381151 2.6002526e-06 -0.088589996 -0.0075003062
-0.05930132 0.0131167285 0.036107987 -0.048938297 0.082640596 -0.08881457 -0.07263049 -0.07422124
-0.008959455 -0.044995755 -0.0012355036 -0.044224665 0.07357055 -0.015363053 -0.033693697 -0.015628241
-0.022919578 -0.058196757 -0.056401256 0.052951023 0.063606575 0.06305856 0.054296114 0.052696574
0.036582023 0.026852487 -0.06658092 -0.08091348 0.03945961 0.006595194 -0.05235725 0.07225455
0.009422133 0.00066435337 -0.0068133217 0.05683015 0.07578397 -0.06757729 0.015709408 0.025013637
-0.002378646 0.07783838 0.007634944 0.041233636 -0.06977855 -0.08179325 0.050980102 0.057712477
-0.032617606 0.03389672 0.00068468903 0.07407348 0.025538858 0.04918424 0.02669888 0.087099664
-0.08424212 -0.024679497 0.03718202 0.0058076116 -0.030488605 0.028011478 0.077172644 -0.06596342
0.046307437 0.053470828 -0.012357183 0.015608639 -0.06041205 -0.013522102 -0.023212746 -0.018203804
0.08398625 -0.0020097205 0.078626014 -0.041933827 0.0023155138 -0.054100335 -0.06869731 0.079258196
-0.08000237 0.0056208596 -0.052930687 0.036143024 -0.08075553 0.083988816 0.02758944 0.06410095
00000000: 8f4c 26bd b1f9 5bbd 61f6 893d 1f0e 873d
00000010: 2bda b3bd 6b59 923d 0e73 393d 192a c5bc
00000020: 9090 fc3c ef1c 42bd e6d3 b0bd 05f0 903d
00000030: 18c1 f63c 5acf 723d bfdf bfbc ac04 8cbd
00000040: 4660 afbd 0ccb 29bd 2b84 3e3d 9802 babd
00000050: 2540 19bc 0718 803d 64cd 993c 1da0 84bd
00000060: 7737 98bd 9716 f63c ee51 9b3c eb1b 90bd
00000070: 1724 f9bc cc17 7abd 9e38 62bd 4359 293d
00000080: a384 a5bd 1bd4 89bd 7af5 123d 851a 30bd
00000090: 964c 70bd a039 30bc 22cc 1e3d 4122 973d
000000a0: 0357 61bd 66fd 9fbc a322 a7bd 5938 853d
000000b0: 6969 a9bc f38d 683c 1d26 923d 8a6f 5ebd
000000c0: ef21 6cbd 980e 89bc e399 6ebd bca0 9c3c
000000d0: 3d14 61bd 261d 423d 0b54 593c 8e47 9bbd
000000e0: 036d 5c3c e840 08bd 9cd5 2abd 202f 57bd
000000f0: 16bf bebd 50f1 f6bc efa4 f6bc eb6c f2bc
00000100: a6d4 86bd e950 22bc 433d 213d ae62 1e3d
00000110: b03b 34bd 49c9 a43c 2b25 403d e15c 883d
00000120: 63a7 f5bc f4c8 87bc c034 32bd 88b4 3cbc
00000130: ac85 633d 20c6 acbd 8041 253b 9cb2 5a3d
00000140: 1793 61bc cf5c 20bd c583 503d 1069 c3bc
00000150: 1464 5b3d 6f53 523d 1a8b 17bc 964c 78bd
00000160: f504 463d 7eda 603d 4d04 c23c d0c8 8a3d
00000170: c4d4 5d3d 3fff 06bd f333 443c 89e0 24bb
00000180: 6d08 dbbc 2a2b 4e3d 9245 c1bd 0eec 74bd
00000190: f59c aabd 99d4 69bd cc17 a83c a8dc 0cbd
000001a0: 427e 013d 3031 fb3b aa60 343d 5dce b8bd
000001b0: f95b ad3d defa aebd 6a62 32bd 36b3 85bd
000001c0: b79c 063d 4ed0 b83c 4ce2 9d3c e3be 9dbd
000001d0: a8fd 15bc 74e0 363d 9f8a 6bbc aa86 863d
000001e0: 2a57 a23d 8243 343d 9cdc 29bd 570d 5fbd
000001f0: fb27 933b f843 93bd c21f 183d b95d 343d
00000200: d4a0 75bc 4bf0 a5bd 028a 81bd 9660 813c
00000210: 109f 86bd cfb5 963d e80f 573c 5e08 eb39
00000220: 82f1 80bd 7a2e 193d 4035 b4bb 1305 a33d
00000230: 1a7d 33bd 8920 5e3d 6ed2 cfbc fa3f 313d
00000240: 966f e4bc de82 b1bd b3b4 263c 694f a03d
00000250: c23e fdbc c04d 853a 23b7 8a3d 90df 85bd
00000260: e387 97bd b2d0 a5bd c7f6 813d 7639 b8bc
00000270: 1342 77bd 8530 72bd f148 af3d 4edb 98bc
00000280: 80e4 85bc 3088 81bd c196 ac3d 362a a1bd
00000290: 7569 5cbd 0080 2e36 ac6e b5bd 21c5 f5bb
000002a0: f1e5 72bd 8ce7 563c f8e5 133d 8673 48bd
000002b0: 793f a93d 6ae4 b5bd 4bbf 94bd 4e01 98bd
000002c0: aeca 12bc 784d 38bd 9ff0 a1ba ec24 35bd
000002d0: 28ac 963d 51b5 7bbc 6702 0abd cc06 80bc
000002e0: d7c1 bbbc b95f 6ebd 0105 67bd 2ce3 583d
000002f0: 2a44 823d d924 813d 9a65 5e3d 5dd8 573d
00000300: 08d7 153d bff9 db3c 945b 88bd f7b5 a5bd
00000310: 66a0 213d 7f1c d83b 8e74 56bd 32fa 933d
00000320: 4a5f 1a3c 0028 2e3a 4942 dfbb bbc6 683d
00000330: a034 9b3d f665 8abd 04b1 803c 66e9 cc3c
00000340: 0fe3 1bbb bb69 9f3d 8d2e fa3b 9ae4 283d
00000350: 0ee8 8ebd 3883 a7bd 83d0 503d eb63 6c3d
00000360: 0a9a 05bd 49d7 0a3d b47c 333a d6b3 973d
00000370: de36 d13c 6a75 493d 9cb7 da3c 4f61 b23d
00000380: 2287 acbd a82c cabc 2c4c 183d c74d be3b
00000390: 3dc3 f9bc 5478 e53c b10c 9e3d d417 87bd
000003a0: deac 3d3d 3a04 5b3d c875 4abc 61bb 7f3c
000003b0: a072 77bd ce8b 5dbc a828 bebc 2520 95bc
000003c0: fc00 ac3d 84b5 03bb ad06 a13d cec2 2bbd
000003d0: e0bf 173b 5098 5dbd 2db1 8cbd 1f52 a23d
000003e0: 48d8 a3bd 302f b83b d9cd 58bd b50a 143d
000003f0: 2863 a5bd 5402 ac3d 4003 e23c 5c47 833d

fc2.bias f4 [128]
-0.044964124 -0.011048204 -0.040246587 0.017298222 0.07244674 -0.072695024 -0.055277254 0.0024725252
-0.081894204 0.010978884 0.07549531 -0.034268893 -0.046764616 0.046354044 0.121891946 -0.08284521
0.043374684 0.041917436 0.09728619 0.017243214 0.016386649 0.054596715 0.030543549 0.051412113
0.10202881 -0.0020434035 0.087133594 0.047579505 -0.007254432 0.009372409 -0.068474405 -0.032185134
0.029068597 0.060195625 -0.06326936 0.011110912 0.066748865 0.11222459 -0.04917631 0.05632856
0.017164161 0.012274641 -0.024072938 0.0012814775 -0.07513456 0.009601275 -0.08038542 0.08409753
0.069426306 -0.010915344 -0.0064051263 -0.07496494 0.014728243 0.05975176 -0.03926143 -0.06877904
0.0047585894 0.004591249 -0.051211756 0.07723255 -0.036293436 -0.03224496 0.014438674 -0.07930012
-0.051496495 0.075153865 -0.059042666 -0.005838422 0.0014388053 -0.036340427 -0.030071203 -0.020696672
-0.078751825 -0.034222238 -0.084561974 -0.07369149 0.040400464 0.044992074 0.03315003 -0.0757414
0.09982526 -0.061804563 -0.017959466 -0.06243577 0.028700313 0.09435212 0.014796807 0.07359189
0.10121444 -0.036128543 -0.031409834 0.0031572396 0.036709547 -0.0136901615 -0.019060448 0.07459289
-0.08233391 0.09591612 0.061057456 -0.068542056 -0.05288285 -0.029421953 -0.07970746 -0.061706424
-0.025232695 -0.05583128 -0.04667359 -0.031409107 -0.007095672 0.060542855 -0.053128038 -0.06660454
-0.059507377 -0.03445262 -0.032532815 0.009066178 -0.004206203 0.09732366 -0.07766273 0.03362345
-0.0102927685 0.04906793 -0.024945948 0.0791247 -0.029222822 0.017840266 -0.023899958 0.026433088
00000000: 4d2c 38bd 8703 35bc 9bd9 24bd 00b5 8d3c
00000010: f55e 943d 21e1 94bd 676a 62bd 170a 223b
00000020: 26b8 a7bd c7e0 333c 499d 9a3d 8a5d 0cbd
00000030: 418c 3fbd bddd 3d3d 7ca2 f93d c0aa a9bd
00000040: a7a9 313d 9eb1 2b3d fb3d c73d a441 8d3c
00000050: 4b3d 863c cea0 5f3d 7736 fa3c 8295 523d
00000060: 7bf4 d03d 9fea 05bb 1973 b23d bae2 423d
00000070: 96b6 edbb bc8e 193c 4f3c 8cbd 8fd4 03bd
00000080: 4421 ee3c b08f 763d 5e93 81bd 8b0a 363c
00000090: a1b3 883d 01d6 e53d 196d 49bd c7b8 663d
000000a0: db9b 8c3c 931b 493c 9c34 c5bc 40f7 a73a
000000b0: 26e0 99bd ab4e 1d3c 1ca1 a4bd 533b ac3d
000000c0: 612f 8e3d 45d6 32bc 18e2 d1bb 3887 99bd
000000d0: bb4e 713c 43be 743d 98d0 20bd 06dc 8cbd
000000e0: f1ed 9b3b 3072 963b 6bc3 51bd 192c 9e3d
000000f0: 6da8 14bd 4b13 04bd 3090 6c3c 1a68 a2bd
00000100: fded 52bd 45ea 993d b9d6 71bd 3c50 bfbb
00000110: 4b96 bc3a b3d9 14bd e257 f6bc 118c a9bc
00000120: a348 a1bd 9e2c 0cbd d42e adbd 90eb 96bd
00000130: f57a 253d 9c49 383d 53c8 073d 4f1e 9bbd
00000140: 3071 cc3d c826 7dbd bb1f 93bc a6bc 7fbd
00000150: eb1c eb3c af3b c13d 4f6e 723c 58b7 963d
00000160: 8449 cf3d 86fb 13bd 99a7 00bd b1e9 4e3b
00000170: c05c 163d b34c 60bc a824 9cbc 28c4 983d
00000180: ae9e a8bd ac6f c43d 6217 7a3d c75f 8cbd
00000190: b09b 58bd 4f06 f1bc aa3d a3bd e0bf 7cbd
000001a0: ccb4 cebc 57af 64bd ce2c 3fbd d6a6 00bd
000001b0: d082 e8bb c9fb 773d c99c 59bd f667 88bd
000001c0: 02be 73bd 311e 0dbd 2141 05bd 4f8a 143c
000001d0: 30d4 89bb a151 c73d a30d 9fbd beb8 093d
000001e0: 00a3 28bc 74fb 483d 725b ccbc 210c a23d
000001f0: b364 efbc c025 923c d8c9 c3bc 348a d83c

fc3.weight f4 [5, 128]
0.070792414 0.035421584 -0.09844653 -0.0649085 -0.045758452 -0.039715163 -0.077270776 -0.086085394
-0.033074718 0.05767402 0.0058171153 -0.035011157 0.008341275 -0.0011891129 -0.08381505 0.060826294
-0.02030675 -0.031969637 -0.00996475 -0.035112392 0.07270244 0.027160816 -0.102054164 -0.035754774
-0.009448722 0.02722375 -0.05633887 0.00074728805 0.024276724 0.019906515 -0.011935681 -0.07339844
-0.024999458 -0.09224413 -0.004067689 -0.03217583 -0.016460607 0.053873863 -0.07641425 -0.107829176
0.050502747 0.039131176 -0.025250226 -0.03450204 -0.014187574 0.04389352 -0.037070993 -0.08212472
-0.07054011 -0.046243355 0.02069611 -0.08714001 0.06101023 -0.050617475 -0.020941641 0.070321865
0.022421066 0.0004097405 -0.012883252 -0.04322808 0.009747653 0.021940798 -0.03328346 -0.04607966
-0.06962056 -0.020202128 -0.08512823 0.033818766 -0.0005459841 0.04365113 -0.027814016 -0.15046771
0.04632879 -0.048670936 -0.04135871 -0.09788322 0.002900637 -0.05760595 -0.0022820593 0.053135835
-0.07571843 0.0022103463 -0.08531239 -0.0680516 -0.05393675 0.025399016 -0.045827996 0.05730712
0.021110946 -0.10042056 0.057363458 -0.103295796 0.0004568238 -0.05115179 -0.041105136 0.050481338
-0.081794664 -0.094207235 0.009536988 0.08631983 -0.014407527 0.06743608 -0.0006117286 -0.04508813
0.025984094 -0.045382768 -0.086970456 -0.04032502 -0.01392296 0.04150023 -0.104025185 0.041750513
0.007637585 -0.022697706 -0.056443032 -0.09385832 -0.08666237 0.02378937 0.0683033 -0.074525446
0.07198971 -0.009459564 -0.010193351 0.07669852 -0.017278861 0.04751376 -0.037695907 -0.033214677
0.03253549 -0.0022372643 -0.040785138 0.033744425 0.07336866 -0.078320466 -0.010674387 -0.028144823
-0.020940378 -0.041092224 0.0053131506 0.024290532 -0.027380131 -0.03716528 0.03411895 -0.038390048
0.042848706 0.05232074 -0.04492157 0.04537814 -0.07122563 -0.013383426 -0.032616016 -0.08379105
0.025364738 0.06736096 -0.04268287 -0.04255432 0.05129164 0.06996956 0.023280844 0.042308748
-0.021884961 0.043173563 0.07621493 -9.764862e-05 0.07562731 -0.040246036 0.06437043 -0.070606954
0.02189179 -0.04337339 -0.027769577 0.0663651 -0.0438398 0.07006112 -0.034526825 -0.016840877
0.011130323 -0.08064044 -0.05079328 -0.083530836 0.060587 0.05840711 -0.048721723 -0.025776394
0.004219611 -0.078397565 0.055565342 0.06904872 -0.06940284 -0.019553095 0.03786284 0.009330398
0.0090369135 -0.01761477 0.08107005 -0.03455565 -0.023545744 -0.08535022 -0.053010173 0.011913626
-0.03567814 0.023493128 -0.06596105 0.044393092 -0.03856069 -0.021450141 -0.07117234 0.013771512
-0.05966874 0.003006577 -0.03810663 0.020251758 0.06374048 -0.013962751 -0.07576953 0.05128273
-0.005553386 0.072268106 -0.007630676 0.07902833 0.07230319 0.027436225 0.016703017 0.023259703
-0.05096418 -0.08194336 0.037642665 0.007815564 0.018492945 0.02063661 -0.085366614 -0.024790362
0.010568395 -0.05307563 0.054086633 -0.0521621 0.058989428 -0.08400654 -0.005288005 0.018699922
0.036032096 0.063470356 -0.07164987 -0.023256222 0.035274804 -0.018268662 0.07300017 -0.077196695
-0.08803827 0.08195184 -0.020562576 0.00032824278 -0.007894763 -0.0065999418 -0.009266034 0.05186797
00000000: 9dfb 903d 3916 113d 569e c9bd bfee 84bd
00000010: 376d 3bbd 5eac 22bd 2440 9ebd 8a4d b0bd
00000020: 5b79 07bd 983b 6c3d 809d be3b dc67 0fbd
00000030: d8a9 083c 02dc 9bba 3aa7 abbd fe24 793d
00000040: 575a a6bc 98f2 02bd 3143 23bc 03d2 0fbd
00000050: 04e5 943d 5c80 de3c c601 d1bd 9973 12bd
00000060: d0ce 1abc 5704 df3c 96c3 66bd a7e5 433a
00000070: fbdf c63c fd12 a33c e08d 43bc ec51 96bd
00000080: aacb ccbc 7eea bcbd 404a 85bb ceca 03bd
00000090: 65d8 86bc d7aa 5c3d 137f 9cbd 8bd5 dcbd
000000a0: f8db 4e3d 0348 203d 90d9 cebc 0352 0dbd
000000b0: 0073 68bc b1c9 333d c1d7 17bd 0131 a8bd
000000c0: 5577 90bd ac69 3dbd e38a a93c 7676 b2bd
000000d0: dde5 793d 4554 4fbd ce8d abbc e904 903d
000000e0: 62ac b73c 70d2 d639 4714 53bc ed0f 31bd
000000f0: 9fb4 1f3c 30bd b33c 3d54 08bd 07be 3cbd
00000100: 3995 8ebd ef7e a5bc b657 aebd 8c85 0a3d
00000110: 5f20 0fba 87cb 323d 38da e3bc 3514 1abe
00000120: 42c3 3d3d 2d5b 47bd c067 29bd ff76 c8bd
00000130: 9d18 3e3b 37f4 6bbd 9a8e 15bb f6a4 593d
00000140: 4412 9bbd 75db 103b 43b8 aebd a35e 8bbd
00000150: c8ec 5cbd 9911 d03c 23b6 3bbd dfba 6a3d
00000160: ddf0 ac3c 4ba9 cdbd f2f5 6a3d bf8c d3bd
00000170: da81 ef39 8a84 51bd dc5d 28bd 85c5 4e3d
00000180: f683 a7bd b9ef c0bd 0741 1c3c 73c8 b03d
00000190: 8c0d 6cbc ed1b 8a3d 695c 20ba 55ae 38bd
000001a0: 98dc d43c 48e3 39bd 911d b2bd d92b 25bd
000001b0: 201d 64bc 25fc 293d 280b d5bd 9602 2b3d
000001c0: b544 fa3b 8af0 b9bc cf30 67bd ca38 c0bd
000001d0: 0a7c b1bd ede1 c23c 9ae2 8b3d cca0 98bd
000001e0: 576f 933d 4afc 1abc 0302 27bc 1d14 9d3d
000001f0: 668c 8dbc ca9d 423d 0667 1abd 1d0c 08bd
00000200: ef43 053d 119f 12bb 510e 27bd 9837 0a3d
00000210: 4f42 963d 7b66 a0bd a0e3 2ebc f98f e6bc
00000220: 288b abbc 5250 28bd f019 ae3b f0fc c63c
00000230: 4c4c e0bc 9f3a 18bd 50c0 0b3d e23e 1dbd
00000240: 2082 2f3d 464e 563d aeff 37bd 6ede 393d
00000250: bede 91bd 2846 5bbc 5f98 05bd a49a abbd
00000260: b6c9 cf3c 8bf4 893d 3cd4 2ebd 704d 2ebd
00000270: 2f17 523d 334c 8f3d 78b7 be3c f04b 2d3d
00000280: 1748 b3bc c3d6 303d 9316 9c3d b4c8 ccb8
00000290: 7ee2 9a3d 07d9 24bd a5d4 833d 619a 90bd
000002a0: 6956 b33c 4ca8 31bd 067d e3bc 6dea 873d
000002b0: 5d91 33bd 347c 8f3d 006c 0dbd e1f5 89bc
000002c0: f55b 363c d126 a5bd 9d0c 50bd 3712 abbd
000002d0: 132a 783d 4b3c 6f3d 6e90 47bd 0429 d3bc
000002e0: aa44 8a3b e78e a0bd 7c98 633d 6a69 8d3d
000002f0: 1423 8ebd d02d a0bc 1116 1b3d 87de 183c
00000300: 900f 143c da4c 90bc 0e08 a63d 3a8a 0dbd
00000310: 01e3 c0bc 19cc aebd 3221 59bd 5f31 433c
00000320: 3e23 12bd a974 c03c 9616 87bd 88d5 353d
00000330: d0f1 1dbd 35b8 afbc cec2 91bd e8a1 613c
00000340: 3567 74bd fe09 453b b315 1cbd 04e7 a53c
00000350: 5e8a 823d 06c4 64bc 0e2d 9bbd d70d 523d
00000360: 2ef9 b5bb 4d01 943d c00a fabb 9bd9 a13d
00000370: b213 943d efc1 e03c c4d4 883c 228b be3c
00000380: d1bf 50bd ecd1 a7bd 322f 1a3d da0c 003c
00000390: 847e 973c 1c0e a93c b1d4 aebd 2815 cbbc
000003a0: 1027 2d3c d565 59bd f289 5d3d eda7 55bd
000003b0: e69e 713d 9f0b acbd 0047 adbb 9430 993c
000003c0: 6496 133d bffc 813d 2bbd 92bd d583 bebc
000003d0: 507c 103d 29a8 95bc 1d81 953d 4d19 9ebd
000003e0: 694d b4bd 5ed6 a73d d972 a8bc 0018 ac39
000003f0: 0959 01bc 5344 d8bb 90d0 17bc 8273 543d

fc3.bias f4 [5]
-0.08835285 -0.06729773 -0.006697231 0.06301895 0.08890693
00000000: 57f2 b4bd 64d3 89bd 7274 dbbb 1410 813d
00000010: d614 b63d
