CC_Reinforce_version_3_copy/materails/state_dict_model.pt (torch, 84127 bytes, 6 tensors)

fc1.weight f4 [128, 25]
000000 38 76 b6 bb b2 bb 05 3e 7f 32 f1 bd d5 cb 19 3e
       -0.005568292 0.13059881 -0.117772095 0.15019162
000010 12 ad c7 3d ed 1a a7 bd b3 f2 8c 3b 5d 65 99 3c
       0.097498074 -0.081594326 0.004301393 0.018725092
000020 96 02 b2 3d 11 2f 1d 3e 9e 9c 48 3e 61 f3 e6 3d
       0.086918995 0.15349986 0.19590995 0.112768896
000030 73 d8 99 3d e4 5f 3d 3e 49 fa aa 3c f2 01 24 be
       0.075119875 0.1849361 0.020871298 -0.16016367
000040 00 46 a6 3d 87 13 c6 bc 05 1e 01 be 57 ed 0f 3e
       0.0811882 -0.024179233 -0.12609108 0.14055382
000050 0f 83 45 be b4 6a 8c bd 60 cf 0a be 38 47 2b be
       -0.19288276 -0.068562895 -0.1355567 -0.16726387
000060 04 be 4a bd e4 cc 90 bd 5e f5 14 be e0 68 3f bd
       -0.04949762 -0.0707033 -0.14546725 -0.046730876
000070 4b d8 43 be 73 61 a4 bd 71 a9 42 3e f0 35 f0 bc
       -0.19125478 -0.080263995 0.1900995 -0.029322594
000080 1a f0 d4 3d ee 1d 05 be 4c e9 7b 3d ba d5 80 bd
       0.10397358 -0.12999699 0.061501786 -0.06290765
000090 42 d5 bb 3d 30 4e b7 bc 86 ad d5 3d 73 14 0e 3e
       0.09171535 -0.02237615 0.104334876 0.13874988
0000a0 05 5a 31 be a0 a5 04 3c a3 bc 38 be ab 47 28 be
       -0.17319496 0.008096129 -0.18040709 -0.16433589
0000b0 8d 3b 3a be c8 93 3e be 39 56 10 3e 1e 2e ab 3d
       -0.1818678 -0.18611062 0.14095391 0.083584055
0000c0 b3 7b 14 be 60 a5 3d bc b9 c2 a0 bd 7b f3 c1 bc
       -0.14500313 -0.011575073 -0.078496404 -0.02367567
0000d0 a1 c4 14 3e ec 56 44 be af 0d 6a bd 75 67 d8 bd
       0.14528133 -0.19173783 -0.057141956 -0.10566608
0000e0 ad 1e 3c 3d 1c 57 b6 3d 0d 9c 4f be dd e5 28 3d
       0.045927692 0.089033335 -0.20274372 0.04123484
0000f0 e9 b2 8d 3d a4 3c ac bd 05 52 57 3e 1f 84 b4 bc
       0.0691889 -0.08410004 0.21027382 -0.022035656
000100 27 da 16 be 17 ba 29 be 99 89 f2 3d ff e5 47 be
       -0.14731656 -0.16574894 0.11842651 -0.1952133
000110 d2 9d ff bd 07 b4 99 bd d9 2e 7f bd 3d 3b bf bd
       -0.12481274 -0.075050406 -0.062300537 -0.09337471
000120 f3 27 db 3d c6 82 7f 3d 37 d2 0b be 45 a6 49 3e
       0.10700979 0.062380575 -0.1365441 0.19692333
000130 d9 0b 48 3e 17 03 c7 3d a5 d1 46 3e 6a eb 2b 3d
       0.1953577 0.09717386 0.1941591 0.041972555
000140 1a 08 d5 bd a2 06 6b 3e 4c d3 0f 3e 52 65 2d be
       -0.10401936 0.22951749 0.14045447 -0.16933182
000150 d1 69 40 bd 33 b9 79 3e b9 55 01 3e 28 ca 44 be
       -0.046975914 0.24387054 0.12630357 -0.19217741
000160 7b 14 4c be 14 03 f1 bd 93 b5 cc 3c 32 9f 0b 3e
       -0.19929688 -0.11768165 0.024988925 0.13634947
000170 97 44 f0 bd c2 b7 b2 bd 45 c7 27 3e b6 2b 91 bd
       -0.117318325 -0.08726455 0.16384609 -0.07088415
000180 2e 73 e2 3d 96 9f c5 3c 01 d0 12 3e 79 27 5e 3e
       0.11057125 0.024123948 0.1433716 0.21694745
000190 fa 0a 43 be 90 d3 1f bd 1e 98 24 bd 64 3b c3 3d
       -0.19047156 -0.03902012 -0.040184133 0.09532812
0001a0 8f 60 49 be fa 15 2c be 7d 37 d7 3c 24 97 2b be
       -0.1966574 -0.16805258 0.026271576 -0.16756874
0001b0 4e d4 11 3e a1 5f 34 3e 77 3f f1 3d 46 64 29 be
       0.14241144 0.17614605 0.11779683 -0.16542158
0001c0 50 5d 7b bb 89 62 b4 bd fd 00 42 be a0 b2 01 bc
       -0.003835518 -0.088078566 -0.1894569 -0.007916123
0001d0 62 dd b8 3d ff 1f 33 be 10 bf 6b 3d 38 e5 22 3e
       0.090266004 -0.17492674 0.05755526 0.15907753
0001e0 e6 82 18 3e f7 e9 74 3d 5a b6 12 bd b5 0c 2d bd
       0.14893684 0.05979344 -0.035818435 -0.042248446
0001f0 54 31 86 3d 33 30 1c bb db 34 8e ba de e9 8f bd
       0.06552377 -0.002383244 -0.0010849492 -0.070270285
000200 ac 45 08 3e 34 5e 45 3e 4f b5 07 3d 60 a7 8e 3d
       0.13307828 0.19274217 0.033131894 0.06965518
000210 ff a1 3d be c0 b6 ab bb 26 fb ef bb ec 38 5b 3e
       -0.18518828 -0.0052402914 -0.0073236404 0.21408433
000220 78 0f 60 3c 47 19 e9 bb 48 66 33 3c 35 6a e5 3d
       0.013675563 -0.007113609 0.010949679 0.11201898
000230 ea 44 e5 bd e3 d8 03 3e b2 45 3f be 30 7c 64 3d
       -0.11194785 0.12875704 -0.1867893 0.055782497
000240 90 0a 06 be 60 17 f4 3d 82 38 39 3d 86 d9 2f bd
       -0.13089967 0.11918521 0.045219906 -0.042932056
000250 b3 f4 d8 3d e9 12 35 be 2b 79 52 bd aa 3c be 3d
       0.10593548 -0.17682995 -0.051385086 0.092889145
000260 0b 3d 04 be 87 54 5c 3d 62 0d c2 bd 8f 04 13 3c
       -0.12913911 0.05379155 -0.09475209 0.008973255
000270 71 2b ba bd 0c 38 83 bc 83 90 b4 bd f7 b5 21 3e
       -0.09090317 -0.016017936 -0.08816626 0.1579207
000280 9c e9 8e 3c fb 3e 4f 3e 75 3e 64 bd dd 6c 21 be
       0.017445378 0.20238869 -0.055723626 -0.15764184
000290 f0 01 26 bd 4c ba 41 3e 66 ee 34 3d e3 e0 ed 3d
       -0.04052919 0.18918723 0.044172667 0.11615159
0002a0 5c 94 c6 3d 68 e2 5e bd 00 27 9e bb d6 bc 0b bc
       0.09696266 -0.054415137 -0.0048264265 -0.008528909
0002b0 b7 49 05 bd f0 9c 1e be 8c a2 c2 bd 02 5d c7 3d
       -0.032541003 -0.15489554 -0.095036596 0.09734537
0002c0 df 53 21 3d cf f2 3d 3e 7e 5d 91 3c 6e e9 a4 3d
       0.039386626 0.18549655 0.017744776 0.08052336
0002d0 0b af bd 3c 29 e0 14 3e a0 c0 b6 bd 8f 0f cb bd
       0.023154756 0.14538635 -0.08923459 -0.09915077
0002e0 3a dd 31 bd b6 61 03 3e 53 e0 39 be 31 b4 98 3d
       -0.04342387 0.12830243 -0.18151979 0.07456244
0002f0 8d 51 7f bc 61 a2 a7 3d 4a 4e a1 bd e0 97 42 be
       -0.015583408 0.08185268 -0.078762606 -0.19003248
000300 37 22 9d 3d 3c 1b 98 3b c6 b3 b6 3c 86 14 cc 3d
       0.076725416 0.0046419185 0.02230252 0.09964852
000310 ab d4 fb bb 1d d4 40 3e 0a a5 17 bd 83 12 2e 3e
       -0.007685264 0.18830915 -0.037022628 0.16999249
000320 f5 e7 1b 3e b4 55 c4 3d cb 00 57 3c 2f 92 9b 3c
       0.15225203 0.09586659 0.013122748 0.018990604
000330 41 ab fa 3c 03 8c 1e be 60 0e 47 ba ea 44 10 3e
       0.030599238 -0.15483098 -0.00075933896 0.14088789
000340 62 83 2e 3e 71 e5 3a be 9e 71 f4 bd 8a 3a 2a 3e
       0.17042306 -0.18251587 -0.11935733 0.16623893
000350 5c 20 84 3c 82 8a a6 3d 03 01 1f be 33 0c f3 bb
       0.016128711 0.08131887 -0.1552773 -0.0074172257
000360 ce 8c d7 bc 35 3d 82 3c 91 ab ff bd 03 a3 16 be
       -0.026312258 0.015898326 -0.124838956 -0.14710622
000370 1a 9e 43 3d b7 4a a9 3c 14 09 2e 3e 13 94 a7 bd
       0.0477582 0.02066551 0.1699565 -0.0818254
000380 9e 34 ae 3d b1 9f 48 3d 7f 14 0d be c7 04 3b 3e
       0.0850613 0.04898042 -0.1377735 0.18263541
000390 5c d1 b2 bd c4 12 eb 3d f9 32 1b 3d a3 04 00 bc
       -0.087313384 0.11478189 0.03789041 -0.0078136055
0003a0 d2 32 4b 3e 4b 23 a4 bd 9b 88 2d 3e 9b 2b 89 bd
       0.19843605 -0.08014544 0.16946642 -0.0669777
0003b0 1c d2 6d bd 83 47 80 bd 42 32 f2 3d e2 6d 1d be
       -0.058061704 -0.0626364 0.11825992 -0.15373948
0003c0 cc 52 20 3e 16 2d b5 bd 99 00 25 ba ec 66 3d be
       0.15656585 -0.0884649 -0.00062943395 -0.18496293
0003d0 31 97 24 3e f8 87 95 bd 2d 4c 2a 3d bd 51 1a 3d
       0.160733 -0.073013246 0.041576553 0.037675608
0003e0 7f 14 f8 bd 2e ae 91 bc d8 a8 4d be 18 59 22 3e
       -0.12113284 -0.01778325 -0.2008394 0.15854299
0003f0 76 3c fc bd 13 9a 38 3e e1 ef f2 3d 2c 8f 0f 3e
       -0.123162195 0.18027525 0.118621595 0.1401946

fc1.bias f4 [128]
000000 ff 34 05 bd 80 95 6e bd c0 2a 22 3e 62 e1 f5 3b
       -0.032521244 -0.058248043 0.1583662 0.0075036744
000010 9b 9e 75 bd 91 31 7b bc 2a a0 0e 3e 22 ad 99 3d
       -0.05996571 -0.015331642 0.13928285 0.075037256
000020 a7 49 4b be cb 88 14 be 14 ea 44 be 4f 24 1d be
       -0.19852315 -0.14505307 -0.19229919 -0.15345882
000030 00 40 97 3a ed 45 f3 bd cb 2d 0f be 77 63 f7 bd
       0.0011539459 -0.11878572 -0.13982312 -0.12079518
000040 d2 6e 90 3d 32 0f 8e 3c 6f 0d 3a be d4 0e 09 be
       0.07052387 0.01734123 -0.18169187 -0.13384563
000050 ed 4c 18 3e a8 a6 ba 3d 03 29 2f be ad e9 47 3e
       0.14873095 0.091138184 -0.17105488 0.19522734
000060 1a c0 a4 bd b9 1f f8 3d 00 b3 0d bd b3 6a 61 bd
       -0.08044453 0.121154256 -0.034594536 -0.055033397
000070 f1 41 29 3e 64 a5 5a 3e 30 4e 10 3c f4 10 14 bd
       0.16529061 0.21352154 0.008807704 -0.03614898
000080 2a 85 0a bd b7 52 1d 39 07 06 3d 3e 81 31 3f 3e
       -0.0338184 0.000150035 0.1845933 0.18671228
000090 53 45 36 3e ca 89 05 be 49 0e 1c 3c 6b cb 7c 3e
       0.17799883 -0.13040844 0.00952489 0.24686973
0000a0 ab f4 9c 3d 40 11 f8 bd f2 d1 60 3d 00 0e 44 bc
       0.07663854 -0.12112665 0.05488772 -0.0119662285
0000b0 9f 81 13 3d 8d 7b 6d 3e 38 15 11 3d 7d e0 90 3d
       0.03601229 0.23191662 0.035420626 0.07074068
0000c0 c2 11 fb 3d de 73 e9 bd 30 ce 45 3c 6f ba 0c 3e
       0.122592464 -0.11399053 0.012073085 0.13742994
0000d0 5b f6 c8 bd c2 bd 18 be c5 51 94 bd dc 09 4b 3e
       -0.098126136 -0.14916137 -0.07242159 0.1982798
0000e0 27 02 b6 bd 3c 54 73 3c 98 ed 91 bd fd 52 cf 3d
       -0.08887129 0.014851626 -0.071253955 0.10123251
0000f0 8f 22 1b bd 3d 07 c5 bb 68 d8 b0 3c 91 2a a0 bd
       -0.037874755 -0.0060128258 0.021587566 -0.07820619
000100 8e e9 fc 3d bf 01 82 3d ad ca f5 bd f2 45 14 be
       0.123492345 0.06347989 -0.12001548 -0.14479807
000110 73 cd 43 3e 94 ef 2e 3d 58 f9 bd 3c 93 5c 54 bd
       0.19121341 0.04270895 0.023190185 -0.0518461
000120 21 9f 10 3d 63 c8 f9 3d 43 cb 4e bc 5f f7 dd 3b
       0.035308007 0.12196424 -0.012621704 0.0067738737
000130 c3 f4 e9 3d 33 e0 e7 3d 05 99 42 3e e4 9e ad bd
       0.11423638 0.113220595 0.19003685 -0.084775716
000140 a0 0f 64 bc 8a a5 7f 3c e7 fb b3 bd 18 11 4b 3e
       -0.013919741 0.015603432 -0.08788281 0.1983074
000150 58 69 db bc 86 77 69 3e af 11 f0 bd 1f 60 83 3d
       -0.02678363 0.22799501 -0.11722123 0.06414818
000160 0d 50 ee bd 6e 28 27 3d 18 68 47 bd 2f 34 3e be
       -0.11636362 0.04081004 -0.048683256 -0.18574594
000170 e2 b2 9a bc ce 3d f2 bd 8c 39 5f 3e 3a a3 ee bd
       -0.018884126 -0.118281946 0.21799296 -0.11652227
000180 b4 cf a3 bd 52 f8 e1 bc 1f da 70 bd fc 7e 49 3e
       -0.079986006 -0.027584229 -0.058801766 0.19677347
000190 d5 f0 36 3e 9c 27 0e be 52 25 6e 3e 12 ee 3b be
       0.17865308 -0.13882297 0.23256424 -0.18352535
0001a0 66 83 06 3e 94 a1 37 3e 43 84 1b bd 11 e3 86 bd
       0.13136062 0.17932731 -0.03796793 -0.06586278
0001b0 a5 1a cb bd 7a ac 4d bd 77 e4 2e be bb 50 e2 3d
       -0.099171914 -0.050213315 -0.1707934 0.11050554
0001c0 dd f5 4a be c8 43 49 be 0a 3a c5 bd 57 6a ee 3d
       -0.19820352 -0.19654763 -0.09630211 0.116413765
0001d0 b7 8d 4a 3e 02 83 85 3d 67 75 56 3d 6e e3 cc bb
       0.19780622 0.065191284 0.052358057 -0.0062526977
0001e0 1a 5e 51 3e 97 94 22 bd 20 49 70 bc 77 9e 10 3e
       0.20446053 -0.039692488 -0.014665872 0.1412295
0001f0 f4 1f 34 bd 4c 6e cc bd 01 35 9f 3d dc ae 3a 3e
       -0.043975785 -0.09981975 0.077737816 0.18230766

fc2.weight f4 [128, 128]
000000 5c 9d 8a 3c b0 60 4e 3c 90 4f 26 3c c1 0e b9 bd
       0.016920738 0.012596294 0.010150805 -0.09036017
000010 07 5b 91 3c 70 89 b3 bc 09 dc 92 bc 5a f7 64 bd
       0.0177436 -0.021916121 -0.017927187 -0.055899955
000020 60 9f 97 ba 8f f0 25 3d 92 70 2d 3d 70 d3 4b 3d
       -0.0011567883 0.040512618 0.042343684 0.04976219
000030 40 80 b8 3a 9b bc 8c 3d ba d0 63 bd 85 9a 7d bd
       0.0014076307 0.06871911 -0.05561898 -0.06191494
000040 f5 44 9e bd e8 14 9f 3c 29 da 96 bd 0c 4b 81 bc
       -0.07727996 0.019419149 -0.073658295 -0.015782855
000050 dd 00 9b 3c fd bc d8 bc 80 59 f6 3a 96 40 54 bc
       0.01892131 -0.026457304 0.0018794984 -0.012954852
000060 84 cd 91 bc 5d 51 99 3c 3d e5 0d 3d e0 bb 21 3d
       -0.017798193 0.018715555 0.034642447 0.039485812
000070 b6 41 49 bd 4e 19 b7 bd f4 33 b4 bc 73 97 84 bd
       -0.049134932 -0.08940373 -0.02199743 -0.06474199
000080 ff 4f 68 39 f4 19 7f 3b ef 05 a3 3d 4a f4 85 3d
       0.00022155045 0.0038925381 0.07960116 0.06540735
000090 1b 20 9f 3d 5e 72 a9 bd 33 87 33 3d a9 54 a2 3d
       0.077697955 -0.08273767 0.043830108 0.07926304
0000a0 12 7e 3e 3b cc 84 93 bd 4e 34 95 bc 9c 5d ab 3c
       0.0029066843 -0.07203063 -0.018213417 0.02091866
0000b0 c8 4c 6c 3d 1d 85 db bc fe 13 63 3d 73 e2 a2 3d
       0.05769041 -0.026796872 0.055438988 0.07953348
0000c0 08 be f8 bc c0 ef 51 3d 5e 0a 61 3d 91 56 30 3d
       -0.030364051 0.051254034 0.054941528 0.043051306
0000d0 78 5e b0 bb 9b 4b b5 3d cb 59 89 3d 68 bb 7b bc
       -0.0053823553 0.08852311 0.0670658 -0.015364505
0000e0 32 bc 2e bd b4 26 40 3c f7 84 9f bd 0b 85 c3 b9
       -0.042659946 0.011727978 -0.07789033 -0.00037292423
0000f0 a7 1a 22 ba 62 39 b1 bd 47 60 14 3d 7b 74 77 3d
       -0.0006183781 -0.08653523 0.03622463 0.06041382
000100 db 32 40 bd ed 7b 6e 3d 4d 38 a6 3d ce 3f 81 bd
       -0.0469235 0.058223654 0.08116207 -0.06310998
000110 11 78 e3 3c 92 aa 32 bd a4 92 8e bc cc 81 0b 3d
       0.027767213 -0.0436197 -0.017403908 0.03405933
000120 89 bc be bd 28 0f 5e bd d1 47 0b 3d 3e 97 eb 3c
       -0.09313304 -0.054213673 0.034004036 0.028758641
000130 e5 9e 27 3d 19 3b 9d 3c ae 9c 30 bb 57 68 9d bb
       0.040923018 0.019193219 -0.0026948857 -0.004803698
000140 f0 85 96 bc 97 6d 88 3d a4 44 ce bc 1a 79 54 3d
       -0.018374413 0.066615276 -0.025179215 0.051873304
000150 2c 78 14 3d f2 c5 96 3d 9e ee a6 bc 6e e8 84 bd
       0.036247417 0.07361974 -0.020377453 -0.06489645
000160 36 5d 0e bd 15 f5 46 bd 62 99 6a 3d 39 82 a5 3d
       -0.03475686 -0.048573572 0.057275183 0.080814786
000170 49 30 4a 3b b5 37 9b bd 34 e2 7c bc b0 c0 85 bc
       0.0030851534 -0.07578985 -0.01543479 -0.016327232
000180 cb 0d e5 3c d9 1c 32 3d b2 ae 20 3d 43 86 46 bd
       0.027960679 0.043484543 0.039229102 -0.048467886
000190 da 63 39 3d 73 31 8e bd 6f fd f0 3c b8 41 58 bd
       0.04526124 -0.069430254 0.029417722 -0.05279705
0001a0 40 e0 98 bd 42 7a 1b bd 35 c7 ca bd fd 76 73 bd
       -0.07464647 -0.03795839 -0.09901277 -0.059439648
0001b0 b9 2f 09 bd 2c 6f 11 bd 69 39 3b bd dc ab e2 bb
       -0.033492777 -0.035506412 -0.045709047 -0.00691746
0001c0 f0 d9 4d bc 40 40 32 3c 9a dc a1 bc 42 e5 8e bc
       -0.012564167 0.010879576 -0.019758511 -0.017443303
0001d0 39 27 8d bd ca 47 2c 3d 43 63 aa bd bd ed 37 3d
       -0.06892247 0.04206065 -0.08319714 0.04490446
0001e0 b9 3c 89 bd 18 13 9c 3d 85 e6 0e bd 70 5f 7d bc
       -0.06701035 0.07620829 -0.03488781 -0.015464649
0001f0 c5 95 93 bd 3d c5 90 bd dd 32 61 bc 13 cd 25 3c
       -0.07206301 -0.0706887 -0.013745037 0.010119694
000200 96 a6 0a bd f4 15 88 bc eb 62 2b 3c 89 c8 c2 3d
       -0.033850275 -0.01661203 0.010460596 0.09510905
000210 a4 72 88 bd ba 27 fe bc cf fa 26 bd a4 7d 95 3c
       -0.06662491 -0.031024802 -0.040766533 0.018248387
000220 d4 57 57 bc e1 64 47 bd f8 2d a5 bd d2 d1 1f ba
       -0.013143498 -0.04868019 -0.080654085 -0.00060966343
000230 29 22 b1 3d 8a 9a 64 3d 30 ac db 3d 6c 52 f5 bc
       0.08649094 0.055811442 0.107262015 -0.029946528
000240 8a 28 5f 3d c5 1e 3a bb 33 d2 88 3d b0 f9 7d 3c
       0.05448202 -0.0028399688 0.06680717 0.015501425
000250 c7 13 b8 3d dd 72 38 3d f0 d4 42 3c 08 7f e6 3d
       0.08988147 0.045031417 0.011891589 0.11254698
000260 a2 ed 37 bd 85 ec 28 3d b6 4e 62 bd 65 af 7b bc
       -0.04490436 0.041241188 -0.055250846 -0.0153616415
000270 db cd 26 bd 5c c9 59 ba e9 ff 90 3d 20 ee 5c 3c
       -0.040723663 -0.0008307898 0.07080061 0.013484508
000280 33 ce 8c 3c 53 82 86 3d 1c a1 9e bd 76 e9 b4 bc
       0.017188167 0.06567826 -0.07745573 -0.02208398
000290 50 5d 35 3d 75 e3 a9 3d 85 42 69 3c ef 05 0c 3d
       0.044278443 0.08295337 0.014237051 0.034185346
0002a0 48 cc cd 3d b2 5b 9b bd 9c 4e c2 3d e2 f4 79 3d
       0.10048729 -0.07585849 0.0948765 0.061024554
0002b0 ab e2 28 3d f6 f5 51 bc 00 d8 84 bd df 9c cd 3d
       0.041231792 -0.012814989 -0.06486511 0.100396864
0002c0 03 ee 90 3d 93 21 93 bd 20 db 13 3d 47 a1 65 bd
       0.07076647 -0.07184138 0.036097646 -0.05606201
0002d0 55 d1 35 3d 28 ea 5f 3d 4d 71 bd 3c 91 79 5c bd
       0.044389088 0.05466667 0.023125315 -0.053826872
0002e0 24 9f 11 bd 66 71 dc 3d 4a 5b b6 3d d2 56 24 3d
       -0.03555216 0.107638165 0.08904131 0.04012186
0002f0 6a 1e 89 bb 60 87 9e bd 22 31 0e bd 26 83 59 3d
       -0.004184534 -0.077406645 -0.034714825 0.05310359
000300 cc df a0 3d 80 f9 ff 3c d8 2e 03 3c f8 1e 60 bd
       0.07855186 0.0312469 0.008006774 -0.054717034
000310 d3 81 4e 3d cc a7 0b 3d 50 64 9b bb a2 b5 7d bd
       0.05041678 0.03409557 -0.004742183 -0.061940797
000320 b4 e3 1b 3d 83 58 09 bc 06 29 dc 3d 48 a3 a5 3d
       0.03805895 -0.008382919 0.10750012 0.08087784
000330 df c8 16 bd f5 ff 0a 3d 07 a8 c5 bc 53 e8 f0 3c
       -0.03681266 0.033935506 -0.024127973 0.029407656
000340 d0 4f 86 3c a4 f8 4e bd 1a fb 99 bd ef 38 f9 3c
       0.01639548 -0.05053009 -0.07518597 0.030422656
000350 26 6d 3a 3c 79 19 dd 3c 2b 56 0b bd 6a 5e a9 bc
       0.011378562 0.026989685 -0.034017723 -0.020674903
000360 f4 45 32 bd 23 66 ae 3d 08 7b b5 3c 0a bc 88 3d
       -0.043523744 0.08515575 0.022153392 0.066764906
000370 fe 81 a3 bc 76 55 c3 3d 0c 3e cd bc 76 c7 37 3d
       -0.019959446 0.09537785 -0.025054 0.044867955
000380 8b 0a a4 3d 24 55 b2 3d 1b 0e a4 bd 9c ec 4a 3d
       0.080098234 0.087076455 -0.08010503 0.049542055
000390 f6 3c 73 bd 62 96 3b 3d 31 54 34 3d f4 b9 ee bc
       -0.05938431 0.045797713 0.044025604 -0.029141404
0003a0 7a 0e 4d 3d a4 fb bd 3d 32 30 3a bd dc c1 cd bc
       0.050062634 0.09276512 -0.04545612 -0.025116853
0003b0 16 34 ec 3d 01 ef d3 3b d0 4a ac 3d 09 6d 97 3d
       0.11533372 0.0064677005 0.08412707 0.07393844
0003c0 e0 83 6c bc 78 00 b1 bc 05 01 a2 bd 64 2b 46 3d
       -0.014435738 -0.021606669 -0.07910351 0.048381224
0003d0 1c a1 b9 3c 50 4b 74 3c 42 97 a3 bc 58 18 1f bd
       0.02265983 0.014910534 -0.019969586 -0.038841575
0003e0 00 03 28 bc e6 0a 4a bb bb 3f 02 bd ec 44 19 bc
       -0.0102546215 -0.003082925 -0.03179906 -0.009354811
0003f0 83 bf 94 bd 43 50 fa 3d ef bf 96 3c 7e 4b df 3d
       -0.072630905 0.1222234 0.018402068 0.10903071

fc2.bias f4 [128]
000000 28 fd 1b bc 84 61 9f 3d 0c cb 94 3c 9b 3c 72 3d
       -0.009520806 0.077822715 0.018163227 0.05913983
000010 8d b7 be 3b d4 83 86 3d 32 4d bf 3d 1e 4d 83 bd
       0.005820221 0.06568113 0.09340896 -0.06411193
000020 ee 9a f4 3d 40 7b 5c bd d8 b5 86 3d cf 80 a1 3d
       0.11943613 -0.053828478 0.06577653 0.078858964
000030 0c 24 45 3d 69 54 ab bd 18 e6 0d bd c6 fe 80 3d
       0.04813008 -0.08365709 -0.034643263 0.06298594
000040 17 f7 db 3b 00 1c 7a bb e2 1e 45 bd 00 5c 07 3c
       0.006712805 -0.0038163662 -0.048125155 0.008261681
000050 b1 0d df 3b 1a 34 8d 3b 96 29 d3 3d 1b af 51 bd
       0.006807052 0.0043091895 0.10310666 -0.051192384
000060 95 b3 9c bd b4 2e d5 3d 6e 94 0f 3d 73 85 88 bb
       -0.0765144 0.104092985 0.035053663 -0.004166299
000070 8e 5f bc bc f3 11 95 bc 38 f3 06 bd 92 a8 0c bd
       -0.022994783 -0.018197035 -0.032946795 -0.03434045
000080 91 c8 16 3d 0e 4f 59 3d 7e 0d d9 3d 24 be 86 bd
       0.03681237 0.053053908 0.105982766 -0.06579235
000090 0e f0 c9 bd 92 41 a8 3c d3 86 4c bd 51 0e 39 3c
       -0.0986024 0.020539079 -0.049933266 0.011294917
0000a0 aa ec 65 3d 8e 3f fc bc 18 b9 05 bd 13 f4 48 bd
       0.056133904 -0.030792024 -0.032647222 -0.049060892
0000b0 12 25 84 3d 51 38 b1 3d 25 92 89 bc f3 b5 a2 3d
       0.06452383 0.086533196 -0.01679332 0.0794486
0000c0 f2 f1 ab bb 48 cc 58 bd d8 8d 24 3c 34 02 bc 3c
       -0.005247348 -0.052929193 0.010043584 0.02295027
0000d0 37 27 5b 3d b8 6d 09 3e 9f c2 18 bc 49 8e 7a bd
       0.053504195 0.1342076 -0.009323745 -0.06117085
0000e0 72 44 18 3d 22 53 d1 3d ae dd b3 3d 22 e0 58 bd
       0.03717465 0.102209345 0.087825164 -0.052948125
0000f0 73 81 81 3d 46 aa 41 bd 00 e6 9a bc b8 aa 2b bd
       0.063235186 -0.047281526 -0.0189085 -0.041910857
000100 23 3c 9e 3d e4 bc 97 3d 38 fb 9b bc 40 f7 d0 bb
       0.07726314 0.07409075 -0.019040689 -0.0063771307
000110 c8 48 15 3d 32 92 92 3d 80 95 3a bc 18 a8 19 bc
       0.036446363 0.07156791 -0.011388183 -0.009378456
000120 16 fa 26 bd f5 3b 82 3d 16 30 13 bd 1b 74 31 3d
       -0.040765844 0.06359092 -0.03593453 0.043323617
000130 c1 48 cf bc fe 9e b1 bc c3 14 24 3d c0 3b b2 3c
       -0.025303246 -0.021682259 0.040058862 0.021757007
000140 64 f3 c3 bd ac dd 91 3d d0 54 6e bc 9f 02 a8 3d
       -0.095679075 0.07122359 -0.014546588 0.08203625
000150 12 6b 76 bc a1 5e 00 3d 09 83 ae bd 14 5d 83 3d
       -0.015040176 0.031340245 -0.08521087 0.064142376
000160 28 9e 86 3d 86 4e 91 3d e1 88 15 3c c5 12 3a bd
       0.06573135 0.07095055 0.009126873 -0.045428056
000170 58 de 54 3d 39 08 52 bd 99 8f ff bb 96 b7 21 3d
       0.051969856 -0.051277373 -0.0077991006 0.03948172
000180 fb 33 a9 3d b2 26 18 3d 34 ab 59 3d 87 fe 84 bd
       0.082618676 0.037146278 0.053141788 -0.0649386
000190 52 88 ab bd e0 0b 2b bd f1 20 c5 3d 66 10 e6 3c
       -0.083756104 -0.04175937 0.09625424 0.028083991
0001a0 82 26 f7 3c d0 75 6e bc 3e 0d 77 bd 3e 18 77 3d
       0.03016973 -0.014554456 -0.060315363 0.060325854
0001b0 b5 1a bd bc 16 0e 7c bd 99 aa ba 3c d5 e1 08 3d
       -0.023084024 -0.06153687 0.022786425 0.033418495
0001c0 0e cc 78 3d f1 5b c4 3b a0 0b 11 3c 43 59 21 bd
       0.060741477 0.0059924056 0.008852869 -0.039391767
0001d0 29 08 50 3b 51 f0 a1 3b 33 b6 16 bd 8c c9 6a bc
       0.0031743145 0.004941978 -0.036794852 -0.014330279
0001e0 d1 80 34 3d 11 31 f5 3c 45 58 69 bd 42 e5 e9 3d
       0.04406816 0.029930623 -0.056968946 0.114206806
0001f0 f0 d1 40 3d 4e 7e 26 bd c4 75 bc bc c4 31 0c bd
       0.047075212 -0.040647797 -0.023005374 -0.034227148

fc3.weight f4 [5, 128]
000000 1d db 01 bd 47 4d 99 bb 85 4a e3 bc bf 7b a5 bd
       -0.031703103 -0.0046784016 -0.027745495 -0.08080243
000010 69 ba 8f bd f7 7e 28 bc ed 5c d6 bd 93 16 6e bc
       -0.07017977 -0.010284177 -0.10466943 -0.014531749
000020 a2 37 38 3b 24 81 a7 bd bd a7 ce bc c4 29 d0 bd
       0.0028109332 -0.081789285 -0.025226468 -0.10164216
000030 7c 44 ad bd 8c d6 aa bd 49 11 e6 bc 9b df a6 3d
       -0.08460328 -0.08341703 -0.028084414 0.08148118
000040 24 6f 51 3c 42 cc a3 bd c7 9c 16 3c f8 b9 b1 3c
       0.012782846 -0.079979435 0.009192652 0.021695122
000050 81 2b 15 3d 25 99 07 bd 5f 77 a7 bd 2e 9a be bd
       0.03641844 -0.033105034 -0.08177065 -0.09306751
000060 6c f6 84 bc f6 63 9d bd 48 a2 96 3d d4 7a 96 3d
       -0.016230784 -0.07685082 0.073551714 0.07347646
000070 58 2b aa 3d 38 74 d1 bc af 64 05 be 0d 5f 8c 3d
       0.083090484 -0.025568113 -0.13026689 0.06854067
000080 8c ae 44 3d 84 dc 33 3c 36 51 01 3c 29 03 9a bd
       0.048018023 0.010977868 0.007892897 -0.07520134
000090 cc 3d bf bc ac 81 93 3d d9 73 5c bd 8b b7 7b bd
       -0.023344897 0.07202467 -0.05382142 -0.061454337
0000a0 a7 01 7c 3d 26 78 26 3d ca 52 45 3d b2 66 9e bd
       0.061525013 0.040641926 0.048174657 -0.07734431
0000b0 c6 20 b6 3b 06 d0 38 3d 5f ed d0 bd 9b cd f5 bd
       0.005558106 0.04512026 -0.10201525 -0.12002107
0000c0 89 cd c8 bc 00 b5 9d 3c ee 3b a9 bd 9e e6 83 3d
       -0.02451207 0.019251347 -0.08263384 0.06440471
0000d0 7d e8 90 bd 48 30 bd bd 81 c3 ec 3c 8d 75 54 3d
       -0.070755936 -0.092377245 0.028901817 0.051869918
0000e0 6b 3a 9a 3d 92 c1 eb bc 7c 69 0a bd b0 54 15 bd
       0.075306736 -0.028778825 -0.033792004 -0.036457717
0000f0 b3 60 73 3d 15 67 3b bd 7e 2a 0b bd c8 c6 e6 bd
       0.05941839 -0.045752604 -0.03397607 -0.11268383
000100 80 53 f1 3a 70 18 8f 3c f6 4f 41 3d cc 41 f1 3c
       0.0018411726 0.017467707 0.047195397 0.02945032
000110 9c 81 6f 3b 64 6c cb bd c7 1b b4 3d db 07 3a bc
       0.003654576 -0.09932783 0.087943606 -0.011354412
000120 e7 40 e7 bc 4e 0d ed bc ba f3 68 bc f3 48 49 bc
       -0.02822919 -0.028937008 -0.014218265 -0.012285459
000130 ab 07 81 bc e7 be 3e 3c 49 a6 5e 3d 10 ea 0a 3d
       -0.015750727 0.011642194 0.0543578 0.033914626
000140 86 ed ac bd a8 5c 6e 3d 9d ec 51 bd 1c d3 31 3d
       -0.084437415 0.058193833 -0.051251043 0.04341422
000150 3d a2 08 bd 1d ce ec bc 55 1b ae 3d 37 ea aa bd
       -0.033357847 -0.028906876 0.08501307 -0.08345454
000160 76 74 c9 bd d4 1e d0 bd 88 9e ab bd 14 47 8d bc
       -0.09836666 -0.1016213 -0.08379847 -0.017245807
000170 8c 6f 88 3d 88 2b 81 bd 2b 62 8d ba 22 a9 55 3d
       0.06661901 -0.06307131 -0.0010786703 0.05216325
000180 a0 f0 f2 bc 40 32 e5 3a c0 6d 59 3d 62 44 c9 bd
       -0.029655755 0.0017486289 0.05308318 -0.09827496
000190 cf c9 2d 3d e2 63 3f bd 5e d9 c2 bd 69 1e 1c 3d
       0.042428788 -0.046726115 -0.09514116 0.03811494
0001a0 91 d7 8e 3b 14 b7 92 bc 8c 76 6f bd d7 e4 43 bd
       0.0043591936 -0.017909564 -0.058462664 -0.04782566
0001b0 e3 9a f4 3b 68 df 34 bd 9a 7a fe bd 25 be 44 bd
       0.007464753 -0.04415837 -0.12425728 -0.0480329
0001c0 18 49 97 3d 1d 07 6f 3d 06 74 25 3d cd 36 2c 3d
       0.073869884 0.058356393 0.04039385 0.04204445
0001d0 7f f4 99 3d 46 d0 d9 bd 77 53 fb 3c 13 26 e2 3c
       0.07517337 -0.10635428 0.030679448 0.027606046
0001e0 b3 d8 dc bc ab 33 c6 bc 1e 8e 6e bd 19 7c 00 be
       -0.026958799 -0.02419456 -0.058241002 -0.1254734
0001f0 bc 8d 07 be 6c 25 4d bd 95 cf 95 bd bc 0f 52 3d
       -0.13237661 -0.050084516 -0.07314984 0.051284537
000200 f6 d8 87 bd c7 bb d3 bd 96 78 1b 3d e4 4b e6 3c
       -0.06633179 -0.1033855 0.037956797 0.02811236
000210 94 31 96 bd 60 8e ca bd df b5 02 3d 8a ed 9d 3d
       -0.07333675 -0.09890437 0.031911727 0.077113226
000220 25 ca 99 bd 9a d1 e5 bc e2 a6 3f bd 10 df 84 3d
       -0.07509259 -0.028054047 -0.04679001 0.06487858
000230 9d b4 bc bd 58 92 f8 3c 71 40 08 bd e0 2f 8d 3d
       -0.09214137 0.03034322 -0.03326458 0.06893897
000240 6d 35 a0 bd a9 06 bc bc c0 21 03 3d e0 6a 7d 3c
       -0.0782269 -0.022952395 0.03201461 0.0154673755
000250 99 3f a0 3d 0c 42 4c bd 9c 6d b0 bc a6 c0 0e 3d
       0.0782463 -0.049867675 -0.02153664 0.034851693
000260 d0 80 c1 bc 8a c4 07 bd 21 47 96 bd 7a 8b 36 3d
       -0.023620993 -0.03314642 -0.073377855 0.04456661
000270 ca a0 99 3d 8f 54 7a bd 27 1d 31 3d d0 a2 a2 3d
       0.07501371 -0.061115798 0.043240692 0.0794121
000280 6e 76 a3 3b f5 e4 91 3d 59 f2 b8 3c a0 d2 a3 3d
       0.004988483 0.07123748 0.022576498 0.07999158
000290 ca 1b f8 bb 66 fd 79 bc f8 b2 c6 bc dc a4 b1 bd
       -0.007571672 -0.015258169 -0.02425526 -0.086740226
0002a0 c2 7e ca 3c cb 72 50 3d 89 d9 b2 3d fe 6a 52 3d
       0.024718646 0.050890725 0.08732898 0.051371567
0002b0 59 4e 9c bd 10 fb 03 bd 72 fa 01 bd ee 97 7b bd
       -0.07632131 -0.032221854 -0.031732984 -0.06142419
0002c0 b5 de 9e 3d 5e 0f 20 bd 31 1d 89 3d 94 18 8e bd
       0.07757322 -0.039077155 0.06695021 -0.06938282
0002d0 84 03 6b 3d 42 2d c2 bd ff 12 59 3c b1 0e 89 bd
       0.0573764 -0.094812885 0.013249158 -0.06692255
0002e0 8e a2 78 3d 9f 7a b5 3c 8e ce 2c bd fa 31 9d bd
       0.0607019 0.022153197 -0.042189173 -0.07675548
0002f0 f1 de a6 bd 5d 41 40 3d ca b6 2e 3d 4c f4 cd 3c
       -0.081479914 0.046937335 0.04265479 0.025140904
000300 66 2e 55 3d 63 1f 96 3c ca 3b 67 3d e6 c8 34 3d
       0.052046202 0.018325513 0.056453504 0.044136904
000310 ad 38 a4 3d 7c 67 75 bc 48 db 94 3c 41 9d a0 3c
       0.080186225 -0.014978286 0.018170968 0.019606235
000320 2e 95 1a bd d2 a6 9a bd 08 73 66 3d 12 68 47 3d
       -0.037739925 -0.0755135 0.056262046 0.048683234
000330 00 34 a3 bd 1d c8 19 3d 49 e3 69 bd 69 96 05 3d
       -0.079689026 0.03754436 -0.05710152 0.032614145
000340 9b 2c 9d bd 7e 86 ec 3a f9 fe 8c 3d ac b2 c1 bd
       -0.076745234 0.0018045453 0.0688457 -0.09457907
000350 90 ac 11 bd d9 be 95 bd 43 13 72 bd 08 db 4b 3d
       -0.03556496 -0.07311792 -0.0591004 0.04976943
000360 ad 4b cd bb e5 2c b5 bd 61 b7 15 bd d3 f8 02 3d
       -0.006265125 -0.088464536 -0.036551837 0.03197558
000370 30 e9 8e bc 7d 9c 8b bd cb c4 07 bd f7 31 b2 bd
       -0.017445177 -0.06816957 -0.03314666 -0.08700936
000380 a1 8c 87 bd 2a 39 2e 3d b8 aa 76 3d d6 b0 af bd
       -0.0661862 0.042534985 0.060221404 -0.08578651
000390 19 e2 70 bd f4 60 d6 bd 17 66 50 bd 95 62 39 bc
       -0.058809374 -0.10467711 -0.05087861 -0.011315008
0003a0 c8 be aa bd 8c 73 c5 bc fa c8 1e 3d b0 51 45 bc
       -0.0833717 -0.024102949 0.038765885 -0.012043402
0003b0 06 9c cd 3c a7 fa a5 3c 2b a5 5b bd ea c5 94 3d
       0.025098812 0.020261122 -0.053624313 0.072643116
0003c0 50 44 5e 3c 29 e4 6f 3d 78 b0 94 bd 30 68 af 3d
       0.013566092 0.0585672 -0.07260221 0.08564794
0003d0 36 d4 a5 bd 57 bb 16 3c 23 cb 88 bd 51 3d ab bd
       -0.08097117 0.009199939 -0.0667937 -0.083613046
0003e0 2d 7e cf bd d8 cc ae bd ad 9c a8 3d d8 09 5e 3d
       -0.10131488 -0.085351646 0.082330085 0.054208606
0003f0 6b 3a 3a 3d 2f b9 82 3d 01 ab 7f bd c6 5a 09 bd
       0.045465868 0.06382977 -0.06241894 -0.033533834

fc3.bias f4 [5]
000000 33 86 0d bb ba a6 8f bd a5 65 40 bd 4b f0 83 3c
       -0.0021594882 -0.070142224 -0.046971936 0.016105792
000010 e0 0f 9c 3d
       0.076202154
