Reinforce/state_dict_model.pt (torch, 84127 bytes, 6 tensors)

fc1.weight f4 [128, 25]
-0.0003076623 -0.13652007 0.10425245 -0.05935096 -0.016530246 -0.03880209 -0.1240059 -0.16559644
-0.077884644 -0.19112897 -0.083909765 0.054333664 0.022519063 0.15697408 0.05743328 0.1198049
-0.20426624 -0.07140031 0.17927529 0.18027017 0.123276934 0.04639502 0.0042338357 -0.15980136
0.029306749 -0.026942197 0.156035 0.077457175 0.039057497 -0.1410675 -0.010547694 -0.013177065
-0.026116 -0.14555171 -0.049804725 0.0604856 0.0022038112 -0.07664193 -0.1340248 0.1304163
0.08394909 -0.050792746 0.12719801 0.09218347 -0.0015898249 -0.14955464 0.14746042 0.021473927
-0.07989336 -0.12818159 0.12072399 0.0770348 -0.031688772 -0.1009856 -0.024555609 -0.05235096
0.09382481 -0.015674114 0.020470483 -0.07579264 0.09019849 -0.06712608 -0.17298459 -0.043749753
0.2151885 0.16319439 -0.07391167 -0.009739671 -0.18339178 0.15686305 -0.16540088 -0.17587604
-0.07565137 -0.18319665 -0.069090076 -0.19209741 0.108095385 -0.011200707 -0.0070829843 -0.12921691
0.02871582 0.12017117 -0.14447697 0.058963235 0.03379583 -0.05982752 -0.18489048 -0.016256245
0.13187568 0.05217546 0.083294846 0.021782516 0.119363934 0.07231186 0.07389302 -0.18907155
-0.12726423 0.038581327 0.12636553 -0.18487693 0.16808209 -0.06518768 0.17093816 -0.12124608
-0.04333648 0.0046732617 0.10098659 0.028779412 -0.045991503 0.09162312 0.18043649 -0.09566327
0.046383977 -0.04195936 -0.0026389821 0.19305673 -0.1982267 0.06352407 0.16803011 0.081859365
0.16578603 0.09429357 -0.15981045 -0.071812816 0.15790223 0.014092371 -0.048417255 0.045230106
-0.08803642 0.13376401 -0.17739156 0.0315623 -0.07320109 -0.13126943 -0.16857806 -0.09412451
-0.115829706 -0.05622013 -0.05930683 -0.069885224 0.017001823 -0.11723216 0.12398757 -0.019330457
0.14664112 0.09602149 -0.029520035 -0.14790213 -0.0785641 0.14987554 -0.16742067 -0.07114701
0.11510418 -0.08815525 -0.102919914 -0.1447326 -0.020429686 0.097063914 -0.1937205 -0.15737613
0.1952926 0.10977407 0.15820868 0.09811066 -0.14307074 -0.053075105 -0.080863886 0.07961373
-0.02631858 0.1517931 -0.071726725 0.10870279 -0.052263543 0.11075093 0.074223414 0.18304458
0.020381387 0.105047636 0.16298231 0.1007383 0.059280884 0.16006964 0.06436576 -0.08954912
0.15585287 -0.022254838 0.01689385 -0.030299274 -0.15485084 -0.17179263 0.17926878 0.079210006
-0.099694006 -0.048943013 -0.19055957 0.022516768 -0.18461221 -0.00571271 -0.11935409 0.16235389
0.017964095 -0.08912881 0.053691164 -0.049977392 -0.07774849 -0.18065397 -0.15699331 0.12774326
0.03334327 -0.112706356 0.07751466 0.033567622 -0.096217945 0.04630263 0.09977318 0.10094012
-0.043851644 -0.17017487 0.05681272 0.105833784 0.017148808 -0.094174504 0.18913896 0.14675923
0.15625049 -0.10154841 -0.051294997 -0.07116392 -0.08262551 -0.123264246 0.09133141 0.033465102
-0.041200727 0.18422677 0.012056068 0.025432736 0.11375542 -0.010438681 -0.19809997 -0.031107694
0.016726226 0.1351913 -0.14289482 0.034812123 0.18625392 -0.18957953 0.18962456 -0.06362145
-0.050245672 0.08473711 0.1689255 -0.17347078 0.122099236 -0.011286383 -0.025989965 0.1629366
00000000: bc4d a1b9 ebcb 0bbe 4f82 d53d fe19 73bd
00000010: 706a 87bc f1ee 1ebd cef6 fdbd 1d92 29be
00000020: fc81 9fbd 50b7 43be e2d8 abbd fa8c 5e3d
00000030: e679 b83c d0bd 203e 293f 6b3d 455c f53d
00000040: 2b2b 51be 533a 92bd f193 373e be98 383e
00000050: 9e78 fc3d b408 3e3d fdbb 8a3b f8a2 23be
00000060: b514 f03c e2b5 dcbc a4c7 1f3e dea1 9e3d
00000070: c1fa 1f3d 0074 10be 3cd0 2cbc 9ee4 57bc
00000080: 39f1 d5bc 820b 15be 0a00 4cbd c0bf 773d
00000090: d16d 103b 72f6 9cbd cc3d 09be da8b 053e
000000a0: 80ed ab3d 0e0c 50bd 3240 023e b0ca bc3d
000000b0: ac61 d0ba da24 19be ddff 163e 17ea af3c
000000c0: 219f a3bd 0942 03be 243e f73d 6cc4 9d3d
000000d0: 16cc 01bd 8ad1 cebd d828 c9bc f66d 56bd
000000e0: 3927 c03d 0067 80bc b7b1 a73c 2c39 9bbd
000000f0: fcb9 b83d 6679 89bd df22 31be f132 33bd
00000100: 605a 5c3e 6e1c 273e 005f 97bd 2493 1fbc
00000110: 0ecb 3bbe b5a0 203e d95e 29be d918 34be
00000120: 1bef 9abd e797 3bbe 197f 8dbd 2fb5 44be
00000130: 1d61 dd3d 2c83 37bc 6118 e8bb 7051 04be
00000140: 703d eb3c 4d1c f63d c5f1 13be 6f83 713d
00000150: 7f6d 0a3d b40d 75bd ee53 3dbe d12b 85bc
00000160: 6b0a 073e efb5 553d 7d96 aa3d 3f71 b23c
00000170: 1475 f43d 3e18 943d 3955 973d f99b 41be
00000180: 8e51 02be 7407 1e3d f765 013e 6150 3dbe
00000190: b61d 2c3e 1e81 85bd 6a0a 2f3e dd4f f8bd
000001a0: 9881 31bd 2922 993b 0fd2 ce3d cdc2 eb3c
000001b0: 9661 3cbd e7a4 bb3d 58c4 383e 1beb c3bd
000001c0: 20fd 3d3d 94dd 2bbd c6f2 2cbb aab0 453e
000001d0: f1fb 4abe e818 823d 1610 2c3e e2a5 a73d
000001e0: d0c3 293e fd1c c13d 5aa5 23be 9912 93bd
000001f0: 1fb1 213e b0e3 663c 2c51 46bd 3443 393d
00000200: 704c b4bd 6ff9 083e 22a6 35be 7847 013d
00000210: 74ea 95bd 7e6b 06be ba9f 2cbe 5ac4 c0bd
00000220: 2038 edbd 1447 66bd b8eb 72bd fc1f 8fbd
00000230: 6847 8b3c 6a17 f0bd 32ed fd3d e85a 9ebc
00000240: 1729 163e eaa6 c43d 00d4 f1bc a873 17be
00000250: 37e6 a0bd f978 193e 5370 2bbe 86b5 91bd
00000260: bebb eb3d bd8a b4bd adc7 d2bd c834 14be
00000270: 285c a7bc 72c9 c63d ab5e 46be 3527 21be
00000280: c9fa 473e 3ad1 e03d 7501 223e 3eee c83d
00000290: 2381 12be 4865 59bd f79b a5bd 860c a33d
000002a0: 109a d7bc a76f 1b3e 76e5 92bd 929f de3d
000002b0: 4c12 56bd 62d1 e23d 7202 983d 0a70 3b3e
000002c0: def6 a63c 3723 d73d d6e4 263e e24f ce3d
000002d0: 83d0 723d 4ce9 233e 32d2 833d 8765 b7bd
000002e0: e597 1f3e c74f b6bc f964 8a3c 2f36 f8bc
000002f0: 3891 1ebe 68ea 2fbe 3c92 373e db38 a23d
00000300: 5f2c ccbd 7878 48bd 0c22 43be 1675 b83c
00000310: fc0a 3dbe af31 bbbb eb6f f4bd 1940 263e
00000320: 7029 933c 2a89 b6bd 44eb 5b3d 18b5 4cbd
00000330: 9a3a 9fbd 5bfd 38be dbc2 20be 21cf 023e
00000340: f492 083d 97d2 e6bd 02c0 9e3d 347e 093d
00000350: ea0d c5bd d4a7 3d3d e255 cc3d b2b9 ce3d
00000360: c89d 33bd 5242 2ebe 74b4 683d 62bf d83d
00000370: a87b 8c3c 90de c0bd a5ad 413e 0d48 163e
00000380: 2100 203e 9df8 cfbd b41a 52bd 64be 91bd
00000390: 9037 a9bd f771 fcbd f60b bb3d b412 093d
000003a0: 18c2 28bd f1a5 3c3e d086 453c 5058 d03c
000003b0: 9af8 e83d 0007 2bbc b8da 4abe 90d5 febc
000003c0: 7005 893c 976f 0a3e 0553 12be 2897 0e3d
000003d0: 59b9 3e3e 2321 42be f12c 423e f64b 82bd
000003e0: 68ce 4dbd a68a ad3d cefa 2c3e 53a2 31be
000003f0: 2a0f fa3d 85ea 38bc e8e8 d4bc dad8 263e

fc1.bias f4 [128]
-0.096922725 -0.20565313 -0.04200618 0.14369331 0.08291239 -0.036250666 -0.19860189 0.0452221
-0.17080863 -0.061331198 0.2007356 0.16790956 -0.08806652 -0.022996971 0.07508633 0.031254694
0.06625724 0.071388386 -0.055394184 -0.03687784 -0.14148392 0.09144122 -0.026103742 -0.12605914
-0.096235104 -0.07818486 -0.012415126 0.17639846 0.1481074 -0.13153216 -0.10079269 0.02581474
0.13384458 0.038207423 0.16775498 0.08384587 0.19732995 -0.19311929 -0.06915726 0.0816068
-0.1351002 0.000110174864 0.13959362 0.023768404 -0.018217444 0.0073027313 0.1752388 -0.11193443
0.1784413 0.09034013 0.14393057 -0.0027333973 -0.14367698 0.11337137 0.065171294 -0.061589032
-0.06689813 -0.122900985 -0.03899601 0.2015221 0.15694034 -0.15399382 0.052257523 -0.12889439
0.14891793 -0.12428101 0.09904605 0.022794338 -0.032691326 -0.080160074 0.15437281 -0.01282315
-0.0065780734 -0.05190656 0.042319298 -0.038442533 -0.17309423 0.061057102 0.1605667 -0.075989485
-0.17441648 0.01221656 0.14900208 -0.01840722 0.011874299 -0.012376057 -0.0100144595 0.0761697
0.18371253 -0.012718936 -0.17671119 0.022896362 0.05882432 0.022875002 0.06478979 0.16129413
-0.15207317 -0.1492888 0.18335985 0.08887064 0.09081843 0.019126222 -0.08944235 -0.049017787
-0.00042569637 -0.15635498 0.01798964 0.13611573 -0.16020845 -0.18246098 -0.09800701 0.049354374
0.10202005 -0.15598865 -0.17667642 -0.016987901 0.19465542 -0.04462747 0.0038533658 0.014520424
-0.08899229 -0.04264617 -0.14939678 -0.106049955 0.1470376 -0.009044414 -0.032771677 -0.19647375
00000000: 6c7f c6bd bc96 52be ac0e 2cbd 5724 133e
00000010: f9cd a93d 947b 14bd 4b5e 4bbe cf3a 393d
00000020: 75e8 2ebe 6c36 7bbd a28d 4d3e 7cf0 2b3e
00000030: 385c b4bd 2564 bcbc ddc6 993d ec04 003d
00000040: e0b1 873d 1334 923d 03e5 62bd 380d 17bd
00000050: 29e1 10be 8945 bb3d 84d7 d5bc a615 01be
00000060: e916 c5bd 621f a0bd d068 4bbc cca1 343e
00000070: 77a9 173e 5eb0 06be 666c cebd 6f79 d33c
00000080: 8e0e 093e 637f 1c3d f6c7 2b3e 62b7 ab3d
00000090: dd10 4a3e 10c1 45be 52a2 8dbd 7721 a73d
000000a0: b557 0abe ae0d e738 a1f1 0e3e f5b5 c23c
000000b0: c03c 95bc c04b ef3b cd71 333e e13d e5bd
000000c0: 51b9 363e 3f04 b93d 8962 133e cc22 33bb
000000d0: 0f20 13be 402f e83d 8778 853d c844 7cbd
000000e0: e301 89bd 83b3 fbbd 48ba 1fbd cf5b 4e3e
000000f0: f8b4 203e 8eb0 1dbe fc0b 563d e4fc 03be
00000100: f17d 183e 0b87 febd a8d8 ca3d 31bb ba3c
00000110: 57e7 05bd f72a a4bd e813 1e3e 3018 52bc
00000120: e18c d7bb f99b 54bd 0057 2d3d eb75 1dbd
00000130: 9d3f 31be 0317 7a3d 996b 243e 60a0 9bbd
00000140: 3c9a 32be f727 483c 0094 183e bdca 96bc
00000150: 6b8c 423c f2c4 4abc b013 24bc dcfe 9b3d
00000160: 231f 3c3e 1663 50bc c7f3 34be 2791 bb3c
00000170: c5f1 703d 5b64 bb3c 82b0 843d 4a2a 253e
00000180: 12b9 1bbe 2adf 18be afc2 3b3e cf01 b63d
00000190: 03ff b93d 98ae 9c3c 8d2d b7bd e0c6 48bd
000001a0: 0030 dfb9 851b 20be 025f 933c ec61 0b3e
000001b0: af0d 24be 0dd7 3abe e6b7 c8bd d027 4a3d
000001c0: e3ef d03d 7dbb 1fbe aaea 34be 362a 8bbc
000001d0: c053 473e 4bcb 36bd c088 7c3b 13e7 6d3c
000001e0: 9741 b6bd c0ad 2ebd 78fb 18be b830 d9bd
000001f0: 0691 163e 062f 14bc 983b 06bd 6a30 49be

fc2.weight f4 [128, 128]
-0.07873596 -0.04633599 -0.059993908 -0.071802676 -0.04304524 -0.032186136 -0.013441011 0.04235592
0.08302153 0.043473877 -0.050205607 0.06838801 0.07145075 -0.056877553 0.0357581 0.0717184
0.038594 0.012390943 0.06962174 0.027283676 0.055445068 -0.06438015 -0.09298893 0.04372579
-0.05679387 0.079952866 0.027735163 0.017128054 -0.059169464 -0.08247481 -0.067667685 -0.027199445
-0.020748734 0.01235176 -0.003581685 -0.05185371 -0.03641612 0.053032182 -0.0645676 0.036711354
0.027870499 0.021964028 0.045517497 0.008760057 0.012811869 0.048821308 -0.07433189 -0.050876714
0.026562525 -0.015280755 -0.08771421 -0.08712593 -0.06981205 0.055666856 -0.080997884 -0.07689811
0.0040600896 -0.021991812 0.020867482 0.05590469 -0.005579885 0.07063458 0.04211452 0.037139714
0.014732794 0.0075952737 -0.034028377 -0.07533771 0.04779372 0.08546692 0.08022231 -0.050024956
0.04345112 0.06817623 0.057050683 -0.082792625 0.04174877 -0.068738386 0.040367562 0.0016404729
0.07330535 0.007936415 0.066431955 -0.05616424 0.010303216 -0.026732268 0.02806925 0.01691727
-0.0011261677 -0.033414774 -0.051583048 -0.019410372 -0.060495675 -0.033683576 0.068704806 -0.055686187
0.023821026 0.01652006 -0.015717605 0.025014542 0.043427937 -0.028633209 0.06942663 -0.020145856
0.08447189 -0.0076553714 0.069152676 -0.006006123 -0.074368194 -0.043627057 -0.052434344 -0.027286781
-0.030418094 -0.07527321 -0.065418966 0.052479826 -0.059425943 -0.020325646 -0.03167285 -0.05167159
0.06651622 -0.06989245 -0.09480286 -0.01733097 0.005192713 -0.07682623 0.039055087 0.06954331
-0.02644957 -0.06576826 0.0680706 0.07803985 0.088182 -0.05249211 -0.05250428 0.092259265
-0.07529446 -0.08097816 0.10531709 0.0027513695 0.083531186 -0.03287575 0.08892375 0.032913283
-0.052681893 0.03747849 0.056580644 -0.07687642 -0.09237061 -0.05131992 -0.06186019 0.016747473
0.023854528 0.03898156 0.019288156 0.019684134 -0.057318963 -0.061406232 0.084148765 0.04013671
0.05749028 -0.011877335 -0.07626893 -0.032286823 0.040374566 -0.011937402 -0.036435165 0.054391738
-0.014913261 -0.0154883005 0.10244416 -0.0201244 0.046357192 0.08564486 0.103533916 -0.059754945
0.033651765 0.05149443 0.056758575 0.058078993 -0.059768274 0.029593568 0.073688924 0.028818559
-0.06646767 -0.06845439 0.012839109 0.0034235877 -0.002726283 -0.010156875 -0.02410721 0.08143313
0.01518135 0.062089756 0.09454699 0.00018876797 -0.019613784 0.092345074 -0.034248464 -0.0093054995
0.07919776 -0.020615451 0.08111886 0.08433292 -0.013948157 0.041447077 -0.022460828 -0.0038649074
-0.052422695 -0.016259696 0.015192101 0.10784001 -0.06858891 0.007532624 0.00016822666 -0.0062723057
0.02353835 0.04458749 -0.0033084394 0.090551585 0.012833807 0.121507525 0.025506042 -0.0065487954
-0.020144284 0.054588504 0.10193527 0.07930114 -0.05752155 0.0017177853 -0.07989449 0.066555135
0.052807055 0.007879032 -0.03213995 0.025840703 0.029440857 -0.044036712 -0.003845856 0.08255377
0.027559603 -0.017851122 0.005469556 0.05329881 -0.03714927 -0.08904955 0.03191919 -0.03147257
-0.060865033 -0.017799497 0.05413339 0.0048822053 0.0031386646 -0.04453699 0.06077277 -0.0036150515
00000000: 5240 a1bd cfca 3dbd 2cbc 75bd 480d 93bd
00000010: 3550 30bd 9cd5 03bd b037 5cbc 677d 2d3d
00000020: 3107 aa3d aa11 323d 65a4 4dbd 030f 8c3d
00000030: c554 923d 70f8 68bd 1677 123d 19e1 923d
00000040: be14 1e3d 6203 4b3c d895 8e3d 0482 df3c
00000050: 5e1a 633d bdd9 83bd fb70 bebd d019 333d
00000060: b0a0 68bd 54be a33d da34 e33c 2250 8c3c
00000070: ae5b 72bd 8ee8 a8bd 5b95 8abd 5fd1 debc
00000080: 40f9 a9bc 095f 4a3c b4ba 6abb 8e64 54bd
00000090: 1229 15bd 4638 593d 053c 84bd a55e 163d
000000a0: ac50 e43c e8ed b33c 8e70 3a3d 5886 0f3c
000000b0: e0e8 513c daf8 473d 513b 98bd 1a64 50bd
000000c0: a799 d93c 225c 7abc 82a3 b3bd 146f b2bd
000000d0: 9ff9 8ebd ee02 643d 38e2 a5bd c27c 9dbd
000000e0: 800a 853b 2c28 b4bc 48f2 aa3c 51fc 643d
000000f0: 78d7 b6bb dda8 903d 4680 2c3d d01f 183d
00000100: d161 713c c6e1 f83b 5761 0bbd a84a 9abd
00000110: 59c3 433d 4809 af3d 984b a43d f8e6 4cbd
00000120: cdf9 313d fb9f 8b3d faad 693d 2e8f a9bd
00000130: c200 2b3d b6c6 8cbd 7558 253d 2305 d73a
00000140: 1e21 963d bd07 023c 7a0d 883d 790c 66bd
00000150: d2ce 283c a1fd dabc 7cf1 e53c 1696 8a3c
00000160: eb9b 93ba eedd 08bd bf48 53bd 8002 9fbc
00000170: 50ca 77bd caf7 09bd 1bb5 8c3d 3317 64bd
00000180: 5024 c33c 1455 873c 35c2 80bc 4ceb cc3c
00000190: 7ee1 313d 3190 eabc 8d2f 8e3d ec08 a5bc
000001a0: 99ff ac3d e9d9 fabb eb9f 8d3d 03cf c4bb
000001b0: 5a4e 98bd 49b2 32bd 65c5 56bd 8788 dfbc
000001c0: 5e2f f9bc d728 9abd 61fa 85bd 16f5 563d
000001d0: 9e68 73bd f881 a6bc 64bb 01bd 97a5 53bd
000001e0: a839 883d c623 8fbd 0028 c2bd aef9 8dbc
000001f0: a227 aa3b 1257 9dbd 3af8 1f3d b96c 8e3d
00000200: c5ac d8bc 82b1 86bd 9968 8b3d 5bd3 9f3d
00000210: c498 b43d f701 57bd ba0e 57bd 6df2 bc3d
00000220: fb33 9abd e1d7 a5bd 7db0 d73d 5250 343b
00000230: 6612 ab3d b9a8 06bd a81d b63d 14d0 063d
00000240: f8c8 57bd 0c83 193d 1bc1 673d 6271 9dbd
00000250: cd2c bdbd d634 52bd 1c61 7dbd ff31 893c
00000260: 926a c33c 21ab 1f3d 3202 9e3c 9f40 a13c
00000270: 4ac7 6abd 1a85 7bbd 3056 ac3d 6466 243d
00000280: ee7a 6b3d 2799 42bc e332 9cbd 303f 04bd
00000290: cd5f 253d 1895 43bc 0a3d 15bd dfc9 5e3d
000002a0: c056 74bc a4c2 7dbc 3ece d13d eddb a4bc
000002b0: 0ae1 3d3d 9366 af3d 9709 d43d 9ac1 74bd
000002c0: 6fd6 093d d3eb 523d ae7b 683d 3de4 6d3d
000002d0: 94cf 74bd 366e f23c 38ea 963d e614 ec3c
000002e0: 3420 88bd d131 8cbd 205b 523c 455e 603b
000002f0: 70ab 32bb 0569 26bc 7c7c c5bc 6ac6 a63d
00000300: 32bb 783c d451 7e3d daa1 c13d 04f0 4539
00000310: 16ad a0bc 6a1f bd3d 1e48 0cbd 1876 18bc
00000320: 6f32 a23d bce1 a8bc a521 a63d bdb6 ac3d
00000330: d086 64bc 69c4 293d c5ff b7bc 634a 7dbb
00000340: 2eb9 56bd 0e33 85bc 4ae8 783c 39db dc3d
00000350: 5878 8cbd 3bd4 f63b 0066 3039 ea87 cdbb
00000360: 7fd3 c03c 5fa1 363d 67d2 58bb 1c73 b93d
00000370: e344 523c f0d8 f83d 0cf2 d03c 4797 d6bb
00000380: a005 a5bc 3298 5f3d 70c3 d03d a368 a23d
00000390: b89b 6bbd 4f27 e13a b99f a3bd 0f4e 883d
000003a0: 364c 583d 0e17 013c 2ea5 03bd e2af d33c
000003b0: f42d f13c d75f 34bd c20a 7cbb f311 a93d
000003c0: adc4 e13c 843c 92bc f639 b33b da4f 5a3d
000003d0: d529 18bd 9c5f b6bd b2bd 023d 62e9 00bd
000003e0: 9d4d 79bd 40d0 91bc f9ba 5d3d e8fa 9f3b
000003f0: 0eb2 4d3b 6b6c 36bd deec 783d 80ea 6cbb

fc2.bias f4 [128]
-0.0047005014 0.019979086 -0.009518728 -0.06741163 0.045498237 0.037226003 -0.061271936 -0.0021181852
-0.07792418 0.023203734 0.026421435 0.03388194 0.07384199 -0.054269273 0.0321801 -0.08781398
-0.016548289 -0.057876587 0.07646224 -0.0267904 0.025477009 0.03825 0.004239414 -0.016587036
-0.043331057 0.015309187 -0.033639047 0.029050723 -0.06220028 -0.02949473 -0.026178125 -0.036355633
0.010314347 0.021599265 -0.045096364 -0.049580555 0.06969432 0.00944031 0.041592065 -0.035605412
0.053859144 0.028245836 0.05358994 -0.056368355 -0.03569481 0.06894064 -0.014886933 -0.0052895695
0.023145124 -0.01061137 0.06002493 -0.08674713 0.017357692 -0.061787426 0.04337769 0.06952699
-0.059017293 -0.012964163 -0.0870477 0.03571002 -0.07177107 -0.07080635 -0.0053358306 -0.0074218456
0.07409534 0.01793992 0.014521235 -0.0036605373 -0.042628374 -0.06552008 0.07465552 0.0509254
0.030507674 0.06875068 -0.0077047753 0.0019030999 -0.0032960556 0.037750017 0.036774132 0.059083767
0.023662861 -0.05350894 0.00949757 -0.04732065 -0.0021250772 -0.04427154 -0.06603743 0.0013057506
0.013491028 -0.036438413 -0.065691605 0.08346306 -0.08082962 -0.053157575 -0.058244195 0.059860665
0.08099536 0.0032018411 -0.045861427 0.09161742 -0.022061268 -0.074782744 -0.04960289 0.08335532
0.024789937 -0.08161625 0.06495151 -0.076840706 -0.009010608 -0.06790918 0.011187433 -0.05918973
-0.04441071 -0.05062828 0.08520213 0.015515195 0.043385815 0.0956695 0.07532498 -0.008229727
0.01825533 0.008537024 -0.038422816 -0.0077403337 0.058840234 0.018974952 -0.06996082 -0.05787178
00000000: aa06 9abb 2eab a33c 70f4 1bbc 1c0f 8abd
00000010: 5c5c 3a3d 4b7a 183d 48f8 7abd 40d1 0abb
00000020: b696 9fbd c215 be3c c471 d83c cac7 0a3d
00000030: 783a 973d 7549 5ebd 48cf 033d d1d7 b3bd
00000040: 4790 87bc 0010 6dbd 3c98 9c3d 8a77 dbbc
00000050: 29b5 d03c 08ac 1c3d c8ea 8a3b 89e1 87bc
00000060: e87b 31bd 62d3 7a3c 19c9 09bd c8fb ed3c
00000070: b9c5 7ebd ef9e f1bc 8273 d6bc a5e9 14bd
00000080: 82fd 283c f1f0 b03c f7b6 38bd fb14 4bbd
00000090: e5bb 8e3d 88ab 1a3c 715c 2a3d fbd6 11bd
000000a0: 689b 5c3d d063 e73c 2081 5b3d 81e2 66bd
000000b0: b934 12bd c030 8d3d 53e8 73bc 2054 adbb
000000c0: d89a bd3c 50db 2dbc b3dc 753d 7ba8 b1bd
000000d0: b831 8e3c d014 7dbd ceac 313d 2b64 8e3d
000000e0: 1ebc 71bd a467 54bc 1146 b2bd ac44 123d
000000f0: b6fc 92bd eb02 91bd 31d8 aebb f432 f3bb
00000100: 4cbf 973d bdf6 923c 79ea 6d3c a0e5 6fbb
00000110: 179b 2ebd 642f 86bd fee4 983d 2797 503d
00000120: 3beb f93c 28cd 8c3d 5778 fcbb 7071 f93a
00000130: a302 58bb c39f 1a3d 79a0 163d d201 723d
00000140: 9ed8 c13c 312c 5bbd b29b 1b3c 4cd3 41bd
00000150: e144 0bbb 1356 35bd a23e 87bd b825 ab3a
00000160: 7909 5d3c 7240 15bd 5289 86bd aeee aa3d
00000170: 008a a5bd c2bb 59bd 7791 6ebd 7530 753d
00000180: e5e0 a53d fbd5 513b 31d9 3bbd eaa1 bb3d
00000190: d5b9 b4bc b227 99bd 662c 4bbd 32b6 aa3d
000001a0: 4414 cb3c 6c26 a7bd 4c05 853d a95e 9dbd
000001b0: 3ba1 13bc f813 8bbd 7f4b 373c ee70 72bd
000001c0: 01e8 35bd 995f 4fbd 747e ae3d 7233 7e3c
000001d0: 53b5 313d 5fee c33d fc43 9a3d fad5 06bc
000001e0: 348c 953c e0de 0b3c 3e61 1dbd a0a2 fdbb
000001f0: 7502 713d 5c71 9b3c 9e47 8fbd f60a 6dbd

fc3.weight f4 [5, 128]
-0.021249356 0.1128127 0.015026309 0.05721041 0.06711999 -0.046909317 0.023419637 -0.06674527
0.060908817 -0.038672797 -0.00045339763 0.07909958 -0.049163032 0.00033198576 -0.028257897 0.015563853
0.029768476 0.04620039 -0.06449962 -0.028226249 0.036065795 -0.027216204 0.06054611 -0.004630048
0.08496345 -0.0673389 -0.052847452 0.00971247 -0.053711593 -0.057925694 0.026167108 -0.058631048
-0.03884237 -0.0072939 -0.049275123 0.06329125 -0.05836901 -0.019917382 0.05385759 -0.017150994
0.11044445 0.06351007 0.0014816393 -0.011084562 0.018100817 -0.030177668 -0.0012037846 0.014211327
0.010861509 -0.003021736 0.038640026 0.007898078 0.042730518 0.10711643 0.07796685 -0.021375703
-0.039204057 0.04040858 -0.02211423 -0.06271003 -0.06874275 0.024456918 0.02567576 -0.09716486
0.08161804 -0.000102119564 0.030556982 0.0441828 -0.06804038 -0.0017971084 0.08178527 0.0083428435
-0.035987962 0.08537225 0.0020050644 0.07382732 0.007634053 0.06592657 -0.022153562 -0.0034147864
-0.03470075 -0.008638442 0.08154924 -0.01490356 -0.06883922 0.078342184 -0.041822728 0.0161275
0.031274542 -0.046806443 -0.031499434 0.055174906 -0.026333228 0.09633163 -0.05772523 -0.044619393
-0.013604912 0.057396825 -0.06257529 0.03887932 0.0391896 0.08290462 0.03942859 -0.051331654
0.083968185 -0.008598939 -0.06547259 0.04563243 -0.06774146 -0.003525844 0.042592205 0.105354145
0.03803342 0.0032806993 -0.061144315 0.04549704 0.0861831 0.07877366 0.079996325 0.00881794
-0.048360936 0.0099712685 -0.016078308 -0.0512599 -0.02365087 0.00041602837 0.063103676 0.06679576
0.0068588066 -0.035989534 0.056629695 -0.0043267086 -0.033830028 0.0032040202 -0.055971365 -0.00495746
-0.0063582435 0.02758676 -0.078414544 -0.04630855 0.006291595 0.06333968 -0.004311088 0.067087345
-0.0209211 -0.070704326 0.0888391 0.04157548 0.028056936 -0.035410568 -0.0445247 0.03679287
0.0495312 0.028779667 -0.0064111054 0.040787723 0.054978758 -0.0770381 -0.026518876 -0.0277668
0.0128709255 -0.07437905 -0.081716426 -0.049837828 0.04928812 -0.035288826 -0.042069893 0.0109886015
-0.019494835 0.031660557 -0.062422015 0.075272165 0.038023695 -0.08316659 0.03490142 0.04044745
-0.0730398 -0.048531737 0.08794847 -0.016880928 -0.009994596 -0.014849544 -0.020141855 0.08691573
0.011585939 0.06299446 0.015619157 0.03260209 0.021286815 0.08250839 0.026500953 -0.0063256444
-0.07249954 -0.0275089 0.057463586 0.011410929 -0.051431138 -0.05633085 0.041698683 0.084621355
0.060819663 0.041103117 0.07641723 -0.055334486 0.060200952 0.08175441 -0.05459191 -0.05083515
-0.009434273 0.0015466809 -0.051215146 -0.036639214 -0.06005255 0.009619406 0.05721379 0.0831511
-0.030404935 -0.036315065 -0.06215368 0.0632375 0.04585402 -0.027135456 0.079508945 0.049890887
0.06620206 0.049139988 -0.057743967 0.018262088 0.054056507 -0.06441386 0.0802364 0.0013656135
-0.018180948 0.06421148 -0.052467283 0.0609569 0.074974716 -0.01484173 0.010541263 0.056096952
0.006822477 0.069963075 -0.0440012 -0.06071087 0.057158295 0.06667045 0.0059986725 0.04558782
-0.08495246 -0.047122832 -0.0533927 0.021258205 -0.034949906 0.050420955 -0.07130355 -0.037009947
00000000: 2113 aebc 580a e73d e830 763c 7655 6a3d
00000010: 3576 893d fc23 40bd 8ada bf3c beb1 88bd
00000020: 867b 793d 5e67 1ebd 00b6 edb9 f6fe a13d
00000030: 2d5f 49bd 600e ae39 1b7d e7bc 88ff 7e3c
00000040: 05dd f33c 9f3c 3d3d 6018 84bd bc3a e7bc
00000050: bab9 133d 84f4 debc 33ff 773d a8b7 97bb
00000060: 5101 ae3d fae8 89bd 9276 58bd 0d21 1f3c
00000070: b000 5cbd 7e43 6dbd 675c d63c 1c27 70bd
00000080: 2d19 1fbd ab01 efbb b6d4 49bd d89e 813d
00000090: 5814 6fbd c729 a3bc c799 5c3d 3e80 8cbc
000000a0: b330 e23d 9111 823d 9133 c23a 069c 35bc
000000b0: 2a48 943c 2837 f7bc 4fc8 9dba a0d6 683c
000000c0: 78f4 313c 5108 46bb 0145 1e3d f166 013c
000000d0: 3206 2f3d dc5f db3d 15ad 9f3d 191c afbc
000000e0: 6f94 20bd 7883 253d e728 b5bc 1e6e 80bd
000000f0: 00c9 8cbd e059 c83c f955 d23c 5ffe c6bd
00000100: 5c27 a73d 0629 d6b8 a352 fa3c 06f9 343d
00000110: c158 8bbd f48c ebba 097f a73d 6cb0 083c
00000120: 1d68 13bd a5d7 ae3d 6667 033b c732 973d
00000130: 1427 fa3b 8204 873d 637b b5bc 9cca 5fbb
00000140: 6022 0ebd 4088 0dbc 4a03 a73d 102e 74bc
00000150: 94fb 8cbd de71 a03d 4f4e 2bbd d21d 843c
00000160: bc19 003d 1db8 3fbd 8d05 01bd 15ff 613d
00000170: c8b8 d7bc 8549 c53d 4a71 6cbd d3c2 36bd
00000180: 23e7 5ebc ef18 6b3d 7927 80bd ec3f 1f3d
00000190: 4685 203d e6c9 a93d e07f 213d 2441 52bd
000001a0: 83f7 ab3d 90e2 0cbc 7e16 86bd 12e9 3a3d
000001b0: 09bc 8abd d911 67bb 2a75 2e3d eac3 d73d
000001c0: eec8 1b3d 0001 573b 7672 7abd 1b5b 3a3d
000001d0: c480 b03d 1654 a13d 1dd5 a33d 1f79 103c
000001e0: 1e16 46bd 885e 233c a8b6 83bc e7f5 51bd
000001f0: 78bf c1bc 621e da39 803c 813d 37cc 883d
00000200: d7bf e03b c369 13bd 8af4 673d 10c7 8dbb
00000210: 5b91 0abd 8afa 513b 3b42 65bd 3072 a2bb
00000220: d058 d0bb a1fd e13c ce97 a0bd 09ae 3dbd
00000230: b929 ce3b 3cb8 813d 0744 8dbb 1765 893d
00000240: ba62 abbc 6ecd 90bd 46f1 b53d 0d4b 2a3d
00000250: a9d7 e53c ac0a 11bd 885f 36bd 1fb4 163d
00000260: 3ae1 4a3d 56c3 eb3c 4014 d2bb 0711 273d
00000270: 6831 613d 27c6 9dbd 1d3e d9bc 3377 e3bc
00000280: 93e0 523c 0b54 98bd f15a a7bd c022 4cbd
00000290: 57e2 493d 048b 10bd 7b51 2cbd 8909 343c
000002a0: a2b3 9fbc 80ae 013d 3aae 7fbd 4b28 9a3d
000002b0: bcbe 1b3d 3f53 aabd cbf4 0e3d 3aac 253d
000002c0: e495 95bd 37c9 46bd 541e b43d df49 8abc
000002d0: 60c0 23bc 804b 73bc 8800 a5bc e000 b23d
000002e0: f3d2 3d3c 3d03 813d 7ee7 7f3c c589 053d
000002f0: b061 ae3c 29fa a83d 8718 d93c 5a47 cfbb
00000300: a47a 94bd 585a e1bc f05e 6b3d e8f4 3a3c
00000310: 75a9 52bd 2dbb 66bd 3dcc 2a3d f64d ad3d
00000320: 0a1e 793d be5b 283d a380 9c3d 6aa6 62bd
00000330: 4695 763d db6e a73d c49b 5fbd 8538 50bd
00000340: 3592 1abc 00ba ca3a f9c6 51bd 0013 16bd
00000350: aaf9 75bd b79a 1d3c 0259 6a3d 204b aa3d
00000360: c513 f9bc 1bbf 14bd db94 7ebd aa82 813d
00000370: 6dd1 3b3d 2d4b debc 96d5 a23d 635a 4c3d
00000380: f294 873d 0347 493d f084 6cbd 609a 953c
00000390: 5b6a 5d3d 6aeb 83bd fb52 a43d 63fe b23a
000003a0: 36f0 94bc 4f81 833d efe7 56bd f1ad 793d
000003b0: 588c 993d ba2a 73bc 43b5 2c3c ebc5 653d
000003c0: 168f df3b cd48 8f3d 9a3a 34bd f6ab 78bd
000003d0: d11e 6a3d 848a 883d 8390 c43b 4bba 3a3d
000003e0: 8efb adbd df03 41bd 4eb2 5abd b025 ae3c
000003f0: a227 0fbd 3486 4e3d 9807 92bd be97 17bd

fc3.bias f4 [5]
-0.031412303 -0.02786759 0.0651466 -0.10717022 0.04748386
00000000: 30aa 00bd 924a e4bc 956b 853d 0f7c dbbd
00000010: 707e 423d
