Reinforce_version_2/state_dict_model.pt (torch, 84127 bytes, 6 tensors)

fc1.weight f4 [128, 25]
000000 37 9d f9 bd 7f 75 40 3e ae 3b 0d be 18 fc 1b 3e
       -0.121881895 0.18794821 -0.13792297 0.15232885
000010 20 47 47 be e6 02 36 3e 5e 17 c2 bd 02 4b bb 3d
       -0.19460726 0.17774543 -0.09477113 0.09145166
000020 31 47 f5 bd 78 5a bf 3d 35 18 24 bd 5a f1 59 3d
       -0.11976469 0.093434274 -0.040062148 0.053208686
000030 00 b9 3c be 95 50 e9 bd d0 ea df 3d 5f 19 cc bc
       -0.18429947 -0.11392323 0.10933459 -0.024914442
000040 59 3e 85 bd 7f 0e fd 3d 4b 93 7c 3d 11 a1 e8 3c
       -0.065060325 0.123562805 0.061663907 0.028397115
000050 06 42 69 3e c7 84 61 3e 52 ec f2 bd 9f 54 d6 3d
       0.22779092 0.22023307 -0.11861481 0.10465359
000060 82 42 3c bd 19 1d 15 3d bb 6f cd 3d 21 e4 6b bc
       -0.045961864 0.036404703 0.100310765 -0.014397652
000070 da 36 21 3e 83 78 46 3e c4 1b 23 3e 07 d4 82 bd
       0.1574358 0.19381909 0.1592856 -0.06388097
000080 c1 ba 25 be ac 5a 03 be 49 2c f4 3d 2c cc 15 be
       -0.16184522 -0.12827557 0.11922509 -0.14628667
000090 86 44 01 3e 70 64 71 3c 0e 49 73 bd b2 48 1a 3e
       0.12623796 0.014733419 -0.059395842 0.15066794
0000a0 30 98 21 3e 95 49 a7 3c f7 4f 89 bd e0 54 84 bd
       0.15780711 0.020420829 -0.06704705 -0.06461501
0000b0 27 5f aa 3b 61 38 e9 3d 0b 51 03 bc 43 6f 46 be
       0.0051993313 0.113877065 -0.008014928 -0.1937838
0000c0 df 27 b8 3d aa a6 01 3e 24 4c ff 3d 20 d4 89 3d
       0.0899198 0.12661234 0.124656945 0.06729913
0000d0 7f 89 58 3d f0 85 87 bb 2a 53 42 3d af ed 04 bc
       0.0528655 -0.0041358396 0.047442593 -0.008113309
0000e0 50 79 31 be a6 15 ef 3d f4 44 b5 3d c1 91 83 3d
       -0.17331433 0.11674051 0.088510424 0.06424285
0000f0 e3 13 14 bd b1 26 06 be aa 63 3c 3d ad 8a 96 3d
       -0.036151778 -0.13100697 0.045993485 0.07350669
000100 79 24 fd 3d 1a 0b 1e 3d f3 a7 39 bd af 2c 33 be
       0.12360472 0.038584806 -0.045326184 -0.17497514
000110 47 e5 37 be f2 5b 2b 3e ea 6b ab 3d 58 33 f7 3d
       -0.17958556 0.16734293 0.08370192 0.1207034
000120 c9 57 f1 3d 86 a7 ad 3d eb 72 3f 3d b0 1f a3 bd
       0.11784322 0.08479218 0.046740454 -0.07965028
000130 77 8c cc bd 77 0f bf 3c 42 8d 23 bc a9 1c ed 3d
       -0.09987729 0.023322804 -0.009982409 0.11577732
000140 42 70 0d 3e 13 8a c8 3d de 69 58 bd ff c1 c0 3d
       0.13812354 0.097919606 -0.052835338 0.09412002
000150 02 cb 22 3e f0 fc 48 3e cd 27 22 be 20 44 2f 3c
       0.15897754 0.19627738 -0.15835495 0.010697395
000160 b3 c4 89 bd a9 f9 35 be 40 9f 35 3e 6a e9 7b bc
       -0.067269705 -0.17771019 0.1773653 -0.0153754745
000170 77 a8 82 3d a3 4b 4d be b3 4a 26 be f9 75 28 3d
       0.06379788 -0.20048384 -0.16239433 0.041128132
000180 b9 b7 2b be b9 ea 19 3b e3 7e b9 bd 33 5b 3f 3b
       -0.16769303 0.0023485853 -0.09057405 0.0029198646
000190 a8 c7 33 3e dc b6 b7 3c 96 91 95 bd 65 69 29 3e
       0.17556632 0.022426061 -0.07303159 0.16544111
0001a0 55 4f 39 3e f8 35 33 3c 98 8e 1f 3e 35 eb b2 bd
       0.18096669 0.01093816 0.15581739 -0.087362684
0001b0 ad ab 65 be 82 01 41 3e 40 d9 09 3e 20 b0 0c 3e
       -0.2242877 0.18848231 0.1346178 0.13739061
0001c0 5c 38 eb bd 64 de 03 be ee 75 f5 ba 60 57 b7 3c
       -0.11485359 -0.12877804 -0.0018727162 0.02238053
0001d0 2a 1c a4 3d 25 0c c1 bd 2b ff 02 3d 6b 62 3c be
       0.08013184 -0.094261445 0.03198163 -0.18396918
0001e0 3a f2 92 bd fa a1 72 bc 1a 2e 4b be 87 10 54 3d
       -0.07175107 -0.014809126 -0.19841805 0.051773574
0001f0 8d d8 4a be 04 d8 35 bd 2f 0e 00 3e 04 7c fd bd
       -0.1980917 -0.04439546 0.1250541 -0.1237717
000200 04 cb 02 be 21 52 90 bd fb cd fc 3d 08 e3 08 3e
       -0.12772757 -0.07046915 0.12343975 0.13367856
000210 a6 d6 57 bd fe d3 56 3e 3c 28 4c 3e 67 fa 28 be
       -0.05269494 0.20979306 0.19937223 -0.16501771
000220 57 ac e8 3d 9b 77 06 3e 48 bc 92 3d d8 98 00 bc
       0.11360996 0.13131563 0.07164818 -0.007848941
000230 95 ca ee bb 8c 10 ca bd 2c fe a7 3d 88 56 4c 3e
       -0.0072873333 -0.09866437 0.08202776 0.19954884
000240 36 bd 3c 3e 50 db f9 3d 8f a7 f7 bd 77 75 c6 bd
       0.18431553 0.12200034 -0.12092506 -0.096903734
000250 ca b3 1c be 25 2c 33 be e4 dc 4c 3e 7a e8 dc 3d
       -0.15302959 -0.17497309 0.20006138 0.10786529
000260 57 6f 9b bd d5 71 7a bd 23 a2 8c bd 63 8f ff 3d
       -0.07589596 -0.061143715 -0.068668626 0.12478521
000270 34 ab ca 3c 48 21 14 3e cc a4 8a 3d b5 7d 0e 3d
       0.02473984 0.14465821 0.06769714 0.034787852
000280 f1 29 a7 3d 4f 25 2c 3e 13 ec 6b 3d e2 92 e8 bd
       0.081622966 0.16811107 0.057598185 -0.11356141
000290 99 a7 cc 3d 33 b9 d9 bd c1 83 2c 3e 3e ac 4f 3e
       0.09992904 -0.10631027 0.16847135 0.20280549
0002a0 e4 31 08 3e 79 2d 5c bd 0d b3 35 3d 39 8e 68 3e
       0.13300282 -0.053754304 0.04436021 0.22710504
0002b0 b5 43 34 3e 39 84 ca 3d 16 e4 06 3d a0 7e 4a 3d
       0.17603953 0.09888501 0.032932363 0.049437165
0002c0 67 cb 1f 3e 7d 0e ad bd a0 c5 43 be 60 b6 b3 bb
       0.15604936 -0.08450029 -0.19118357 -0.0054843873
0002d0 5e 54 2c be 72 03 f0 3d 50 2b 3e bc 80 b6 f4 3a
       -0.16829059 0.11719407 -0.011607006 0.0018670112
0002e0 60 07 ce bd 88 0b 24 be ac 55 8a bd 58 bb c9 3c
       -0.100600004 -0.16020024 -0.06754622 0.024625465
0002f0 c5 d4 23 be a1 01 00 3e ca ee 86 3d fa 48 95 3d
       -0.15999134 0.12500621 0.06588514 0.0728931
000300 84 ba 8a bd e8 28 2d be a8 66 03 be ea 0f 2f be
       -0.06773856 -0.16910136 -0.12832129 -0.17095914
000310 1d 81 47 be 73 cc 3e be ca fa c1 bd 0c 30 7d bd
       -0.19482847 -0.18632679 -0.09471662 -0.0618134
000320 88 b2 d9 3c fd e2 43 3b e7 8d bb bd 9d 48 b6 3d
       0.026574388 0.0029889934 -0.09157925 0.08900569
000330 c5 f3 1e 3e 85 2b 94 bd 2d 86 b9 3d 4d b7 fb 3d
       0.15522678 -0.07234863 0.09058795 0.12290821
000340 69 06 47 3e 2f 87 3d 3e bc 2f bd bd fe 98 41 be
       0.19436039 0.185086 -0.0923762 -0.18906018
000350 46 8d 21 3d 0e b6 ed bd 7f 50 9f 3d 83 99 87 bd
       0.03944137 -0.1160699 0.07779025 -0.06621077
000360 6c f4 4f 3d 66 7e 82 bd 65 f5 08 be b1 ea 10 be
       0.05077021 -0.06371765 -0.1337486 -0.14152028
000370 96 57 04 3e 7d 71 29 be 70 02 af 3d 52 69 3b 3e
       0.12924036 -0.16547199 0.08545387 0.18301895
000380 d7 a9 b6 bd 06 7e 2a be e0 49 26 be ec 9b 78 bd
       -0.08919113 -0.16649637 -0.16239119 -0.060695574
000390 e9 04 19 3e 4c 80 4b 3d 9e 5f aa 3d a2 e9 80 3d
       0.1494328 0.0496829 0.08319019 0.06294562
0003a0 d3 d2 20 3e c3 3d 12 3e d0 75 a3 bc 60 41 04 be
       0.15705423 0.14281373 -0.019953638 -0.12915564
0003b0 90 f3 fd bd d2 c9 f7 3d 62 71 d1 3d 46 69 d5 3d
       -0.123999715 0.12099041 0.10226704 0.1042047
0003c0 22 bd 4a be 45 d6 27 3e 2a a4 92 3d 20 0b 0b 3d
       -0.19798711 0.16390331 0.07160218 0.033946157
0003d0 6d 93 f4 bd 01 00 2d 3e 08 f0 28 be 13 d9 23 be
       -0.11942182 0.16894533 -0.16497815 -0.16000776
0003e0 62 ad b0 3d eb 1b 21 3e 9f 51 e0 3c 5a dd 16 3e
       0.0862682 0.15733306 0.02738267 0.14732876
0003f0 07 c2 0d 3e de c3 a2 3d 47 30 1c 3e bd c0 1e 3e
       0.13843547 0.07947515 0.15252791 0.15503211

fc1.bias f4 [128]
000000 80 07 4e 3e 25 72 24 bd 1d 65 a7 bd 77 41 71 3d
       0.20120049 -0.04014792 -0.08173583 0.058900323
000010 08 6a 42 3e 81 78 01 be cf c4 81 bd d0 8c 6a 3c
       0.1898576 -0.12643625 -0.063363664 0.014315799
000020 8b b7 79 bd e0 bd 98 bd f3 4a 1c 3e 92 a0 68 3d
       -0.060966056 -0.07458091 0.15262966 0.056793757
000030 20 ee 3a 3e 9c 4e 2c be ce 47 bb 3d 37 c8 3d 3e
       0.182549 -0.16826862 0.09144555 0.18533407
000040 6a 40 6f bd ea ee 3f 3e 11 a2 6a bd 10 ac 23 be
       -0.05841104 0.18743482 -0.057283465 -0.15983605
000050 53 1b 97 3d 74 c2 f9 3d 3a af 04 be 45 80 1a 3e
       0.073782586 0.12195292 -0.12957469 0.15087993
000060 29 ab 44 3e cc 4c de 3d 63 e0 6c 3e 8c 18 78 3d
       0.19205917 0.108544916 0.23132472 0.060570285
000070 69 d6 21 3e 40 29 2f bd 49 9e 2a 3d 6c 84 bb 3d
       0.15804447 -0.04276395 0.04165486 0.09156117
000080 87 d9 f6 3b 3b 5a 21 bd 60 90 e2 bd 2b be 51 be
       0.0075332555 -0.03939269 -0.110626936 -0.204827
000090 69 ed 31 bd 0c b0 d4 3c c1 31 a3 bc 1b 11 fa bd
       -0.043439303 0.025962852 -0.019921185 -0.12210294
0000a0 36 81 02 3d 59 38 17 be 07 e1 1f be be a4 aa bd
       0.031861506 -0.14767589 -0.15613185 -0.08332203
0000b0 c8 03 fe bc 4e ac 4b 3e da 9e 91 bd 80 47 39 3c
       -0.031007662 0.19889948 -0.07110377 0.011308551
0000c0 f0 a5 2c 3e 41 23 78 3d 42 b0 c2 3d 94 1c e0 3d
       0.16860175 0.060580496 0.09506275 0.10942951
0000d0 44 d8 85 bd ec 50 f7 bd fb ff 1e bd 78 c6 eb 3d
       -0.0653539 -0.120759815 -0.03881834 0.11512464
0000e0 95 0d 20 3e a8 7c 94 3c dd ab 1c 3e f0 b3 17 3e
       0.15630181 0.018125847 0.15299936 0.14814734
0000f0 6b 1a 2a 3e e0 95 26 3d 4d bb 3c be f2 22 e8 bc
       0.1661164 0.040670276 -0.18430825 -0.028336976
000100 7a 81 e0 3d ca 3c 95 bd 12 84 ac 3d 13 3f e3 bd
       0.10962196 -0.07286985 0.08423628 -0.11096015
000110 39 59 7d 3e fd 55 43 be 20 00 0a 3e 99 12 76 3e
       0.24741067 -0.1907577 0.1347661 0.24030532
000120 94 71 e1 3d cf ae 02 be 58 3c 17 be 13 eb 9f bc
       0.110079914 -0.12761997 -0.14769113 -0.019521272
000130 02 fc d2 3d 3a 60 2c be 8c 19 48 bc 55 77 a2 3d
       0.10301973 -0.16833583 -0.012213122 0.07932917
000140 ef dc a5 3d 4a d8 31 3e fb 24 ee bd 5f 7d bd 3d
       0.0809878 0.17367664 -0.11628147 0.09252428
000150 d8 c8 e0 bd 0c 5f 24 bd c3 d2 c6 bd 66 38 bf bd
       -0.10975808 -0.040129706 -0.09708168 -0.09336929
000160 0c f5 5e 3e bf d5 49 3e 7e 5e 4a be 97 83 ae bd
       0.21773165 0.19710444 -0.19762608 -0.085211925
000170 ec 1b 06 3e 7b fb 2d 3e 4f 45 c7 bc b2 03 bb 3a
       0.13096589 0.16990463 -0.024325041 0.0014268069
000180 68 4f 54 3e 5b 59 30 be ba 7b 0d 3d 4a 7a 35 3d
       0.20733416 -0.17221586 0.034541823 0.044306077
000190 ed 6f b6 3d ce 5b de 3c 12 a3 26 be 7d 34 dc bd
       0.08908067 0.027143385 -0.16273144 -0.10752199
0001a0 44 4f 35 3d 2c da a8 bd e9 38 13 be 00 c3 c6 bd
       0.044265047 -0.08244738 -0.14377178 -0.09705162
0001b0 10 8a 48 3e 02 e7 26 bd 56 7a ba bd c8 0c 1b be
       0.19583917 -0.04074765 -0.09105365 -0.15141594
0001c0 7a 74 da 3d 5a dd 17 bc 5b 41 26 bd 7d 82 1f be
       0.106667474 -0.009269083 -0.04058967 -0.15577121
0001d0 df 5b f4 3a 77 75 25 3e bd 2a 49 be 4d ca 66 3e
       0.0018643102 0.1615809 -0.1964521 0.22538109
0001e0 b1 7a 0f 3e 0b b7 85 3d 2f 2b 64 bd cc 2f 61 bc
       0.14011647 0.06529053 -0.055705246 -0.013744306
0001f0 c6 98 3a bc 68 c8 a4 bc d9 db 75 bd 2f 1e e9 3c
       -0.011388963 -0.020115092 -0.060024116 0.028456775

fc2.weight f4 [128, 128]
000000 48 16 57 bc 45 8e 92 3d ae a3 7b bd 90 70 a5 3c
       -0.013127871 0.07156042 -0.061435394 0.020195276
000010 fb ce 89 3d c4 1d d2 bc 6f 3c 31 bd 9f 22 92 3d
       0.067289315 -0.025648959 -0.043270525 0.0713551
000020 e4 d6 e0 3c f6 e0 85 bd 8c 2f 8f 3c 26 8b df bc
       0.027446218 -0.065370485 0.017478727 -0.02728803
000030 bc 3d 66 bd e6 e9 a6 bd 78 b1 d1 bc 62 dd ae bd
       -0.05621122 -0.08150081 -0.025597319 -0.08538319
000040 25 b1 a1 3d 00 62 59 39 26 31 6b 3d 66 09 3e bd
       0.07895116 0.0002073124 0.05741992 -0.04639568
000050 a3 d5 ac 3d 58 ff 11 bd 80 09 cf bc b8 71 fb bc
       0.084391855 -0.035643905 -0.025273085 -0.030693874
000060 c8 f4 a9 bd a2 ec ec bc e5 94 88 bd 08 c3 4c 3c
       -0.082986414 -0.028921429 -0.066690244 0.012497671
000070 e8 ba 46 bc 27 ac 1b bd 7d 5a 0d bd c0 d9 b6 bb
       -0.012129523 -0.038005974 -0.034510124 -0.005580157
000080 5a 02 2b 3d 5b 2c 96 3d 74 11 e3 3c 78 4b 4a bc
       0.04175029 0.07332679 0.027718283 -0.012347095
000090 83 0f 8b bd 0a e9 e7 bc b2 6f 59 3d eb 57 08 bd
       -0.06790068 -0.028309364 0.053085037 -0.03328697
0000a0 a2 de 33 3d 44 e7 46 bd 70 9c 02 3d 3e 19 71 bd
       0.04391349 -0.048560396 0.03188747 -0.058861963
0000b0 1a a6 0b 3d 16 5b a5 bd 05 09 9d bd 76 1e 77 3d
       0.034093954 -0.08074014 -0.07667736 0.060331784
0000c0 a3 c9 9f 3d a8 a8 0f bc 92 70 67 3d 30 82 db bb
       0.07802131 -0.008768238 0.05650384 -0.006698869
0000d0 26 31 48 3d fd 0f af 3d 93 b8 91 3d f6 e0 73 3d
       0.048874997 0.085479714 0.07115283 0.05954071
0000e0 00 3d 76 3a b8 d4 5f bc 4e 39 3c bd 7a 5c b4 bd
       0.0009393245 -0.013661556 -0.045953088 -0.08806701
0000f0 58 60 15 bd 66 73 4f bd 3d 41 9b bd 6c 90 9e 3c
       -0.036468834 -0.050647162 -0.075808026 0.019355975
000100 03 11 9b bd 1e 91 a5 bd dc 9e c8 3c 70 d9 02 3d
       -0.07571604 -0.080843195 0.024489813 0.031945646
000110 4c 63 8b bc 80 3c 56 bb 6b 9f a1 3d 92 40 7c 3d
       -0.017015122 -0.003268987 0.07891735 0.061585017
000120 bf f3 60 bd 6a d4 6d 3d 23 fb 9b 3d 99 ef 9c bd
       -0.054919954 0.058063902 0.0761626 -0.07662887
000130 63 82 63 bd c2 ae 66 3d 84 29 77 bd 22 be 41 3d
       -0.05554427 0.056319006 -0.060342327 0.047300465
000140 7a 9a ab bd 7a d5 56 3d c6 3e 0a 3d da 62 8e bd
       -0.083790734 0.05244968 0.03375127 -0.06952448
000150 7b 67 a0 bd 4a 64 72 bd c2 3c 3c 3d dc a3 81 bc
       -0.07832237 -0.059177674 0.04595638 -0.015825205
000160 00 97 9c b9 b2 70 6b bd aa 96 ac bd 51 03 67 bd
       -0.00029867142 -0.05748052 -0.084271744 -0.056399647
000170 03 59 8e 3d de fe 24 bd f2 37 ed bc ff 69 25 bd
       0.069505714 -0.040282123 -0.02895734 -0.04038429
000180 e0 c0 46 bb 5c f5 9c bd 17 e8 97 3d 64 9c 46 bd
       -0.0030327365 -0.07663986 0.074173145 -0.04848899
000190 b1 62 3c bd 8d 92 ad bd ac bf 97 3c 70 08 f1 bc
       -0.045992557 -0.08475218 0.018524013 -0.029422969
0001a0 0f 7a 5e bd 04 f3 94 bd ae 46 56 bd e3 76 a1 3d
       -0.054315623 -0.07272914 -0.0523135 0.07884004
0001b0 00 58 f5 3a 92 9b 50 3d 08 aa c8 3c 5d b7 96 3d
       0.0018718243 0.050929613 0.02449514 0.073591925
0001c0 0c e7 02 3d 73 94 4e bd e5 1d 95 bd 3a e6 97 bd
       0.031958625 -0.05043454 -0.072810926 -0.07416959
0001d0 c6 cd 73 3d 24 df 98 bd c3 ef ad 3d b2 a8 92 bd
       0.059522413 -0.07464436 0.084929965 -0.07161082
0001e0 93 e0 19 bd f0 8c ec 3c 55 a1 aa bd 2c 53 ce 3c
       -0.037567686 0.028875798 -0.08331553 0.025186144
0001f0 21 43 9c 3d 90 75 c5 bb ea cc 2a 3d be ab 98 bd
       0.07629991 -0.0060259774 0.041699328 -0.07454632
000200 e4 a0 19 bd 33 b2 a7 3c 2b 5c e3 bc dc b2 47 bc
       -0.037506953 0.020470714 -0.02775391 -0.0121886395
000210 9a 37 44 3d 16 45 eb 3c 82 6a c9 3d 28 09 c9 3c
       0.04790459 0.028719466 0.09834768 0.024540499
000220 78 f2 9e 3d 11 97 b1 bd e3 15 65 3d ea c6 8d 3d
       0.07761091 -0.08671392 0.055929076 0.069227055
000230 64 be cf 3d ec 72 89 bc 53 b4 40 bd c0 3c 54 3d
       0.10143736 -0.016778432 -0.04704697 0.05181575
000240 31 f4 14 3d 6c 66 c8 3d b3 bb 85 b9 d5 fc 3a bd
       0.03636569 0.097851604 -0.00025507584 -0.045651276
000250 08 04 44 bc 5e 58 cd 3d c0 7b 02 3d d9 2c 72 3d
       -0.011963852 0.1002662 0.0318563 0.0591248
000260 1b 1d 44 3d 6d 44 ce 3c 4f 1f 65 bb 26 83 41 3d
       0.04787932 0.025179112 -0.0034961288 0.047244214
000270 6a 97 30 3d 35 db c6 3c 0b 95 b3 3d 90 11 9e 3c
       0.04311315 0.024274448 0.08768662 0.019295484
000280 df 0d 2b bc da 63 6d 3d 00 fc 9e bb b0 44 2f 3c
       -0.010440319 0.057956554 -0.004851818 0.010697529
000290 e5 a6 2b 3c 16 59 d3 3d 52 bc 5a bc 7b 6a 94 bd
       0.0104768025 0.10319726 -0.013350563 -0.07246872
0002a0 0f f5 83 3c d4 b6 d1 bb 96 3b 7f bd eb 0b 61 3a
       0.016108064 -0.0063999686 -0.062312685 0.0008584845
0002b0 e2 0f 1d bd 21 f8 7c bd d5 e3 11 3d 62 78 2b bd
       -0.038345225 -0.06176007 0.03561767 -0.041862853
0002c0 e5 cb b0 3d d4 95 ca 3d de 69 48 3d 8c c1 cc 3b
       0.0863264 0.09891859 0.048929088 0.0062486585
0002d0 6d 59 ab 3d 8d 3e e8 3b 55 ac fc bc f6 9a 7d 3d
       0.08366666 0.0070875348 -0.030843893 0.06191536
0002e0 5c 63 0b 3d b2 f1 5b 3d 1d 8c 93 3d e9 71 5e 3c
       0.034030303 0.053697295 0.07204459 0.013576963
0002f0 81 81 7f 3d c6 aa 0a bc 85 c0 0b 3d d5 a9 90 3d
       0.062379364 -0.008463567 0.034119148 0.07063643
000300 8b 15 75 3d 46 bf 96 bd fe 1b 03 bd c8 70 3b bc
       0.059834998 -0.07360701 -0.032009117 -0.011440463
000310 14 f7 cf 3d 1e aa 55 3d 91 fa b1 3d fd 83 78 3d
       0.10154548 0.05216419 0.0869037 0.06067275
000320 86 58 0a 3c ba 57 84 3c 52 4d 0c 3d c6 25 89 3c
       0.008443957 0.016155113 0.034253426 0.016741645
000330 b9 1c 20 3d 05 4c ae 3d 93 25 66 3d f9 f4 43 bd
       0.039089892 0.08510593 0.056188177 -0.047841046
000340 38 6b a5 3d f8 cd 1e bd 5e e1 14 bd 28 2d 84 bd
       0.08077091 -0.038770646 -0.03634774 -0.06453925
000350 76 70 8a 3b f6 b5 9b bd c3 8b 08 bd 27 ef 0f bd
       0.004224832 -0.07603066 -0.033336412 -0.035140183
000360 ad e4 f9 bc 7c 08 2b 3d 06 e0 e3 bc 74 2a 80 3d
       -0.030504549 0.04175614 -0.027816784 0.06258097
000370 21 73 0b bc 30 2a d3 3d fc c1 bf 3d 68 8f 9f 3b
       -0.008511336 0.10310781 0.093631715 0.0048693903
000380 35 08 96 3d bf cf 0b bd 4f dd 9d bb d9 1d 64 3c
       0.07325784 -0.03413367 -0.004817642 0.013923132
000390 78 9f 83 bd cc 61 8e 3d a0 dc c8 3b ef 8f 98 3d
       -0.064269006 0.06952247 0.006129816 0.07449328
0003a0 9a 9f 87 3c c6 e4 b9 3c 31 f1 0a 3d 41 16 ac 3d
       0.016555596 0.022692095 0.033921424 0.08402682
0003b0 20 64 9e 3d 19 2f 82 3d 9c fd 08 bd 45 08 9a 3d
       0.07733941 0.063566394 -0.033444986 0.075211085
0003c0 d0 39 09 bc 64 d9 61 3d a5 86 98 3d 80 4b 9d ba
       -0.0083756 0.05513896 0.074475564 -0.001200065
0003d0 3c 9a c1 bd fc 02 bc bc fa 79 2d 3d d7 92 c0 3d
       -0.09453246 -0.022950642 0.042352654 0.094030075
0003e0 67 db 61 bc 7a 7a 7d bd e9 49 7f 3d 72 b6 2b bc
       -0.01378522 -0.06188438 0.062326346 -0.01048051
0003f0 99 59 96 bd be c5 fd bc 30 5e 3a bd 94 06 60 bc
       -0.07341308 -0.03097808 -0.04549998 -0.013673443

fc2.bias f4 [128]
000000 38 0c a0 3c 86 d5 06 bd 87 68 b1 bd 36 ab af 3d
       0.019537076 -0.032918476 -0.08662515 0.08577578
000010 7d 0a a7 3d 3d af f6 3a f9 3c ae 3d 44 d8 25 bd
       0.08156297 0.0018820536 0.08507723 -0.04048945
000020 8b 87 ea 3c 5e d6 69 3d 2d e2 ef 3c 7e 25 b0 bc
       0.028629085 0.057089202 0.029282654 -0.021502253
000030 c0 93 4a bc 0c 42 fc bc ec 97 87 bd 12 98 46 bd
       -0.012364328 -0.030793212 -0.06620774 -0.04848487
000040 32 e8 8d 3d c8 45 74 3d 3f e2 47 bd 48 ca 56 bd
       0.06929053 0.05963686 -0.04879975 -0.052439004
000050 a3 7b 10 3d 68 91 04 3e b1 4a 20 3d ac 39 c6 3c
       0.03527416 0.12946093 0.03913373 0.024197422
000060 12 64 f3 3c 61 09 6e bc ab 78 8e bb a8 56 21 3c
       0.029710803 -0.014528603 -0.004347881 0.009847321
000070 77 1d 46 bd 20 41 f3 bb a4 f1 84 bd 48 7b 3b bc
       -0.048367944 -0.007423535 -0.06491402 -0.011442967
000080 0a 8c 3a 3d b9 b3 b1 3d d0 af e1 bc e0 f8 36 bd
       0.045543708 0.086768575 -0.027549654 -0.04467094
000090 dc 6a 5b bd f3 73 09 3d 59 ae b6 bb a1 38 d7 bb
       -0.053568706 0.033557843 -0.005574983 -0.00656803
0000a0 94 74 84 3d ef 8f 8b 3d de 55 86 3d fc 61 44 bd
       0.06467548 0.068145625 0.065593466 -0.047945008
0000b0 c8 8a f9 3c d2 89 90 3c bd 67 0c bd d2 2f 6b 3c
       0.030461684 0.017643843 -0.03427862 0.014354663
0000c0 1c 64 8b 3d 38 0a 9b 3c c4 d3 61 3d ce 7d 7b bd
       0.06806204 0.018925771 0.055133596 -0.061399274
0000d0 86 f4 85 3c 5f 49 c7 bd a5 f5 0b bd d0 4b 50 3d
       0.01635195 -0.09730791 -0.03416981 0.05085355
0000e0 fd ea 73 bd d1 d6 98 3d 8a 24 94 3c 22 c5 a7 bd
       -0.059550274 0.07462848 0.01808383 -0.08191897
0000f0 27 e8 10 3c 17 3e 91 bc 15 c3 29 3d f3 88 0c bc
       0.008844412 -0.017729802 0.04144581 -0.008577573
000100 4c e5 9d bd df fc 5a 3d 1f 2d 97 3c f7 24 7b bd
       -0.077097505 0.053463813 0.018454133 -0.06131455
000110 60 b4 07 bd cc b3 9e 3d 5c d2 b3 bd 16 84 b5 bd
       -0.033131003 0.07749137 -0.08780357 -0.08863084
000120 90 98 ab 3c a1 d9 bc 3b 21 a7 f2 bc fa 02 6d bd
       0.02094677 0.005763248 -0.029620709 -0.057864167
000130 ea 51 f7 3d 89 d5 a3 bd 01 6e 98 3d d8 72 e0 3d
       0.12076171 -0.07999713 0.074428566 0.10959405
000140 93 2d 37 bd 4b 8d 1a 3c 78 87 4a bc a9 a1 e8 3d
       -0.044721197 0.009433101 -0.0123614 0.11358959
000150 5a 9f 67 3d 81 dd 89 bd 14 d1 ba bc 1d 58 11 bd
       0.056548454 -0.06731702 -0.022804774 -0.035484422
000160 d9 61 98 bd dc ec 9a 3b 67 0d 01 bd 28 80 25 bc
       -0.07440538 0.004727943 -0.031506922 -0.010101356
000170 1d 9c 28 3c 90 f9 4d 3c f0 65 96 bb e3 a2 95 bd
       0.010291127 0.012571707 -0.0045897886 -0.07306459
000180 34 06 46 3d 70 5a cb bb a2 06 c5 3d 82 30 42 3d
       0.04834576 -0.0062058493 0.09620406 0.047409542
000190 eb 9e bb bc d0 07 1b bb a7 79 67 3d 22 1e 0c 3c
       -0.022902926 -0.002365578 0.0565125 0.008552106
0001a0 71 f1 a6 3d f0 74 5d 3c 63 27 8e bd ec 5d df 3d
       0.0815152 0.01351665 -0.06941106 0.10906586
0001b0 32 89 bd bd f8 1c f0 bb b8 79 60 3c e8 4c 80 3c
       -0.092546836 -0.007327672 0.013700895 0.015661672
0001c0 36 e6 84 3d 43 12 94 3d 4a 27 13 bc b9 6b f9 3d
       0.06489222 0.07230046 -0.008981535 0.121787496
0001d0 e1 44 72 3d 94 e7 37 3d e0 30 6e bc ac 7f 82 3d
       0.05914772 0.044898584 -0.01453802 0.06372008
0001e0 ce fe af bd c5 12 0d 3d 65 6f 00 3d 05 dd 45 bd
       -0.08593522 0.03444173 0.031356234 -0.048306484
0001f0 67 19 58 bd 9b 64 dc bc 40 09 b6 bd 82 49 a0 bb
       -0.0527586 -0.026903441 -0.08888483 -0.0048915753

fc3.weight f4 [5, 128]
000000 40 a0 c2 ba c9 5d dd 39 76 32 d0 bc e2 60 79 3d
       -0.0014848784 0.0004222228 -0.025414687 0.06088341
000010 8d 39 a5 bd d1 8a 4e 3d 63 7a bd 3c ee 26 84 3c
       -0.080676176 0.050425354 0.023129648 0.016131844
000020 1a 31 51 bd b8 a5 ae bc 35 32 9a bc f3 11 a2 3d
       -0.051072218 -0.021319255 -0.018822769 0.0791358
000030 99 46 8f 3d d6 08 63 3d 5b 44 6a 3d 90 ad 84 3c
       0.06995887 0.05542835 0.057194095 0.016196042
000040 f3 0a 93 bd dd e0 59 3d 15 62 6d 3d 4d 47 36 3d
       -0.07179823 0.053192962 0.057954866 0.04450159
000050 98 7a a9 bd 14 2a 83 3d d9 f4 df bc 95 76 b1 3d
       -0.08275336 0.0640451 -0.027338432 0.08665196
000060 86 29 92 3d 9d a3 ec bc 4c f3 e9 3b bf 07 59 3d
       0.07136826 -0.02888661 0.007139599 0.052985903
000070 0c e0 d6 3c cc 6a 58 bd 58 c6 1e 3c a8 c6 67 3c
       0.02622988 -0.052836224 0.0096908435 0.014146484
000080 b6 88 4b bd 5c 14 b7 3c 00 bd 3c 3b ad d0 86 bd
       -0.049690925 0.022348575 0.0028799176 -0.065827705
000090 05 36 a0 bd d4 72 89 bc 37 41 bd bc bf c0 d6 bd
       -0.078228034 -0.016778387 -0.023102386 -0.10485982
0000a0 b0 36 40 3d 45 60 46 bd a0 36 2e 3d 82 1e 7d 3d
       0.046927154 -0.048431654 0.042532563 0.061796673
0000b0 a8 47 2c bc 0d 1a bf bc f0 7a 3c bc ec 3e de bc
       -0.010515131 -0.023327852 -0.01150392 -0.027129613
0000c0 fc 01 80 3b b8 da 5a 3c 8a c8 95 bd 07 2c 31 bd
       0.0039064866 0.013357811 -0.073136404 -0.04325488
0000d0 40 e8 8b 3d 7f c5 41 bb 44 70 a3 bc bf 8d 42 3d
       0.068314075 -0.002956718 -0.019950993 0.04749846
0000e0 bc 39 8a 3b 2d 00 c4 bd a0 e6 80 bd 5e 79 23 3c
       0.0042183083 -0.09570346 -0.06293988 0.009977667
0000f0 63 df 51 bd e6 d2 5c 3d 7f 7f d7 bd 27 ab 5b bd
       -0.05123843 0.053912066 -0.10522365 -0.05363002
000100 60 cf 22 3d 28 f3 7d bd 2e 83 c1 bc c0 48 29 bd
       0.03974855 -0.06199947 -0.023622122 -0.041329145
000110 c9 93 46 bd 9c cd 7a bc e3 ee 68 bd 8b f9 a1 bd
       -0.048480783 -0.01530781 -0.056868445 -0.07908925
000120 3f 2e 99 bd 09 b3 10 3d 83 0a e9 3c b4 48 da 3c
       -0.07479524 0.03532699 0.028447395 0.026645996
000130 f0 0f 43 bc 90 b2 86 bb 2f f7 92 bc a7 0e 40 bd
       -0.011905655 -0.004110642 -0.017940132 -0.046888974
000140 16 57 4e bd 2b db 99 3c a2 f7 5f 3d 06 d2 84 3c
       -0.05037602 0.018781265 0.05467952 0.016213428
000150 ee 0e 7d 3d a4 19 89 bd a3 20 81 3d 88 67 6e 3c
       0.061781816 -0.06694344 0.06305053 0.014551051
000160 ee c5 85 bd ae 53 cb bc 9c 2b c4 3c 20 f6 d7 bb
       -0.06531893 -0.024820175 0.023946576 -0.0065906197
000170 a6 cc 93 bd 98 be 81 bd f0 cd be bc 3c 4b 22 bc
       -0.07216768 -0.06335181 -0.023291558 -0.009905633
000180 07 bd 27 bd 96 7b 17 3d 58 13 8f bc 9f d7 23 bd
       -0.040951755 0.036983095 -0.017465279 -0.040000554
000190 2d bd 95 bc d0 59 31 bd 5f 7b 42 bb f4 b1 11 3d
       -0.018278683 -0.043298542 -0.0029675586 0.0355701
0001a0 20 2c 68 bd 92 38 1e bd 0e 34 a8 3d 1a 43 8b 3d
       -0.056682706 -0.03862817 0.08213054 0.06799908
0001b0 5c b5 b0 bd 66 30 99 3d 4e 1e 76 bd d6 19 98 3d
       -0.086283416 0.074799344 -0.060087495 0.07426803
0001c0 2f 6d 94 bc cc 9e 47 3d 42 b6 1a bd de 5c 6c 3d
       -0.018118469 0.048735425 -0.03777147 0.057705753
0001d0 9b 94 5a 3d 39 25 89 bd 2e b5 4f bd ed 8a 3e bd
       0.053364377 -0.06696553 -0.050709896 -0.04651921
0001e0 7e ed 77 bc ed 3e aa 3b 1f 87 26 3d 89 10 a4 bb
       -0.015132306 0.0051954896 0.040656205 -0.005006854
0001f0 e1 83 86 3d e0 45 67 3d d9 1f f6 3c ae a7 9c bd
       0.06568123 0.056463122 0.030044483 -0.0764917
000200 d1 92 81 bd f9 0b 38 3c f5 62 9f bd af 4f 33 bd
       -0.06326831 0.011233323 -0.077825464 -0.043777164
000210 f6 d2 9a bd bc fc 82 3c 0c 0e 3a 3d 4e 5b 37 bc
       -0.07559769 0.015989654 0.045423552 -0.011191202
000220 20 e9 a4 3d 20 85 ec 3c 7b d1 b1 3d 70 b5 35 bd
       0.080522776 0.028872073 0.08682533 -0.044362485
000230 40 63 fc 3a 91 f7 8b 3d a2 86 b9 bd 3d e4 a9 3d
       0.0019255653 0.06834329 -0.09058882 0.08295486
000240 c5 5d 85 bc 58 45 d2 bb 6c d3 07 bd ca 90 97 bc
       -0.016280064 -0.006416958 -0.033160612 -0.018501658
000250 95 92 70 bd 36 db 03 bd cc da a4 3c 22 a3 8e bd
       -0.05873354 -0.032191478 0.020123862 -0.06964709
000260 68 f0 21 bc 65 73 09 3d aa 31 8a 3d 25 34 ff 3b
       -0.0098839775 0.033557314 0.06747754 0.0077881985
000270 ea 1d 88 bd e0 46 f5 3b 12 7b 50 3d f8 79 35 bc
       -0.06646331 0.0074852556 0.05089862 -0.011076443
000280 ad 87 85 3d 00 f3 69 bb 80 03 3b 3a 06 d4 a4 bd
       0.06520019 -0.0035697818 0.00071340054 -0.08048253
000290 af c6 88 bd 61 80 9b bd 29 0c 52 3d 00 85 ef 3c
       -0.06678521 -0.07592846 0.051281128 0.029238224
0002a0 66 87 6c bc eb 60 76 bd 74 08 3c bd c9 d3 a1 bd
       -0.014436578 -0.060151022 -0.0459065 -0.07901723
0002b0 05 eb 8e bd c6 7c 77 3c 94 14 08 3d 12 8c 5a bd
       -0.0697842 0.015105432 0.03322275 -0.053356238
0002c0 42 11 95 bd 50 b6 95 bd c5 4a 83 3d 38 5e 66 bc
       -0.07278682 -0.07310164 0.064107455 -0.014060549
0002d0 0c 3f 0e bd ff 7d cc 3b 1e b7 3b 3d d7 17 be 3d
       -0.034728095 0.006240606 0.04582893 0.09281891
0002e0 10 5f 96 bd ad 85 5a bd 5e 7e a5 ba 10 fd 15 3d
       -0.073423505 -0.05335014 -0.0012626161 0.036618292
0002f0 e6 d7 2e bd f8 a7 6e bd 4e a5 a8 bb 33 56 72 bd
       -0.042686366 -0.058265656 -0.005146659 -0.059164237
000300 52 7b 87 bd 29 ce 64 bc 2d 76 5c bd 78 5e 60 3c
       -0.06615318 -0.013965168 -0.05382364 0.013694398
000310 80 44 7a 3b d5 6f 40 3d 75 99 a0 bd 57 23 0a 3c
       0.0038187802 0.04698165 -0.078417696 0.008431277
000320 a1 32 af 3d 71 b0 9e 3d 69 e4 77 bd 4e 69 70 bd
       0.085545786 0.07748497 -0.060520563 -0.058694176
000330 71 ac 81 bd 00 cf 4a 3b e7 81 a9 3c 20 47 55 3d
       -0.06331719 0.0030946136 0.020691825 0.052069783
000340 80 27 83 bc ef 60 9e 3d 0a 2d 80 bd 03 89 70 3c
       -0.016010046 0.07733332 -0.062585905 0.014681104
000350 c0 4b 6c 3d d0 41 50 3d 3a 93 0a bd 25 ec 8b 3d
       0.05768943 0.050844014 -0.033831812 0.0683215
000360 d8 d3 09 3c c4 1f 86 bd 74 ad 15 bd 8f 8a a1 3d
       0.008412324 -0.065490276 -0.03654237 0.07887756
000370 52 96 56 bd 8a 9d a0 bd 22 32 4e 3d e2 67 11 3d
       -0.05238945 -0.07842548 0.05034078 0.03549946
000380 a7 16 5a bd 3d fb 93 3d 09 ec 11 3d 12 62 98 bd
       -0.05324426 0.07225654 0.03562549 -0.074405804
000390 4a 23 a7 3d 2b 9c a8 3c f0 e1 a4 3b b7 b5 99 3d
       0.08161028 0.02058228 0.0050318167 0.075053625
0003a0 7f d8 76 bd 04 f2 79 3d 3e e6 5b 3d f4 33 ce 3c
       -0.06026506 0.06102182 0.053686373 0.025171258
0003b0 9e 53 73 bc 9f 4e 18 bd a0 bd e0 bb 00 86 8c bd
       -0.014851479 -0.037184354 -0.0068585426 -0.06861496
0003c0 b7 89 7f 3d 6d 34 a5 bd 9d 33 11 3d 26 4f 44 3d
       0.062387194 -0.0806664 0.035449613 0.047927044
0003d0 41 54 aa 3d 68 62 ba bc fe c6 74 3d 85 fc af 3d
       0.083168514 -0.022752002 0.059760086 0.08593086
0003e0 18 51 41 bd 88 85 9a bd e7 20 a2 bd f9 22 ae bd
       -0.047196478 -0.07545 -0.07916432 -0.08502764
0003f0 80 a3 9b 3b 3d 44 57 bd ef d7 8c 3d 23 3f 23 bc
       0.0047497153 -0.05255531 0.068771236 -0.009963783

fc3.bias f4 [5]
000000 6d 82 79 bd 9b cc a9 bd 2c 6c 51 3d de 7f 14 3c
       -0.0609154 -0.082909785 0.05112855 0.009063689
000010 c3 bd 5f 3d
       0.05462433
