CC_Reinforce_version_3_copy/tmp/highway/state_dict_model0.001.pt (torch, 215835 bytes, 8 tensors)

fc1.weight f4 [256, 45]
0.02280134 -0.10998283 -0.05650331 0.0052785873 -0.1132816 -0.055890433 0.103964105 -0.085940726
-0.035524443 0.086126596 -0.04662898 -0.05446201 0.11454256 -0.0042034537 -0.1224974 0.053449437
-0.13537876 0.0049352646 -0.058685817 0.02167505 -0.1294257 -0.052153066 0.027001485 0.12028508
-0.029028445 -0.10011224 -0.08224633 0.14611058 0.021038532 -0.088737145 -0.12595993 0.14207889
-0.06874561 0.09219211 -0.14839846 -0.055016704 0.018722102 -0.082111076 0.028278708 -0.09237251
0.07670532 0.099297985 0.10111894 -0.081801854 0.11310102 0.008149579 -0.13206641 -0.06541095
-0.052026927 -0.094889045 -0.107934564 -0.031178303 -0.08937207 0.12933569 0.00832355 -0.0132666975
-0.1093315 -0.041421734 -0.09329134 -0.031060062 -0.12164905 0.12682252 0.06876929 0.013960972
-0.068294205 0.10927643 0.009644538 -0.078213155 0.1290939 -0.1350834 0.063920036 0.11419387
0.10898845 -0.10792758 -0.1057481 -0.13936104 -0.031623483 -0.0018144548 0.028152406 0.04486583
-0.14489374 -0.13467696 0.09161356 -0.05099634 -0.080867395 0.021037146 -0.05544617 0.059961274
-0.0032727867 0.0027917176 -0.0791362 0.08057962 -0.043003835 -0.10004021 -0.08321405 -0.11871921
0.010339841 0.008793473 -0.10727101 0.14744206 0.0079986155 -0.1123131 0.14394327 -0.0634032
0.08461118 0.05059138 -0.13290182 -0.10002121 0.022092193 -0.07199152 -0.045584135 -0.059119895
0.012865737 0.010682613 0.028679684 0.07921316 0.04818949 0.071693435 0.0028058887 0.07011758
-0.07785552 0.116213694 -0.120597735 0.12395595 0.040220648 -0.11829931 0.08333774 0.09668484
-0.11593749 -0.041450076 -0.12522319 -0.1216762 0.14655913 -0.090862036 0.06657539 -0.08602267
-0.07073325 0.008098289 0.002351597 -0.05909372 0.07673341 0.0539165 -0.038218126 0.1443051
-0.10017836 -0.10281379 -0.03069596 0.11171706 0.13303252 0.1419747 0.05170317 0.14081018
-0.042821832 -0.016870692 0.09103875 0.013754517 0.088578105 -0.028005712 -0.12537797 0.124372736
-0.09732203 -0.02002126 0.024307936 -0.13615566 -0.088664226 -0.12009221 -0.016430587 -0.03315659
-0.11493513 0.13455184 0.010743901 -0.057953678 -0.07483815 0.08363338 -0.01231572 -0.10617946
0.079086006 0.124119416 -0.11198211 -0.1484703 -0.010075703 -0.14676121 -0.007935002 0.06294045
-0.025990441 0.10261269 -0.024784096 0.05075738 -0.055005312 0.04971811 -0.121974036 0.11201833
0.12962328 -0.012762517 -0.1389344 -0.14655893 0.09846453 0.038021505 -0.1351137 -0.14653842
0.06216468 -0.10128325 -0.14747854 0.13571216 0.094807476 -0.08298063 -0.055015214 0.08366424
-0.11207428 -0.014403358 0.072933435 -0.14388108 -0.09414733 0.051925212 -0.044303775 0.026741266
-0.05959727 -0.0006726533 0.10433088 -0.0059897155 0.10390587 0.08780728 -0.018899754 0.09790224
-0.05344162 0.14669468 -0.013733029 0.11680849 0.028685823 -0.1214246 0.041446447 -0.034176074
-0.017135128 -0.060028173 0.07208517 -0.02118668 0.052097306 -0.11014986 0.11904101 -0.053471297
0.13932006 -0.044207357 -0.024007738 0.12701286 -0.06927927 -0.11498672 0.14202969 0.0401178
0.13745351 0.0038398653 0.035982147 -0.11969875 0.10990225 -0.114445366 -0.009707496 -0.036187433
00000000: e0c9 ba3c ae3e e1bd 0470 67bd 00f8 ac3b
00000010: 2f00 e8bd 5eed 64bd 22eb d43d b101 b0bd
00000020: 1482 11bd 2463 b03d 08fe 3ebd 8e13 5fbd
00000030: 4a95 ea3d 20bd 89bb ebdf fabd cced 5a3d
00000040: bba0 0abe 00b8 a13b 8a60 70bd e08f b13c
00000050: 2c88 04be 749e 55bd 3832 dd3c 0658 f63d
00000060: 10cd edbc a507 cdbd c470 a8bd 039e 153e
00000070: 0059 ac3c d2bb b5bd a4fb 00be 217d 113e
00000080: 80ca 8cbd 38cf bc3d c4f5 17be 3259 61bd
00000090: 185f 993c da29 a8bd c0a8 e73c cc2d bdbd
000000a0: ae17 9d3d be5c cb3d 7217 cf3d bb87 a7bd
000000b0: 82a1 e73d d085 053c 6b3c 07be 2df6 85bd
000000c0: 301a 55bd 3055 c2bd cc0c ddbd a469 ffbc
000000d0: b408 b7bd 9370 043e 805f 083c 905c 59bc
000000e0: 32e9 dfbd d6a9 29bd 880f bfbd ac71 febc
000000f0: 2323 f9bd c3dd 013e ead6 8c3d 90bc 643c
00000100: d5dd 8bbd 52cc df3d 2004 1e3c 382e a0bd
00000110: 3131 043e 4e53 0abe 82e8 823d 7ade e93d
00000120: 5635 df3d 2309 ddbd 7692 d8bd a9b4 0ebe
00000130: a087 01bd 00d3 edba e09f e63c 3cc5 373d
00000140: 065f 14be c2e8 09be e49f bb3d 8ae1 50bd
00000150: ce9d a5bd 1856 ac3c 861b 63bd f499 753d
00000160: 407c 56bb 40f5 363b 2912 a2bd ee06 a53d
00000170: ca24 30bd e2e1 ccbd 216c aabd 0f23 f3bd
00000180: 7068 293c 8012 103c e7b0 dbbd 0dfb 163e
00000190: a00c 033c 6904 e6bd dd65 133e 89d9 81bd
000001a0: a048 ad3d e838 4f3d 6a17 08be ecd7 ccbd
000001b0: b0fa b43c 4a70 93bd 6eb6 3abd b427 72bd
000001c0: d0ca 523c 2006 2f3c a8f1 ea3c 823a a23d
000001d0: 5862 453d 02d4 923d 00e3 373b ce99 8f3d
000001e0: b772 9fbd 7201 ee3d f2fb f6bd 9edc fd3d
000001f0: 68be 243d e946 f2bd faac aa3d b402 c63d
00000200: a270 edbd 8ec7 29bd 823a 00be 5f31 f9bd
00000210: 9913 163e e015 babd ae58 883d a72c b0bd
00000220: 98dc 90bd b0ae 043c 401d 1a3b 420c 72bd
00000230: 6826 9d3d 8cd7 5c3d 9c8a 1cbd b7c4 133e
00000240: 502a cdbd 0990 d2bd 1876 fbbc eacb e43d
00000250: ad39 083e d161 113e b4c6 533d 8b30 103e
00000260: f265 2fbd 6834 8abc 8672 ba3d a05a 613c
00000270: 7068 b53d 3c6c e5bc 1563 00be 22b7 fe3d
00000280: c650 c7bd a003 a4bc 7021 c73c 646c 0bbe
00000290: 9795 b5bd e8f2 f5bd 7099 86bc 34cf 07bd
000002a0: 1c63 ebbd f5c7 093e 3007 303c d660 6dbd
000002b0: be44 99bd fa47 ab3d e0c7 49bc 9e74 d9bd
000002c0: d8f7 a13d 5232 fe3d e056 e5bd 9908 18be
000002d0: 9014 25bc 9248 16be d001 02bc ece6 803d
000002e0: e8e9 d4bc 9a26 d23d 0408 cbbc f8e6 4f3d
000002f0: 404d 61bd 38a5 4b3d 86cd f9bd de69 e53d
00000300: f7bb 043e e019 51bc d244 0ebe 8b13 16be
00000310: c6a7 c93d 70bc 1b3d 3f5b 0abe 2b0e 16be
00000320: 64a0 7e3d 986d cfbd 9d04 17be 21f8 0a3e
00000330: 6c2a c23d c0f1 a9bd a257 61bd 2858 ab3d
00000340: 3387 e5bd 10fc 6bbc 205e 953d 9055 13be
00000350: 51d0 c0bd 88af 543d e077 35bd 8010 db3c
00000360: 441c 74bd 0055 30ba 6eab d53d 6045 c4bb
00000370: 9acc d43d 4ed4 b33d a8d3 9abc f880 c83d
00000380: 9ae5 5abd 2137 163e 8000 61bc 4a39 ef3d
00000390: 88fe ea3c 76ad f8bd c0c3 293d 36fc 0bbd
000003a0: f85e 8cbc 1ae0 75bd 64a1 933d b08f adbc
000003b0: fc63 553d 4096 e1bd c6cb f33d b804 5bbd
000003c0: eba9 0e3e c612 35bd e0ab c4bc a90f 023e
000003d0: 4ae2 8dbd 287e ebbd 3b70 113e 9052 243d
000003e0: 9dc0 0c3e 40a6 7b3b 0462 133d 9e24 f5bd
000003f0: 6e14 e13d 5562 eabd 300c 1fbc 4639 14bd

fc1.bias f4 [256]
0.033743307 -0.021322116 -0.02677463 -0.00081688166 0.124415144 -0.13793771 0.032471657 0.039662868
-0.043462247 0.13676088 -0.039527148 0.120333716 0.097837135 0.06870605 -0.09120501 0.12331359
0.044294 0.13955872 0.10556008 0.025101274 -0.14822388 0.11205526 -0.025760755 0.045305327
-0.014683679 0.10764985 0.07915023 0.1277367 -0.0133654475 -0.081951 -0.10444291 0.11177914
0.08175559 -0.09027633 0.13535626 0.112468675 0.09334321 -0.09485796 0.13380356 0.008203417
-0.06574266 -0.025073051 -0.017574549 0.06367457 0.00019846857 -0.13721311 0.08428568 -0.059044532
-0.11993816 0.1005068 -0.10753712 0.018979669 -0.13907863 -0.10576461 0.007361904 0.1420687
-0.11709352 0.0876884 -0.1327744 -0.14416614 -0.03645911 0.096932635 0.030506045 0.089194715
-0.11057338 -0.048241295 -0.098633274 -0.1309745 0.09178296 -0.12570201 0.06121394 0.12144007
0.007827073 0.113805726 -0.008273438 0.08212921 0.10927527 0.035954833 -0.13528842 -0.1295836
-0.04998049 -0.13494098 -0.08851067 -0.055844285 -0.026140623 -0.10826201 -0.06982705 0.11815612
-0.055758737 -0.0384984 -0.07067131 0.043441683 0.007859841 0.014918759 0.10381292 -0.05376085
-0.11900123 -0.04748279 -0.046776496 -0.0047981143 0.08813605 -0.119823374 -0.0006086081 0.0033497363
0.061239436 -0.06992665 0.064696506 0.118061885 -0.13423932 -0.08956827 0.059573278 0.019228086
-0.1215624 -0.025791697 -0.099121764 0.03174989 -0.025080867 0.1471736 -0.11354096 -0.11500332
-0.08524467 -0.11519751 0.017467156 -0.13135089 0.113496706 -0.049732544 0.06329188 0.045485705
0.07058415 -0.033624336 0.13340761 -0.06963285 0.009676725 -0.0003247708 -0.049005702 0.100494355
0.08580947 -0.13152851 -0.053462803 0.1417789 0.14068012 0.12634729 -0.07839955 0.135092
-0.0159453 0.14505108 0.036187217 -0.022625104 0.12185027 -0.006954834 0.021750763 0.12721144
-0.07802079 -0.13548791 -0.14242266 -0.065552615 0.11140816 0.016887397 0.08015084 0.1333629
-0.13992663 -0.045113638 0.07172088 -0.0493906 -0.13057362 0.03840068 -0.096358925 -0.025265947
-0.021273836 0.12198906 0.003223598 -0.13171393 0.09766525 -0.04570709 0.0871519 -0.09969048
-0.12540074 -0.067902625 0.019857004 0.05375059 -0.021502197 -0.08171654 -0.004781738 -0.085706085
0.07140717 0.14266868 0.11485262 -0.010292351 0.12531973 0.13163681 -0.003073737 -0.0484061
-0.14561996 -0.14659826 0.05622275 0.017029151 -0.019148558 0.050561935 0.096052065 0.13238086
-0.032153487 -0.093959816 -0.04356283 0.028784528 -0.14292423 0.04457523 -0.02648893 0.13718297
0.12029447 0.10565834 -0.002032861 0.12188117 0.11779992 0.039394394 -0.07443374 0.01847811
-0.058420494 0.14214845 0.13967048 -0.053645432 0.03241442 0.05527146 -0.07356809 -0.08732988
0.07026847 -0.022424757 -0.027332716 -0.00048078597 0.10250519 -0.04497441 0.08048211 0.13635676
0.12617843 0.035945132 -0.04638522 0.13549633 -0.08591816 0.08503756 -0.0017514378 0.027023315
0.12233256 -0.13839361 0.11088063 -0.13026968 0.045545965 -0.14695765 0.11185585 0.05580744
0.1305299 0.051341414 -0.066118486 0.07229166 0.10192968 -0.054081522 0.13499604 0.08914733
00000000: 6c36 0a3d b8ab aebc 7856 dbbc 0024 56ba
00000010: 5ecd fe3d 8b3f 0dbe 0001 053d 8875 223d
00000020: 7805 32bd 0b0b 0c3e 38e7 21bd 8671 f63d
00000030: d65e c83d c2b5 8c3d b1c9 babd d68b fc3d
00000040: a06d 353d 7be8 0e3e e22f d83d 30a1 cd3c
00000050: 00c8 17be 3a7d e53d 3808 d3bc 1492 393d
00000060: d093 70bc 8677 dc3d 8419 a23d 69cd 023e
00000070: c0fa 5abc edd5 a7bd 2ae6 d5bd 76ec e43d
00000080: 7a6f a73d cce2 b8bd d59a 0a3e fa55 e63d
00000090: ba2a bf3d e444 c2bd cd03 093e a067 063c
000000a0: 16a4 86bd 0066 cdbc 80f8 8fbc d067 823d
000000b0: 001c 5039 9881 0cbe f89d ac3d aed8 71bd
000000c0: 23a2 f5bd 82d6 cd3d 6c3c dcbd 407b 9b3c
000000d0: a16a 0ebe 1e9b d8bd 203c f13b 757a 113e
000000e0: bace efbd fa95 b33d 03f6 07be 4aa0 13be
000000f0: 2656 15bd 9e84 c63d d0e7 f93c b8ab b63d
00000100: 4c74 e2bd aa98 45bd 3e00 cabd 2e1e 06be
00000110: b4f8 bb3d 07b8 00be 78bb 7a3d 92b5 f83d
00000120: 203d 003c fa12 e93d 508d 07bc 5c33 a83d
00000130: b6cb df3d 6045 133d 0c89 0abe 90b1 04be
00000140: 58b8 4cbd f82d 0abe 1545 b5bd fabc 64bd
00000150: dc24 d6bc 79b8 ddbd 7c01 8fbd d6fb f13d
00000160: 4663 64bd 80b0 1dbd 1fbc 90bd e8ef 313d
00000170: 90c6 003c d06d 743c de9b d43d 5634 5cbd
00000180: ebb6 f3bd 507d 42bd b698 3fbd 8039 9dbb
00000190: ac80 b43d f565 f5bd 008b 1fba 4087 5b3b
000001a0: 34d6 7a3d b435 8fbd 9a7f 843d 6eca f13d
000001b0: 0876 09be 926f b7bd 1c03 743d 3884 9d3c
000001c0: b5f5 f8bd 1c49 d3bc 5a00 cbbd 2c0c 023d
000001d0: 6476 cdbc adb4 163e 2a88 e8bd dc86 ebbd
000001e0: c294 aebd acec ebbd 4817 8f3c d980 06be
000001f0: f670 e83d 5ab4 4bbd 2c9f 813d 384f 3a3d
00000200: 6c8e 903d acb9 09bd 019c 083e ab9b 8ebd
00000210: 208b 1e3c 0046 aab9 34ba 48bd fccf cd3d
00000220: e0bc af3d 69af 06be d0fb 5abd 7d2e 113e
00000230: 730e 103e 2f61 013e f18f a0bd 8f55 0a3e
00000240: b89f 82bc 4588 143e 0c39 143d 4858 b9bc
00000250: a28c f93d 60e5 e3bb a82e b23c b743 023e
00000260: 5dc9 9fbd 58bd 0abe 3fd7 11be 7340 86bd
00000270: f629 e43d 7057 8a3c 2026 a43d 4990 083e
00000280: ed48 0fbe 14c9 38bd 66e2 923d cc4d 4abd
00000290: 17b5 05be 084a 1d3d d457 c5bd 88fa cebc
000002a0: 7846 aebc 66d5 f93d 0043 533b 04e0 06be
000002b0: b804 c83d 5c37 3bbd b27c b23d 862a ccbd
000002c0: 0d69 00be 8810 8bbd 28ab a23c 9429 5c3d
000002d0: 6025 b0bc 005b a7bd 20b0 9cbb ac86 afbd
000002e0: ec3d 923d bd17 123e da37 eb3d 40a1 28bc
000002f0: d153 003e cdcb 063e c070 49bb 7a45 46bd
00000300: 661d 15be db1d 16be d449 663d b880 8b3c
00000310: 70dd 9cbc 081a 4f3d f2b6 c43d d98e 073e
00000320: 60b3 03bd 016e c0bd f06e 32bd 88cd eb3c
00000330: bb5a 12be 8494 363d 50ff d8bc b179 0c3e
00000340: f25c f63d 6663 d83d c039 05bb d69c f93d
00000350: 1641 f13d 045c 213d b770 98bd 685f 973c
00000360: 544a 6fbd 5d8f 113e c705 0f3e 50bb 5bbd
00000370: fcc4 043d 5464 623d deaa 96bd 02da b2bd
00000380: eae8 8f3d 20b4 b7bc dce8 dfbc 0012 fcb9
00000390: 3eee d13d 1637 38bd ced3 a43d 1ba1 0b3e
000003a0: eb34 013e 343b 133d 6efe 3dbd 8dbf 0a3e
000003b0: dcf5 afbd 2c28 ae3d 8090 e5ba 0060 dd3c
000003c0: 7e89 fa3d 0eb7 0dbe 6215 e33d 6a65 05be
000003d0: 688e 3a3d 117c 16be ae14 e53d 5896 643d
000003e0: a1a9 053e 604b 523d 2169 87bd a60d 943d
000003f0: 82c0 d03d 9684 5dbd 673c 0a3e e092 b63d

fc2.weight f4 [128, 256]
0.041103296 -0.017399982 0.024241306 -0.061679803 -0.0420409 -0.05908075 -0.022381097 -0.01013989
-0.05478449 0.056353495 0.04140845 0.0037581623 0.046778314 -0.056246735 -0.006395802 -0.059550658
0.046721615 -0.020537086 -0.017205738 0.038021557 -0.022062458 -0.011304781 -0.05051092 0.00847625
-0.048846148 -0.053710118 -0.009345621 0.03472396 0.03789836 -0.033509657 0.056623854 -0.006616555
-0.0058798045 -0.0369042 -0.031907134 -0.039938055 -0.007254146 -0.0022441223 -0.022546947 -0.013936177
-0.023232765 -0.0463667 0.0479331 0.05857382 0.010459304 -0.01706858 -0.035952404 -0.05808819
-0.016588323 0.048851416 0.025098398 -0.007500075 -0.00094622374 -0.044426024 -0.027271807 0.05403029
0.047087915 0.017639816 -0.04639683 -0.040207595 -0.054731905 0.041730307 0.041075267 -0.023155458
0.055959783 -0.031872593 -0.055101134 0.032949977 0.014154695 0.058233038 -0.046729155 0.029912502
0.05144541 -0.0075016394 0.0042322874 -0.039851464 0.012129717 0.0412755 0.06168157 -0.058899574
-0.04096146 -0.01728066 -0.017818041 -0.00010289252 0.017242126 0.043165028 -0.05264505 -0.040638834
-0.05291161 0.0131441355 -0.061877534 -0.0076659396 -0.0012530088 0.0058188066 -0.015822344 -0.031034276
-0.04608991 0.015432842 0.0058325753 0.046168625 -0.033288486 0.006508462 0.026520096 0.05672483
-0.044523366 -0.028378002 -0.055576414 0.050006874 -0.016169623 0.055263616 -0.03715396 0.038805068
-0.004755929 0.0028069615 0.053041093 0.0038787946 -0.00153476 0.045222796 -0.0411155 0.03374038
-0.046206526 -0.012822136 0.025072046 0.045388006 0.025755972 0.018056221 0.025930777 -0.05673121
0.0014174953 0.04496 0.005645402 -0.035650253 -0.0050103515 -0.009430148 0.026909418 -0.04936911
0.028393649 0.058179826 0.0535127 0.004233636 -0.017273277 0.041017644 0.0013888627 0.010846466
-0.00440637 0.020127587 -0.043624394 -0.002917461 -0.047761768 0.0049491376 0.026056834 0.038890496
0.026745826 0.059819885 0.04636336 -0.022129998 0.01831507 0.04840474 -0.016728759 0.03341341
0.035509326 -0.05752606 -0.023948476 0.009870492 0.024177477 -0.040419854 0.050935417 -0.03776961
-0.0094046 0.027164444 -0.0033310205 0.036790147 -0.028152168 -0.06142424 0.059161097 -0.01462765
0.04771045 0.060975686 0.003528908 -0.056286506 -0.014517911 -0.025556326 0.040741503 -0.011107728
-0.006222211 0.00052432716 0.022458978 -0.035869874 0.01035592 -0.05117409 0.024938993 0.01789572
-0.061501645 -0.041463785 0.046465375 -0.04341109 0.036746696 -0.033370346 -0.04989457 -0.061730556
-0.051321737 -0.035885014 -0.013227567 0.01183255 0.0062680915 -0.027880527 0.0073821023 -0.013104387
-0.034448825 -0.041964047 -0.024799198 -0.03942924 0.028491154 -0.036284067 0.055008918 0.056116015
-0.04582776 -0.016116664 0.037136048 0.038482226 -0.05968208 0.048046455 0.061863616 -0.009043112
-0.036091596 -0.04653409 -0.044656254 0.023189507 0.03603439 0.05286351 -0.051746614 -0.030719668
-0.024330616 -0.032774642 -0.036429897 -0.039793186 0.039788537 -0.026532881 0.051906772 -0.040965028
0.032607533 0.037179805 0.021370076 -0.055013753 0.039408624 0.011362784 -0.02732917 -0.031602815
0.027153194 -0.00091700256 -0.0376487 0.015282884 -0.060308576 0.04931762 -0.0065286756 0.036339022
00000000: ee5b 283d 688a 8ebc b495 c63c f6a3 7cbd
00000010: 1433 2cbd a8fe 71bd 9058 b7bc c821 26bc
00000020: b465 60bd ecd2 663d e89b 293d 804b 763b
00000030: 9e9a 3f3d fa62 66bd e093 d1bb 64eb 73bd
00000040: 2a5f 3f3d 643d a8bc 0cf3 8cbc 7ebc 1b3d
00000050: 54bc b4bc b037 39bc 8ae4 4ebd f8df 0a3c
00000060: e612 48bd 24ff 5bbd 601e 19bc b63a 0e3d
00000070: 503b 1b3d 6c41 09bd 6aee 673d b0cf d8bb
00000080: 60ab c0bb dc28 17bd 0eb1 02bd 1696 23bd
00000090: 30b4 edbb 2012 13bb 60b4 b8bc 9054 64bc
000000a0: a452 bebc 02eb 3dbd 8055 443d 1aeb 6f3d
000000b0: 805d 2b3c 68d3 8bbc d442 13bd e2ed 6dbd
000000c0: 3ce4 87bc 6c18 483d 289b cd3c 30c3 f5bb
000000d0: 000c 78ba 10f8 35bd 2069 dfbc de4e 5d3d
000000e0: 42df 403d 6081 903c 9a0a 3ebd b8b0 24bd
000000f0: 902e 60bd 66ed 2a3d 8a3e 283d 84b0 bdbc
00000100: 1636 653d d68c 02bd bab1 61bd 8ef6 063d
00000110: 18e9 673c c485 6e3d 1267 3fbd 100b f53c
00000120: 6cb8 523d 50d0 f5bb 00af 8a3b 4a3b 23bd
00000130: b8bb 463c 8010 293d d0a5 7c3d ae40 71bd
00000140: 34c7 27bd 2c90 8dbc 24f7 91bc 00c8 d7b8
00000150: 5c3f 8d3c d0cd 303d 56a2 57bd e874 26bd
00000160: d8b9 58bd 805a 573c 4c73 7dbd 9032 fbbb
00000170: 003c a4ba b0ab be3b dc9d 81bc 983b febc
00000180: c6c8 3cbd 08da 7c3c 301f bf3b 501b 3d3d
00000190: 8259 08bd f044 d53b ac40 d93c 4c58 683d
000001a0: 225e 36bd fc78 e8bc 18a4 63bd 02d4 4c3d
000001b0: 2876 84bc 1a5c 623d c02e 18bd 10f2 1e3d
000001c0: a0d7 9bbb 00f5 373b 9e41 593d 6033 7e3b
000001d0: 002a c9ba 8a3b 393d ba68 28bd 5a33 0a3d
000001e0: 0e43 3dbd f013 52bc e463 cd3c c6e8 393d
000001f0: 30fe d23c a4ea 933c c86c d43c fc5e 68bd
00000200: 40cb b93a fa27 383d 10fd b83b 0006 12bd
00000210: e02d a4bb e880 1abc 2471 dc3c 4437 4abd
00000220: cc99 e83c f84d 6e3d 2230 5b3d 50ba 8a3b
00000230: b080 8dbc 1e02 283d 800a b63a 60b5 313c
00000240: 5063 90bb 9ce2 a43c 7eaf 32bd e032 3fbb
00000250: d8a1 43bd 602c a23b 2475 d53c a44b 1f3d
00000260: 101a db3c b205 753d 82e7 3d3d f849 b5bc
00000270: 7c09 963c 0c44 463d c00a 89bc 80dc 083d
00000280: 3a72 113d 72a0 6bbd 982f c4bc d8b7 213c
00000290: d80f c63c 4a8f 25bd a8a1 503d 4eb4 1abd
000002a0: c015 1abc f887 de3c 404d 5abb 44b1 163d
000002b0: 609f e6bc fc97 7bbd e852 723d d0a8 6fbc
000002c0: 086c 433d a4c1 793d 4045 673b ae8c 66bd
000002d0: 88dc 6dbc 805b d1bc 90e0 263d 30fd 35bc
000002e0: b0e3 cbbb 0073 093a e4fb b73c 4aec 12bd
000002f0: e0ab 293c ec9b 51bd dc4c cc3c 0c9a 923c
00000300: 26e9 7bbd eed5 29bd 7a52 3e3d d4cf 31bd
00000310: b483 163d 58af 08bd 405e 4cbd 2ed9 7cbd
00000320: be36 52bd 2afc 12bd 70b8 58bc 50dd 413c
00000330: 9064 cd3b b465 e4bc 90e5 f13b c8b3 56bc
00000340: 361a 0dbd 7ee2 2bbd b027 cbbc 8e80 21bd
00000350: 4866 e93c 9a9e 14bd 0851 613d e8d9 653d
00000360: e4b5 3bbd 1807 84bc f81b 183d 8a9f 1d3d
00000370: 3275 74bd 5ccc 443d b464 7d3d 9029 14bc
00000380: c8d4 13bd 889a 3ebd 7ae9 36bd ecf7 bd3c
00000390: cc98 133d 6887 583d 42f4 53bd d0a7 fbbc
000003a0: 0051 c7bc b43e 06bd 8437 15bd 2efe 22bd
000003b0: 4ef9 223d 7c5b d9bc 329c 543d f2ca 27bd
000003c0: 7a8f 053d da49 183d 4c10 af3c 1a56 61bd
000003d0: f06a 213d f82a 3a3c 6ce1 dfbc f471 01bd
000003e0: 6070 de3c 0063 70ba 8635 1abd 1065 7a3c
000003f0: 2006 77bd 4601 4a3d 80ee d5bb 3ad8 143d

fc2.bias f4 [128]
0.055074252 -0.028506503 -0.041167967 -0.05421242 -0.043773256 0.02832257 -0.0073722526 -0.032121554
0.059771076 0.011305854 -0.058770828 -0.011602856 -0.038082696 -0.019407116 -0.037947707 -0.012907237
-0.033594936 -0.056006208 0.0033440888 0.015464954 -0.029222429 0.05727285 0.052732587 -0.010839745
0.004340619 -0.012651771 -0.0011160895 -0.009227745 -0.040616386 0.036181025 4.2192638e-05 -0.0025231466
-0.025488578 0.033953063 0.017891519 -0.019644544 -0.003901869 0.029816352 0.033946373 -0.009949639
-0.008460611 0.016525976 0.053104445 0.0087028295 0.046613537 -0.05804708 0.05584292 0.0056042224
0.0012188181 -0.046584055 -0.018352963 0.010520063 0.0051484182 0.026051499 0.053681515 0.028989159
0.006525159 -0.040756293 0.025343016 -0.0022436902 0.023043476 0.01335948 -0.0032804087 -0.056479566
0.027292222 -0.045313656 -0.023959666 0.037332974 -0.031848125 -0.06241093 0.04902348 -0.017576754
-0.005591415 -0.0121432245 0.010848634 -0.009415239 -0.055103444 0.018243551 0.05830154 0.014526986
0.026612833 -0.03436677 0.014492199 -0.00410299 0.018020608 -0.034203015 -0.027619585 -0.0011152104
-0.027283065 0.04434157 -0.05959841 0.050716452 0.004527442 0.0035691038 -0.03664554 0.030352369
0.02385781 0.028791375 0.052507594 -0.057014205 0.058861047 -0.02599176 0.003923267 -0.0148612335
0.026142493 0.060174383 0.057460755 -0.029346079 -0.020405822 -0.0046908557 -0.038975783 -0.03533683
0.01657869 0.032938845 -0.009693667 0.038568847 -0.028991811 0.033848375 -0.00319767 -0.018044502
0.009494543 0.022888102 0.040616557 -0.03727609 -0.034711897 0.019030489 -0.006473623 -0.02926661
00000000: 8a95 613d 7886 e9bc be9f 28bd d80d 5ebd
00000010: 964b 33bd bc04 e83c f092 f1bb e491 03bd
00000020: 84d2 743d 303c 393c aeb9 70bd e819 3ebc
00000030: 9afc 1bbd acfb 9ebc 0e6f 1bbd e078 53bc
00000040: d89a 09bd c466 65bd 8028 5b3b b860 7d3c
00000050: e063 efbc f096 6a3d 20fe 573d 3099 31bc
00000060: c03b 8e3b 6049 4fbc c049 92ba f82f 17bc
00000070: 5e5d 26bd 8e32 143d 00f8 3038 605b 25bb
00000080: 6ccd d0bc 5e12 0b3d 3c91 923c 98ed a0bc
00000090: 80b6 7fbb 6c41 f43c 5a0b 0b3d d003 23bc
000000a0: 609e 0abc 7c61 873c 0c84 593d 5096 0e3c
000000b0: d6ed 3e3d c6c2 6dbd 8cbb 643d a0a3 b73b
000000c0: c0c0 9f3a ecce 3ebd f458 96bc 585c 2c3c
000000d0: 10b4 a83b f469 d53c 26e1 5b3d ac7a ed3c
000000e0: 00d1 d53b 12f0 26bd 289c cf3c e00a 13bb
000000f0: acc5 bc3c b8e1 5a3c 20fc 56bb 1e57 67bd
00000100: f093 df3c d09a 39bd 1047 c4bc 76ea 183d
00000110: 2e73 02bd 9aa2 7fbd d8cc 483d 20fd 8fbc
00000120: 3038 b7bb 60f4 46bc 78be 313c 6042 1abc
00000130: 26b4 61bd 8073 953c 98cd 6e3d 9802 6e3c
00000140: 2803 da3c 2cc4 0cbd b070 6d3c 6072 86bb
00000150: f49f 933c 7618 0cbd 7842 e2bc 402c 92ba
00000160: bc80 dfbc 829f 353d 761d 74bd 0ebc 4f3d
00000170: f05a 943b a0e7 693b a219 16bd 88a5 f83c
00000180: 7471 c33c e4db eb3c 3412 573d ba87 69bd
00000190: 4818 713d acec d4bc c08e 803b 887c 73bc
000001a0: c828 d63c 6a79 763d f85b 6b3d 3067 f0bc
000001b0: 1c2a a7bc c0b5 99bb 12a5 1fbd 5abd 10bd
000001c0: 08d0 873c e2ea 063d 30d2 1ebc 5efa 1d3d
000001d0: 3c80 edbc 98a4 0a3d 0090 51bb 10d2 93bc
000001e0: 008f 1b3c d47f bb3c 8c5d 263d d0ae 18bd
000001f0: 102e 0ebd d4e5 9b3c b020 d4bb 88c0 efbc

fc3.weight f4 [64, 128]
0.07808859 0.015513763 -0.038458724 0.042738803 -0.0567289 0.075289436 0.058847345 0.08698925
-0.042003423 0.0052611902 -0.010055549 -0.06944893 -0.003872797 0.06945325 -0.045871396 0.025874875
0.058821358 0.027336173 0.051498227 -0.08208858 -0.0881894 -0.08214681 -0.02212976 -0.08680079
0.065166555 -0.013834342 0.027922273 -0.08609167 -0.06284566 -0.069878265 0.038106494 -0.013843514
0.013386704 -0.0049366355 -0.067289114 0.08827286 0.045625128 -0.035744973 0.03983677 -0.06910051
0.07654487 0.071095355 0.08348041 0.06013929 0.045438968 0.017825902 0.0738926 0.08834902
0.049796276 -0.030206352 0.050008856 -0.027931876 -0.018316746 -0.017574362 -0.01200296 0.035174966
0.016503312 -0.07383405 0.03265129 0.042396523 0.04737591 0.0025948212 0.07556511 0.047274895
0.03201487 -0.021955766 -0.050306384 -0.014301509 0.051041998 -0.005929418 -0.058789942 0.04284788
0.06636753 0.017314315 0.0074230433 -0.046754595 -0.029904958 -0.017087668 0.039442502 0.017139755
-0.07633855 0.027062796 -0.012178227 0.0013766661 0.00014496595 -0.084762424 -0.038310777 0.0127281025
0.041323684 -0.06508566 -0.008540891 0.04339189 -0.08686358 -0.056275494 -0.014061041 0.0062221363
-0.070406646 -0.046305086 0.05223774 -0.022143893 -0.033516753 -0.06676076 -0.017660864 -0.058412496
0.07652136 -0.06685379 0.027368456 0.019012295 0.050777487 -0.026330117 0.064910404 0.0033746362
-0.0735626 -0.03641264 -0.04294964 -0.016962916 0.03770546 0.027236946 -0.022543773 0.01018545
0.077618964 0.01927413 -0.014042236 0.014277749 -0.055048157 0.0038832426 0.045929156 -0.061277397
0.055574186 0.0576751 -0.068608314 -0.040131975 -0.03930434 0.0039569587 -0.07554156 -0.08826919
0.012196146 -0.06644857 0.032572053 -0.0865373 0.012808077 -0.06670292 0.055114858 -0.0018996522
0.027124405 -0.015845306 -0.049620684 0.047135808 -0.08180246 -0.012802251 0.06893993 0.08753649
-0.056181274 -0.057014495 0.057933606 -0.04967324 0.0067025796 0.08224987 0.026803553 -0.028815959
-0.0382884 0.07588432 -0.021501258 0.07519957 -0.056791455 -0.06752531 -0.04389824 0.06531305
-0.053068496 -0.00018201023 0.00058748573 0.048030637 -0.06967274 0.03594797 -0.021878257 -0.06717979
-0.08158488 -0.017708346 -0.035238735 0.047884308 0.06335596 -0.013524123 -0.014821351 0.0098853335
0.040076293 -0.0696738 0.05095599 0.07019501 -0.05802229 0.02568993 0.015327387 0.06412528
-0.07572286 -0.07274029 0.033427984 -0.08148306 -0.02818995 -0.06501581 -0.08821773 0.08104349
-0.021497644 -0.07569657 0.081056036 -0.022214457 -0.023494214 -0.01326105 0.005452372 -0.07519695
-0.06764136 0.0712849 -0.012898527 0.036920063 -0.01771377 0.0146860555 -0.044835374 0.011449531
-0.019531786 -0.05574243 -0.012130223 -0.0044727474 0.044428833 -0.07300106 -0.0645487 0.00227575
-0.061930325 -0.024472706 0.06771571 -0.06262929 -0.07462742 0.06424097 -0.051764663 -0.014562696
0.026224405 -0.010788143 0.04431335 0.055085428 0.026057191 -0.07793931 -0.03088405 0.008612655
0.041720606 0.059254013 -0.030733723 -0.009361528 0.008242786 0.08217511 -0.017500818 0.031298354
-0.050827675 0.063848086 -0.07160586 0.031461462 0.03744363 0.060637496 0.06831192 -0.007591605
00000000: e9ec 9f3d 702d 7e3c e586 1dbd e20e 2f3d
00000010: 905c 68bd 5931 9a3d ea09 713d 6b27 b23d
00000020: c80b 2cbd 1066 ac3b 08c0 24bc 3e3b 8ebd
00000030: c0ce 7dbb 813d 8e3d a5e3 3bbd 8cf7 d33c
00000040: aaee 703d 1cf0 df3c ceef 523d 0f1e a8bd
00000050: a59c b4bd 963c a8bd 7849 b5bc 9dc4 b1bd
00000060: 0b76 853d 70a9 62bc 40bd e43c d450 b0bd
00000070: 3ab5 80bd 561c 8fbd 8e15 1c3d e8cf 62bc
00000080: e853 5b3c 80c3 a1bb e0ce 89bd 67c8 b43d
00000090: 6ae1 3a3d 5269 12bd e22b 233d 9184 8dbd
000000a0: 8fc3 9c3d 719a 913d c7f7 aa3d 9e54 763d
000000b0: 361e 3a3d a007 923c 0155 973d 55f0 b43d
000000c0: 2ef7 4b3d 5073 f7bc 16d6 4c3d 64d1 e4bc
000000d0: 000d 96bc 1cf8 8fbc 10a8 44bc a013 103d
000000e0: f431 873c 4e36 97bd 5cbd 053d faa7 2d3d
000000f0: 3e0d 423d e00d 2a3b e1c1 9a3d 52a3 413d
00000100: 0622 033d 94dc b3bc 110e 4ebd e050 6abc
00000110: 6a11 513d 904b c2bb b9cd 70bd 4281 2f3d
00000120: b3eb 873d c0d6 8d3c 003d f33b bf81 3fbd
00000130: 3efb f4bc 70fb 8bbc 768e 213d ac68 8c3c
00000140: 6357 9cbd ccb2 dd3c 3087 47bc 4071 b43a
00000150: 0002 1839 ec97 adbd c3eb 1cbd 8889 503c
00000160: 0643 293d a14b 85bd 18ef 0bbc b2bb 313d
00000170: 88e5 b1bd 2281 66bd 4860 66bc 10e3 cb3b
00000180: 5c31 90bd 67aa 3dbd 3ef7 553d 1c67 b5bc
00000190: dd48 09bd deb9 88bd 84ad 90bc f141 6fbd
000001a0: 3bb7 9c3d a4ea 88bd d033 e03c acbf 9b3c
000001b0: 0efc 4f3d 42b2 d7bc bfef 843d 0029 5d3b
000001c0: fda7 96bd 6c25 15bd f6eb 2fbd d0f5 8abc
000001d0: 0a71 1a3d 0420 df3c b8ad b8bc e0e0 263c
000001e0: b1f6 9e3d c8e4 9d3c 6811 66bc 38ed 693c
000001f0: 2d7a 61bd 007e 7e3b 3620 3c3d 02fe 7abd
00000200: c2a1 633d ba3c 6c3d 8482 8cbd 6d61 24bd
00000210: 96fd 20bd 60a9 813b 89b5 9abd 7ac6 b4bd
00000220: 58d2 473c 3016 88bd 466a 053d 783a b1bd
00000230: f8d8 513c 8a9b 88bd 1ec0 613d c0fd f8ba
00000240: 0034 de3c 04ce 81bc 0f3f 4bbd 7a11 413d
00000250: 0c88 a7bd 88c0 51bc 6130 8d3d 5546 b33d
00000260: 561e 66bd 0888 69bd ca4b 6d3d 2b76 4bbd
00000270: 50a1 db3b 9f72 a83d 2093 db3c 720f ecbc
00000280: 4cd4 1cbd 3d69 9b3d 6823 b0bc 3b02 9a3d
00000290: 289e 68bd b64a 8abd a4ce 33bd d9c2 853d
000002a0: 5a5e 59bd 00da 3eb9 8001 1a3a c6bb 443d
000002b0: 95b0 8ebd 2e3e 133d 083a b3bc 8f95 89bd
000002c0: f915 a7bd 1811 91bc 7e56 10bd 5622 443d
000002d0: c5c0 813d 4894 5dbc 40d5 72bc 18f6 213c
000002e0: 0a27 243d 23b1 8ebd 3ab7 503d 67c2 8f3d
000002f0: c8a8 6dbd b073 d23c b81f 7b3c 1d54 833d
00000300: 9614 9bbd dcf8 94bd c8eb 083d 97e0 a6bd
00000310: 9cee e6bc 0227 85bd 7fab b4bd 21fa a53d
00000320: d41b b0bc ce06 9bbd b500 a63d 18fb b5bc
00000330: f076 c0bc e044 59bc d0a9 b23b dc00 9abd
00000340: 8e87 8abd d1fd 913d 5854 53bc 7e39 173d
00000350: 781c 91bc c89d 703c 4ca5 37bd d096 3b3c
00000360: 2001 a0bc 2d52 64bd d8bd 46bc 2090 92bb
00000370: 02fb 353d 9481 95bd 1c32 84bd c024 153b
00000380: a7aa 7dbd fc7a c8bc 89ae 8a3d c943 80bd
00000390: 43d6 98bd c590 833d 2f07 54bd 6098 6ebc
000003a0: 90d4 d63c c0c0 30bc ea81 353d 42a1 613d
000003b0: e475 d53c a59e 9fbd 8c00 fdbc 181c 0d3c
000003c0: 3ae3 2a3d 56b4 723d 4ac5 fbbc 1861 19bc
000003d0: c00c 073c 6d4b a83d e05d 8fbc b432 003d
000003e0: ae30 50bd c9c2 823d 18a6 92bd bcdd 003d
000003f0: 7e5e 193d 065f 783d 1fe7 8b3d 00c3 f8bb

fc3.bias f4 [64]
0.021538861 -0.0046069548 -0.05663216 -0.03992205 -0.033741996 -0.039447393 -0.044203162 -0.012925163
-0.0036255643 0.034253895 0.027073026 0.06335174 0.057517417 -0.0625091 -0.07057194 -0.004063219
-0.04427262 -0.011351876 0.07661831 0.006765835 0.05930131 -0.058730748 -0.06415749 -0.027070235
-0.049846668 -0.057805583 0.021657355 -0.07970414 -0.06740976 -0.045704126 -0.021014817 -0.061463717
0.045374088 0.036360852 0.087781616 0.03024248 -0.00052502006 0.074562974 0.077653326 -0.03841431
0.065054186 -0.017649427 -0.07324426 -0.024770968 -0.025252871 -0.0377464 -0.012863882 -0.023635164
-0.04447997 -0.037850935 0.07597653 -0.0738698 0.07411408 0.085069396 -0.084293224 0.0056759566
0.040615775 -0.041185036 0.022195205 -0.07957251 -0.021306485 0.075471155 -0.031405304 -0.059334617
00000000: 4472 b03c f0f5 96bb 20f7 67bd 4e85 23bd
00000010: 0c35 0abd 9793 21bd 600e 35bd 10c4 53bc
00000020: e09a 6dbb d04d 0c3d 40c8 dd3c 8fbe 813d
00000030: 6297 6b3d c504 80bd 0588 90bd c024 85bb
00000040: 3557 35bd 38fd 39bc 0fea 9c3d f0b3 dd3b
00000050: eee5 723d a78f 70bd 0165 83bd 66c2 ddbc
00000060: 052c 4cbd 8cc5 6cbd c46a b13c ed3b a3bd
00000070: 210e 8abd 4034 3bbd 4427 acbc 61c1 7bbd
00000080: 2eda 393d 1eef 143d d9c6 b33d 14bf f73c
00000090: 80a1 09ba 79b4 983d b508 9f3d 5358 1dbd
000000a0: 213b 853d 8895 90bc 1601 96bd 7cec cabc
000000b0: 1cdf cebc f89b 1abd 08c3 52bc 889e c1bc
000000c0: a130 36bd 9509 1bbd 9599 9b3d 0d49 97bd
000000d0: 1fc9 973d dd38 ae3d eda1 acbd 60fd b93b
000000e0: ba5c 263d a4b1 28bd b8d2 b53c eaf6 a2bd
000000f0: f08a aebc 9f90 9a3d d9a2 00bd db08 73bd

fc4.weight f4 [5, 64]
-0.09622367 0.0062544793 -0.07408318 -0.09138633 0.095258355 0.10431099 0.01074785 0.048924178
-0.034481347 0.044618145 -0.06758639 -0.055843577 0.025285915 0.09085138 -0.11063278 -0.04637137
0.10987422 -0.06709297 -0.024327636 -0.12014365 0.101716846 0.043945417 -0.027197003 -0.0023034066
0.033932358 0.0026113987 0.03987612 0.045276165 0.09239712 0.023098007 0.018499285 -0.06519826
-0.03755249 0.076447874 0.10096048 -0.064097345 -0.08252263 0.06538831 0.09612168 0.11005445
0.093187824 0.09718025 -0.021985218 0.023484156 -0.030263335 0.007427141 -0.1032462 0.11859585
-0.105252445 0.03314863 0.09312676 0.039877534 0.074510455 0.114623025 0.021402061 -0.036088526
0.026443467 0.019936398 -0.055075273 0.105454564 -0.028715402 -0.051424563 0.113874346 0.06616631
0.02894412 -0.008056015 0.011634901 0.029262513 -0.07088697 0.016969353 -0.03988883 0.024963021
0.048116088 0.09142269 -0.047385007 -0.0074340254 -0.0007673055 -0.09902355 0.04199034 -0.03818828
-0.0040325075 0.03759733 0.124246806 -0.092439905 -0.10061671 -0.021916822 0.019987658 0.108390376
0.013486311 -0.11865798 -0.055815205 -0.0751555 0.10498744 -0.034971297 0.057663918 0.12075324
0.1072287 0.06767663 0.065069154 0.061356217 0.035445377 -0.065441296 0.010809839 -0.060541302
0.04852757 0.053975984 0.10490593 0.013745159 0.061260894 0.0020219982 -0.09521122 -0.09852384
0.023288503 0.115321994 0.11635992 -0.11559555 0.1072413 0.10439907 -0.041511446 -0.054681405
0.12065321 0.08293529 -0.064538956 -0.091380194 0.07227628 0.03964871 -0.020256743 -0.11491327
-0.056515425 -0.07990305 -0.11822651 0.03430344 -0.06768988 -0.017500222 0.06569779 -0.006225422
-0.05087076 0.03158973 0.09917572 0.04779324 0.07437223 -0.09814896 0.007002592 -0.10025293
0.12105143 -0.033521265 0.1075519 0.08230239 0.038139015 -0.07469864 0.07732692 -0.11462802
0.072719246 -0.11520076 0.11436525 0.0841164 0.034244597 0.102504686 0.058702648 0.07495949
-0.027868912 0.10360055 -0.09347208 -0.06903499 -0.11516757 0.067409754 -0.08991471 -0.107227266
-0.0079704225 -0.07985093 0.09067884 -0.04041037 -0.107334435 -0.06809685 0.01201351 -0.10257463
-0.11544277 0.02952686 0.031051755 0.07574549 0.024902716 0.04604186 -0.08213283 -0.03666471
-0.10734293 -0.051853478 -0.083027124 0.06173247 0.04883489 -0.007264361 -0.0399808 -0.051773667
-0.12299976 -0.0014393628 0.10550399 -0.01529941 -0.05425082 0.022836775 0.017761767 0.03767039
-0.12197746 0.10124312 0.11831115 0.0007274449 -0.020262405 -0.07548596 -0.038512766 -0.111239105
0.06606811 -0.075401634 0.022558227 0.064704165 0.05474022 -0.02062586 0.11360535 -0.07238129
0.11375077 -0.051779956 0.062942594 0.016245723 -0.083862394 0.10456441 0.07447539 0.098582506
-0.10856213 -0.007957622 0.05939114 -0.05506152 -0.01856871 0.117626026 -0.015964955 -0.1020281
0.08556396 0.014116868 -0.0115202665 -0.018046826 0.034727693 0.00011853874 0.080675796 0.11097553
-0.012166351 0.020126775 0.07481851 -0.08771394 -0.011230901 -0.0242185 0.0012841225 0.042438
-0.107972264 0.028698266 0.037481844 0.056774512 0.0593801 -0.055762038 0.015379339 -0.05080481
00000000: ea10 c5bd 60f2 cc3b ecb8 97bd c228 bbbd
00000010: d016 c33d 00a1 d53d c017 303c b864 483d
00000020: 503c 0dbd 84c1 363d bc6a 8abd 3cbc 64bd
00000030: 6824 cf3c 4a10 ba3d 7093 e2bd e8ef 3dbd
00000040: bc05 e13d 0a68 89bd c04a c7bc e00d f6bd
00000050: ec50 d03d 1c00 343d 40cc debc c0f4 16bb
00000060: a8fc 0a3d 0024 2b3b 2455 233d 8073 393d
00000070: b43a bd3d 0838 bd3c d08b 973c aa86 85bd
00000080: a4d0 19bd b490 9c3d 5ec4 ce3d 7845 83bd
00000090: a001 a9bd 4eea 853d 72db c43d 3a64 e13d
000000a0: 42d9 be3d 7006 c73d 581a b4bc d861 c03c
000000b0: d0ea f7bc 605f f33b be72 d3bd 62e2 f23d
000000c0: 988e d7bd dcc6 073d 3eb9 be3d a056 233d
000000d0: f098 983d 7abf ea3d 6053 af3c 90d1 13bd
000000e0: f89f d83c a851 a33c 9c96 61bd 90f8 d73d
000000f0: 903c ebbc 90a2 52bd f436 e93d 3482 873d
00000100: 381c ed3c 60fd 03bc 50a0 3e3c f0b7 ef3c
00000110: 302d 91bd 5003 8b3c 7862 23bd 407f cc3c
00000120: 6015 453d d23b bb3d c816 42bd 2099 f3bb
00000130: 0025 49ba dccc cabd 10fe 2b3d 506b 1cbd
00000140: 2023 84bb a8ff 193d 1c75 fe3d 2251 bdbd
00000150: 2210 cebd e88a b3bc 28bd a33c c6fb dd3d
00000160: b0f5 5c3c f402 f3bd 7c9e 64bd 20eb 99bd
00000170: a803 d73d 103e 0fbd 0031 6c3d 7a4d f73d
00000180: b89a db3d 0c9a 8a3d fa42 853d a850 7b3d
00000190: 2c2f 113d 1606 86bd c01b 313c 28fa 77bd
000001a0: d8c4 463d ec15 5d3d ecd8 d63d 6033 613c
000001b0: b4ec 7a3d 8083 043b 1afe c2bd dec6 c9bd
000001c0: 88c7 be3c f02d ec3d 1c4e ee3d 5cbd ecbd
000001d0: 54a1 db3d 2ecf d53d e807 2abd 9cf9 5fbd
000001e0: 0819 f73d fad9 a93d 002d 84bd 8a25 bbbd
000001f0: 9605 943d b066 223d 78f1 a5bc a657 ebbd
00000200: b87c 67bd 36a4 a3bd be20 f2bd c481 0c3d
00000210: fea0 8abd a05c 8fbc 908c 863d a0fe cbbb
00000220: dc5d 50bd 3c64 013d a41c cb3d d8c2 433d
00000230: 7850 983d 5202 c9bd 0076 e53b 6851 cdbd
00000240: d0e9 f73d 984d 09bd 2c44 dc3d 288e a83d
00000250: a837 1c3d 9afb 98bd 945d 9e3d 18c2 eabd
00000260: d4ed 943d 60ee ebbd 5438 ea3d 3845 ac3d
00000270: 1044 0c3d faed d13d 3072 703d 5c84 993d
00000280: 584d e4bc 862c d43d 4a6e bfbd 3862 8dbd
00000290: fadc ebbd 200e 8a3d 3425 b8bd f899 dbbd
000002a0: 6096 02bc e288 a3bd d4b5 b93d 5885 25bd
000002b0: 28d2 dbbd 5c76 8bbd 50d4 443c a612 d2bd
000002c0: 426d ecbd 50e2 f13c 4060 fe3c 7420 9b3d
000002d0: c800 cc3c 6496 3c3d 4235 a8bd bc2d 16bd
000002e0: 9cd6 dbbd 5064 54bd 200a aabd 30db 7c3d
000002f0: 1807 483d e009 eebb e8c2 23bd a010 54bd
00000300: 4ce7 fbbd 00a9 bcba 7a12 d83d 60aa 7abc
00000310: 1c36 5ebd 3014 bb3c 2081 913c 444c 1a3d
00000320: 52cf f9bd 8e58 cf3d 1e4d f23d 00b2 3e3a
00000330: 58fd a5bc 6298 9abd 90bf 1dbd 54d1 e3bd
00000340: b84e 873d 2c6c 9abd 08cc b83c 9e83 843d
00000350: 4837 603d 90f7 a8bc eca9 e83d a43c 94bd
00000360: 2af6 e83d 3817 54bd 0ce8 803d c015 853c
00000370: 0cc0 abbd de25 d63d 8e86 983d a0e5 c93d
00000380: d255 debd b060 02bc 2044 733d 3088 61bd
00000390: 681d 98bc eae5 f03d f0c8 82bc 1cf4 d0bd
000003a0: 283c af3d 704a 673c 80bf 3cbc f0d6 93bc
000003b0: a03e 0e3d 0098 f838 5a39 a53d 2447 e33d
000003c0: 6055 47bc e8e0 a43c 723a 993d 5ea3 b3bd
000003d0: d001 38bc e065 c6bc 0050 a83a 78d3 2d3d
000003e0: 9020 ddbd a018 eb3c 9086 193d 648c 683d
000003f0: 8c38 733d bc66 64bd a0f9 7b3c b418 50bd

fc4.bias f4 [5]
-0.049710646 -0.048904404 -0.02700691 -0.10363574 0.10273799
00000000: 649d 4bbd fc4f 48bd 983d ddbc fa3e d4bd
00000010: 4c68 d23d
