CC_Reinforce_version_3_copy/tmp/highway/state_dict_model0.1.pt (torch, 84151 bytes, 6 tensors)

fc1.weight f4 [128, 25]
000000 e0 a1 d9 bb a7 79 26 3d 6d b7 89 3d e7 89 16 3e
       -0.0066416115 0.04064336 0.06724439 0.14701043
000010 9a fb 68 3d 90 91 3c 3e 7f 1d 2f 3e 9b 09 81 3b
       0.05688057 0.18414903 0.17101096 0.0039379126
000020 1a 69 44 3d 8c 4c ec bc 7e 0d 73 3e 7a 80 65 3e
       0.047951795 -0.028845094 0.23735616 0.22412291
000030 26 1b 41 3e f6 82 e9 3d 96 f9 2b bd 59 a0 c4 bd
       0.18858013 0.11401932 -0.04198607 -0.096008964
000040 8e a2 0a bb f1 50 03 3e c1 40 01 3e ce 95 99 3d
       -0.002115402 0.12823845 0.12622358 0.07499276
000050 3c 99 00 be 98 d3 03 3e e3 9f 14 be f8 40 d0 3d
       -0.12558454 0.12873685 -0.14514117 0.10168642
000060 96 54 3a 3e d2 3f df 3c 0d b5 ac 3d c4 bd 44 3e
       0.1819633 0.027252112 0.0843297 0.19213015
000070 fb d1 28 bd 6a e9 00 3e 18 23 3c 3e b2 8b 41 be
       -0.041215878 0.1258904 0.18372762 -0.18900946
000080 b0 87 d7 3d 1c 6b 87 bd e7 9e c1 3d 29 33 df bd
       0.10523927 -0.06612226 0.09454136 -0.1089843
000090 e5 f6 ec 3c 3b 8c 6c 3d 0c 77 e8 bd 31 ca 87 3d
       0.028926322 0.05775092 -0.113508314 0.06630362
0000a0 e9 c9 c8 3d 45 6a 09 be 2a 23 e7 3d f4 9a ee 3d
       0.09804136 -0.13419445 0.11286004 0.11650649
0000b0 e0 69 df bd 29 cf 25 be 16 75 f4 3d 49 1d 33 3e
       -0.10908866 -0.16192307 0.11936395 0.1749164
0000c0 b8 6f 26 3e 6d 45 60 3c 98 bc e5 bc fa 6f b7 bd
       0.16253555 0.013688427 -0.02804403 -0.08956905
0000d0 24 a8 6c 3d 1d 96 43 3e 08 bc 2a bd 8e f4 26 be
       0.05777754 0.19100232 -0.041683227 -0.16304228
0000e0 77 c0 23 3e c0 51 90 bc d3 4b dc bd a0 5b 17 bc
       0.15991388 -0.017617106 -0.1075665 -0.009238154
0000f0 ae c9 ba 3d 98 db 7c bd b3 14 bd bd e7 f9 32 be
       0.091204986 -0.06173286 -0.09232464 -0.17478143
000100 f8 87 45 3d 63 ca 24 3e 2b fa 49 3e a0 45 ef bb
       0.048225373 0.1609283 0.19724338 -0.007302001
000110 68 f7 85 bc 6f 31 48 be d0 2b b7 bd b0 ce 2f be
       -0.016353324 -0.19550107 -0.089439034 -0.17168689
000120 ad 34 1a 3e 36 d2 14 be cd 76 ba bd 0c aa 89 bd
       0.15059157 -0.14533314 -0.09104691 -0.06721887
000130 63 8c fa bd 78 f2 2d bd 19 90 3f 3e 40 49 38 bb
       -0.12233808 -0.042467564 0.18707313 -0.0028119832
000140 57 24 a5 bd 86 03 ea 3d f7 6a 9b bd a8 11 32 3d
       -0.08063572 0.11426453 -0.07588761 0.04347387
000150 8a 6d df 3d 8d 52 d6 bd b7 70 d4 bd 7d 8c 46 3e
       0.10909565 -0.10464964 -0.10373061 0.1938953
000160 6a 53 f3 bd 10 6c 95 bd 6a b0 b6 3d 33 9b 33 3e
       -0.11881144 -0.07296002 0.08920367 0.17539673
000170 c9 8b 41 3e 60 a6 45 3c 5d ba f3 bd 5c c2 8a bd
       0.1890098 0.012063593 -0.1190078 -0.06775352
000180 17 b8 41 3e 00 a8 c3 b8 87 3e f1 bd 7a bc df bd
       0.18917881 -9.329617e-05 -0.11779504 -0.10924621
000190 4b e3 20 3d 15 dd 08 bd 46 1f 4d 3e a6 26 50 3d
       0.039279263 -0.033413965 0.20031461 0.050818108
0001a0 40 fb c4 bc c1 a8 8b 3d 75 2e 93 bc f7 98 a3 bd
       -0.024045587 0.06819297 -0.017966488 -0.0798816
0001b0 5f ed 22 bd 53 91 c3 3d 5e 4a 2c 3e 11 65 83 3d
       -0.039777156 0.09549203 0.16825244 0.06415761
0001c0 7a ed 57 bd 03 14 5a bd d8 89 fc 3d c2 97 2b 3e
       -0.05271671 -0.05324174 0.12330979 0.1675711
0001d0 6c 01 b9 3a 27 d4 14 bd 7a 39 7e bd f3 33 e0 bd
       0.0014114804 -0.036335137 -0.062066533 -0.109474085
0001e0 e6 d8 26 3e 91 b3 ea 3d 1b 98 02 3e 67 55 39 3d
       0.16293678 0.11460031 0.12753336 0.04524746
0001f0 23 5a 1d 3d 3c fe 28 3e fc 17 ec bd 1d c8 6e bd
       0.03841604 0.16503233 -0.11528012 -0.05829631
000200 c8 3b c9 bd 32 60 b4 3d 07 52 c1 bc 4e 07 7a bd
       -0.098258555 0.0880741 -0.023598684 -0.061042123
000210 6a 9f 17 be 16 37 b3 3d cc 9b 46 bc fa b8 44 3e
       -0.14806905 0.08750741 -0.012122106 0.19211188
000220 47 0c 0f 3e 8c 03 76 bd 43 1d 94 bd 56 9b 42 3e
       0.13969527 -0.060061976 -0.07232144 0.19004568
000230 ce ac 39 3e c7 9f 92 bc 25 8a 00 be f4 b5 69 bc
       0.18132326 -0.017898453 -0.12552698 -0.014264572
000240 1b b0 59 3d 9e ac 60 3e 04 59 1f be 86 1d a3 bd
       0.053146463 0.21940848 -0.155613 -0.079646155
000250 b6 bd 02 bd 47 bd 67 bc 1b 36 8a bd 82 7f bd 3d
       -0.031919204 -0.014144248 -0.06748601 0.09252836
000260 2c 57 26 3e f2 c3 00 3e ef 39 92 3d 08 3c 29 3e
       0.16244191 0.12574747 0.07139956 0.16526806
000270 55 21 08 3d f4 16 2b 3d 8d fd 86 bd 0a db 19 3c
       0.033234913 0.041769937 -0.0659133 0.009390602
000280 99 90 64 3e d4 51 bf 3d 16 73 64 bd 2c 4b 01 3e
       0.22320785 0.09341779 -0.055773817 0.12626332
000290 1b cb 0e 3e 79 62 71 bd 3e 8c 63 bb f1 3e 1f 3e
       0.13944666 -0.0589318 -0.0034721042 0.15551354
0002a0 7c a1 7c bc 61 8d 8b ba dc b5 47 3d 4c b4 b7 3d
       -0.01541936 -0.0010646993 0.04875742 0.08969936
0002b0 e0 24 32 be d5 96 25 3e 34 b9 45 3d 7e 76 fb bd
       -0.17396879 0.16170819 0.048272327 -0.1227846
0002c0 76 1c 06 be ad 0c 48 3e d4 c8 9e 3d 82 07 d1 bd
       -0.13096794 0.19536085 0.07753149 -0.1020651
0002d0 2c 63 2b 3e 3d e5 13 be b4 d0 0a 3e 7f 23 b5 bd
       0.1673705 -0.14442916 0.13556176 -0.08844661
0002e0 56 50 10 3e 30 71 e0 3d 97 fa e9 3d 38 1e 0e 3e
       0.14093146 0.10959089 0.11424749 0.13878715
0002f0 c6 59 b6 3a 46 6d 85 3c 3f 61 62 bd f1 9c 34 3e
       0.0013912253 0.016287457 -0.055268522 0.17637993
000300 be 80 d0 bd 37 33 08 3e 4a 14 24 3e 6d d9 30 3a
       -0.101808056 0.13300787 0.16023365 0.0006746266
000310 df f2 2d 3e 91 b7 13 3d c2 60 0a 3d 4f 37 be bd
       0.16987179 0.036063734 0.03378368 -0.09287893
000320 34 84 43 3e ab ef 57 3e 02 94 95 bd 33 81 ea bd
       0.190934 0.2108752 -0.07303621 -0.11450424
000330 fe d8 08 be 33 a6 21 3d 86 22 3b 3e b5 53 02 3e
       -0.13364026 0.03946514 0.18274888 0.12727244
000340 af b2 55 be c7 61 4f 3e fa 9c 8d 3d a6 d0 1f be
       -0.20868944 0.20252143 0.069147065 -0.15606937
000350 cd dc bb 3d e1 86 92 3d 0d 71 99 3d 3a 42 b7 3d
       0.09172974 0.07154632 0.07492266 0.089481786
000360 12 c6 59 3e 44 66 ec 3d c7 3d 5d bd cf ad 1f bd
       0.21266964 0.11542943 -0.054013994 -0.038984116
000370 fa 45 c7 3d 0d b4 0a 3e 4f d1 bc bd 5a ba 28 3e
       0.09730144 0.13545246 -0.0921961 0.16477337
000380 f2 59 47 be d8 07 86 3d 62 1b 98 3c 06 2b aa bc
       -0.19467905 0.06544465 0.018567745 -0.020772468
000390 24 2c 9d bd 14 dd ab bd f8 b3 6b 3c ec 38 23 3e
       -0.07674435 -0.08391777 0.01438617 0.15939683
0003a0 74 d8 39 3e 8b 3d c1 3b 19 44 70 3c 7d 38 09 3d
       0.18148977 0.005897229 0.014664673 0.033501137
0003b0 08 d0 b6 3d 7a e4 9d bd cf 75 c7 bd 6c 08 06 3c
       0.089263976 -0.07709594 -0.09739267 0.008180719
0003c0 9b 54 16 be 1d c7 2f 3e f7 e9 91 bd 50 9d ae 3d
       -0.14680712 0.171658 -0.071247034 0.08526099
0003d0 e5 0e 41 3d 5d 1d 03 3e 6a e9 06 3d b6 77 d4 3d
       0.047133345 0.1280417 0.032937445 0.103743955
0003e0 ad f9 c0 bd d7 b8 7b bd 71 da f8 3d 8b e5 42 be
       -0.09422622 -0.061455574 0.121510394 -0.19032876
0003f0 50 33 97 3d 03 a2 ab 3d 99 50 22 3d 06 c8 67 3b
       0.07382834 0.08380511 0.039627645 0.0035367026

fc1.bias f4 [128]
000000 15 6d cd bc 46 58 31 3d cf 66 41 be 3d ba 18 be
       -0.025076428 0.043297075 -0.18886875 -0.14914794
000010 be be 17 3e 7a 3f 29 3e 75 9a ba 3d bc 0f 0d 3e
       0.14818856 0.1652812 0.091114916 0.13775533
000020 32 4d 4c 3e 4c 09 25 3e 3b 4a d0 bd 30 2f 3b be
       0.19951323 0.16116828 -0.10170408 -0.1827972
000030 6a dc a2 bc 53 d2 51 3e 69 12 04 3e 68 02 06 be
       -0.019880492 0.20490389 0.12897648 -0.13086855
000040 91 4e fd 3c b3 71 29 3d c7 e5 24 3e 16 39 a5 bc
       0.030921252 0.041368198 0.16103278 -0.020168822
000050 48 64 81 3d ca 86 0b 3e 85 fd ec 3d fa 43 36 be
       0.06317955 0.13625637 0.115717925 -0.17799369
000060 30 f6 60 bc e9 19 d8 3d ee a6 c8 3d de 99 c8 3d
       -0.013730571 0.10551817 0.09797464 0.09794973
000070 1b 0d 63 3e 42 9d c8 3d e5 ed 00 be eb e3 2e be
       0.22172968 0.097956195 -0.1259075 -0.17079131
000080 ac 90 3e be 91 ba 62 3e 0d 82 93 bc bb f2 12 be
       -0.18609875 0.22141482 -0.018006349 -0.14350407
000090 33 bc 46 3e d7 e1 17 be 07 d9 df bd 37 b6 6c bd
       0.1940773 -0.14832245 -0.109300666 -0.05779096
0000a0 4a a2 e0 3d 7e 0e fa bd 92 4d 0d be fe 32 4a bd
       0.10968454 -0.122097954 -0.13799122 -0.049365036
0000b0 b0 02 4e 3e 3b 25 5e 3d ad 5e 17 3e c0 69 02 be
       0.20118213 0.054234724 0.1478221 -0.12735653
0000c0 04 41 22 3d 48 73 1c 3e 76 de 59 3c c7 07 11 be
       0.039612785 0.15278351 0.013297668 -0.14163123
0000d0 c1 a8 c8 bd 6a 48 9a bd c3 31 37 3e f1 59 51 3e
       -0.09797812 -0.07533343 0.17890076 0.20444466
0000e0 af 56 85 3d 89 f3 00 3e f2 5f 14 3d 80 b3 c7 bd
       0.06510674 0.12592901 0.036224313 -0.09751034
0000f0 c2 58 da bd ba 2f 4b 3e 2c 7d 8e bd 1a a3 ec bd
       -0.106614605 0.19842425 -0.069574684 -0.11554547
000100 c2 e1 a9 3d ba 67 30 3e b0 74 3a be ca a2 29 3e
       0.08295013 0.17227069 -0.18208575 0.16566005
000110 f3 d2 28 be 6d 81 e5 3d 12 cd 93 3d 3d 7d 86 ba
       -0.1648672 0.11206327 0.072168484 -0.0010260713
000120 9f a3 e2 3d ed e3 92 3d e0 fc 25 3e 44 12 d0 bd
       0.110663645 0.0717238 0.16209745 -0.10159734
000130 42 74 2e be fd f9 3a be f2 0e c7 3d 10 1f 5c 3c
       -0.17036536 -0.18259425 0.097196475 0.01343514
000140 3a 2c f8 3c 3d ca ea bd e3 83 b3 bd fb 32 89 bd
       0.030294526 -0.11464355 -0.0876539 -0.06699177
000150 6f f3 af 3d b8 d6 32 be c5 c7 4c 3d 2c aa 33 3c
       0.08591353 -0.17464721 0.049995203 0.010965865
000160 8c cc d3 bd f9 ca 9f bd fa 6c 08 3e 10 48 79 3e
       -0.103417486 -0.07802386 0.13322821 0.24343896
000170 a8 54 12 bb 0b da 1f bd 14 7f d0 3d bd db 24 bd
       -0.002232829 -0.0390263 0.10180488 -0.04024862
000180 8d 78 61 3d 00 f0 89 38 ed c9 f5 3c b7 1f 60 3e
       0.055046607 6.5773726e-05 0.030003512 0.21887098
000190 a0 d4 21 be 08 e5 19 3d 2d d3 3f 3e 17 7c 02 be
       -0.15803766 0.037571937 0.18732901 -0.12742649
0001a0 50 74 8c bd 59 a7 21 be 68 28 2b be 26 fa ae bd
       -0.06858122 -0.15786494 -0.16714633 -0.08543806
0001b0 7d 9b 2e be 51 72 2b 3e 32 12 29 be 2c 38 cc bd
       -0.17051502 0.16742827 -0.16510847 -0.099716514
0001c0 30 72 12 3e 01 7e 4f be d4 2f 11 bd 59 08 f2 bd
       0.14301372 -0.2026291 -0.035446003 -0.118179984
0001d0 94 63 4f be 63 92 13 3e 90 4b 4a bd b5 17 67 3e
       -0.2025283 0.14411311 -0.04938847 0.22567637
0001e0 9b e9 9f 3d 30 3b a8 3d ee 94 66 3e 4a bc bd 3d
       0.078082286 0.08214414 0.2251775 0.09264429
0001f0 84 72 26 3e 12 7e 29 3e 50 11 14 3e 75 13 5a bd
       0.16254622 0.16551998 0.14459729 -0.053241212

fc2.weight f4 [128, 128]
000000 5e 16 63 3d 04 78 0e bd f0 bd 97 bd 38 8d b0 bd
       0.055441253 -0.034782425 -0.074092746 -0.08620685
000010 50 10 bd bc 98 91 99 3c 68 65 c4 bc 32 d9 7e bd
       -0.023079067 0.018746182 -0.023974136 -0.062218852
000020 f7 1e 77 bd d2 9e 0d 3d 12 30 3d 3d 38 2a 46 bc
       -0.060332265 0.03457529 0.04618842 -0.012095027
000030 c2 91 25 bd ef ef 3d bd b8 c7 53 3c 22 4f 4f 3d
       -0.04042221 -0.046371397 0.012926035 0.050612576
000040 d0 da dc 3b ba 28 11 3d 56 b3 76 3d 40 6c be 3a
       0.0067399517 0.03543923 0.06022962 0.0014528111
000050 08 5c 9d bc bc d6 e1 3c 7f d2 a9 3d 10 d6 34 bc
       -0.019208923 0.027568214 0.08292102 -0.011037365
000060 6e f3 49 3d 68 aa 58 bd 54 4b 86 3c c5 45 97 bd
       0.04930442 -0.052896887 0.016393341 -0.07386354
000070 84 4f fa 3c 6a 81 17 bd 10 55 a2 bd cb c0 12 bd
       0.030555494 -0.036988653 -0.07926381 -0.035828393
000080 20 03 37 bb 8e 57 6e 3d cf 6e 91 3d 40 43 53 bd
       -0.0027925447 0.058188967 0.07101213 -0.051577806
000090 c0 85 4b 3c c8 06 b4 3c 9b db 81 3d 42 83 4a 3d
       0.012422025 0.02197589 0.063407145 0.049441583
0000a0 96 0d 94 bd c0 e8 47 bc c8 b4 8b bd 50 51 5c bc
       -0.07229154 -0.012201488 -0.06821591 -0.013447121
0000b0 0f 77 1e bd 1d 7e 9e bd 6a b0 57 3d ba 62 09 3d
       -0.038687762 -0.07738898 0.052658476 0.03354142
0000c0 31 d4 9f bd b0 29 d6 bb 17 de b1 bd 81 76 89 3d
       -0.07804144 -0.0065357313 -0.086849384 0.06712056
0000d0 d9 72 b4 bd 70 55 d3 bb 60 39 53 3b 68 2c 15 bd
       -0.08810968 -0.006449394 0.0032230243 -0.036419302
0000e0 40 30 63 bc 71 85 b1 bd 60 54 de 3b d0 14 e7 3b
       -0.013866484 -0.0866803 0.0067849606 0.0070520416
0000f0 60 2d 95 3c 7b ea aa 3d c0 9e 91 3c ba 26 5f 3d
       0.018210113 0.08345505 0.017775893 0.054480292
000100 da e4 6f bd aa 94 67 3d 10 51 c1 bc 3d 05 9d 3d
       -0.05856786 0.05653826 -0.023598224 0.07667015
000110 83 18 64 bd b5 af 9f 3d 70 c4 0a bc 4a eb 0d 3d
       -0.05568744 0.07797185 -0.008469686 0.034648217
000120 aa 0e 92 bd 2c 3c 85 3c 71 a1 13 bd 80 e4 a6 3c
       -0.07131703 0.016264044 -0.036042634 0.02037263
000130 b3 65 92 3d 3e 31 4f 3d c6 13 28 3d 5a b2 82 bd
       0.07148304 0.05058407 0.041034482 -0.06381674
000140 ec bd cb 3c 70 d7 91 3c 4f 84 1d bd 0e 44 92 bd
       0.024870835 0.017802924 -0.038456257 -0.07141887
000150 54 e3 03 3d 55 ee 2a bd e0 15 2d bc 20 80 1f bd
       0.03219922 -0.041731197 -0.010564297 -0.03894055
000160 88 bf 88 3c a2 4b 6b bd 8b 81 93 3d a6 b2 29 3d
       0.016692892 -0.057445176 0.07202443 0.041430138
000170 e8 ba ab 3c f8 76 b0 bd 18 b7 38 bc 3e 9f 38 3d
       0.020963147 -0.086164415 -0.011274122 0.04507374
000180 a4 90 f6 bc 00 1a 91 ba 45 3e 5b bd b0 c7 3c bd
       -0.030098267 -0.0011070371 -0.05352618 -0.046088874
000190 9c da 92 bd 3e 26 0e 3d 74 1b 1a bd fb eb ac 3d
       -0.07170603 0.03470444 -0.037623838 0.08443447
0001a0 30 f4 19 3c d8 8c 66 3c ae c1 4b 3d 0f 58 a5 bd
       0.009396598 0.014071666 0.049745254 -0.080734365
0001b0 6f 34 98 bd ca 5d 2e 3d f3 1d a4 3d 40 5e b5 bc
       -0.07431876 0.042569913 0.08013525 -0.022139668
0001c0 a4 47 95 bd c8 f4 10 bc fc 42 b1 bd b0 f9 73 bc
       -0.07289055 -0.008847423 -0.086553544 -0.014891073
0001d0 e2 bd 68 3d 10 b8 80 3b d7 a7 ab 3d ff 5a 11 bd
       0.05682171 0.003928192 0.08381622 -0.03548717
0001e0 84 97 94 bc e6 b7 3d 3d b8 d1 48 bc 22 ef 32 3d
       -0.018138655 0.046317957 -0.012257032 0.043685086
0001f0 62 15 9a bd 3c 37 d4 3c cb 94 8c 3d 60 cd 99 bd
       -0.0752361 0.025905244 0.068643175 -0.07509875
000200 04 71 53 3d 3f 1f a4 3c 52 02 15 3d 8b 52 b4 bd
       0.051621452 0.02003443 0.036379166 -0.08804806
000210 55 72 19 3d 8f 89 15 bd bf 97 bd 3b 03 76 5b bd
       0.03746255 -0.03650814 0.005785912 -0.05357934
000220 91 a5 06 bd 3a b9 3b bd 0f 85 c7 3c 6b 1f 9f 3d
       -0.03287274 -0.045830943 0.02435544 0.077696644
000230 24 df 6f 3b df a0 1e bd 29 b7 a7 3b 2f d9 6b bd
       0.0036601508 -0.038727637 0.00511827 -0.05758017
000240 40 69 14 3c 5d e3 28 bc db 9a 7d 3d 1a 19 b1 bd
       0.009058297 -0.010308114 0.06191526 -0.08647366
000250 af 6a 93 3d da 5c 83 bd 20 2c a3 bd 51 1d 95 3d
       0.07198083 -0.064141944 -0.079674006 0.07280982
000260 96 dd 16 3d bc 54 dc bb 29 7f 94 3d a7 93 28 bd
       0.036832415 -0.0067239683 0.072508164 -0.041156437
000270 b2 c2 97 3d 79 b7 1d bd 99 d3 a6 bd 8b ce 39 bd
       0.07410182 -0.03850505 -0.08145828 -0.04536299
000280 63 0f 59 3d c0 1f 9d bd 22 21 87 3a 3d 74 95 3d
       0.05299319 -0.076720715 0.0010309557 0.07297561
000290 c8 3a a3 bc 76 8a 64 bd 90 fa 85 3c 51 d8 a0 bd
       -0.01992549 -0.05579611 0.01635483 -0.07853759
0002a0 10 8a a0 3d a4 d5 1c 3c 43 8b 3d 3c 37 10 3a 3d
       0.07838833 0.00957242 0.011568847 0.04542562
0002b0 cc cc eb bc 6a 13 98 3d b6 10 8f bd 92 50 ac bd
       -0.028784178 0.07425578 -0.06985609 -0.08413805
0002c0 e1 56 9b bc 1e 9c a9 bd 6c e7 fd 3c b5 91 91 bd
       -0.018962326 -0.0828173 0.03099414 -0.071078695
0002d0 37 ea 6b bd 88 4e 4c bc a4 29 a1 3d 18 b5 4a bd
       -0.05759641 -0.012469895 0.078692704 -0.04948911
0002e0 0b b1 fe ba 38 59 76 bd 3b 45 85 bb 59 92 b2 bd
       -0.0019431425 -0.06014368 -0.004067091 -0.0871932
0002f0 f9 d9 a4 bd 3c ac 94 bc 76 92 7f 3d e7 60 80 bd
       -0.080493875 -0.018148534 0.062395535 -0.06268483
000300 27 b0 db bb 91 9f a7 3d 5a 59 b2 bd 0c c1 27 3d
       -0.0067043486 0.08184732 -0.08708449 0.04095559
000310 8e 3f de bc 18 e1 57 bd 85 29 88 bd 3b 28 1c 3d
       -0.027129915 -0.0527049 -0.06648544 0.038124304
000320 3b 33 c5 bc f7 cc 92 3d 45 06 ed bb 2d bd 81 3d
       -0.02407228 0.07168 -0.0072334134 0.063349105
000330 bb 78 a3 3d 78 ae d7 bc a0 bb 85 bb 84 f0 28 bd
       0.07982012 -0.02632831 -0.0040812045 -0.041245
000340 f9 4a 80 3d 2f 1f 97 3d 24 f3 04 3c c5 e4 79 bd
       0.062643 0.07378995 0.00811461 -0.061009187
000350 c1 d4 1b 3d 7f 96 81 bd ea ce 19 bd ca 7b 3c bd
       0.038044695 -0.06327533 -0.037550844 -0.046016492
000360 79 c7 9c 3b 2d 40 7a 3c 82 d9 74 3c 28 10 79 3d
       0.004784521 0.01527409 0.014944436 0.060806423
000370 7e 20 70 3d 47 eb 66 3d 22 f1 a5 3c 04 97 9c bd
       0.058624737 0.05637672 0.020256583 -0.076459914
000380 c2 9a 99 bd 03 d5 9c 3d e6 56 aa bd b7 08 ff 3b
       -0.07500221 0.07657816 -0.08317356 0.0077830213
000390 6c c9 ed 3c 76 56 21 3d b5 bd 1e 3d 8c 02 9a bc
       0.02902671 0.039389096 0.038755137 -0.018800043
0003a0 3d 11 a2 bd 8b fc 79 bc 30 47 4e bc 40 5c 88 bd
       -0.07913444 -0.015257965 -0.012590215 -0.0665822
0003b0 4c a5 5d bd a7 ee 3f 3d 2f 7a 37 3b a5 81 8c bc
       -0.054112718 0.046858456 0.002799641 -0.017151663
0003c0 8e 04 fc ba f1 f4 b5 3d e8 1e b5 bc 6e 73 b5 3c
       -0.0019227432 0.088846095 -0.022109464 0.022149768
0003d0 65 8b 50 bd 32 97 3c 3d 5c f4 b7 bd c7 4b 00 3d
       -0.050914187 0.04604263 -0.08982155 0.031322267
0003e0 22 07 03 bd 30 7f 0d 3c 67 f0 2a 3c 23 b0 2d 3d
       -0.031989224 0.008636281 0.010433293 0.042404305
0003f0 9a 2b 8e 3d bd 24 97 3d 60 6a 65 bd b6 68 8f 3c
       0.0694191 0.07380054 -0.05600965 0.017505985

fc2.bias f4 [128]
000000 f2 b4 fa bc 18 03 14 3d 00 8b 81 3d 0c 6a f2 bc
       -0.03060386 0.036135763 0.0632534 -0.029591583
000010 9b b8 34 bd ef 75 05 3d 6b 9d c7 3d cb a1 a2 3d
       -0.044121366 0.032583173 0.09746822 0.07941016
000020 f5 97 8e 3c 34 fc 52 bd 45 4b 9f bd 9a 09 a5 bd
       0.017406443 -0.05151005 -0.077780284 -0.08058472
000030 18 db 84 bd d3 3e ae bc f2 d4 c1 3d 44 1e 2d 3d
       -0.06487101 -0.021270191 0.09464444 0.04226519
000040 4a c2 94 3c 08 c3 d0 3d 42 6b bd bb aa 07 b1 3d
       0.01815905 0.10193449 -0.0057806084 0.0864404
000050 82 54 c4 3d 97 ed a2 3d bd 9a 84 3c 4e a8 e5 3d
       0.09586431 0.07955473 0.016187066 0.11213742
000060 7f 72 72 bc ed d0 da 3d 40 7a 89 bd 2b 2b 91 3d
       -0.014797806 0.10684381 -0.067127705 0.07088312
000070 84 9a 17 3d 74 f0 f0 3c 91 b7 db 3d ba 80 18 3d
       0.037012592 0.029411532 0.10728372 0.03723214
000080 35 da bb 3d 62 98 8c bd 2f bf a3 bd 98 df 95 bd
       0.09172479 -0.06865002 -0.0799545 -0.07318038
000090 35 bc 1a 3d 41 15 13 bd d3 d5 0b bd ad e9 8d bd
       0.037777144 -0.03590894 -0.034139466 -0.06929336
0000a0 02 7c 49 3c ad 27 9d 3d 3b aa 8b bd 8f 81 8a bd
       0.012297632 0.07673583 -0.06819578 -0.067629926
0000b0 00 6f e2 bc 5c 8b 93 3d 74 21 1b bc e1 99 65 3d
       -0.02764082 0.07204315 -0.009468425 0.056054953
0000c0 62 35 01 bd 4b 68 ce bc 72 cc f6 3d a7 9b c8 3d
       -0.03154505 -0.025196215 0.120507136 0.09795313
0000d0 1d bb 6c 3d 5b ae be 3d 92 1c 92 3d e5 44 89 3d
       0.057795633 0.093105994 0.071343556 0.06702594
0000e0 d3 cb 7e 3d 75 40 36 bd e6 43 43 bd d4 02 67 bd
       0.0622061 -0.044495065 -0.047672175 -0.05639918
0000f0 4e 9d 54 3d 12 a4 06 bc bc 02 91 3d 3d 63 b9 bd
       0.05190783 -0.008217828 0.070806 -0.09052131
000100 1f 42 a1 3c 00 70 42 3c a9 d0 ac bd 03 0e b9 3c
       0.01968485 0.011867523 -0.08438236 0.02258969
000110 98 26 4f 3d 24 18 b3 3d 96 66 dd 3b 9f 99 81 bb
       0.050573915 0.08744839 0.006756614 -0.0039550806
000120 16 97 91 bd 87 62 28 3d b2 67 d9 3c c2 92 a3 3d
       -0.071088955 0.041109588 0.026538704 0.07986976
000130 0c 01 ed ba 19 73 8e bd 88 44 78 3c a3 6d 7f 3d
       -0.0018081977 -0.06955547 0.015153058 0.062360417
000140 22 de 95 bd 90 86 2a bd 85 8c 1b bd 31 95 ce 3d
       -0.07317759 -0.041632235 -0.037975807 0.1008705
000150 99 f3 79 3d 15 34 bb bd 36 b6 74 3c c7 78 5c bd
       0.06102333 -0.09140793 0.014936021 -0.05382612
000160 3e dd b1 bd 67 27 3a 3d e2 5c 88 bd df 18 a1 bd
       -0.08684777 0.045447733 -0.06658341 -0.07866072
000170 8b ea a1 bd 1b dd 1a 3b cb c5 02 3c 9d c8 a3 bd
       -0.07906064 0.0023630324 0.007981728 -0.07997248
000180 77 99 a8 3d 1b ef 6a bd 95 95 f4 3d 60 57 95 bd
       0.08232396 -0.057356935 0.11942593 -0.07292056
000190 ff 4b b5 bc 36 94 03 3d 04 9e 51 bd 92 e5 0d bd
       -0.022130964 0.032123767 -0.051176086 -0.034642763
0001a0 ab fd 98 3c 4f 2b 95 bd 04 fe ce bb 8d c2 89 bd
       0.018675646 -0.07283651 -0.006316902 -0.06726561
0001b0 e9 2b 8e bd 65 c7 39 bd db 2d 71 3b 63 21 a3 3d
       -0.06941969 -0.045356173 0.0036801014 0.079653524
0001c0 fb 04 ab bc 70 73 a7 3d bd 6f 85 bc 7f 68 b1 bd
       -0.020876398 0.08176315 -0.016288633 -0.08662509
0001d0 c7 93 46 3c e0 90 f7 3c bb 84 0e 3d 0a d2 26 3d
       0.012120194 0.030220449 0.03479455 0.040727653
0001e0 e2 b6 1b 3d d9 14 1d bd 35 38 52 bd 53 b8 99 3d
       0.038016208 -0.03834996 -0.051323134 0.0750586
0001f0 24 9b ed 39 dc 63 13 3d 9c e7 e7 3d 73 eb c9 3d
       0.0004531975 0.035983905 0.11323473 0.098593615

fc3.weight f4 [5, 128]
000000 10 53 b2 bb eb 57 a8 bd b4 da 7e 3d 1e 1a 1a bc
       -0.0054420307 -0.08219894 0.06222029 -0.009405641
000010 20 f5 d7 bd 8d 87 0e 3d b8 51 89 bd ba 30 98 bd
       -0.10544801 0.03479724 -0.0670504 -0.07431169
000020 50 19 bc bd f6 93 59 3d ea aa 82 3d 47 76 6a 3c
       -0.091845155 0.053119622 0.063802555 0.014310426
000030 f2 90 a5 3d 37 7a f9 bc 6d dd 36 bd b6 71 ce 3b
       0.08084287 -0.030453784 -0.04464476 0.0063001765
000040 85 bc 06 3c 21 86 10 3d a6 a7 7b 3c ef 97 d7 3c
       0.0082236575 0.035284165 0.015359795 0.026317565
000050 17 53 28 bd bb 41 43 3d 78 59 33 bd ca 8c db bd
       -0.041094866 0.047670107 -0.043786496 -0.10720213
000060 be f7 b7 bd 53 4b 14 3c 50 bb 3f bd 30 95 ec 3b
       -0.089828 0.009051162 -0.046809494 0.007219933
000070 fe c4 91 3d f3 ce ca bd 44 49 e7 bc 11 b1 df 3c
       0.071176514 -0.09902754 -0.028233178 0.027306112
000080 98 91 9a bd 7c 96 50 bd d0 c9 db bb de 16 6c 3d
       -0.07547301 -0.050924763 -0.0067074075 0.057638995
000090 b7 77 58 bc e6 92 86 bc e8 ef 4b bd 34 a8 3b bd
       -0.013212136 -0.016427469 -0.04978934 -0.045814708
0000a0 80 dd 59 bd 57 f6 20 bd 32 fe 7f 3d ef 84 af bd
       -0.053189754 -0.039297428 0.06249828 -0.08570277
0000b0 78 82 39 3c 47 c5 4b 3c 49 f4 5f bd 39 fb 25 bd
       0.01132261 0.012437171 -0.054676328 -0.040522788
0000c0 48 ae 11 3d 0e 68 8a bd 4a f0 0d 3d 62 96 b8 bc
       0.0355666 -0.06758128 0.034652986 -0.022532646
0000d0 e7 be 7d bd 71 22 c3 bd 4f da 5d 3d 75 2a 62 3c
       -0.061949637 -0.095280536 0.054163273 0.013804068
0000e0 60 0d 74 bd c1 9b 39 bd d8 96 11 3d 9f c8 90 bd
       -0.059583068 -0.045314554 0.035544246 -0.070695154
0000f0 6d a6 51 bd 50 53 9b bd e6 c1 3d bd 50 b1 8a bd
       -0.051184107 -0.0758425 -0.046327494 -0.06772101
000100 b8 17 e9 3c c5 98 50 3d ca 3f 65 3d 29 a5 c0 bd
       0.028453693 0.050926942 0.055969037 -0.09406502
000110 65 06 bc bd 48 24 6d bc b0 f7 4e bd be d7 10 bd
       -0.09180907 -0.014473982 -0.050529182 -0.035361998
000120 5c 1d 45 bd 48 59 a7 bd 8b ed 79 bd 3e 44 ca bd
       -0.048123702 -0.08171326 -0.061017554 -0.098762974
000130 dd cf 5c 3d ad 6f 9a 3a 60 69 c8 bb 7e 33 a3 bd
       0.05390917 0.001178255 -0.0061160773 -0.07968806
000140 58 52 9a 3d b0 65 5a 3c 04 dc a4 3c 0f 93 c3 bd
       0.07535237 0.013329908 0.020124443 -0.095495336
000150 92 bc 80 bd 77 4e 21 bd 43 f7 13 3c 94 b8 d1 bc
       -0.06285967 -0.03938147 0.00903112 -0.025600709
000160 bb e8 95 3d ca 78 2e bd 20 77 27 bb 14 1b 8e bc
       0.073197804 -0.042595662 -0.0025553182 -0.017346896
000170 2c 65 87 3d 82 d4 43 3d 2f 46 f4 3c 83 d7 f3 ba
       0.06611094 0.047810085 0.029818622 -0.0018603656
000180 d5 dd a5 bb d2 6b 99 bc 20 62 57 bd 8e ba 05 3d
       -0.005061845 -0.01872817 -0.052583814 0.032648616
000190 ba 18 00 3d 41 6a a1 bd ba 2a 0d 3c 9c 8f 8b bc
       0.03127358 -0.078815944 0.008616144 -0.017036252
0001a0 9d 5e a9 3d 0e fc b6 bc 34 07 f0 bc 2d 67 2e 3d
       0.08269999 -0.022336986 -0.02930031 0.042578865
0001b0 01 51 fb 3c 38 ef 88 3d 7e 2c 0e 3c 8b e0 a2 3d
       0.030678274 0.06686252 0.0086776 0.079529844
0001c0 4b c4 28 bd eb 41 10 3d d8 e2 d6 3c f3 86 4c 3d
       -0.041202825 0.035219114 0.026231214 0.049933385
0001d0 30 99 f1 bc 6e e2 33 3d 71 07 a6 3c 6d c5 94 3d
       -0.02949199 0.043917112 0.02026722 0.072642185
0001e0 ea 89 00 bb 13 64 90 bc f2 5f a4 3d 54 3a 0a bb
       -0.0019613453 -0.017625844 0.080261126 -0.0021091895
0001f0 fa 83 18 bd 95 03 9b bd af 52 04 bd 0d 35 d9 bd
       -0.037235238 -0.075690426 -0.032305416 -0.10605822
000200 2c 5d 09 bd 28 95 f5 bc fe 7e b1 3d 21 57 af bd
       -0.03353612 -0.02997835 0.086668 -0.085615404
000210 de dc 2a bb d8 17 74 3d 5d c7 96 3d c5 a0 62 bc
       -0.0026071589 0.05959305 0.07362244 -0.013832276
000220 d4 45 2d bc 4b 0b 5c 3d 05 38 dd 3c 35 f7 17 bd
       -0.01057573 0.053721707 0.027004251 -0.03710099
000230 fb 2d 7b 3d 99 4c 3a bd 8e fd 3a bd 0b 1c 74 3d
       0.061323147 -0.045483205 -0.045651965 0.059597056
000240 dc 71 a5 bd bf e8 aa bd 6a 5d 6d bd 1b 40 01 bd
       -0.080783576 -0.08345174 -0.057950415 -0.031555276
000250 1e c0 80 3d 98 7f af bd f0 c0 87 3c e7 27 b1 3c
       0.062866434 -0.085692585 0.016571492 0.021625472
000260 49 e9 68 bd 56 50 6d bd 70 8b b4 bd 0b 75 a5 bd
       -0.056863103 -0.057937942 -0.08815658 -0.08078965
000270 93 68 86 3d 14 3a 00 3d 54 c6 31 bd c5 85 8b bd
       0.06562915 0.031305388 -0.04340203 -0.06812624
000280 14 9f da 3c b8 e4 43 bd 48 38 f7 3c 49 cc 18 bd
       0.026687182 -0.047825545 0.030178204 -0.037304197
000290 32 48 8e 3d 83 d2 60 bd 85 96 37 3d 16 4c 8f bd
       0.06947364 -0.05488826 0.04482128 -0.06996934
0002a0 1a 55 ef 3c c6 66 82 bd 0e 78 94 bd 23 8f fc bb
       0.029215384 -0.06367259 -0.07249461 -0.007707493
0002b0 7b 6d b1 3d 0f 5f 96 3d e6 39 51 3d 82 0b ac 3d
       0.0866346 0.0734235 0.051080607 0.084006324
0002c0 93 e2 a5 3d 6e 06 a6 3d c3 03 1c 3d 0c f3 d0 3c
       0.08099856 0.08106695 0.038089525 0.025506519
0002d0 61 62 88 bd 85 bf 7e bd 38 d1 f9 bc c0 a2 db 3c
       -0.06659389 -0.062194366 -0.030495271 0.026811004
0002e0 b3 de 66 bd 2b b8 5f 3d e5 25 2f 3c 24 d3 a1 bc
       -0.056364726 0.054618996 0.010690187 -0.019754
0002f0 85 09 42 bd 96 67 95 bc 38 bf 63 3c 34 e8 44 3d
       -0.04737236 -0.01823787 0.013900571 0.04807301
000300 48 c3 ab 3c ca ae 3c 3d be 84 13 3d fe 45 08 bd
       0.02096714 0.04606513 0.036015265 -0.033269875
000310 e8 6f f4 3c 81 84 90 bc a7 46 b2 3d 27 2d b7 bd
       0.029838517 -0.017641308 0.08704882 -0.08944159
000320 d3 84 31 bd 26 1f 90 bd 00 a0 9b bd 62 da 42 3d
       -0.04333956 -0.07037191 -0.07598877 0.047571547
000330 05 ed a2 3d 32 85 00 bd 34 01 01 3d 39 2c 72 3b
       0.07955364 -0.031377025 0.031495288 0.0036952628
000340 8d af 9e 3d 32 43 6f 3d 46 fa 52 3d 2a 73 64 3d
       0.077483274 0.05841369 0.05150821 0.05577389
000350 ab a1 4a bd 1f a7 50 bd 22 4f b6 3d db 8e 9a 3d
       -0.049470585 -0.05094063 0.08901812 0.07546779
000360 eb 9e 0f bd c3 07 5c bd 39 94 97 bd 17 46 a1 3d
       -0.035063665 -0.05371834 -0.07401318 0.07874697
000370 e3 fd 28 3c 46 ac 9c 3d 03 5e 9e bd f3 36 83 3a
       0.010314438 0.07650046 -0.07732775 0.0010010883
000380 c4 da 02 3c d9 fa 46 3d e6 20 12 bd 71 74 9b 3d
       0.007986728 0.04857907 -0.035675906 0.07590569
000390 d6 40 9d bc 58 01 84 3c 59 61 f2 3c b6 d6 5d 3d
       -0.019195955 0.016113922 0.029587435 0.054159842
0003a0 0e e7 97 bc 92 1d 4e 3d 41 cc 2c bd a0 79 a6 3d
       -0.018542793 0.05032117 -0.04218698 0.08128667
0003b0 31 b8 2a bd 71 53 35 bd 95 6b 3c 3d c2 7e 32 3d
       -0.041679565 -0.04426903 0.046001036 0.043577917
0003c0 c6 bf 72 bc d7 97 c8 bc 40 6a bc bc a5 6b cb bd
       -0.01481623 -0.024486465 -0.022999883 -0.09932641
0003d0 63 ab b7 3c 92 3c 9a bd 5c 2d 9f bd 75 5e 82 bd
       0.02242059 -0.07531084 -0.077723235 -0.063656725
0003e0 2b 7f fb bc 75 2b 78 3d c5 11 42 3d 66 e8 6f bc
       -0.030700287 0.06058832 0.047380228 -0.01464281
0003f0 43 f4 16 bd 27 46 92 3c c2 d0 42 bd 9a 31 b0 bd
       -0.03685404 0.017855717 -0.04756237 -0.08603211

fc3.bias f4 [5]
000000 f6 47 f0 3c cf a1 93 3b 0c 0e ee bc 6a b9 37 3d
       0.029331189 0.004505373 -0.029059432 0.04485456
000010 cc c7 04 bd
       -0.032417104
