CC_Reinforce_version_3_copy/tmp/highway/state_dict_model0.01.pt (torch, 581393 bytes, 8 tensors)

fc1.weight f4 [256, 45]
000000 4e be aa 3d 2f 5f d7 bd 71 f1 0c be 0f 35 90 3c
       0.08337079 -0.10516202 -0.13763978 0.017603425
000010 93 d9 86 3c 9b 20 83 bd c5 16 14 3e ef 27 db bd
       0.01646117 -0.064027034 0.14461811 -0.10700976
000020 07 dd e4 3b 42 7e 10 3d 55 26 8a 3d 59 fa c7 3d
       0.0069843563 0.03527666 0.067455925 0.09764547
000030 6b b4 c2 3d 17 47 fd 3d f3 ba cf 3d 4f bb fd 3b
       0.09507068 0.12367075 0.101430796 0.007743276
000040 64 68 e2 bc b3 d6 95 bb a8 63 67 bc 7a 25 fa bc
       -0.027637668 -0.0045727133 -0.014122881 -0.030535448
000050 63 2f 91 3c 53 09 4f bd 2c a5 62 bd 56 b9 10 3e
       0.017722791 -0.050546 -0.0553333 0.141332
000060 7a 79 cf 38 a0 8e 09 3d 20 31 4c bd e0 d8 be bd
       9.893156e-05 0.033583283 -0.049851537 -0.093187094
000070 de e1 42 3d 3d 42 8c 3b cf a4 fb bd d5 77 16 3d
       0.047578685 0.004280357 -0.12287294 0.036735374
000080 41 65 d0 bd 2a c8 39 bc bd 71 b5 bd 92 7e 06 bc
       -0.10175563 -0.011339227 -0.088595845 -0.008208888
000090 33 ca 2b 3e f0 18 7e bc 41 15 f1 3c f2 2d 8f 3d
       0.16776352 -0.015508875 0.02942908 0.06991185
0000a0 62 00 1c be ad 6b 8f 3d 1f aa 1b 3e d0 69 1b 3e
       -0.15234521 0.070029594 0.15201615 0.15177083
0000b0 b1 e2 ef 3d f0 5f 73 bd 91 80 09 3d 84 8e d9 3c
       0.1171316 -0.059417665 0.033569876 0.026557215
0000c0 6a f3 df bd c2 57 02 bd 71 cf 2f 3d 72 0c 66 3e
       -0.109350994 -0.031821974 0.04292244 0.22465685
0000d0 a6 0b 36 3e f4 ff 12 3e c0 3f a0 3d 91 a8 d3 3d
       0.17777881 0.14355451 0.07824659 0.10334886
0000e0 22 10 f3 3d 52 4e 9b bd 6e be 8a bd 45 bf 40 3d
       0.118683115 -0.07583298 -0.06774603 0.04705741
0000f0 c4 34 4d 3d 2b cf b7 bc d0 5b 0f 3e 68 f5 aa 3a
       0.05009915 -0.022437653 0.13999867 0.0013043107
000100 48 b8 19 3d 18 28 0e 3d 01 89 4d 3e 62 04 ce 3c
       0.03752926 0.034706205 0.20071794 0.025148574
000110 02 72 6c bd af 1b a1 3d b1 23 17 3c 82 13 42 be
       -0.057725914 0.07866608 0.009224818 -0.18952754
000120 d8 b8 0f bd 2b c0 c6 3c 9a a9 b6 3d 0b a0 8a bc
       -0.03508839 0.024261555 0.08919068 -0.016922018
000130 fc b7 64 bd 7d 08 7f bd 10 b2 e4 3d ef a0 90 3d
       -0.055839524 -0.062263954 0.11166775 0.07061946
000140 c1 c7 d6 bc 3e 45 84 bd a8 3c 02 3e 5d a9 0d 3e
       -0.026218297 -0.064585194 0.12718451 0.13834138
000150 30 24 60 bd fe 88 df bd 85 ad c9 bd 06 7c d1 bd
       -0.05472201 -0.10914801 -0.09847549 -0.10228734
000160 34 f6 89 3d 68 5e 6b 3d 36 71 42 3d 84 4f c7 3c
       0.06736413 0.05746308 0.047471248 0.024329908
000170 bb 35 f5 bc 21 3e cb 3d 16 22 bd bd 84 02 a6 3d
       -0.029932847 0.099239595 -0.09235017 0.081059486
000180 cf 11 dc bd b4 b7 7f 3d f1 fb d5 3d 3e af 47 3d
       -0.10745584 0.062431052 0.10448445 0.04875111
000190 28 86 a5 bc 60 f0 e7 3c f4 ca 69 bd a7 41 a9 bd
       -0.020205572 0.028312862 -0.057078317 -0.08264475
0001a0 b4 da 24 bd 9a 65 0f be 51 75 9d 3d 15 89 ad 3c
       -0.040247634 -0.14003602 0.07688392 0.02118353
0001b0 bb e5 9d bd 9f 4a 05 be 75 42 da bd 29 a3 9f bd
       -0.07709833 -0.13016747 -0.10657207 -0.07794792
0001c0 35 ef e1 bd 79 99 f7 3d 31 7d e5 3c 72 be 0f be
       -0.11031953 0.120898195 0.028013797 -0.14037493
0001d0 ae b0 02 be e9 e7 c6 3d a3 ec 0e be 57 ab 85 3d
       -0.1276271 0.09712202 -0.13957457 0.06526821
0001e0 c1 99 b0 3d a9 e3 da 3d 58 03 09 3c 4a 22 9d bd
       0.08623076 0.10687954 0.008362614 -0.07672556
0001f0 40 87 f5 bd 28 34 9a 3c f2 4b 2f bd 41 eb c7 3d
       -0.119886875 0.018823698 -0.042797036 0.09761668
000200 2e db 0f be a7 d9 16 be db e4 dc bd 92 2b 97 bc
       -0.14048454 -0.14731465 -0.10785838 -0.018453393
000210 ab ef e1 bd 79 ef 16 be c4 0b 76 bd a2 ec 2d bd
       -0.11032041 -0.14739789 -0.060069814 -0.042462
000220 c2 12 6b bd 09 10 12 bd 67 e3 a3 bd 61 c7 be 3c
       -0.057390936 -0.035659824 -0.08002358 0.02328843
000230 99 c9 46 bd e2 0d 0b 3e 4b c0 ed bd 72 b3 ae 3d
       -0.048532102 0.13579515 -0.116089426 0.0853032
000240 46 a2 af 3d 69 cd 1e 3e 76 80 45 bd 36 ae d6 3d
       0.08575873 0.15508045 -0.048218213 0.10482447
000250 0a 63 87 3c 31 84 04 3e 32 17 5a be 9a b6 8a 3d
       0.016526718 0.12941052 -0.21297911 0.0677311
000260 59 3a 3c 3c 48 88 1b be 05 12 c2 bd ee 53 0c 3d
       0.011488521 -0.15188706 -0.09476093 0.03425973
000270 56 0b 1f bd 76 25 af 3d 97 85 fb 3d a5 46 f8 bd
       -0.03882917 0.08552067 0.122813396 -0.121228494
000280 85 22 5a 3d f0 cd d2 3d 82 ff 6a bd 44 b6 04 be
       0.053255577 0.10293186 -0.057372577 -0.12960154
000290 64 b1 08 be ea 96 9c bd c9 45 19 be 7b 0a d8 bd
       -0.13348919 -0.07645972 -0.14968027 -0.10548874
0002a0 c3 71 16 3c 7e 76 25 be 73 63 c8 3d e9 24 08 3e
       0.009182396 -0.16158482 0.097845934 0.1329533
0002b0 33 fc 7e 3d f5 f4 b5 3d 4f b3 18 bc 97 af ff 3d
       0.062252235 0.088846125 -0.009320094 0.12484663
0002c0 e9 6d 11 bd 65 35 53 bd 5f 87 fb 3d fe 0a 0e bc
       -0.03550521 -0.051564593 0.12281679 -0.008669613
0002d0 20 41 4a bc 34 c5 c9 3d 20 09 a6 3d b7 07 e2 bd
       -0.012344629 0.09852067 0.08107209 -0.11036628
0002e0 09 4b d7 3d ac 31 33 be 55 b5 2e bd 83 92 d2 bc
       0.10512359 -0.17499417 -0.0426534 -0.025704628
0002f0 c2 ca d9 3d bf ba b2 bd 9b 87 9f bd 32 18 70 bc
       0.10634376 -0.08727025 -0.077895366 -0.014654206
000300 85 df 8a 3d 11 75 16 3e ae 73 09 3e 6f 45 29 bc
       0.06780914 0.14693095 0.13423035 -0.010331496
000310 6a 4f 05 3e ea 20 f7 bd a7 3e 58 bd fe 24 e2 bb
       0.13018575 -0.12066825 -0.052794125 -0.0069013825
000320 29 96 70 3d f8 90 c7 3d 75 9e 26 bd a3 c4 dd 3d
       0.058736954 0.097444475 -0.04067846 0.10828521
000330 bd 84 ef bc 00 cd 62 3d 42 ba af 3d 10 8c e4 3d
       -0.0292381 0.055371284 0.08580448 0.11159527
000340 42 bb 31 bd b9 a6 00 3d 9c aa 17 3e 69 7c 4d 3d
       -0.043391474 0.031409 0.14811176 0.050167475
000350 93 f9 99 3d 1b 50 1e be 11 fb 5b 3d 13 2e c4 bd
       0.07518306 -0.15460245 0.053706232 -0.095791005
000360 67 c1 4c bd 2b 51 9b 3d c7 ee a2 3b 68 ba 51 3d
       -0.04998913 0.07583841 0.004972312 0.05120316
000370 3e 6d 00 bd 03 80 8e bd f6 11 6f 3d 0c 74 01 be
       -0.03135418 -0.0695801 0.05836674 -0.12641925
000380 63 99 c7 bd 27 31 c2 bc 04 d3 9a 3d 09 3d 3d bd
       -0.09746053 -0.023705078 0.07559779 -0.046200786
000390 52 3c dd 3d 15 94 92 3d 0f 57 2c be 69 c4 0d be
       0.10802521 0.07157151 -0.16830085 -0.13844456
0003a0 3b e2 32 3d 4f fd 06 be 53 50 c3 bd e2 32 d6 bd
       0.04367278 -0.13182567 -0.09536805 -0.10458924
0003b0 54 e7 91 3d 4d 29 2f 3e 21 a0 d0 bd 74 64 e0 3d
       0.071242005 0.17105599 -0.10186792 0.1095666
0003c0 68 36 35 bc 62 77 12 be ab e8 24 3d 3f f4 30 bd
       -0.011060335 -0.14303353 0.040260952 -0.04320168
0003d0 83 70 05 3d 84 40 fa bd d2 48 60 3d 2b cc e1 3c
       0.032578003 -0.12219337 0.054756947 0.027563175
0003e0 6b 35 d6 3a a4 71 b1 bb fa 95 d7 bd 02 b6 f8 3d
       0.0016342824 -0.0054151583 -0.10526653 0.1214409
0003f0 35 82 ae 3c 2c 8e 5a bb 70 9c ba bd da 0d 99 3d
       0.021302322 -0.0033348901 -0.09111869 0.07473345

fc1.bias f4 [256]
000000 47 e7 74 3d c6 34 9b 3d 45 9f 89 3c bb b2 ef 3d
       0.059790876 0.07578425 0.016799578 0.11704012
000010 4c a4 65 3c 94 92 2e bc d6 9b 89 bc f9 3e d7 bd
       0.014016222 -0.010655064 -0.016797941 -0.10510058
000020 a6 e2 27 3e 2f 5b 58 ba bc 22 a1 3c fc 28 27 3d
       0.16395053 -0.00082533335 0.019669883 0.04081057
000030 1b f6 0e 3e 18 49 dd 3d b1 76 2d bd 60 87 09 bd
       0.1396107 0.10804957 -0.04234952 -0.03357637
000040 27 17 9d 3d 07 73 69 3d 99 fe 59 bb bf 99 d2 3d
       0.076704316 0.056994464 -0.0033263324 0.10283231
000050 e1 4b 2a be 2a d7 b6 3d 3a 21 fa bd b7 bb 32 3e
       -0.16630508 0.08927758 -0.12213369 0.1745442
000060 0b c5 73 3d 6d 6a 04 be 2e 59 8c bc 48 db 04 be
       0.059514087 -0.12931223 -0.017132368 -0.12974274
000070 cc 7a 0c be eb e1 dc bd a0 93 c1 bd 9c 41 f2 3c
       -0.13718718 -0.10785278 -0.09451985 0.0295723
000080 6f e8 7c 3d 70 c4 af bd 8c a7 fc bd e3 3d 05 bd
       0.061745103 -0.08582389 -0.123366445 -0.032529723
000090 0d 98 22 bd a6 7f e3 3d 24 a3 90 3d d4 b6 06 bd
       -0.03969579 0.111083314 0.070623666 -0.032889202
0000a0 65 b2 82 bd 68 88 00 3e bd 8f a6 bc fc 4d e0 3d
       -0.06381682 0.12552035 -0.020332212 0.10952374
0000b0 06 fe 02 3d 89 5e 7c 3c be e6 90 3d 4b 9e f5 bd
       0.031980537 0.015403398 0.070752606 -0.119930826
0000c0 74 20 ff bd b6 da 1e bc db cc 0f 3d 06 aa 8c 3d
       -0.12457362 -0.009695699 0.035107475 0.06868367
0000d0 65 43 0c be ec 27 c9 bd 5d 99 bb 3c c3 15 b2 bd
       -0.13697584 -0.098220676 0.022900278 -0.08695557
0000e0 8f 63 9e bd dc 95 45 bd dd 85 bf bd 2c e4 c9 bc
       -0.07733833 -0.04823862 -0.09351704 -0.024644934
0000f0 b5 29 d5 3d 65 0c f2 3d b5 e9 d7 3c 60 22 01 3d
       0.104083456 0.1181877 0.026356557 0.031526923
000100 f7 bb 0a be 18 fc 0d 3e ae 36 5c 3d 17 5a 89 3d
       -0.13548265 0.13865697 0.053763084 0.067066364
000110 b9 de f5 3d 0b c7 54 bc 83 a6 0e 3e 1f bf cb bc
       0.120053716 -0.012986909 0.13930707 -0.024871407
000120 21 da 98 3c 5a 2e df bd be 6f 57 3d 61 f0 a1 bd
       0.0186587 -0.10897513 0.0525968 -0.07907177
000130 96 b3 61 bd 60 68 12 3e 5c 04 ba bd 25 13 99 3d
       -0.055102907 0.14297628 -0.09082863 0.07474355
000140 d1 88 8b 3d ac 35 33 3d b4 98 60 bd d8 58 c7 3c
       0.06813205 0.043752357 -0.05483313 0.024334356
000150 95 05 fc 3c 81 e5 eb bd c9 1e 00 be e3 51 ac 3d
       0.03076438 -0.11518384 -0.12511744 0.08414056
000160 96 6b f0 3d be c5 14 3e 23 1b 13 3d 24 2c 0a 3e
       0.117392704 0.14528558 0.03591455 0.13493401
000170 37 2a 51 bc 31 8e 2b 3e 01 00 f7 bd bc 42 12 3e
       -0.012766412 0.1675346 -0.120605476 0.1428327
000180 50 38 2b bd 6f af fd bd d3 4d 87 bd 9e 3c c9 3d
       -0.04180175 -0.12386977 -0.06606641 0.09826015
000190 8f da 03 3d e5 b0 1a 3d 7c f3 01 3e 04 03 f8 3d
       0.032190856 0.037766356 0.12690538 0.1210995
0001a0 5c 39 fc bb 0c 04 00 be dd af 8d bd 09 d4 bc 3c
       -0.0076972675 -0.12501544 -0.06918309 0.023050325
0001b0 52 ff ab 3d 79 e9 2b 3d 48 19 17 be 3a 53 59 bd
       0.08398308 0.041970704 -0.14755738 -0.053057887
0001c0 dc ea c4 bc de f9 5f 3c 20 9a ff 3d 90 ae 95 bd
       -0.02403777 0.013670413 0.12480569 -0.07308686
0001d0 81 ac 81 3d 9c 12 53 bd 06 67 d2 3d 74 f6 fd 3d
       0.06331731 -0.05153142 0.102735564 0.12400523
0001e0 64 6b 0a 3e 22 f2 23 3e b4 4e a9 bd cd 49 8c bc
       0.13517529 0.16010335 -0.082669646 -0.017125035
0001f0 c7 23 44 bd 63 c7 89 3d 15 d0 a3 3d 6c 8e 06 be
       -0.047885682 0.06727483 0.07998673 -0.13140267
000200 e4 ca 6e 3d 30 51 15 bb 53 06 a0 3c 10 33 01 be
       0.05829896 -0.0022783987 0.019534266 -0.12617135
000210 4c 8a 8b bd 3f 73 28 3d c0 db 78 bb 87 d7 9c 3d
       -0.068134874 0.041125532 -0.0037972778 0.07658296
000220 d6 27 21 be 3f f7 00 3d 14 7a a7 3d d8 4a 00 3e
       -0.15737852 0.031485792 0.081775814 0.1252855
000230 e7 20 d7 3d 2b 70 f1 3d ac 51 9b bd a9 9e 89 3d
       0.105043225 0.117889725 -0.07583937 0.06719715
000240 ef ef d5 3d c0 be 54 3d 50 f8 4e 3d dc 1f 04 be
       0.10446154 0.051939726 0.050529778 -0.12902778
000250 8e 3f 50 bd 0d 46 fa bd ee c9 df bd 65 1c 6f 3d
       -0.05084186 -0.122203924 -0.10927187 0.05837669
000260 c4 52 14 bd 08 a5 8b 3d cb ae 7c bd 1c 49 ac 3d
       -0.036211744 0.068185866 -0.061690133 0.08412382
000270 14 56 5e bc 7c d5 62 3d ae c3 40 bc 43 fb 7b bc
       -0.013570327 0.055379376 -0.011765404 -0.01537973
000280 49 35 1c 3e b6 c5 10 be 46 7e 43 bc 68 ea 12 3e
       0.15254702 -0.1413792 -0.011931961 0.14347231
000290 dd 93 0e bd 35 96 a6 3d 6c 48 b2 3d d7 1e 1c 3d
       -0.034808982 0.081341185 0.087052196 0.03811535
0002a0 9a b1 7c 3d 7b f4 d2 bd 82 d9 11 be c5 c1 03 be
       0.06169281 -0.10300537 -0.14243129 -0.12866886
0002b0 9d b7 be bd f7 f4 34 bd fe b8 05 bd ea 1c 1b 3e
       -0.09312365 -0.04417893 -0.032647125 0.15147749
0002c0 f8 3a af 3d 2d 42 55 bc 73 f5 ab 3c c2 76 d3 bb
       0.08556169 -0.013016266 0.020991063 -0.006453366
0002d0 b8 d4 41 bd 4e 07 7c bd c0 ea a1 bd fb 1e 0f 3e
       -0.047322005 -0.061530404 -0.07906103 0.13976662
0002e0 2c 8d 03 bd 36 c3 64 bd 4f 12 ff 3c 61 87 ad 3d
       -0.032117054 -0.05585023 0.03113666 0.08473087
0002f0 8d 35 08 bd 47 a6 5e 3d 9e 23 18 3e 1c 53 03 be
       -0.033254195 0.054357793 0.14857337 -0.12824672
000300 59 89 05 be a8 b5 ef 3d e1 cf f2 3d 64 7e 26 bc
       -0.13040675 0.1170457 0.11856056 -0.01016197
000310 67 c0 2e 3d 72 08 f0 3d 6c ee 4b bd 1e 75 b6 bd
       0.042663958 0.11720361 -0.049787924 -0.08909057
000320 0d 05 b2 3d 53 9a a7 bd 81 6d 83 bd 94 62 d9 3d
       0.086923696 -0.08183732 -0.064173706 0.106145054
000330 a0 f5 d5 bd 98 0e 80 3c 4f 7f e3 bd a7 65 11 3e
       -0.1044724 0.015631959 -0.111082666 0.14198934
000340 85 fb 1b 3d 8f c6 75 bd bb c9 61 bd 47 56 e1 bd
       0.038081665 -0.060003813 -0.055124026 -0.11002784
000350 b6 22 18 3d 7c 3a 0d 3e 8e ed 16 bd 71 96 8f 3b
       0.037142478 0.13791841 -0.036847644 0.0043819477
000360 1d b8 7c bd d0 08 28 3e 9f 4c c9 3d 87 a5 b6 3d
       -0.06169902 0.16409612 0.098290674 0.089182906
000370 6d d3 d4 3d 89 13 6f 3b fb 80 b7 3c 0a 1b d3 3c
       0.10391889 0.003648015 0.02240037 0.02576973
000380 96 2f bc 3d b9 86 0a 3e de 42 15 3e 22 7a 9e bd
       0.09188764 0.13527955 0.14576289 -0.07738139
000390 f6 5c b1 bd 9e 01 91 bd b9 0c 9a 3c 37 98 e5 3d
       -0.08660309 -0.070803866 0.018804895 0.11210673
0003a0 51 d1 66 bd ed 8d 09 be 61 6f 4d bd 45 9c 0d bd
       -0.056351963 -0.13433047 -0.050155047 -0.03457286
0003b0 36 a1 b3 bd d2 2d 89 bd 68 7e c3 3d a6 98 aa bc
       -0.08770983 -0.06698193 0.095455945 -0.020824742
0003c0 16 ac e7 3d 97 77 92 bc 9a 57 ae bd 2c 4d 06 bd
       0.1131212 -0.01787929 -0.085128024 -0.03278844
0003d0 59 77 83 bd 3e 85 f5 bd 3e f8 1a 3d ff 8e bf 3d
       -0.06419248 -0.119883046 0.0378344 0.09353446
0003e0 6b f1 46 bd 19 f5 28 be b6 92 c7 3d e3 ae 07 be
       -0.048570078 -0.16499747 0.0974478 -0.13250308
0003f0 d7 42 97 bd e5 d4 a9 3c 25 b1 00 3e 91 a3 85 3d
       -0.073857956 0.020731399 0.12567575 0.065253384

fc2.weight f4 [256, 256]
000000 fa 3a 39 bd c4 3b 3f bd f9 49 27 bd 21 0d f9 3b
       -0.04522226 -0.046687856 -0.04084203 0.007600442
000010 6f 61 15 3d b8 2c 21 bd e8 d0 6a 3d 68 1f 27 bd
       0.036469873 -0.039349288 0.057328135 -0.040801436
000020 37 51 88 3d 42 0f 98 bb 73 15 07 3d 57 49 ac bd
       0.066561155 -0.0046404907 0.03297944 -0.08412426
000030 5c 83 08 3d 27 cb 4a 3d 70 0a 68 3d 9c 56 3c bd
       0.0333284 0.049510147 0.05665058 -0.045981035
000040 c3 e9 40 bd 25 ab 5d bc 78 c2 ba 39 50 46 50 bd
       -0.047097933 -0.013529574 0.00035621575 -0.050848305
000050 57 e7 66 bd c3 e4 c9 3c 39 a1 a8 3d c3 c3 23 3d
       -0.056372967 0.024645215 0.08233876 0.039981615
000060 28 3d 55 3c 31 6a 69 bd d3 c4 7c bc 90 cb f8 3b
       0.013015069 -0.056986038 -0.015427786 0.007592626
000070 1d 5a 47 3d a3 05 ac ba ed 76 f9 3b ec 29 37 3c
       0.048669923 -0.0013124238 0.007613054 0.011179429
000080 54 76 b0 bb 04 d7 61 bd e2 c7 61 bc 3c b2 40 3d
       -0.0053851996 -0.055136696 -0.013780566 0.047044978
000090 84 5d 6e bd ef 69 8e 3d 53 16 0c 3d 4c 6c 3c bc
       -0.058194652 0.06953799 0.034200978 -0.011500429
0000a0 71 6f f7 bc 57 e1 d4 bc 19 58 72 3b b9 73 01 bc
       -0.030204507 -0.025986357 0.003697878 -0.007901126
0000b0 b2 c2 9f 3b e9 43 81 bd 52 e7 53 3d ff 57 52 3b
       0.0048755044 -0.06311781 0.051734276 0.0032095907
0000c0 d8 1c bc 3b 73 aa ac 3c 33 15 ec bc c4 2f 7b 3d
       0.005740743 0.02107737 -0.028818702 0.06132485
0000d0 cc 74 12 3d 42 d8 0d 3d 98 34 1a bd 16 bb 96 bc
       0.035755917 0.034630068 -0.037647814 -0.018399756
0000e0 50 e0 08 3d 85 1a b0 3d e8 75 0f 3d d8 8e 87 3c
       0.033417046 0.08598808 0.035024554 0.016547605
0000f0 75 5c 0d bd 53 ae 1e 3d dc 1e 8e bc 38 2d 95 3d
       -0.034512002 0.038740467 -0.0173487 0.072840154
000100 50 37 cb bc 0e 1a fd bc fb 1e db bc 79 5a 7d 3b
       -0.024806648 -0.030896213 -0.026748171 0.0038658662
000110 cc 48 d8 3c fe 79 d8 bb 42 be 31 bd e6 ca 22 bb
       0.0264019 -0.0066063395 -0.043394335 -0.0024840175
000120 19 9e 5e 3d f0 df 89 bd 7e ad 3a 3d 08 6a 74 3c
       0.054349992 -0.06732166 0.04557561 0.014917858
000130 c3 b6 77 bc 1c 09 3b 3d 6e d1 f6 3c 32 8e ca 3d
       -0.015119257 0.045662984 0.03012916 0.09890403
000140 bb b3 5b bd 14 2a 75 3d b0 92 5e 3c dc d7 ba 3c
       -0.0536382 0.059854582 0.013584778 0.022808008
000150 1b 93 3a bd 63 78 d8 bc e8 4a 0f bc bb 19 8f bc
       -0.045550447 -0.026424592 -0.008745886 -0.017468324
000160 72 03 3b 3d ab 89 6c bd c1 4e 14 3d 46 26 53 3c
       0.045657583 -0.057748478 0.036207918 0.012887543
000170 af b2 79 bd 9f f0 e5 3d d5 4b 1b 3d bd 4c 31 3d
       -0.06096142 0.112275355 0.037914116 0.043286074
000180 5e a9 ce 3c 1f ed 3c 3d 6e 07 62 bd 1c c8 16 3d
       0.025227245 0.046124574 -0.055182867 0.036811933
000190 a5 0b 9c 3c 4d f5 82 3d f9 0e 8a 3c 5b 32 5a bc
       0.019048521 0.06394444 0.016852843 -0.01331767
0001a0 c3 51 f5 3c 9f 77 eb bc fb ad 17 3d 8f 4b 75 3d
       0.029946214 -0.028743563 0.037031155 0.05988651
0001b0 06 bf 0e 3c 7b bb 17 3d 9d ac 74 bd 2c c2 c5 bc
       0.008712536 0.03704403 -0.05973493 -0.02414044
0001c0 84 0b 3c bd 46 68 1d 3d d9 d7 9c bb ab 23 5d 3d
       -0.04590942 0.03842952 -0.0047864732 0.053989094
0001d0 8d 98 08 3d 6e 76 0e 3d ef 03 b5 3b bf 30 91 3d
       0.03334861 0.034780912 0.0055241506 0.07089376
0001e0 c5 5c c5 bc 85 e0 6d 3d d7 d4 5c bd 04 74 aa bc
       -0.024092088 0.058075447 -0.053913917 -0.020807274
0001f0 78 50 5c bd 80 4b 6e 3d 57 3d 18 3d fe 33 3f bd
       -0.05378768 0.05817747 0.037167873 -0.046680443
000200 00 ff 97 3d 58 5d 4b 3d 70 b2 6c bd 87 d1 80 bd
       0.07421684 0.049649566 -0.05778736 -0.06289964
000210 a8 03 28 bd 01 ef 43 bc 20 62 1a 3c 5b 68 44 3c
       -0.041019112 -0.011958838 0.009422809 0.011987771
000220 88 f4 5d bd fa bd 91 39 b9 2d 86 bc f3 36 98 bc
       -0.05418828 0.000277981 -0.016379224 -0.01858089
000230 34 62 36 bc 8d f3 5e 3c ff ba 58 bc 7f d5 1e bd
       -0.011131812 0.013607872 -0.013228177 -0.038777824
000240 d2 d7 93 38 da f2 68 bd 1c ed 66 bc 70 30 34 3d
       7.049706e-05 -0.056872226 -0.014094617 0.043991506
000250 60 06 83 3c 58 4e b6 3d db ea 88 bc 21 e9 87 bd
       0.01599425 0.08901662 -0.01671355 -0.06636263
000260 c0 49 3f bd a6 2e e7 3c 51 9b 51 bd 22 c0 0d 3d
       -0.046701193 0.028220486 -0.051173512 0.03460706
000270 c0 3e 81 bc f9 fd b5 3d 8f ab 48 3d f9 be ce 3b
       -0.015776992 0.08886332 0.048991736 0.006309387
000280 a2 5f 12 bd 6e ea 70 bc fa cb 1e bd 4a 23 be bc
       -0.035735734 -0.01470433 -0.038768746 -0.023210187
000290 ca 4a 0e 3c 98 8d d4 bc c7 08 c7 bc 89 73 84 bd
       0.008684823 -0.025946423 -0.024296178 -0.06467349
0002a0 09 a9 23 3c c8 73 b2 3c 1b 66 8b bc f6 7a 20 bd
       0.009989032 0.021783724 -0.017016461 -0.039179765
0002b0 1f 03 af bc 90 76 44 3d 98 30 47 bd 39 ad e7 3c
       -0.021363793 0.047964633 -0.048630327 0.028280841
0002c0 a6 60 49 bd 4c 67 42 3d 5d c6 12 ba 8a 55 3a 3c
       -0.049164437 0.047461793 -0.00055990164 0.011372933
0002d0 a2 36 8e bb a9 8f 40 bd ce 8a 6d bd 52 5f 6b 3d
       -0.004340009 -0.047012005 -0.057993703 0.05746395
0002e0 78 55 3d 3c 2d 22 4c bd 17 84 fb 3c 1c 54 c9 bc
       0.011556022 -0.04983728 0.030702634 -0.02457624
0002f0 fc 4c 3c bd 16 12 0e 3d 19 cf 06 bd 8b 23 c9 3d
       -0.045971856 0.034685217 -0.032912347 0.098212324
000300 f0 fb a7 3b 3f 32 79 3d e5 1a 9f 3c 42 b5 41 3c
       0.005126469 0.060838934 0.019422004 0.011823
000310 88 82 21 3d ca 9f 33 3c ba e3 a1 3c 01 c5 1d bd
       0.039431125 0.01096339 0.019761909 -0.038517956
000320 ef 6f 3b 3d bd 3f 24 3d ef ab 31 3d 31 1d 41 bd
       0.045761045 0.040099848 0.04337686 -0.04714698
000330 10 d5 1f bd 88 26 3c 3c 4f 88 aa bc 64 09 06 bd
       -0.03902155 0.011483796 -0.02081695 -0.0327238
000340 65 9c e3 bc ad af 3c 3a a4 2a cc bd be 43 97 3c
       -0.027784536 0.00071978086 -0.099690706 0.01846492
000350 64 ee 1f 3d d2 54 05 3d 32 36 e8 bb 14 e1 0f 3e
       0.039045706 0.032551594 -0.0070865387 0.14050704
000360 f4 1a 19 bc 8e b1 83 3d 60 bd 9d 3d fd 6c 59 bd
       -0.009344805 0.0643035 0.07702136 -0.053082455
000370 74 58 a1 3b 7a 4b a8 3c 84 d8 45 3d b0 69 76 bd
       0.0049238745 0.020543803 0.04830219 -0.060159385
000380 4c f8 75 3c e6 7f b4 bc d6 c5 1a bd 53 20 2e bd
       0.015012812 -0.022033643 -0.037786327 -0.042511296
000390 74 01 fa bc c6 d4 9b bd 50 81 c3 3c a6 41 24 bd
       -0.030518271 -0.07608943 0.023865372 -0.04010167
0003a0 a5 c5 14 3d 48 f9 31 bd 1a 4f 26 3c 1e 84 94 3c
       0.0363213 -0.043450624 0.010150695 0.018129405
0003b0 dc 51 3c bd 9c 1b 00 3d 0a f1 b9 bc 1b f1 09 3d
       -0.045976505 0.03127633 -0.022697944 0.0336772
0003c0 32 a4 12 bd 96 74 04 bd a5 8e 81 3d 13 0b 7a bd
       -0.03580112 -0.032337748 0.063260354 -0.061045717
0003d0 cb f2 3f bd 86 9f dd 3c a2 95 04 bd 5d c5 32 3d
       -0.046862405 0.027053606 -0.032369263 0.04364525
0003e0 9c 5b 00 bc e6 8a 99 3c a9 80 a8 ba c8 89 f2 3c
       -0.007834341 0.01874299 -0.0012855727 0.029606715
0003f0 40 ec 98 3d a0 61 6a 3b 3d c7 ba bc 54 4a b5 bd
       0.07466936 0.0035763755 -0.022800082 -0.088520676

fc2.bias f4 [256]
000000 1b d1 9f 3c 8e 77 88 bd 6a 23 2a 3c a2 16 38 3c
       0.019508889 -0.06663428 0.01038442 0.011235865
000010 de 2c 89 3b 4a e0 09 bd ce 33 2f bc aa e3 3e bd
       0.004186257 -0.033661164 -0.010693504 -0.046603836
000020 c6 32 9a 3b 9d 3b 02 bd 9c 94 1e 3d 80 55 7f 3d
       0.0047057597 -0.031795133 0.038715944 0.0623374
000030 52 60 b7 bc 21 bf 0b bc 22 ec 97 bb 83 0d 92 3d
       -0.022384796 -0.008529455 -0.0046363035 0.071314834
000040 6a 9e 89 3a a0 76 60 bd dc 5e 82 3d 24 22 21 bc
       0.0010499482 -0.05480063 0.06365749 -0.0098348
000050 01 80 a4 bc 41 dc 25 bd 7c bd 19 bd 27 2b 32 3d
       -0.020080568 -0.040493254 -0.037534222 0.043498185
000060 15 a7 07 3d 11 20 f6 bc de 54 57 bc 4c 78 72 3d
       0.033118326 -0.030044587 -0.0131427925 0.059196755
000070 ff d0 33 bb 90 d7 fc 3c 31 83 a3 bc 02 ca b3 b9
       -0.0027437804 0.030864507 -0.019960018 -0.00034292048
000080 bd ff b9 bc ea 46 01 bd 64 39 29 3d 49 af a6 bc
       -0.022704953 -0.03156177 0.041314498 -0.020347254
000090 c1 3f 5c 3d a6 c5 a1 bc de fd aa bb 50 1f a1 bc
       0.053771738 -0.019747566 -0.0052182516 -0.019668251
0000a0 ab 80 d4 3b ad 4f 27 3d 42 07 0a 3d 59 9b 4b 3c
       0.006485065 0.04084747 0.033698328 0.0124271745
0000b0 ad e7 ae 3c 2a a4 c3 3c 6e 28 b1 3c 3e 4b f1 bc
       0.021350706 0.02388199 0.021625724 -0.029454824
0000c0 49 d5 f0 bc 83 42 e5 3b 9e 59 16 bd 1d 12 15 bd
       -0.029398577 0.006996454 -0.03670656 -0.036394227
0000d0 a8 96 01 bd 34 94 6a bd 9d e8 f3 3c 68 53 72 bd
       -0.031637818 -0.057270244 0.029774005 -0.059161574
0000e0 0b 1b 73 3d 2d ab 0e 3d b1 25 70 3d f1 3d fa bc
       0.059351962 0.034831215 0.058629695 -0.030547114
0000f0 32 35 2f bc c2 ae 6c 3d 79 b6 84 3c 97 25 d0 bc
       -0.010693835 0.05778385 0.016200291 -0.02540855
000100 7a e7 83 bd f4 76 3d 3d 7d b6 4a bd b9 3e 9d bc
       -0.06440635 0.04625602 -0.04949044 -0.019194948
000110 c1 ba de 3c 81 89 73 3d ad a5 d6 bc ea 33 be bc
       0.02718866 0.059457306 -0.026202047 -0.023218114
000120 46 e2 a5 bb 9c 73 7e bc 99 a3 78 bc 72 52 aa bc
       -0.0050623743 -0.015530493 -0.0151757235 -0.020791266
000130 9f bc db bc 86 06 cf b9 ba 1e 44 bd 91 ab 80 3a
       -0.02682334 -0.00039486977 -0.047880866 0.0009816756
000140 71 43 1f bc c5 b6 25 3d c8 f3 16 bd fe 8b 4a 3c
       -0.009720669 0.040457506 -0.03685358 0.012362478
000150 40 97 8d 3a 87 60 88 bd b7 d7 79 3d ff ee 1a bd
       0.0010802522 -0.06659036 0.060996737 -0.03782558
000160 2e e4 57 3d 25 0a 14 3d 24 cf f6 3b 85 c8 c1 3c
       0.052707843 0.036142487 0.0075320173 0.023655185
000170 bc d3 ee 3c 9d 16 22 3d b6 99 f3 3c 9a 62 d4 3c
       0.029153697 0.039572347 0.029736381 0.025925923
000180 cb e8 53 3d a4 bb 19 3d 0b 7c 47 3c 9e 59 0c bd
       0.05173568 0.037532464 0.01217557 -0.034265153
000190 d2 fb 37 3d c9 57 04 3d b0 7f a8 bb 85 e8 36 bd
       0.04491789 0.03231028 -0.0051421747 -0.04465534
0001a0 b6 6c c0 bc a5 de 0e bd 5c 04 8b 3d b7 75 9d 3d
       -0.023489337 -0.0348803 0.06787941 0.07688468
0001b0 4a 7d df ba 8b 6a 54 bd 0c f8 4e bd 7e 26 c1 bc
       -0.0017050889 -0.05185942 -0.050529525 -0.023577925
0001c0 50 34 2d 3c d6 5b 2b bd dd 1d 59 3d ab f1 61 3d
       0.010571554 -0.04183563 0.053006995 0.055162113
0001d0 a8 96 2a 3d e8 81 63 bd 5f 3f 23 3b 44 8d 63 3c
       0.041647583 -0.05554381 0.0024909598 0.013888661
0001e0 cb e3 61 bc cc aa a4 bb ac b9 85 3d 2b 76 d0 3c
       -0.01378722 -0.0050252434 0.06529555 0.025446972
0001f0 19 86 4f bd 85 95 81 3d b9 34 15 3d a3 8b 11 3d
       -0.050664995 0.06327347 0.036427233 0.03553356
000200 94 7d d4 38 4c 24 ec 3c c0 3a 39 bd c8 d8 4d bd
       0.000101323385 0.028825901 -0.045222044 -0.050255567
000210 a6 a3 27 3b b7 e1 08 3d ff 49 17 bd bf 06 90 3d
       0.002557972 0.033418383 -0.036935803 0.07032537
000220 53 c8 48 bd 84 40 5d bd a4 0f 5e 3d 76 d5 bb bc
       -0.04901917 -0.054016605 0.054214135 -0.022928935
000230 5e fd 49 3d 21 16 4f 3d 73 74 ee 3c 39 97 4a 3c
       0.049313895 0.050558213 0.029108262 0.012365156
000240 50 9b 4a bc e8 68 00 3a 12 87 49 bd cd 1b 3d bd
       -0.012366131 0.0004898445 -0.04920108 -0.04616909
000250 5e 60 2d 3c 6e 28 94 ba 96 2f 48 bd be ff fd bc
       0.010582058 -0.0011303553 -0.048873506 -0.031005736
000260 a3 df 46 3d c9 7c 48 bc 1e 78 49 3b 79 3b 8a bc
       0.04855312 -0.012236782 0.0030741761 -0.016874062
000270 78 ca 31 3d a6 0a 0c bd e7 03 e6 3c 0e 57 57 bc
       0.04340598 -0.034189843 0.028078033 -0.013143314
000280 57 ff ba ba 36 29 97 3c b5 f6 40 3c cd 94 cb bb
       -0.0014266771 0.018452268 0.01177757 -0.006212807
000290 7f 68 bc bc 99 ff 50 bc 30 0a 11 3d b2 77 f4 bc
       -0.022999046 -0.012756252 0.035410106 -0.029842231
0002a0 ff ae 40 bd 73 b6 f5 bc 08 e6 9d 3b 8d 73 00 3d
       -0.04704189 -0.029994225 0.0048186816 0.031360198
0002b0 2d 5c 42 bd ff 98 b7 bc 98 e8 3f bc 68 ad a4 3d
       -0.047451187 -0.022411821 -0.0117131695 0.08040887
0002c0 2c 09 e2 3c 57 3b ec 3b c4 bd 79 3d 85 cb 59 3d
       0.027592264 0.0072092223 0.06097199 0.053172607
0002d0 f2 39 5d b9 c9 97 41 3d 03 ad 62 bd d8 76 3d bd
       -0.00021097789 0.047263894 -0.055340778 -0.046255916
0002e0 0d 39 6d bd 97 8f cc bc 8a 7b 6a 3d 5b 74 78 bd
       -0.057915736 -0.024970813 0.057246722 -0.06065784
0002f0 a2 a7 52 3d 34 b4 cc bc 1f e0 a6 bc fc 55 aa bc
       0.0514294 -0.024988271 -0.020370541 -0.020792954
000300 8c 8a 48 bd 10 a1 09 bc db 65 78 3d 24 59 32 bd
       -0.048960254 -0.008400217 0.060644012 -0.043542042
000310 9f e2 71 bc f2 10 01 bd 35 65 f0 3c 31 c1 1f bd
       -0.014763503 -0.0315103 0.029345134 -0.0390026
000320 ef 7f 33 3d 80 6b 41 3d 28 31 c4 3c dc ae f8 bc
       0.04382318 0.04722166 0.02394922 -0.030356817
000330 74 56 3b bd 3b 99 c7 bc 53 5b 2a 3c 0a 30 71 3d
       -0.045736745 -0.024365058 0.01039775 0.058883704
000340 cb 6d 5a bd 75 ff ad bb 89 ce 7a bc 84 36 29 3c
       -0.053327363 -0.005309994 -0.015308031 0.010327939
000350 9f 38 7f 3c bd 6e ae 3b 29 84 c9 bc d3 08 86 3d
       0.015577464 0.0053232596 -0.024599152 0.06544652
000360 b8 8f 39 3c a4 4c ed 3c 0d 51 33 3d de 2f 26 3d
       0.011325769 0.02896721 0.043778468 0.040572993
000370 3c f9 77 3d a1 21 bf bb 1a e7 39 3d 9e 9d e8 ba
       0.060540423 -0.0058328663 0.04538641 -0.0017747169
000380 bf 71 bf 3c 07 07 d7 bc 9f fa dd 3a 7d 18 3b 3d
       0.023369668 -0.026248468 0.0016935653 0.04567765
000390 b7 38 d1 bc 8d 39 97 bd 24 49 19 bb 74 3a 6f 3d
       -0.025539739 -0.07384024 -0.0023389542 0.058405355
0003a0 79 a3 95 3d 29 86 09 3d f3 af b6 3c ba 67 42 3c
       0.073065706 0.03357521 0.022300696 0.011865551
0003b0 56 88 6d bb 8b b7 b9 bb 38 58 46 3d ef f6 8f bd
       -0.0036244593 -0.005667632 0.048423976 -0.07029521
0003c0 50 57 28 3d af bb f2 bb 00 d7 77 3d 5d a0 58 3d
       0.041098893 -0.0074076275 0.060507774 0.05288731
0003d0 ca 8e e9 bc e5 28 27 3d 09 b0 23 bc 80 42 6e bd
       -0.02851047 0.040810484 -0.0099907005 -0.058168888
0003e0 a8 25 14 3d 30 74 89 bb e9 6e 00 bb a7 e6 73 3b
       0.036168724 -0.004194759 -0.0019597358 0.0037216337
0003f0 7c 50 ea 3b 18 a0 e3 3c 8b 84 54 bd c4 10 12 bd
       0.0071507078 0.0277863 -0.051884215 -0.03566052

fc3.weight f4 [256, 256]
000000 1c 4a cb 3c 40 61 a1 3a 54 a2 46 bd 48 a1 0c bc
       0.024815612 0.0012312308 -0.048494652 -0.008583374
000010 2c f3 e5 bc 30 f5 09 3c 52 02 42 bd ec 9f 53 bd
       -0.028070055 0.008420274 -0.047365494 -0.051666185
000020 48 d6 39 bd b0 87 64 3d 1c b3 57 bd 74 7e 40 bd
       -0.04537037 0.055793464 -0.052661046 -0.046995595
000030 8c 78 ae bc b8 a5 7b bd 80 4d fe 3a e4 4d 6a bd
       -0.021297716 -0.06143734 0.0019401759 -0.05720319
000040 f0 52 d4 3b e0 09 f4 3b 9c cf b3 3c 00 b8 06 3c
       0.0064796135 0.0074474663 0.021949582 0.00822258
000050 4c d8 4c 3d d6 3f 6f bd 1a 5f 5e bd 26 e0 04 bd
       0.050010964 -0.058410488 -0.054289915 -0.032440327
000060 00 d9 67 bd a2 9e 79 bd 40 ed 7e bb 38 00 60 bc
       -0.05660343 -0.0609423 -0.0038898736 -0.013671927
000070 d8 c2 2e 3c fa 92 1e 3d be 72 42 bd a0 63 58 bc
       0.010666572 0.038714387 -0.047472708 -0.013207346
000080 04 04 54 bd 8e 55 34 bd 26 3d 02 bd a0 fb 96 3c
       -0.051761642 -0.044026904 -0.031796597 0.018430531
000090 a4 dc 0a bd 74 9f d4 bc d4 04 89 3c 16 d0 2f 3d
       -0.033901826 -0.02595494 0.016725935 0.042923056
0000a0 22 e2 55 3d 6c a1 37 bd 70 2c db bc 80 88 09 3a
       0.05221761 -0.04483168 -0.026754588 0.00052464753
0000b0 08 32 65 bd d6 94 6a bd 5c 40 a6 bc c0 89 cc 3a
       -0.055955917 -0.057270847 -0.02029436 0.0015605018
0000c0 3e 18 42 3d c0 b0 b9 bb 3e ae 26 bd 40 e7 d6 bc
       0.0473864 -0.005666822 -0.040693514 -0.026233315
0000d0 40 70 43 bb 18 b5 e4 3c c0 2f 55 bb 7c 0e 97 bc
       -0.0029821545 0.027918383 -0.0032529682 -0.018439524
0000e0 f6 ea 40 3d f0 33 93 bc ea 08 75 bd 86 fa 24 bd
       0.047099076 -0.017969102 -0.059822954 -0.04027798
0000f0 88 19 07 3d f8 c3 78 3c ac 3c 64 bd f8 84 1a 3c
       0.032983333 0.015183441 -0.055721924 0.009431116
000100 22 f2 48 3d 50 22 41 3d c8 47 54 bc 10 de 7c 3d
       0.04905904 0.047151864 -0.012956567 0.061735213
000110 e6 41 1d bd 14 45 8b bc 7e b6 39 bd c0 7c 8c 3a
       -0.038392924 -0.017000712 -0.045340054 0.0010718331
000120 1c ee 6a bd 0c 8c 72 3d 38 6f 5f 3c bc c4 be 3c
       -0.057355985 0.05921559 0.013637356 0.02328717
000130 d4 6d e9 bc 7c a9 29 3d aa ad 4e 3d b0 dd 52 3d
       -0.028494753 0.0414214 0.050458588 0.05148095
000140 64 f3 27 bd 76 84 37 3d 3c 8b d0 bc 40 5d 29 bd
       -0.0410036 0.04480406 -0.025457017 -0.041348696
000150 7a d9 6f bd 10 bb 81 bb 2e 90 25 3d d0 38 e7 bb
       -0.05855701 -0.003959067 0.040420704 -0.007056333
000160 00 9b e8 b9 e4 67 bb bc 18 4b 53 bd d8 fb d3 3c
       -0.00044365972 -0.022876687 -0.051585287 0.025876924
000170 a8 09 98 bc f0 4a 4e bc 1a 11 01 bd e4 6f 44 bd
       -0.018559292 -0.012591109 -0.03151045 -0.04795827
000180 80 a0 62 bc 8e 07 04 3d 5c 9c 81 bc 58 e1 cf bc
       -0.0138322115 0.032233767 -0.015821628 -0.025376007
000190 ae d6 5e 3d f0 27 f2 bb 98 18 ec bc d6 05 7b 3d
       0.054403953 -0.007390015 -0.028820321 0.061284862
0001a0 4a ce 57 3d 90 e5 90 3c ea e9 5b 3d 9c ff af bc
       0.052686967 0.017687589 0.053689875 -0.021484189
0001b0 f8 cf 22 3c 60 dd 46 bb f8 31 d7 bc a8 01 3f bc
       0.009937279 -0.0030344352 -0.026268944 -0.01165811
0001c0 b8 12 5d 3d b0 03 38 3c 46 e0 4d 3d a0 fb 5e bd
       0.05397293 0.011231348 0.050262712 -0.054439187
0001d0 e2 9a 50 bd 28 2b 87 3c 0a b8 21 bd e4 2c 74 3d
       -0.050928958 0.01650007 -0.039482154 0.059613124
0001e0 24 69 d3 bc 40 78 2e bb f0 81 7b bd 06 e7 7f 3d
       -0.02580697 -0.0026621968 -0.061403215 0.06247618
0001f0 40 42 d1 ba 7a 23 71 3d d4 68 a2 bc a2 dc 4f 3d
       -0.0015965179 0.058871724 -0.019825377 0.05074752
000200 34 28 a7 bc 56 43 4d bd 78 ab 24 bc 38 8f 5a bd
       -0.020404913 -0.050113045 -0.010050647 -0.05335924
000210 1a 6d 6b bd 20 b6 77 3d e0 c7 46 3d 24 59 77 3d
       -0.057477094 0.060476422 0.04853046 0.060387745
000220 9c 8b 18 3d a2 e6 62 3d 80 b4 0d bd 80 d9 66 3b
       0.037242517 0.05539573 -0.034595966 0.0035224855
000230 36 a7 6a bd 0a ac 52 3d 9c e3 26 3d c0 4f 63 3d
       -0.05728837 0.0514336 0.04074441 0.055495977
000240 e0 dd a0 3b 2c 1a 44 bd 34 4b 4b 3d 30 ba 9d bb
       0.004909262 -0.047876522 0.049632266 -0.004813455
000250 9c 23 cb 3c b0 61 80 3b 00 e4 c8 38 1c 03 f7 bc
       0.024797253 0.0039178953 9.5792115e-05 -0.03015285
000260 4e bc 3a 3d 68 88 69 3c 60 7b 9d bb 16 6f 18 bd
       0.045589738 0.014253713 -0.004805967 -0.037215315
000270 ca b1 07 bd 4e f9 25 3d ec cc 07 bd 80 24 23 3c
       -0.033128537 0.04052096 -0.033154413 0.009957433
000280 4c ce 0c bd 80 7a e5 3c f6 e9 7e 3d 14 a7 70 3d
       -0.034376428 0.028012514 0.06223484 0.058753088
000290 00 a6 c9 ba e0 6d 31 bb 80 0e 43 ba c8 c0 67 bc
       -0.0015384555 -0.0027073547 -0.00074408203 -0.014145084
0002a0 f8 73 97 bc 50 8d aa 3b 1e 4f 25 3d 00 de 3a 39
       -0.018487915 0.005204834 0.040358655 0.00017821044
0002b0 a8 b8 36 3d e4 d7 28 bd 98 c0 7e bd 72 f8 12 bd
       0.044609696 -0.041221514 -0.06219539 -0.035881467
0002c0 c4 21 36 bd b0 56 8d 3b 70 fc f8 3c 18 dd aa 3c
       -0.044465795 0.0043133125 0.03039381 0.020857379
0002d0 9c a1 e5 bc 6c b0 7a bd 00 5b da bc 58 ec 51 3d
       -0.028031163 -0.061203405 -0.02665472 0.051250786
0002e0 78 ad 55 3d 2c c6 ae bc 88 34 90 3c c2 ef 0b bd
       0.052167386 -0.02133473 0.017603174 -0.034164198
0002f0 22 b2 2b bd 70 f7 05 3d d2 b7 4d bd 68 96 03 3c
       -0.041917928 0.032706678 -0.050224133 0.008031465
000300 ec 8d 15 bd 20 dd 49 bd 10 56 72 3d 98 1f 6f bc
       -0.0365123 -0.049283147 0.059164107 -0.014594935
000310 6c d5 88 bc 7a 33 20 bd f4 2c 92 bc 30 32 0a bd
       -0.01670333 -0.039111592 -0.017843701 -0.03373927
000320 42 71 1c bd fe 19 68 bd 70 2c c3 3c ec 00 b8 bc
       -0.03819395 -0.056665413 0.0238249 -0.022461377
000330 b0 34 33 bd 6c 26 76 3d d8 eb 7a 3c 1e d4 35 3d
       -0.04375142 0.060095236 0.015315019 0.044391744
000340 ea f9 2d 3d 00 ac 24 3b 60 f2 31 bd 9a 1c 49 bd
       0.042474665 0.0025126934 -0.043444037 -0.049099542
000350 74 33 f2 bc c8 c9 a5 3c 48 f0 85 bc 60 51 07 3c
       -0.02956555 0.020237818 -0.016349927 0.008259147
000360 1a 9d 54 3d 36 a1 65 bd 58 84 f3 bc f0 0f 3b bc
       0.051907636 -0.056061946 -0.029726192 -0.011417374
000370 e8 82 7e 3c e8 f8 d0 bc 9e 33 16 3d 84 36 ab bc
       0.01553414 -0.025509313 0.03667032 -0.020900019
000380 80 38 1c bb 80 5a 49 3a 70 a6 f6 3b 2e cb 29 3d
       -0.0023837388 0.0007681027 0.007527165 0.041453533
000390 04 82 31 3d 80 a8 ec 3c 0c 0d c1 3c 52 1b 7b bd
       0.043336883 0.02888894 0.023565792 -0.06130535
0003a0 40 3e 35 3c 1a 32 3c bd 38 6a cf bc 48 04 2f bd
       0.011062205 -0.045946218 -0.025319204 -0.042728692
0003b0 1c e4 3b bd 30 85 86 3c f6 57 11 bd a8 01 5b bc
       -0.04587184 0.01642093 -0.035484277 -0.013367094
0003c0 8e 05 43 3d 78 d4 ef bc 38 71 10 bc 84 9b 45 bd
       0.04761272 -0.029276118 -0.008816056 -0.048244014
0003d0 68 6e b5 3c b8 e9 6b bc c0 55 86 3c 84 66 40 bd
       0.022147372 -0.014398985 0.01639831 -0.046972767
0003e0 06 57 4b bd 00 2d f0 3a a4 ec d1 3c 58 7e c6 3c
       -0.04964354 0.0018323958 0.025625534 0.024230167
0003f0 50 a7 90 bb 56 32 2e bd dc 8d 5f bd 30 b2 0f bd
       -0.0044144765 -0.042528473 -0.054578647 -0.035082042

fc3.bias f4 [256]
000000 a4 c8 ea bc 1c 1a 87 bc 84 25 a8 3c dc 70 07 3d
       -0.028660126 -0.016491942 0.020525701 0.033066615
000010 e0 8a 15 bd b2 9e 4f 3d f8 7b c5 3c 70 b3 cc 3b
       -0.036509395 0.050688453 0.024106964 0.0062469766
000020 be 7b 31 bd ec 71 f0 3c d8 25 44 3d c8 72 0d 3c
       -0.0433309 0.029351197 0.047887653 0.008633323
000030 44 e6 6f 3d b2 69 5e bd 00 24 b3 bc 20 ac 1a bb
       0.058569208 -0.054300018 -0.021867752 -0.002360113
000040 b6 94 52 3d 7a 74 00 3d 8c e1 5f bd fc a4 26 bd
       0.051411353 0.03136108 -0.054658458 -0.040684685
000050 ac 89 21 bd 20 43 79 bb 4a bf 5e 3d f0 04 46 bd
       -0.039437935 -0.0038034394 0.054381646 -0.048344553
000060 a8 3a d9 bc 02 8d 01 3d 98 a0 47 3c ce 0c 44 bd
       -0.026517227 0.031628616 0.012184285 -0.047863774
000070 f8 e8 27 bd 2a 0b 1c bd 3e b9 11 3d 08 e9 86 3c
       -0.04099366 -0.038096584 0.03557705 0.01646854
000080 62 17 7b bd 34 89 4f 3d 70 1f c7 bc f0 69 55 3c
       -0.061301596 0.050667956 -0.024306983 0.013025746
000090 c0 d6 a0 3c 0e fe 2f bd 78 fc 19 bd 00 d8 30 3d
       0.01963365 -0.042966895 -0.03759429 0.043174744
0000a0 ec 90 09 3d 70 17 be 3c 00 47 ae 3b 78 2f 35 bd
       0.033585474 0.023204535 0.0053185225 -0.044234723
0000b0 fc 92 54 bd b0 14 41 3c 18 0b 27 bc 3c 23 24 bd
       -0.051897988 0.011784717 -0.010195516 -0.040072665
0000c0 a0 56 d5 3c 90 5c 34 bd 38 b5 ad 3c e0 c9 68 3b
       0.026042283 -0.044033587 0.021204576 0.0035520718
0000d0 82 7f 2a bd 00 43 63 ba 5c b9 66 3d 00 2a 75 bc
       -0.041625507 -0.00086693466 0.056329116 -0.014963627
0000e0 ec eb 56 3d 50 fa bc bc ae 85 2a 3d 9c fc 9f 3c
       0.052471086 -0.023068577 0.041631393 0.019529633
0000f0 3c 18 f2 3c 48 a1 77 bc f8 59 13 bd b8 22 5f bc
       0.029552571 -0.015114136 -0.035974473 -0.013619117
000100 6c c2 8f 3c 1a 9d 7d 3d d4 2b ce 3c 48 13 22 bd
       0.017548762 0.0619174 0.025167383 -0.03956917
000110 b0 e0 5b bd f0 56 ac bb 40 b4 ea 3b f2 c3 2f bd
       -0.053681076 -0.005259387 0.0071626008 -0.042911477
000120 12 9d 5c bd 00 23 9c b9 b8 43 8c bc 00 6c ed bb
       -0.05386073 -0.00029780716 -0.017122135 -0.0072455406
000130 aa c0 64 3d 8e a5 3b bd 98 84 61 bd 1c ec 61 3d
       0.0558478 -0.045812182 -0.055058092 0.055156812
000140 80 0f e4 bc b8 07 24 bd 70 3b 8f 3c ea f0 34 bd
       -0.027839422 -0.040046424 0.017484397 -0.044175066
000150 dc 92 d1 3c 42 7e 4d 3d 40 f4 40 bb 30 a1 7c 3c
       0.025582723 0.050169237 -0.002944246 0.0154192895
000160 a6 dc 0a 3d 10 41 40 bd 48 05 1b 3d 3c 37 cd 3c
       0.033901833 -0.04693705 0.037846833 0.025050752
000170 74 1b 17 bd a2 c6 10 bd d8 64 71 bc 74 dd 57 3d
       -0.036891416 -0.03534568 -0.014733516 0.05270143
000180 00 2c 0c bd ec fd e6 3c 50 ad 3b bc 1a 71 35 bd
       -0.03422165 0.028197251 -0.011454895 -0.044297315
000190 ca ba 7d 3d 20 a5 d1 3b b0 e5 3c 3c b2 98 3d bd
       0.061945714 0.0063978583 0.011529371 -0.0462882
0001a0 78 a1 07 bd 3c e9 0b 3d 84 82 3a bd 5c 39 9e bc
       -0.033112973 0.034157977 -0.045534626 -0.01931446
0001b0 b4 c4 e6 bc 70 ad 9c bc c0 ea 76 3c 20 54 65 3d
       -0.028169967 -0.01912567 0.015070617 0.05598843
0001c0 a0 0f b1 bc b4 cf 2a bd e0 82 68 3d 98 06 aa bc
       -0.021613896 -0.041701987 0.056765437 -0.020755097
0001d0 08 d9 77 3c 08 04 be bc 1e 85 15 3d f0 e3 4c bc
       0.015127428 -0.023195282 0.036503904 -0.012505516
0001e0 04 4b 68 bd 96 fa 11 3d 4e c3 50 3d 34 c7 d2 bc
       -0.056712165 0.035639368 0.050967507 -0.025729753
0001f0 50 aa e4 bb 70 f0 cc 3b b8 f8 68 3d c8 1f f7 bc
       -0.0069783106 0.0062542483 0.05687782 -0.030166522
000200 f2 a6 0d bd f8 81 a4 bc 90 9c 86 bb 16 32 69 3d
       -0.03458304 -0.020081505 -0.004108019 0.05693253
000210 2c 78 40 bd f8 ab 66 bc 88 44 21 bc a0 7a 6e bb
       -0.046989605 -0.0140790865 -0.009842999 -0.0036389008
000220 18 e9 3c bd 78 ee 8d bc 28 66 23 3d 28 55 9d 3c
       -0.046120733 -0.017325625 0.039892346 0.019205645
000230 e4 04 47 bd 2e 7d 1b 3d f8 d2 56 bd a0 8a da bb
       -0.04858865 0.037961178 -0.05244729 -0.0066693574
000240 60 4f 80 3b bc 4d 95 bc 00 53 9c bc a2 92 77 3d
       0.0039157122 -0.018225543 -0.019082546 0.060442574
000250 38 01 bf bc 80 fc 07 3c 74 c4 f8 3c 40 39 c0 ba
       -0.02331601 0.008299947 0.030367114 -0.0014665499
000260 b8 9b f8 3c 14 44 b3 bc fc 2a d7 3c 32 e6 22 bd
       0.03034769 -0.021883048 0.026265614 -0.039770313
000270 c4 7f 87 bc 38 44 6e 3c 32 db 14 bd 00 39 ba ba
       -0.016540416 0.014542632 -0.036341853 -0.0014207661
000280 9e fc 45 bd 40 14 70 3d d6 86 75 bd bc d4 83 3c
       -0.048336618 0.058613062 -0.059943043 0.01609265
000290 98 a2 17 3d 44 a1 c6 3c be 27 07 3d 58 17 96 3c
       0.037020296 0.02424682 0.032996885 0.018321678
0002a0 02 a1 3d 3d b2 27 7c bd 48 0a 81 bc b0 ce d3 bb
       0.046296127 -0.061561294 -0.015751973 -0.006463848
0002b0 24 b0 cc 3c e0 03 43 bb f0 7d d3 3c b4 da 52 3d
       0.024986334 -0.0029756948 0.025816888 0.051478103
0002c0 88 9c 51 bd 5e 21 36 bd 94 4e c3 3c dc 4e fc bc
       -0.05117467 -0.044465415 0.02384118 -0.030799322
0002d0 f8 dc 70 3c e0 ab e4 bb 70 38 fb 3c 28 a8 24 3c
       0.014701121 -0.006978497 0.03066656 0.010049857
0002e0 00 03 d2 3a ca f8 59 3d 32 de 16 3d e2 53 4e bd
       0.0016022623 0.05321578 0.036832996 -0.050372966
0002f0 98 e5 a7 3c c0 74 20 3b 50 db 50 bd 74 9c 23 bd
       0.020495221 0.002448365 -0.050990403 -0.039944127
000300 88 e2 61 3c d0 0a a4 3b e8 87 61 3c c4 d7 0a bd
       0.013786919 0.0050061718 0.013765313 -0.033897176
000310 4c e5 61 bd 70 85 a0 bb f6 64 0a 3d ec 7d 2f 3d
       -0.055150315 -0.0048987195 0.03378769 0.042844698
000320 3c c3 97 bc 4e 24 37 bd 5e d2 0b bd 40 8c f2 bc
       -0.018525712 -0.044712357 -0.03413617 -0.029607892
000330 e8 c5 41 3c 5e 24 48 bd 44 b2 93 bc fc 98 fb 3c
       0.01182697 -0.048862807 -0.01802934 0.030712597
000340 14 48 04 bd 6a 96 32 3d 5a 00 59 3d 00 d1 ff ba
       -0.0322953 0.043600477 0.05297885 -0.0019517243
000350 24 53 ad bc d8 8e 13 bc 82 1f 56 bd 40 27 c4 3a
       -0.021157809 -0.009006225 -0.052276142 0.0014965311
000360 54 e2 04 3d 50 a7 53 3d c0 73 3e 3c 00 de 31 b9
       0.032442406 0.051673234 0.011624277 -0.00016962737
000370 50 ad 82 bc 28 b5 ca 3c 80 12 b6 3c 3c b1 e0 3c
       -0.015951782 0.024744585 0.022225618 0.027428262
000380 c4 1f ed bc d0 97 ef bb 26 d4 04 bd 00 a0 6d 39
       -0.028945811 -0.0073117986 -0.032428883 0.00022661686
000390 d8 e5 b3 3c 00 88 97 bc e4 11 1b 3d c0 5c 00 bd
       0.021960184 -0.018497467 0.03785886 -0.031338453
0003a0 70 68 57 bc 98 a0 bd bc b4 1c 17 3d 3c de ef 3c
       -0.013147458 -0.023147866 0.036892608 0.029280774
0003b0 f0 d0 6b 3d 60 38 e4 bc 44 d3 10 3d a2 a4 3e 3d
       0.057572305 -0.027858913 0.03535773 0.046543725
0003c0 f6 af 14 3d b8 3e 73 bc 98 61 3e bd 78 33 01 bc
       0.036300622 -0.014846496 -0.04647979 -0.007885806
0003d0 cc f4 c3 3c 4e e6 13 3d 16 48 32 bd 0e 0b 5c 3d
       0.02392044 0.036108308 -0.043525778 0.05372148
0003e0 60 4f 6c 3d c8 f1 35 bd 10 4e a9 bc a4 08 81 3c
       0.057692885 -0.044420034 -0.020667106 0.01575119
0003f0 fe c1 31 bd a8 6a df bc 8c 3a a2 3c 04 51 ab bc
       -0.043397896 -0.027272537 0.019803308 -0.020912655

fc4.weight f4 [5, 256]
000000 53 f7 90 3d 14 29 e2 bb 73 3d 7c bc c6 00 12 3c
       0.07078423 -0.0069018696 -0.01539551 0.008911317
000010 54 b2 9d 3c f3 13 9e bd 28 34 3a 39 e7 19 c6 3c
       0.019250073 -0.07718649 0.00017757772 0.024182273
000020 5d 38 0a be e9 90 9f 3d d0 19 84 3d 0f db 1b bd
       -0.13498063 0.07791311 0.06450236 -0.038050707
000030 51 a0 d7 3d 11 18 84 3d 60 14 4a 3b d4 6f ac bc
       0.10528625 0.06449903 0.0030834898 -0.021049418
000040 bc d5 8b bd 30 8f f8 bb ee e9 01 3c 56 3d 6a bd
       -0.06827876 -0.0075854287 0.007929308 -0.0571874
000050 ca a5 06 3c 46 b8 9a bd 56 02 12 be b5 73 0d be
       0.008218238 -0.075546786 -0.14258704 -0.1381367
000060 31 d1 c1 bd 23 55 0c bb 73 77 d7 3d 17 34 ea bc
       -0.09463728 -0.002141305 0.1052083 -0.028589291
000070 cf 4a 95 bd 9b d8 a2 3d d5 fc 94 3c 6b 86 3c 3d
       -0.07289659 0.079514705 0.018186966 0.04602663
000080 56 05 f6 bb be 70 e6 3c f6 90 81 3d 58 ce 5d 3d
       -0.0075079603 0.028129932 0.06326477 0.054151863
000090 d4 58 0d 3d a3 17 33 be 44 f3 d7 bc 6c bf b0 bb
       0.03450854 -0.17489485 -0.026361115 -0.005393913
0000a0 2f a2 85 3d 24 41 9b 3d 5f 3c 6a bd d9 c7 41 3d
       0.06525075 0.07580784 -0.05718648 0.04730973
0000b0 2a 32 0c 3d a6 29 4b bd f1 7b e8 bd bc 30 38 3d
       0.034227528 -0.049600266 -0.11351765 0.04496835
0000c0 ab 2c 56 3d 3a 49 84 3d 22 ff ff bd 37 7a b4 bd
       0.052288692 0.06459279 -0.124998346 -0.08812373
0000d0 d9 55 bc 3c aa 97 3a bc 4f fa 62 bd 70 d9 5a bd
       0.022990154 -0.011388699 -0.055414494 -0.05343002
0000e0 bf bb 0b 3d d2 6e 20 bd 45 51 9d 3c 77 f1 83 bd
       0.034114596 -0.039168186 0.019203791 -0.0644254
0000f0 33 cd 82 3d 48 10 44 bd 5a 5f 98 bc d4 64 3b 3d
       0.06386795 -0.04786709 -0.018600155 0.045750454
000100 56 a4 41 bb b8 08 0e be 4c f1 0a be 45 82 8a 3a
       -0.0029547415 -0.13870513 -0.1356861 0.0010567388
000110 98 47 20 bd ad 03 b9 3c 3f 5a 85 bc 5b 0e b5 bc
       -0.039130777 0.02258476 -0.016278384 -0.022101572
000120 e6 ae 29 bc 51 84 18 3e 69 5c e6 bd 47 2d 31 3d
       -0.01035664 0.14894225 -0.112480946 0.04325607
000130 9b 7c 30 bd b4 37 6a 3d a6 ba c7 bb e4 a8 27 bd
       -0.043087583 0.05718203 -0.0060952483 -0.04093255
000140 a7 61 e3 bd 16 76 1d 3d 91 b7 d9 3c a2 da 01 3e
       -0.1110261 0.038442694 0.02657679 0.12681058
000150 e0 a8 be bb 11 e3 69 bc 6b 83 10 bd 77 4b 10 3d
       -0.0058184713 -0.014275328 -0.03528158 0.03522822
000160 32 72 46 3d d1 34 a6 bd 3b e0 e2 3d 3e 5a ce 3d
       0.04844875 -0.08115543 0.11077925 0.10075806
000170 6b 50 2b 3d c9 b5 15 3e 84 47 34 3d 36 f8 2b bd
       0.04182474 0.14620127 0.044013515 -0.04198476
000180 f7 bf d1 3d ee 3f f9 bb be fd bf 3c 0e 9c 6b 3d
       0.102416925 -0.007606498 0.023436423 0.057521872
000190 a9 87 33 bc 17 d2 c0 3c ff af 2e bd f4 a5 a7 bc
       -0.010957637 0.023537679 -0.04264831 -0.020464875
0001a0 de c2 49 bd fd c2 70 bd 8c 0e 22 3c 42 ec 7c 3d
       -0.049258105 -0.058779705 0.009891164 0.06174875
0001b0 f8 48 05 bd 97 a2 6c bb f7 63 13 be 8a 01 80 3d
       -0.03254029 -0.0036107653 -0.14393602 0.062502936
0001c0 56 9f 18 bd 8d ad 87 3c 73 6c 69 bb a5 da 1e 3d
       -0.03726133 0.016562248 -0.003561762 0.038782734
0001d0 34 7c 86 3d 8d 56 74 3d 30 2c e8 bd a9 bf 57 3d
       0.065666586 0.059652854 -0.11336553 0.052673016
0001e0 74 a2 b2 bb fc 45 6f bd 7c b9 4d 3d ac d9 c8 bd
       -0.005451495 -0.05841635 0.05022572 -0.098071426
0001f0 b7 47 f9 bc 7e b7 a4 bd fb 29 1a be cb 6a bf 3d
       -0.030429704 -0.08042811 -0.15055077 0.09346541
000200 c6 c4 f0 bd b5 50 c9 bc 17 f2 87 bb f5 b4 f0 bc
       -0.117562816 -0.024574617 -0.0041487324 -0.029383162
000210 6b 56 0e bb 74 35 8a bb 33 60 99 3d ee 43 69 be
       -0.002171899 -0.004217798 0.07489052 -0.2277982
000220 56 3b 0f be 24 1d cf bc 10 d8 41 bc d5 28 ee bc
       -0.13987479 -0.02528245 -0.0118312985 -0.029072205
000230 52 bb bd bd 51 dc ef 3d ea 6e d1 3d 91 c3 ae bb
       -0.09264244 0.11711944 0.10226233 -0.005333372
000240 85 75 84 3d 97 a7 31 3d 76 8b 25 be b8 55 88 3c
       0.064677276 0.043372717 -0.16166481 0.016642436
000250 06 f8 3d bb 63 01 bf bd 85 ee ed 3c d9 4e 14 bd
       -0.0028986945 -0.09326436 0.029044399 -0.036208007
000260 1a df e4 bc 53 10 fb 3c e3 e7 0c be b1 74 59 3d
       -0.027938414 0.030647432 -0.13760333 0.0530898
000270 2c c1 11 3d 25 4f 31 3d 7c 43 49 bd b6 88 6b 3c
       0.035584614 0.04328837 -0.049136624 0.014375856
000280 d2 4a b3 3d 2c 36 67 bd c7 33 b3 3c a5 f4 52 bd
       0.08754505 -0.056448147 0.021875275 -0.051502842
000290 5b c9 83 3c b3 3d d5 3d 16 ad 98 3d 37 b4 6d bd
       0.016087225 0.10412159 0.074548885 -0.058033194
0002a0 85 e0 7f bd 29 e5 bc 3d e8 75 ec 3d 06 3a 4f 3c
       -0.062469978 0.09223396 0.11545926 0.012648111
0002b0 1a 13 4d 3d d5 99 3e 3d 6c f2 5e 3d c2 86 8f 3c
       0.050067045 0.046533424 0.05443041 0.017520312
0002c0 e5 aa 6c 3b 13 e3 ab bc 87 7d 88 bd ac c2 b8 3d
       0.0036112603 -0.0209823 -0.066645674 0.09021506
0002d0 46 62 f0 3c de a3 92 bc 9c ca a5 bc 1a 5a 1d 3b
       0.029343735 -0.017900404 -0.020238213 0.0024010004
0002e0 79 f1 28 3d 84 82 0e bd 5e 11 b0 3c 02 8e 29 be
       0.04124591 -0.03479244 0.021492656 -0.16558078
0002f0 07 8e 20 be fb f9 fd 3c 34 a9 d0 3c 67 58 f1 bd
       -0.15679179 0.031002989 0.025471307 -0.117844395
000300 c4 ea e0 bd ef e0 5f bd 60 7c 84 3c a9 8f 3d 3c
       -0.10982278 -0.054657873 0.016172588 0.011569896
000310 57 b7 5d bd 9d e3 e5 3d ba c4 e5 3d dd 61 9e 3d
       -0.054129925 0.112250544 0.11219163 0.0773351
000320 76 85 5a 3d 1f 3b 70 bd 48 02 18 bd be 3c d9 3c
       0.053349935 -0.058650132 -0.03711155 0.026518222
000330 d2 2d a4 bd 48 0d 2d 3c e0 55 65 bc 1d 01 9f 3c
       -0.08016552 0.0105622485 -0.013997525 0.01940971
000340 e4 30 97 bc 76 35 0c 3e 88 36 12 be 6a 5e f5 3d
       -0.01845593 0.13692269 -0.14278615 0.11980899
000350 ea d6 f4 3c a1 fa 4b bc e4 00 2a bd a3 81 00 3d
       0.029887635 -0.012449891 -0.041504756 0.03137363
000360 a8 29 dd 3c 45 c4 d0 3c 64 53 19 3d 55 e6 c6 3d
       0.026997402 0.025484214 0.037433043 0.09711901
000370 b1 b3 0e bd 97 1f 0c bd d5 57 51 3d 5a 79 c0 bd
       -0.034839336 -0.034209814 0.051109154 -0.09398146
000380 e2 98 c4 bd 07 65 93 3a e3 b3 02 3d c1 c1 de 3d
       -0.095994726 0.0011245318 0.031909835 0.108767994
000390 da f5 f3 3d 7d 7c cb bc f3 2e bc bc a8 9b 07 3d
       0.11912127 -0.024839634 -0.022971606 0.03310743
0003a0 d4 a9 9c 3d 39 65 be bd 9a ed db bc 11 5a dc 3c
       0.0764958 -0.092966504 -0.026846696 0.026898416
0003b0 57 dd 98 3d 7c c1 09 bd ba 05 9b 3d 3b 5f ee bc
       0.07464092 -0.033631787 0.07569452 -0.029098144
0003c0 b0 2c 07 be df 82 5b 3b e7 77 d6 bd db 84 56 bc
       -0.1320064 0.0033494753 -0.10472088 -0.013093199
0003d0 f7 08 27 bd ef 8c 9e 3c 1f a9 14 bc dd 82 0c 3d
       -0.040780034 0.019354312 -0.009073525 0.03430449
0003e0 b3 d5 5d 3d 60 ca 75 bc fe 70 21 bd e5 23 54 bc
       0.054158878 -0.015001863 -0.0394144 -0.012948011
0003f0 38 7c 09 3e b9 2e 9e 3d ca f0 66 3c 41 c7 87 3d
       0.13426292 0.077237554 0.0140954945 0.066298015

fc4.bias f4 [5]
000000 af 4a b5 bb a8 0d ba bc 76 5d 64 bd d1 52 74 3d
       -0.0055325846 -0.02271159 -0.055753194 0.059649292
000010 12 51 02 bd
       -0.031815596
