CC_Reinforce_version_3_copy/tmp/highway/state_dict_model.pt (torch, 84127 bytes, 6 tensors)

fc1.weight f4 [128, 25]
-0.19152915 -0.04915984 -0.0975184 -0.15047404 -0.12235349 -0.1335761 -0.1372293 -0.097694635
-0.16114374 -0.15738125 0.07184352 0.025516316 -0.09208486 -0.104947284 -0.08125653 0.073234305
0.14087339 0.06001146 -0.038114622 -0.018361285 -0.079739355 -0.009392887 -0.15817364 -0.12609845
-0.071049735 -0.0068475306 -0.0022416115 -0.1758257 -0.057503417 0.07334818 0.017311007 0.06510611
0.058840886 0.15379848 0.15269725 -0.17566407 -0.016141579 0.13636257 0.09163298 -0.13820727
-0.12647825 0.051673368 0.049669147 0.16480242 0.014254183 0.14927359 -0.060641125 0.12504165
0.07065241 0.018045545 0.17578311 -0.13341834 -0.061834425 -0.027329635 0.04024537 0.05501001
0.15699433 0.05153412 0.025074383 -0.19050129 0.1873316 -0.14754881 0.11376126 0.17247194
-0.17175433 0.1875761 -0.029925624 -0.065259874 0.13531363 0.16590308 0.13759251 -0.08802618
0.120254554 -0.13181826 -0.06087527 0.19929135 0.122566774 0.020453313 0.1346298 -0.13165899
-0.049247388 -0.0891833 -0.09147273 -0.045235466 0.11790485 -0.0054958067 0.17563386 0.16336446
-0.16602026 0.15342054 -0.0014715393 0.083600335 0.12961204 0.052250408 0.0025077546 0.021297626
0.16929822 -0.015545977 0.07605292 -0.13746993 -0.15782826 -0.15998366 0.073139116 -0.0152620375
-0.18514633 -0.03610137 0.19827445 0.11839108 0.010552794 0.13464116 0.11891432 -0.098837234
-0.05953762 -0.13633616 -0.15375356 -0.116251424 0.1335633 0.0022742748 -0.01646471 -0.10965123
0.1624497 -0.1929574 0.13142182 0.00019302964 0.023635983 0.06057839 -0.15734154 0.12371893
-0.086717725 0.098558694 0.19320454 -0.07668429 0.042200506 0.019785356 -0.09178977 -0.18112269
-0.18308786 0.10969138 0.09174424 0.018607471 0.11130299 0.043982714 0.045743898 0.04876763
-0.062233783 0.003593848 -0.033060458 0.15975755 -0.085192345 -0.07907036 0.059344262 -0.17436562
0.005242797 0.10420117 -0.13154693 0.041568354 -0.15642045 -0.08861933 0.0873169 -0.11345401
0.12949811 0.16912593 0.15786405 0.18674944 0.19212888 -0.1671147 0.18905942 0.1349143
-0.01632008 -0.17320836 -0.10706349 -0.10932682 0.18089084 -0.06393133 0.17633764 0.10046813
0.12506889 0.17309752 0.13548556 -0.14632298 -0.08306875 -0.19954109 0.1259142 -0.096886106
0.1047344 0.03672569 -0.0498619 -0.011631389 0.16990517 -0.150114 0.11744216 0.011006014
-0.18572521 -0.028192533 -0.17293409 -0.037978526 -0.07749137 -0.06593474 -0.10398954 0.13732792
0.18803792 -0.09133091 -0.08261782 -0.074856415 0.031186119 -0.019117892 0.036519054 -0.12980068
-0.09201033 0.026286805 -0.17276847 0.06340274 -0.011941536 -0.18093808 -0.07164445 -0.036922492
-0.04828634 0.0646348 -0.084022075 0.19689508 -0.012261409 0.13930589 -0.055807028 0.021472322
0.04563354 -0.10511537 -0.12662998 0.0086003095 -0.0441242 0.062748566 -0.07477406 0.03992185
0.110348955 0.1184843 -0.108334206 -0.111440115 -0.027116925 0.09158172 0.118195966 -0.019896597
-0.13337943 0.052022383 0.07034366 -0.15286084 -0.05366835 -0.15568575 -0.15516241 0.03623876
-0.062405795 -0.1046375 0.0907657 -0.15930074 0.122886695 0.11147909 -0.15931799 -0.026283845
00000000: 3820 44be d45b 49bd bab7 c7bd de15 1abe
00000010: 7794 fabd 2cc8 08be d685 0cbe 2014 c8bd
00000020: dd02 25be 8d28 21be b222 933d 9807 d13c
00000030: fd96 bcbd 9aee d6bd d369 a6bd defb 953d
00000040: 1d41 103e 94ce 753d 141e 1cbd 686a 96bc
00000050: 634e a3bd a0e4 19bc 45f8 21be f41f 01be
00000060: 8682 91bd 4061 e0bb 00e8 12bb a70b 34be
00000070: b488 6bbd 9237 963d d0cf 8d3c 5a56 853d
00000080: 2403 713d 597d 1d3e ab5c 1c3e 48e1 33be
00000090: 583b 84bc a1a2 0b3e 12aa bb3d 3586 0dbe
000000a0: 8483 01be 74a7 533d e071 4b3d f7c1 283e
000000b0: 608a 693c 2ddb 183e d462 78bd eb0a 003e
000000c0: 36b2 903d 40d4 933c 7d00 343e d19e 08be
000000d0: 1846 7dbd 66e2 dfbc 54d8 243d 2d52 613d
000000e0: 1fc3 203e 7115 533d cb68 cd3c c512 43be
000000f0: dbd3 3f3e 0917 17be aafb e83d 7c9c 303e
00000100: 5ee0 2fbe f313 403e 9526 f5bc f8a6 85bd
00000110: a88f 0a3e 7fe2 293e 0de5 0c3e 1247 b4bd
00000120: 0548 f63d 5efb 06be 5958 79bd 0813 4c3e
00000130: 4a04 fb3d b58d a73c 65dc 093e 9dd1 06be
00000140: a1b7 49bd bca5 b6bd 0e56 bbbd d348 39bd
00000150: 1978 f13d 2b16 b4bb 5dd9 333e 0349 273e
00000160: 3701 2abe 461a 1d3e aae0 c0ba a736 ab3d
00000170: 05b9 043e 8604 563d 2459 243b 5c78 ae3c
00000180: 835c 2d3e 8eb4 7ebc a2c1 9b3d ebc4 0cbe
00000190: bb9d 21be c2d2 23be f6c9 953d a00d 7abc
000001a0: 0097 3dbe 08df 13bd 7508 4b3e 0677 f23d
000001b0: a0e5 2c3c 5fdf 093e 5a89 f33d 2d6b cabd
000001c0: b8dd 73bd b59b 0bbe 9371 1dbe 3a15 eebd
000001d0: d1c4 083e 000c 153b 00e1 86bc d390 e0bd
000001e0: 3759 263e a096 45be 7193 063e 0068 4a39
000001f0: 40a0 c13c 0c21 783d 241e 21be 5a60 fd3d
00000200: 1099 b1bd 24d9 c93d 69d7 453e a70c 9dbd
00000210: 70da 2c3d e614 a23c 46fc bbbd 3a78 39be
00000220: 627b 3bbe e0a5 e03d 67e4 bb3d b26e 983c
00000230: d2f2 e33d 3827 343d f45d 3b3d 91c0 473d
00000240: dae8 7ebd c486 6b3b 676a 07bd 7c97 233e
00000250: 5379 aebd a4ef a1bd f812 733d e78c 32be
00000260: c5cb ab3b 6c67 d53d 3db4 06be 9443 2a3d
00000270: af2c 20be 0d7e b5bd 34d3 b23d 935a e8bd
00000280: 279b 043e 592f 2d3e 1da7 213e 3f3b 3f3e
00000290: 6fbd 443e 1e20 2bbe cb98 413e f926 0a3e
000002a0: b0b1 85bc 885d 31be 1a44 dbbd bde6 dfbd
000002b0: 733b 393e 6eee 82bd db91 343e 3cc2 cd3d
000002c0: 0f12 003e 7a40 313e babc 0a3e b1d5 15be
000002d0: f31f aabd 8054 4cbe a7ef 003e 396c c6bd
000002e0: fd7e d63d ad6d 163d fe3b 4cbd 9591 3ebc
000002f0: 9ffb 2d3e 7cb7 19be 8485 f03d 9252 343c
00000300: c02e 3ebe 07f4 e6bc a215 31be 5f8f 1bbd
00000310: ccb3 9ebd cb08 87bd 78f8 d4bd b19f 0c3e
00000320: 038d 403e b30b bbbd 8833 a9bd 524e 99bd
00000330: 087a ff3c 209d 9cbc 0195 153d 78ea 04be
00000340: e96f bcbd 6d57 d73c 38ea 30be 4cd9 813d
00000350: 6fa6 43bc d547 39be 53ba 92bd 0a3c 17bd
00000360: e6c7 45bd 405f 843d c413 acbd dd9e 493e
00000370: 14e4 48bc 34a6 0e3e e995 64bd b9e6 af3c
00000380: 3cea 3a3d ba46 d7bd 4aab 01be 50e8 0c3c
00000390: 94bb 34bd 5282 803d 2423 99bd 1885 233d
000003a0: a2fe e13d e6a7 f23d 53de ddbd b73a e4bd
000003b0: 5024 debc 328f bb3d ba10 f23d 30fe a2bc
000003c0: 9e94 08be 6c15 553d 5610 903d 8d87 1cbe
000003d0: 58d3 5bbd 166c 1fbe e5e2 1ebe 186f 143d
000003e0: 389d 7fbd 304c d6bd 5ee3 b93d bc1f 23be
000003f0: 05ac fb3d 264f e43d 4124 23be 3851 d7bc

fc1.bias f4 [128]
0.052824423 -0.015624091 0.06142654 0.060090583 0.08315481 -0.093934275 -0.02393916 -0.042579856
0.09215149 0.12863232 0.04384115 -0.15868044 0.08332746 -0.0052534505 -0.11970129 0.09233706
0.1347998 0.01828679 0.14340074 -0.09960196 -0.049904585 -0.10674007 0.17425953 0.09434112
0.034231927 0.08444388 0.049111802 0.16747038 -0.17355083 0.03049621 0.16469729 0.08025808
-0.16365243 -0.01174482 -0.045491982 0.037376955 0.15363328 0.09686882 0.03706337 0.12567843
-0.17930582 -0.053694364 0.003675791 0.19841711 -0.04376329 0.15532951 -0.019537434 0.122714184
0.08772678 0.17084129 -0.09407093 0.18952486 -0.115189314 -0.17554085 -0.15055612 0.10893263
0.14506401 -0.13610668 0.005405385 -0.17136677 -0.070971176 0.0025922507 0.06420643 0.013662048
0.061157607 0.042587087 -0.13387328 -0.19260694 -0.1536775 0.002448891 -0.13444836 -0.055217773
0.19999942 0.19112252 0.13935848 -0.037060693 0.008034093 -0.049273897 0.16954933 0.15632102
-0.021256655 0.19321285 -0.101312 -0.14163537 -0.17301856 0.00022508047 -0.17843786 -0.16982947
-0.03439036 0.15968896 0.1905244 -0.16973852 -0.19976602 -0.107555486 -0.04386295 0.08217941
-0.15830266 -0.09215414 0.062403988 -0.13704811 0.01434672 0.15932854 -0.10549108 -0.14537187
0.10121785 -0.11592162 0.19829908 -0.18418455 -0.065097086 0.080454305 -0.016135216 0.19555546
0.046527307 -0.008208377 0.068010345 0.12805142 -0.1390292 0.085171044 -0.082593545 0.20109172
-0.18024988 -0.15584278 0.13057253 0.031572726 -0.08987396 -0.13204136 0.021125466 -0.12539825
00000000: 6c5e 583d 30fc 7fbc 659a 7b3d 8b21 763d
00000010: 124d aa3d 9d60 c0bd 0f1c c4bc 3768 2ebd
00000020: ecb9 bc3d 31b8 033e c792 333d 207d 22be
00000030: 96a7 aa3d 2325 acbb f325 f5bd 361b bd3d
00000040: f508 0a3e 2ece 953c a5d7 123e 1dfc cbbd
00000050: c068 4cbd 8a9a dabd 1771 323e eb35 c13d
00000060: c736 0c3d eaf0 ac3d 7529 493d 5b7d 2b3e
00000070: 4fb7 31be 30d3 f93c 68a6 283e 595e a43d
00000080: 8194 27be 586d 40bc cd55 3abd 9418 193d
00000090: 0b52 1d3e 2963 c63d c3cf 173d d9b1 003e
000000a0: f29b 37be 9fee 5bbd 8ae5 703b db2d 4b3e
000000b0: 2341 33bd b30e 1f3e f80c a0bc 9351 fb3d
000000c0: 19aa b33d 05f1 2e3e 42a8 c0bd ce12 423e
000000d0: 60e8 ebbd fbc0 33be 622b 1abe 1218 df3d
000000e0: a98b 143e 8d5f 0bbe a81f b13b c57a 2fbe
000000f0: 5659 91bd c0e2 293b a97e 833d c8d6 5f3c
00000100: 6680 7a3d cc6f 2e3d 1416 09be c13a 45be
00000110: a25d 1dbe 937d 203b d5ac 09be 082c 62bd
00000120: a6cc 4c3e 9fb5 433e fdb3 0e3e f4cc 17bd
00000130: 6ea1 033c 6dd3 49bd 579e 2d3e 9e12 203e
00000140: 7022 aebc 97d9 453e aa7c cfbd dd08 11be
00000150: c72b 31be 9403 6c39 6ab8 36be c7e7 2dbe
00000160: e8dc 0cbd 8185 233e d418 433e efcf 2dbe
00000170: 778f 4cbe 0d46 dcbd a3a9 33bd ae4d a83d
00000180: 181a 22be 4fbb bcbd 539b 7f3d 5756 0cbe
00000190: 810e 6b3c 0527 233e b50b d8bd 5ddc 14be
000001a0: 4e4b cf3d 5068 edbd ea0e 4b3e e09a 3cbe
000001b0: 9f51 85bd 3ac5 a43d 002e 84bc b13f 483e
000001c0: 6b93 3e3d 6e7c 06bc 0249 8b3d e91f 033e
000001d0: ac5d 0ebe 286e ae3d ce26 a9bd fdea 4d3e
000001e0: 6d93 38be 4095 1fbe ceb4 053e 6752 013d
000001f0: d70f b8bd da35 07be 500f ad3c 6668 00be

fc2.weight f4 [128, 128]
0.008406945 0.05207295 0.040020123 0.055826228 0.001062192 -0.08478425 0.037123952 0.042805582
-0.038612496 -0.048781835 0.0805554 0.058629833 0.03994579 0.06423145 0.02950529 0.0070952773
0.014388427 0.006671961 -0.020012416 0.0011824999 -0.076049864 0.02687703 0.052563645 -0.07393861
-0.07011715 -0.08283073 -0.018684091 -0.035393856 -0.014454231 -0.05549192 -0.008523764 -0.032967936
0.07915134 0.085409515 0.010536357 0.01218383 -0.07993866 0.024988908 -0.023130622 -0.037741277
0.033334292 0.06709448 0.02292953 0.031905234 0.08226486 -0.064299464 0.0077174255 -0.02245346
-0.04276424 -0.050343875 -0.049406298 0.022521907 -0.07565512 -0.04158481 -0.0690378 0.045022838
0.07483496 -0.03575865 0.087907 0.010388039 0.022351958 -0.003727235 -0.061826367 0.041518107
-0.07258502 -0.013921522 0.0040952414 0.08508451 -0.050793923 0.04990961 0.046154536 0.027899116
0.086551435 -0.07095851 -0.0062004114 -4.9374998e-05 0.07186844 0.003252988 0.024261229 0.019862136
-0.056401648 -0.024378292 0.00033813715 0.018729193 -0.020598821 -0.039394367 0.016772643 -0.0066219345
-0.018720984 0.038902786 -0.010320724 -0.034667738 -0.009310067 -0.04301306 0.063338965 -0.07460903
-0.08701912 -0.029997949 -0.019697458 0.03851363 0.06820079 0.036285426 -0.080392 -0.004773062
-0.037429854 -0.082050234 -0.044074517 0.025528863 -0.05501052 0.0027344748 0.050033264 -0.06227642
0.06503188 0.07263868 0.06715777 -0.06900364 0.011017263 0.00070359604 -0.030333625 0.054643117
-0.07748583 0.06490331 -0.085136086 -0.03415986 -0.039356023 0.028892487 -0.051237818 -0.0045076758
-0.08596271 -0.05250668 -0.015846439 -0.023434721 -0.047718365 0.020130899 -0.058667358 0.06755569
-0.0029966997 0.071778856 -0.017645448 0.06505552 0.0608835 0.04677068 0.025079101 -0.038141526
0.07990837 -0.08221365 -0.07656126 0.012727512 -0.03964887 0.03855466 0.02025628 0.069227085
0.07045654 0.057870127 -0.009776062 0.019534882 0.06242446 -0.019048762 -0.02317512 -0.017529706
-0.08299748 0.047414295 -0.070630066 0.026477553 0.013023425 0.0424862 0.08232239 0.07705969
-0.046915784 -0.06912512 -0.07368521 0.07780265 -0.0029423663 -0.014992595 -0.041278288 0.01464816
0.07129486 -0.08793151 -0.01804859 0.02429879 -0.048430953 0.021899 0.075575046 -0.031728484
0.04237872 0.06424766 -0.014431268 0.03543102 0.0069336817 -0.022673495 -0.084479764 -0.035881806
-0.029472195 0.0030415878 -0.076039106 -0.015852006 -0.078807026 0.0053165844 -0.014829434 -0.08137214
-0.052680276 -0.0030249886 -0.062574185 -0.072035804 0.011775347 -0.04153862 0.041115236 0.04795086
0.038532414 -0.050164662 -0.082610205 0.056083925 0.048935823 0.035606876 -0.066590905 -0.037867572
-0.019035876 -0.03578144 0.073348746 0.038715784 0.07069451 -0.079059616 -0.027603436 -0.032570284
-0.08493165 -0.020560477 0.059941232 0.00516226 0.06689602 -0.08551065 0.023675304 -0.07317142
-0.086606614 0.029623115 0.010923885 -0.045268446 0.027584437 -0.08407421 -0.078642435 0.05188793
-0.077607006 -0.010798771 0.071498536 0.04104857 -0.08554003 0.059016116 0.07521068 0.057740815
-0.014895424 0.08255201 0.049867455 0.08190787 0.046477262 -0.010500371 0.067891516 -0.08629676
00000000: 48bd 093c 724a 553d 24ec 233d 0baa 643d
00000010: 4039 8b3a 5da3 adbd 490f 183d e854 2f3d
00000020: 2328 1ebd 76cf 47bd 3bfa a43d d625 703d
00000030: 329e 233d c78b 833d 14b5 f13c 807f e83b
00000040: 70bd 6b3c 77a0 da3b 14f1 a3bc 1dfe 9a3a
00000050: 08c0 9bbd 382d dc3c fa4c 573d 206d 97bd
00000060: 9599 8fbd 28a3 a9bd 610f 99bc 26f9 10bd
00000070: 70d1 6cbc 7f4b 63bd 42a7 0bbc 6309 07bd
00000080: 191a a23d 2feb ae3d afa0 2c3c b09e 473c
00000090: e1b6 a3bd 8ab5 cc3c 6e7c bdbc 9996 1abd
000000a0: 8a89 083d d568 893d b6d6 bb3c 10af 023d
000000b0: 7b7a a83d 70af 83bd 75e2 fc3b 52f0 b7bc
000000c0: 8e29 2fbd 6135 4ebd 425e 4abd dd7f b83c
000000d0: 12f1 9abd d554 2abd b163 8dbd de69 383d
000000e0: 1243 993d aa77 12bd 9608 b43d 9832 2a3c
000000f0: 741b b73c a044 74bb a53d 7dbd e40e 2a3d
00000100: 74a7 94bd 1817 64bc 6031 863b ca40 ae3d
00000110: 4a0d 50bd 056e 4c3d 8a0c 3d3d b08c e43c
00000120: e141 b13d b252 91bd d22c cbbb 0018 4fb8
00000130: c32f 933d 1530 553b 7cbf c63c ebb5 a23c
00000140: 6a05 67bd fcb4 c7bc 0048 b139 f76d 993c
00000150: dcbe a8bc fd5b 21bd c866 893c d0fc d8bb
00000160: c05c 99bc 8758 1f3d 4118 29bc c2ff 0dbd
00000170: 4089 18bc 762e 30bd dcb7 813d 9ecc 98bd
00000180: 1537 b2bd 42be f5bc 905c a1bc 78c0 1d3d
00000190: dbac 8b3d 07a0 143d 90a4 a4bd 5967 9cbb
000001a0: 0c50 19bd f409 a8bd 7b87 34bd e821 d13c
000001b0: b652 61bd e034 333b aeef 4c3d 8f15 7fbd
000001c0: 6f2f 853d 97c3 943d 038a 893d c851 8dbd
000001d0: c081 343c 8871 383a 397e f8bc 76d1 5f3d
000001e0: e4b0 9ebd 07ec 843d d45b aebd 36eb 0bbd
000001f0: c833 21bd f0af ec3c bfde 51bd 20b5 93bb
00000200: 380d b0bd 3f11 57bd 64d0 81bc 2cfa bfbc
00000210: 5574 43bd 8ee9 a43c 2f4d 70bd a35a 8a3d
00000220: 4764 44bb cb00 933d 308d 90bc d43b 853d
00000230: fa60 793d 9d92 3f3d b072 cd3c 4a3a 1cbd
00000240: 00a7 a33d a15f a8bd 26cc 9cbd 0e87 503c
00000250: da66 22bd 7eeb 1d3d 80f0 a53c eec6 8d3d
00000260: 854b 903d 3a09 6d3d c72b 20bc 9e07 a03c
00000270: cab0 7f3d 260c 9cbc c0d9 bdbc 759a 8fbc
00000280: 95fa a9bd 7e35 423d 7fa6 90bd 74e7 d83c
00000290: 3460 553c 0206 2e3d a498 a83d 79d1 9d3d
000002a0: c42a 40bd 7991 8dbd 45e8 96bd ff56 9f3d
000002b0: b7d4 40bb 80a3 75bc 6c13 29bd d6fe 6f3c
000002c0: 0a03 923d 6f15 b4bd a3da 93bc 420e c73c
000002d0: 895f 46bd 8865 b33c 17c7 9a3d baf5 01bd
000002e0: 4f95 2d3d 4794 833d 2071 6cbc 1e20 113d
000002f0: f033 e33b c4bd b9bc ba03 adbd cdf8 12bd
00000300: ac6f f1bc 6055 473b 64ba 9bbd 11dc 81bc
00000310: 9465 a1bd be36 ae3b 28f7 72bc 70a6 a6bd
00000320: 46c7 57bd e33e 46bb e526 80bd 8287 93bd
00000330: 63ed 403c 6624 2abd 7368 283d 1f68 443d
00000340: 2ad4 1d3d 7679 4dbd 8a2f a9bd 42b8 653d
00000350: ee70 483d 84d8 113d d060 88bd 071b 1bbd
00000360: 20f1 9bbc 8f8f 12bd de37 963d 7194 1e3d
00000370: 49c8 903d 02ea a1bd 9a20 e2bc 6b68 05bd
00000380: a5f0 adbd 726e a8bc f084 753d 2d28 a93b
00000390: c800 893d 3520 afbd b6f2 c13c e6da 95bd
000003a0: cf5e b1bd 2dac f23c 18fa 323c 686b 39bd
000003b0: c2f8 e13c 192f acbd 490f a1bd 7088 543d
000003c0: 6cf0 9ebd 54ed 30bc d36d 923d 8c22 283d
000003d0: 9c2f afbd e2ba 713d 0f08 9a3d a281 6c3d
000003e0: f00b 74bc 0711 a93d d141 4c3d 50bf a73d
000003f0: f15e 3e3d c009 2cbc b50a 8b3d 5bbc b0bd

fc2.bias f4 [128]
0.052713133 -0.051630765 0.00043158233 0.034613952 -0.04352413 0.0071588266 0.006471712 -0.051055904
0.032368965 0.018428085 0.0872357 -0.08502793 -0.060021885 -0.0051602796 0.004745244 0.031090835
-0.052321907 0.08512063 0.04508569 -0.026618205 0.013784942 -0.03882203 -0.060384393 0.0053638294
-0.0048350096 0.04816375 0.08257362 0.05202367 -0.08378375 -0.07344423 0.02613259 -0.04579686
0.06300908 0.061727382 0.020210931 0.042069715 0.04418201 -0.041628882 -0.052596696 0.06449424
0.008643017 -0.033294797 0.028628625 0.052539516 0.08711609 0.07818512 0.019184498 -0.03365601
0.013129145 -0.03412937 0.06164368 0.0020087792 0.08668085 -0.059570808 0.00096725766 0.07153122
-0.037617758 0.0033517363 0.07968222 0.08660753 0.06685593 0.057839688 0.08318524 -0.007786125
0.028326748 0.06938966 -0.025231428 -0.08200326 -0.06568756 0.085059166 0.04272589 -0.029052738
0.03976589 -0.07906923 -0.048457395 0.089508474 -0.02428175 -0.08695135 -0.041073624 0.06034915
0.049238786 -0.03711241 0.036402892 0.07385296 0.061808206 -0.003476262 0.024644153 -0.020125885
-0.041816555 -0.0018596947 -0.017454483 -0.08336268 0.03857645 0.07550901 -0.058710054 -0.0075337696
-0.04658201 0.066067345 0.018467538 -0.030908644 0.0473885 0.0075729936 0.08527451 0.07477756
-0.013484067 0.076966405 -0.040098164 -0.003962456 -0.07138464 -0.0057776794 0.010677386 -0.054643024
-0.07342081 0.018041026 0.07351573 -0.055761114 -0.010623589 0.020345828 -0.08593241 -0.019390594
0.043116592 0.016987085 0.06484147 0.005253382 -0.075699314 0.030545937 -0.047156557 0.0035208538
00000000: bae9 573d c87a 53bd 0046 e239 5cc7 0d3d
00000010: 5c46 32bd 9794 ea3b a810 d43b ff1f 51bd
00000020: 5295 043d 7ff6 963c a1a8 b23d 2023 aebd
00000030: 82d9 75bd 9017 a9bb fe7d 9b3b 35b2 fe3c
00000040: 7f4f 56bd ba53 ae3d c6ab 383d 6c0e dabc
00000050: 3dda 613c d903 1fbd a055 77bd 10c3 af3b
00000060: 006f 9ebb 5a47 453d 5c1c a93d c616 553d
00000070: d196 abbd ee69 96bd 0314 d63c 7d95 3bbd
00000080: e80a 813d dad5 7c3d 6591 a53c 4b51 2c3d
00000090: 32f8 343d 0c83 2abd a26f 57bd 8e15 843d
000000a0: 719b 0d3c 2060 08bd 9486 ea3c ad33 573d
000000b0: ec69 b23d 851f a03d cf28 9d3c e2da 09bd
000000c0: a01b 573c 3dcb 0bbd 157e 7c3d b9a5 033b
000000d0: bb85 b13d 8500 74bd 908f 7d3a f67e 923d
000000e0: 1415 1abd cea8 5b3b 6f30 a33d 4a5f b13d
000000f0: c3eb 883d 4fe9 6c3d 065d aa3d c022 ffbb
00000100: 7f0d e83c 2b1c 8e3d 24b2 cebc 53f1 a7bd
00000110: 3387 86bd 8033 ae3d 5801 2f3d 0200 eebc
00000120: 8fe1 223d 0cef a1bd 437b 46bd 3850 b73d
00000130: 85ea c6bc 8d13 b2bd d13c 28bd ac30 773d
00000140: 9cae 493d 2f03 18bd 331b 153d 3840 973d
00000150: 9a2a 7d3d 00d2 63bb 89e2 c93c 0adf a4bc
00000160: d647 2bbd 00c1 f3ba b4fc 8ebc 0eba aabd
00000170: 5702 1e3d 78a4 9a3d f479 70bd d7dd f6bb
00000180: c7cc 3ebd 514e 873d 3c49 973c 2034 fdbc
00000190: 721a 423d e026 f83b 67a4 ae3d fa24 993d
000001a0: 47ec 5cbc 90a0 9d3d f93d 24bd 7dd7 81bb
000001b0: 1c32 92bd b052 bdbb 34f0 2e3c 5dd1 5fbd
000001c0: a65d 96bd c6ca 933c 6a8f 963d c465 64bd
000001d0: 900e 2ebc 4bac a63c 55fd afbd 06d9 9ebc
000001e0: 069b 303d 8028 8b3c 9bcb 843d 9024 ac3b
000001f0: 3e08 9bbd 793b fa3c 3c27 41bd 20be 663b

fc3.weight f4 [5, 128]
-0.072798155 0.08153689 -0.057848845 0.043585997 0.04208388 -0.02240456 0.047936708 0.06562135
-0.0363126 -0.052217454 0.02002957 -0.050992355 0.041227423 0.07334069 -0.06407329 0.035023768
0.045011647 0.06172891 0.021528471 0.049488563 -0.0023108444 0.043100797 -0.025483605 0.039590143
-0.064872906 -0.062069155 -0.08647321 -0.075957805 -0.008780234 0.076517105 0.017841259 0.03564302
0.05461625 -0.0006444538 0.012037134 -0.008013766 0.017308407 -0.04137299 0.08685344 -0.056360386
-0.08478241 -0.014309563 -0.068929546 -0.019625595 -0.068658404 8.624975e-05 -0.08650863 -0.07810386
0.014130354 -0.056353107 -0.08389822 -0.030359251 -0.06721445 -0.0314295 0.047559943 -0.009751971
-0.059663277 -0.0076401904 0.029232688 0.010133397 -0.020714108 -0.024062505 0.053747322 0.022812985
0.011817764 0.079419404 -0.034980927 -0.050708085 0.02042751 0.016314317 0.0048381644 0.009731159
0.051665295 -0.080882974 0.041955646 -0.020983305 -0.015315663 0.0059093237 0.0862712 0.04239278
0.056040093 0.016460665 -0.060085632 -0.02951087 -0.029472414 -0.06610583 -0.0815001 -0.053261496
0.061049253 0.016666003 -0.019933507 0.00035134703 0.056687143 0.04583918 -0.07285802 -0.037488777
0.045349088 0.022731178 0.072098985 0.055717222 -0.045402724 0.03668889 0.05264657 0.038422313
0.022501616 -0.05984992 -0.017506897 0.084121324 0.07434791 -0.079726145 0.021013198 0.02541427
0.018832378 0.018251782 -0.02098357 -0.08097894 0.043217592 -0.03064692 -0.06312302 0.033924147
0.04627453 -0.007350169 -0.055832382 -0.087792546 0.02041209 0.010180852 -0.028166577 -0.054970913
0.037470512 0.025540337 -0.023847237 -0.05840275 -0.08245771 0.08675816 0.070172146 -0.013360613
0.0072338064 0.077472754 0.0735136 0.03313636 -0.0012973894 0.053610064 -0.050368764 0.043008186
0.009996049 -0.0851221 0.049073815 0.083959654 0.01844852 0.039058782 -0.018132795 -0.067526415
-0.0845896 -0.04063951 0.07326872 0.059602328 -0.08022483 -0.017592829 -0.08016206 0.009460802
0.0404801 -0.041209675 0.03562048 0.05895706 -0.0876069 -0.04785449 -0.026022412 0.013702504
-0.007992221 -0.019482076 0.010098574 0.075695135 0.023336507 -0.04423562 0.08589132 -0.075692706
-0.041529458 0.05093243 -0.05017108 0.0026202288 -0.014303857 -0.041843783 0.08216632 -0.0052813827
0.0095874 0.009372392 0.003142342 -0.06147341 0.03513917 0.08585915 -0.028240824 0.0036282018
0.06441339 0.07681531 -0.08199932 -0.033705615 -0.01826287 0.047508128 -0.057089802 0.0154572725
-0.0521492 0.07432583 0.03528927 0.023820117 -0.046234895 -0.07159935 0.07639134 -0.014068444
0.08676719 0.06096589 -0.08646769 0.08128832 -0.00011577457 0.020381376 0.07240598 -0.060535334
0.04016529 -0.046523396 -0.07850863 -0.016012855 0.0073576905 0.07771819 -0.010684878 0.0514716
0.012794389 0.05450153 -0.07047181 -0.021937087 0.058696438 0.071566775 0.025433607 -0.079301015
-0.07398177 0.08379221 0.07335613 0.029264027 -0.06618549 0.064376645 -0.05614423 -0.04832556
-0.0067904294 -0.07979349 0.052402366 -0.034369554 0.03634783 0.0027902196 -0.017519528 0.07467411
-0.0073585077 0.012432322 -0.054619994 0.071221136 -0.08399163 0.030547084 0.056961 0.013739355
00000000: 3317 95bd d0fc a63d e9f2 6cbd 3b87 323d
00000010: 2660 2c3d c589 b7bc 4859 443d 7d64 863d
00000020: 85bc 14bd f8e1 55bd 0e15 a43c 5cdd 50bd
00000030: 16de 283d a533 963d db38 83bd 1575 0f3d
00000040: 225e 383d 74d7 7c3d 7a5c b03c 85b4 4a3d
00000050: 8971 17bb 768a 303d fec2 d0bc 4629 223d
00000060: 16dc 84bd 3a3c 7ebd de18 b1bd c48f 9bbd
00000070: f8da 0fbc 00b5 9c3d d527 923c 6afe 113d
00000080: 4ab5 5f3d 90f0 28ba 6637 453c 2c4c 03bc
00000090: 5cca 8d3c b976 29bd 37e0 b13d 26da 66bd
000000a0: 66a2 adbd a872 6abc ef2a 8dbd dbc5 a0bc
000000b0: c79c 8cbd fbe0 b438 702b b1bd ebf4 9fbd
000000c0: 0083 673c 84d2 66bd d4d2 abbd f7b3 f8bc
000000d0: bba7 89bd 38bc 00bd 37ce 423d bbc6 1fbc
000000e0: 7b61 74bd 905a fabb 6479 ef3c 8c06 263c
000000f0: a2b0 a9bc bb1e c5bc 2726 5c3d 4ce2 ba3c
00000100: 4b9f 413c a4a6 a23d 2948 0fbd 48b3 4fbd
00000110: 9857 a73c 9aa5 853c 7789 9e3b 706f 1f3c
00000120: fd9e 533d f9a5 a5bd afd9 2b3d 2ee5 abbc
00000130: 8cee 7abc 00a3 c13b f4ae b03d 0da4 2d3d
00000140: 4c8a 653d 84d8 863c 5a1c 76bd c8c0 f1bc
00000150: 2270 f1bc 7e62 87bd 86e9 a6bd ba28 5abd
00000160: c80e 7a3d 2487 883c 984b a3bc 0035 b839
00000170: c730 683d ddc1 3b3d 9636 95bd d58d 19bd
00000180: f7bf 393d bc36 ba3c a2a8 933d be37 643d
00000190: 35f8 39bd 1747 163d eea3 573d b760 1d3d
000001a0: 4f55 b83c 3125 75bd a06a 8fbc cd47 ac3d
000001b0: b843 983d 7647 a3bd df23 ac3c 9631 d03c
000001c0: 5c46 9a3c c384 953c bce5 abbc 49d8 a5bd
000001d0: ee04 313d 400f fbbc a446 81bd 0cf4 0a3d
000001e0: 5d8a 3d3d b0d9 f0bb 7fb0 64bd 94cc b3bd
000001f0: 4137 a73c 97cd 263c 98bd e6bc 2e29 61bd
00000200: ae7a 193d f839 d13c 485b c3bc b937 6fbd
00000210: 96df a8bd 43ae b13d 6ab6 8f3d 79e6 5abc
00000220: 9109 ed3b 09aa 9e3d 4c8e 963d feb9 073d
00000230: 2a0d aaba 3a96 5b3d 7a4f 4ebd 5a29 303d
00000240: 78c6 233c 7f54 aebd a001 493d 0af3 ab3d
00000250: 5a21 973c 1afc 1f3d 3a8b 94bc 4a4b 8abd
00000260: 503d adbd 9d75 26bd e90d 963d 9221 743d
00000270: ea4c a4bd d61e 90bc 022c a4bd 7b01 1b3c
00000280: 76ce 253d 7acb 28bd c8e6 113d f57c 713d
00000290: 3f6b b3bd 1203 44bd f42c d5bc 7880 603c
000002a0: cef1 02bc e098 9fbc 7d74 253c 0d06 9b3d
000002b0: 342c bf3c 6930 35bd cae7 af3d c704 9bbd
000002c0: cb1a 2abd 869e 503d 3180 4dbd 25b8 2b3b
000002d0: ba5a 6abc 6364 2bbd d146 a83d 730f adbb
000002e0: 7814 1d3c a98e 193c c0ef 4d3b 8bcb 7bbd
000002f0: 17ee 0f3d ecd6 af3d 4d59 e7bc 20c7 6d3b
00000300: 2beb 833d 5851 9d3d 42ef a7bd e60e 0abd
00000310: 049c 95bc e297 423d ffd6 69bd 8040 7d3c
00000320: 669a 55bd 2438 983d 7b8b 103d 6822 c33c
00000330: cd60 3dbd aea2 92bd 1073 9c3d 557f 66bc
00000340: ffb2 b13d 5eb7 793d f915 b1bd 7e7a a63d
00000350: 00cc f2b8 d8f6 a63c 9649 943d e6f3 77bd
00000360: 5c84 243d 518f 3ebd 22c9 a0bd 642d 83bc
00000370: c818 f13b b72a 9f3d a00f 2fbc e2d3 523d
00000380: 8f9f 513c ff3c 5f3d 8653 90bd 68b5 b3bc
00000390: ad6b 703d 9a91 923d 245a d03c 9268 a2bd
000003a0: c183 97bd 409b ab3d bd3b 963d 1dbb ef3c
000003b0: 428c 87bd e7d7 833d 7ef7 65bd 06f1 45bd
000003c0: 4082 debb c56a a3bd dda3 563d 17c7 0cbd
000003d0: 76e1 143d 1edc 363b 1d85 8fbc bdee 983d
000003e0: a31f f1bb f0b0 4b3c 37b9 5fbd 63dc 913d
000003f0: ce03 acbd e13d fa3c f04f 693d 081b 613c

fc3.bias f4 [5]
-0.05460977 0.035177283 -0.0074085845 0.027440805 -0.043080635
00000000: 7fae 5fbd 0e16 103d b6c3 f2bb 8acb e03c
00000010: 5275 30bd
