CC_Reinforce_version_5/materials/state_dict_model_cost.pt (torch, 82119 bytes, 5 tensors)

fc1.weight f4 [128, 25]
000000 98 b7 9a bc 00 61 34 be 73 91 f1 bd 03 26 fc bd
       -0.018886372 -0.17615128 -0.1179532 -0.12311938
000010 a3 fc d6 bd 24 2b 85 bd 29 93 37 3e 00 6f 51 3c
       -0.104974054 -0.06502369 0.17927231 0.012782812
000020 00 1d c6 3a 8d 86 48 be c4 08 6e 3d 20 16 8b bd
       0.0015114844 -0.19582577 0.05811383 -0.067913294
000030 dd e5 20 be 28 45 22 bd b4 ec 2e bd 77 3f 33 be
       -0.15712686 -0.039616734 -0.042706206 -0.17504679
000040 ea ae 49 be 38 2e 5b bd 22 b8 b1 3d 98 86 c8 3c
       -0.1969563 -0.053510875 0.08677699 0.024478242
000050 fa 3a fd 3d 1a 22 ca 3d cd b9 fc bd bc a0 80 bd
       0.123647645 0.098697856 -0.12340126 -0.06280658
000060 15 ea 20 3e fa 07 ac bd 00 fa 14 ba 18 32 4b bd
       0.15714295 -0.08399959 -0.0005683005 -0.04960832
000070 4e 29 0f be c8 01 3b be fa c2 26 be 00 4c 26 be
       -0.139806 -0.18262398 -0.16285315 -0.16239929
000080 21 39 22 3e 14 ec 1e bd a5 c3 32 be 18 25 40 be
       0.15842105 -0.03879936 -0.17457445 -0.1876415
000090 ea 71 8d bd 42 45 dd 3d 0a bc e3 3d 7c db 78 3d
       -0.06906493 0.108042255 0.1111985 0.06075619
0000a0 f0 ce ac bc c2 82 06 be 25 82 27 be c2 b4 bc 3d
       -0.02109477 -0.13135818 -0.1635824 0.09214164
0000b0 2b df 29 be 78 d8 60 bd 10 40 d8 bd b7 75 a5 bd
       -0.16589038 -0.05489394 -0.10559094 -0.08079093
0000c0 a0 b5 be bb 6c ad 6f bd 1c 99 3c be ee f1 03 be
       -0.005819991 -0.058514997 -0.18417782 -0.12885258
0000d0 60 77 77 bd bb 8d 86 3d 88 bd 52 bd 8a d8 f7 3d
       -0.06041658 0.06570002 -0.051450282 0.121018484
0000e0 01 09 27 be f5 d6 e7 3c fb 93 3b 3e cb 83 c4 bd
       -0.16312028 0.028300742 0.18318169 -0.0959545
0000f0 82 a9 11 3e 61 16 c5 3d 1a 40 da bd 90 2b 90 bd
       0.14224818 0.09623409 -0.10656758 -0.07039559
000100 4d 12 2a bb 39 ff 37 3d fe d6 4d 3e 12 cd 04 be
       -0.002595085 0.044921134 0.20101544 -0.12968853
000110 12 c5 87 bd 29 54 a1 bd 30 97 2c bc 2a 7b 3f 3d
       -0.06629385 -0.078773804 -0.010534093 0.046748318
000120 53 aa b4 bd 45 83 be bd d6 e8 45 3e c2 72 0b 3e
       -0.08821549 -0.093023814 0.19327101 0.13617995
000130 54 4e 29 be 87 34 50 be 65 97 c7 bd ab 10 c3 3d
       -0.16533786 -0.20332538 -0.09745673 0.095246635
000140 46 00 bd 3d 87 28 a6 bd af db c8 3c 0b 61 10 3e
       0.09228568 -0.08113199 0.024518816 0.14099519
000150 f2 48 05 3e 9b f7 1c be aa 15 dc b9 88 fc e1 3d
       0.13016108 -0.15328829 -0.0004197781 0.11034495
000160 36 b9 ba 3d 0f 4c 14 3e 4a d5 2c bd e0 9a e3 bc
       0.091173574 0.14482139 -0.042195596 -0.027783811
000170 a3 f2 28 3e ca fe 07 be 0d b0 c6 bd a6 5b 07 3e
       0.16498809 -0.13280788 -0.09701548 0.13218555
000180 6c 68 75 bd 04 65 f9 3d f3 4a 3d be 28 08 00 bd
       -0.059914038 0.1217747 -0.18485622 -0.03125778
000190 d0 ab c2 3c 72 86 47 be 9d f6 dc bd 50 a1 ab bd
       0.023763567 -0.1948488 -0.10789225 -0.08380377
0001a0 a3 eb 1f be 6d c2 f1 bd 72 20 9e 3d 88 63 41 bd
       -0.15617232 -0.11804662 0.07721032 -0.04721406
0001b0 a7 fe 05 3e b2 41 c7 3d ca 28 30 be 50 3d 56 bc
       0.13085423 0.09729327 -0.1720306 -0.0130761415
0001c0 7c 0a 6b 3d 79 23 08 3e 58 7e b4 3c bd 07 2e be
       0.057383046 0.13294782 0.022032902 -0.1699514
0001d0 dd 35 f9 bd 2a 82 80 3d 74 7f 4c bd 50 30 6b 3c
       -0.12168477 0.06274827 -0.049926236 0.01435478
0001e0 4a eb e3 3d 00 dd 98 bc 8a 64 35 be db 1d 3b be
       0.11128862 -0.018660069 -0.17714134 -0.18273108
0001f0 bb 36 49 3e 87 d8 72 bd c0 78 2a be 21 bf 19 3e
       0.19649784 -0.059288528 -0.16647625 0.15014316
000200 ee 78 79 bd ac e3 0e be a6 d3 18 3e e4 0b 48 bd
       -0.060906343 -0.13954037 0.14924487 -0.048839465
000210 d5 0e 53 be 1d 34 83 3e 71 27 e6 3d e6 90 15 3e
       -0.20611127 0.25625697 0.112379916 0.14606056
000220 6b 63 2c 3e f1 f1 e0 bd 2c 98 03 bd a5 81 ab 3d
       0.168348 -0.10983647 -0.032127544 0.08374337
000230 de e9 a2 3d 34 09 83 bd 4a 39 0e be f1 55 03 3e
       0.07954763 -0.0639824 -0.13889042 0.12825753
000240 05 d5 d1 3d a6 5a 04 bd e0 1e d5 3d fd 6d ff 3d
       0.102457084 -0.03231301 0.104062796 0.124721505
000250 ee 6b d5 bd 18 1d af bc 22 09 15 be a0 ea f9 bb
       -0.104209766 -0.021376178 -0.14554265 -0.0076268464
000260 20 74 48 3c 88 87 2b bd f2 77 df 3d fb 7e 3a be
       0.012234718 -0.0418773 0.1091155 -0.18212502
000270 6e d1 9c 3d 73 85 2f be 36 b1 83 3d 46 5a 9f 3d
       0.07657133 -0.1714075 0.06430285 0.0778089
000280 23 ea 49 be e4 a7 09 be aa d0 ac 3d 4c a3 6d 3d
       -0.19718222 -0.13442951 0.08438237 0.05801706
000290 c8 17 3b bd 86 0d a0 3d 80 30 ca 3c de 2a fc 3d
       -0.045676976 0.078150794 0.02468133 0.12312864
0002a0 95 da 25 be e0 c3 fb bd 91 e9 27 3e 29 6f 4c 3e
       -0.16196664 -0.122932196 0.16397692 0.19964279
0002b0 d0 7b 37 3c ce ad b3 3d 6c 70 37 bd 90 fc 29 be
       0.011198953 0.08773385 -0.04478495 -0.16600251
0002c0 fe 16 c1 3d a3 10 12 3e 60 cb 85 bb b4 80 11 bd
       0.094282135 0.14264159 -0.004083082 -0.03552313
0002d0 e0 85 45 be 34 60 8d bd 97 c2 bf bd 5d 78 23 3e
       -0.1928935 -0.06903115 -0.09363287 0.15963884
0002e0 90 df 98 bd ac b1 08 3d 80 e1 a6 3c 06 7c b7 3d
       -0.07464516 0.033372566 0.020371199 0.089592025
0002f0 b5 a0 2a 3e 73 64 b8 bd 3a 60 1d be c7 98 3a 3e
       0.16662867 -0.09003534 -0.15368739 0.18222342
000300 12 45 81 3d 90 85 e0 3c 91 55 29 3e 25 fa 32 3e
       0.06312002 0.027407438 0.16536547 0.17478235
000310 d8 d9 e3 3c 4c f7 27 3d 4d 72 49 3e 1a 1f 0c be
       0.027813837 0.041007325 0.19672509 -0.1368374
000320 3d d2 f7 bd a8 0e 0d bd e1 8a 02 3e b3 87 df bd
       -0.12100647 -0.034437805 0.1274829 -0.109145544
000330 fa 0b d0 bd 9a be 98 bd 23 4b 9a bd 85 ef 06 3e
       -0.10158534 -0.07458229 -0.075338624 0.13177307
000340 60 1b 44 be 00 21 e3 3a d2 a3 b1 3d 55 49 17 be
       -0.19151068 0.001732856 0.08673824 -0.14774068
000350 18 2f b4 3c 1d 88 f0 bd 5d 8d 48 3e d0 d9 a1 bc
       0.021995112 -0.117447115 0.19585176 -0.019757181
000360 c5 12 24 3e b4 9f 4e bd bd fe 41 be 27 5e 39 3e
       0.16022785 -0.050445274 -0.18944831 0.18102323
000370 98 80 90 bc 4e ca 25 be e6 18 b2 3d 0a fa 2c be
       -0.017639443 -0.16190454 0.08696155 -0.16892257
000380 a7 c7 c4 bd e4 36 df 3d 05 2f 06 be 05 52 13 bd
       -0.09608393 0.108991414 -0.13103874 -0.03596689
000390 77 75 38 bd e8 ff 35 be 3e 34 a4 3d 91 9c a3 bd
       -0.0450339 -0.17773402 0.08017777 -0.07988847
0003a0 4e 52 78 bb 9e ac 62 3d 0e 55 c5 3d 34 38 5a bd
       -0.0037890854 0.0553404 0.096353635 -0.053276256
0003b0 99 ca 26 3e 1a fa 3e 3d 7e 97 95 bc bd 2a 8d 3c
       0.16288222 0.046625234 -0.018260714 0.017232293
0003c0 40 4c e4 3d a2 26 ad 3d ba 4b 0a be ca 98 70 bb
       0.11147356 0.08454634 -0.1350545 -0.0036712163
0003d0 ef 36 40 3d 3d 6d 10 bd d8 7c 90 bc 04 1a 18 be
       0.04692739 -0.035260428 -0.017637655 -0.14853674
0003e0 0f 5a bd bd 87 81 a6 bc ae c9 13 be 60 2b 4e bc
       -0.09245693 -0.020325435 -0.14432403 -0.012583584
0003f0 71 d5 2f 3e 49 8e 05 3e cf 97 40 be 88 df 31 be
       0.17171265 0.13042559 -0.1880791 -0.17370427

fc1.bias f4 [128]
000000 5c dc 8c bd a7 56 3f be 0b 65 33 bd bb b1 ff ba
       -0.06877968 -0.18685399 -0.043797534 -0.0019507924
000010 a8 b3 db bc 6e a3 b4 ba 57 ed f7 bd 2d 33 45 be
       -0.026819065 -0.0013781616 -0.12105816 -0.19257803
000020 d3 3f 1e be a8 d9 e3 3d 05 ce 3a be b1 f8 15 3e
       -0.15454035 0.11125499 -0.18242653 0.1464565
000030 9b b5 ff 3d cc 29 00 be 14 34 1b be bf 7a 96 3d
       0.1248581 -0.12515944 -0.15156585 0.07347631
000040 0c 09 fb 3c da 35 0b be 93 23 fd 3d 7a b0 13 3d
       0.030643962 -0.13594761 0.12360301 0.036056973
000050 25 7c 8f 3d 73 c6 d7 bd 9b af 9a 3c c4 4e 0b 3e
       0.070061006 -0.10535898 0.018882563 0.13604265
000060 db 2b 45 3d 96 e7 8a bd f4 4a 2a 3e 15 1d be bd
       0.048137527 -0.06782453 0.16630155 -0.09282891
000070 94 bf 1e bd 79 f3 49 bd fa e6 52 bc 7c 23 da bd
       -0.038756922 -0.04930446 -0.012872452 -0.10651299
000080 e4 50 9d bd 40 98 9d bd 39 b6 02 3e 70 59 4e be
       -0.07681444 -0.07695055 0.12764825 -0.20151305
000090 54 a7 00 bc 94 26 a5 bd 97 d4 ba 3d ff 08 1b 3e
       -0.007852394 -0.08063999 0.091225795 0.1514015
0000a0 85 eb d6 3c dc 40 b7 3d 1c 7a df bd 28 fa 04 3e
       0.026235351 0.08947918 -0.109119624 0.12986052
0000b0 ba 52 0f 3e 2a 61 ec bd c1 16 ef bd a2 e5 e5 3d
       0.13996401 -0.1154197 -0.11674262 0.112254396
0000c0 f5 71 03 be e2 87 9d bd 20 b8 9d bd 18 89 6a bd
       -0.1283644 -0.07691933 -0.07701135 -0.05725965
0000d0 bd fc b9 bd e4 08 93 bd d0 0d f6 bd 97 08 c4 3d
       -0.09081409 -0.0717943 -0.12014353 0.09571951
0000e0 e9 b5 74 bd 28 1a 3e 3e f8 c9 25 3e 26 28 be bd
       -0.059743796 0.18564665 0.16190326 -0.092850015
0000f0 0b 07 0c 3d fc 64 f2 3d ef e7 2f 3a 46 7a e0 bd
       0.034186404 0.118356675 0.0006710281 -0.10960822
000100 75 7e f0 3d 74 f8 df bd 2a 6d 15 3e d2 1c 14 be
       0.1174287 -0.109360605 0.14592424 -0.14464119
000110 64 e8 66 3d e4 0b 74 3d a7 3f b3 3d 49 8e 34 bd
       0.05637397 0.059581652 0.08752375 -0.044081006
000120 74 78 95 bd f3 85 0c 3e 14 53 d9 3d 1e 1f 6f 3d
       -0.07298365 0.13722973 0.10611549 0.058379285
000130 00 22 c8 bc ac c3 21 3e 37 be 5f 3d 47 3f a4 bd
       -0.024430275 0.15797299 0.054624762 -0.08019882
000140 48 f9 24 be fb c8 5c 3c 1e 17 ed 3d 98 03 27 be
       -0.16110718 0.013475652 0.11576675 -0.16309965
000150 4d 7b 2b 3e 52 7c c4 bc 43 27 f3 3d d7 2a 3a 3e
       0.16746254 -0.023985062 0.11872723 0.18180405
000160 ec 48 88 3d bf 74 0b be dd 8d 89 bc 83 aa 35 bd
       0.06654534 -0.13618754 -0.016791278 -0.044352066
000170 07 3a 9a 3d e5 d9 19 3e 3f e2 31 be 92 eb 76 3d
       0.07530599 0.15024526 -0.17371462 0.06028325
000180 2d 7f a7 3d 16 0a dd 3d a8 15 69 bd cb 38 d4 3d
       0.08178554 0.10792939 -0.05690542 0.10362395
000190 eb cf 81 3d 21 9a 81 bb b2 91 06 3e 48 03 2d be
       0.06338485 -0.003955141 0.13141516 -0.16895783
0001a0 76 a5 2b bd d1 6f b2 3c d7 f0 fe bd f6 cb 33 bd
       -0.041905843 0.021781834 -0.1244828 -0.043895684
0001b0 4c fe 5c 3d c0 c1 f6 bd d2 b4 82 3d 65 3d f7 3d
       0.053953454 -0.12048674 0.06382145 0.12072257
0001c0 fc 51 e4 3d 21 08 48 3d 90 5a d5 bd d4 4c 3e 3d
       0.1114845 0.048835877 -0.10417664 0.046459988
0001d0 23 f8 bc ba 87 fa 24 be 82 28 df 3d 00 9e 11 3e
       -0.0014417212 -0.16111194 0.10896398 0.14220428
0001e0 12 22 1c be 90 b5 a6 bc 85 fb 5a 3d c8 56 14 bd
       -0.15247372 -0.020350248 0.053462524 -0.036215574
0001f0 be 7f 3c 3e 1e 10 38 be 5f 12 af bb 48 65 ea bd
       0.18408105 -0.17974898 -0.005342766 -0.11445099

fc2.weight f4 [128, 128]
000000 d0 31 5c 3c 97 de 12 bd 68 7f 8d 3c dd f3 9f 3d
       0.013439611 -0.03585681 0.017272666 0.07810185
000010 d9 e1 b3 3d 8f fc 5f bd a9 1b 99 3d da 04 d8 bc
       0.087833114 -0.054684218 0.07475979 -0.0263695
000020 34 27 ec 3c 25 3b 93 bd 42 77 b3 bd f0 fd 16 3c
       0.028827287 -0.07189015 -0.08762981 0.009215817
000030 54 e1 98 3c d0 ba a9 bc 12 5b 95 bd 3a 00 6c 3d
       0.018662132 -0.020718962 -0.07292761 0.057617404
000040 2c 75 d7 3c f2 f9 55 3d ba 49 31 bd 20 2e 31 bc
       0.02630099 0.05224032 -0.0432832 -0.01081422
000050 5c 54 dc bc fa 28 2a 3d b5 d1 b4 3d 99 ff 02 bd
       -0.026895694 0.041542985 0.08829061 -0.03198204
000060 fe 41 4a 3d 42 ef 26 bd ea cf 1a 3d 72 72 9b bd
       0.04937934 -0.040755518 0.03779594 -0.07590188
000070 b6 90 1e 3d 40 fa 60 bb f6 3d 79 3d 90 c4 f1 3c
       0.038712226 -0.0034328848 0.060850106 0.029512674
000080 ce ab 02 3d f7 6d 96 3d 24 2e d2 bc c5 af 5d bd
       0.031902127 0.07345193 -0.025656767 -0.054122705
000090 2a ef 73 3d 1a f5 52 bd 00 00 7d b8 41 55 80 3d
       0.059554256 -0.05150328 -6.03199e-05 0.06266261
0000a0 37 5d 8b 3d 6e 09 8d bd a0 37 10 3b d4 35 b2 3c
       0.06804889 -0.06886564 0.0022005811 0.021754183
0000b0 6a b5 27 bd 63 63 aa 3d 26 be 6b bd a4 a8 83 bd
       -0.040944494 0.08319738 -0.057554387 -0.0642865
0000c0 a0 71 69 bc e4 c3 89 bd 2e 07 79 bd 8c 19 c8 3c
       -0.014248282 -0.06726816 -0.060797863 0.024426244
0000d0 00 81 52 3c 10 0b cb 3c ab 12 a0 3d ff 85 a4 bd
       0.012848139 0.024785548 0.07816061 -0.0803337
0000e0 a2 df 3b 3d ea 53 23 3d 90 bf 8b 3c 7e 5f 50 bd
       0.04586757 0.03987495 0.017059118 -0.05087232
0000f0 d8 00 b3 3c 48 1a 85 bc 9a 7a 65 3d a6 d5 68 3d
       0.021850988 -0.016247883 0.056025125 0.056844376
000100 54 b8 9a bd d0 de af 3b 70 02 10 3d e9 f3 69 bd
       -0.07554689 0.0053671375 0.035158575 -0.057117376
000110 2a c5 7f 3d 9a 9c 45 3d 49 29 42 bd 30 46 01 bd
       0.06244389 0.04824505 -0.047402654 -0.031561077
000120 02 d3 ef bc 45 f2 3a bd 9d 32 a5 3d c0 f7 ab bd
       -0.029275421 -0.045641202 0.08066294 -0.08396864
000130 0c ed 50 bd 44 e8 13 bd fe 77 31 3d 9e df 4c 3d
       -0.051007316 -0.036110178 0.043327324 0.050017945
000140 2c e4 81 bd f7 29 ad bd 2a d2 91 bd c2 4f 8e bd
       -0.063423485 -0.0845527 -0.07120164 -0.06948806
000150 00 2e 99 bd 4e 4c 9a bd fa 2c 76 3d 7c 88 b6 3c
       -0.07479477 -0.07534085 0.060101487 0.022281878
000160 8f d8 44 bd b4 eb 03 3d 04 96 70 bd 2f 35 a2 bd
       -0.04805809 0.032207206 -0.058736816 -0.079203
000170 3f 35 96 3d ce f6 29 3d 5a d8 0d bd 37 62 a1 bd
       0.07334375 0.041495137 -0.034630157 -0.07880061
000180 ca fa 34 3d c9 b8 af 3d 9c c8 fe 3c 0c 8c 97 bd
       0.044184484 0.08580167 0.031101517 -0.07399759
000190 6e 34 b0 bd 76 46 5e 3d 51 a9 a0 3d 0f f4 42 bd
       -0.0860375 0.054266416 0.078447945 -0.047596034
0001a0 f1 52 76 bd c5 5a b1 3d cc cc 92 bc f0 2b f9 bb
       -0.060137693 0.08659891 -0.01791992 -0.0076041147
0001b0 cd ad 90 bd c0 a9 7a 3c 5c de 88 3c 00 06 b6 39
       -0.070644 0.015299261 0.016707592 0.00034718215
0001c0 68 15 80 bc 3c c3 f7 bc 40 f2 c7 bb 4f ea 86 3d
       -0.015635207 -0.030244462 -0.0061018765 0.065876596
0001d0 92 83 8a bd 41 ab 88 3d 7e 95 a0 bd b3 84 a7 3d
       -0.06763376 0.06673289 -0.07841013 0.08179607
0001e0 82 5b 58 3d 4d 3c 01 bd 08 76 e6 bc 52 06 1e bd
       0.052821644 -0.031551648 -0.028132454 -0.038580246
0001f0 d7 17 5b bd 70 2f 2c bc d0 94 bf bb 38 c8 11 3c
       -0.053489532 -0.010509357 -0.0058465973 0.0088978335
000200 9a f5 2c bd 51 a6 7c bd a5 63 80 3d 06 34 dd bb
       -0.04222641 -0.06168205 0.06269006 -0.0067505864
000210 38 a9 78 bd 4a 83 c4 3c 30 f2 65 3c 7a 8c 46 3d
       -0.060708255 0.023988385 0.014034793 0.048473813
000220 42 17 5f 3d b5 2e 34 bd 0f 7d 87 3d 43 d0 71 bd
       0.05446554 -0.043989856 0.0661565 -0.059036504
000230 f8 91 37 bc 03 56 96 3d 4d 1f 62 3d d7 1b 30 bd
       -0.011204235 0.07340624 0.055205632 -0.0429953
000240 6a 9b 7c bd b9 25 9b 3d 93 59 c3 3c a4 27 a1 bc
       -0.061671652 0.075755544 0.023846423 -0.019672222
000250 f0 ec 40 3d 80 8f 6b bb 48 a4 bb bc 27 74 6c bd
       0.04710096 -0.0035943687 -0.022905484 -0.05772796
000260 a7 ec c9 3b ef 33 5f 3c da 31 5b 3d d0 88 94 3d
       0.0061622444 0.013623222 0.05351434 0.072526574
000270 e2 8d 19 3d 11 8d b4 3c 6a 1c d4 3c ba cc 7c 3d
       0.037488826 0.022039922 0.025892455 0.06171868
000280 85 8e 8d ba 31 0b ac 3d aa 5a b1 3c bd 5b 88 bd
       -0.001079992 0.08400572 0.021649677 -0.06658123
000290 10 2f 34 3d 20 ef a1 bd d4 ac 52 3d 73 8d f7 bb
       0.043990195 -0.079069376 0.051434353 -0.007554704
0002a0 3f 3d 3a 3d 1f e1 00 bd 69 f4 10 bd 08 da d0 bd
       0.045468565 -0.031464692 -0.035389338 -0.10197836
0002b0 ad c1 5b bd 54 6d f7 3c 93 3b 81 bd 73 d0 98 3c
       -0.0536515 0.030203499 -0.06310191 0.018654084
0002c0 90 9e ef 3b 5d 6b 9e bd 2d 0a 14 bc 09 8a 18 bd
       0.0073126033 -0.07735322 -0.009035629 -0.037241016
0002d0 3a bf 98 bd 83 d3 57 bd dc 82 b5 3c 6a 32 83 3d
       -0.074583486 -0.052691948 0.022157125 0.064061
0002e0 e6 97 35 bd 7e b0 0e bd ba be 73 3c ff 3d 84 3d
       -0.044334315 -0.034836285 0.014877016 0.06457137
0002f0 ce 15 f8 bc 44 41 7b bd 9c f3 12 bd 4a 94 fe 3b
       -0.030283835 -0.06134154 -0.035876855 0.0077691423
000300 15 b2 6b 3c 9b a0 81 bd 1b ef ae 3c b6 be a7 bc
       0.01438572 -0.06329461 0.021354249 -0.02047668
000310 f5 3b b6 3d c0 2b 24 bb 9f 31 4a bc 9f ea 87 bd
       0.08898155 -0.002505049 -0.012340932 -0.06636547
000320 c6 e3 12 3d 26 ca 3b 3b d9 42 18 3d 39 d6 80 bd
       0.035861753 0.0028654425 0.037173126 -0.0629086
000330 27 bf 7f 3c 02 ee 8f 3d 30 6a b5 bb ce 8a 9d bd
       0.015609539 0.07027818 -0.00553634 -0.076924905
000340 e6 4b a0 bc 8b 12 af 3d 00 1d a8 3b 50 91 c1 bc
       -0.019567441 0.08548459 0.00513041 -0.02362886
000350 8e c7 3b 3d 8c c9 90 3d f1 49 68 bd 28 41 dd bc
       0.045844607 0.07069692 -0.05671114 -0.027008608
000360 ab 03 1a 3d 4e 61 a1 bc 53 c3 4a 3d 55 12 82 3d
       0.037601154 -0.019699719 0.049502682 0.06351153
000370 be e0 9c 3d df fd 01 bd 5a 57 01 3b d3 b2 67 3d
       0.07660054 -0.03173625 0.0019735903 0.056567024
000380 c7 d8 13 3d c8 fc 00 bd b8 9f aa bd a2 b0 8c 3d
       0.036095407 -0.03149107 -0.08331245 0.068696275
000390 7b 31 14 3d dc 2f 1e bd 65 b7 96 3d d4 27 a0 bd
       0.03618 -0.03861986 0.073591985 -0.078200966
0003a0 5a ab 85 ba b4 05 7b 3d a9 d8 46 bd 59 ab ac bd
       -0.0010198161 0.061284736 -0.048546467 -0.084311195
0003b0 3c 44 84 bc 6b b5 9f 3d fa ed dc bc 7c bb 88 bd
       -0.016145818 0.077982746 -0.026968945 -0.06676385
0003c0 4d 59 05 bc 86 0a 68 3d e2 bf 85 bd 0c 98 92 3d
       -0.008138967 0.05665066 -0.06530739 0.07157907
0003d0 7f 83 c5 bc 65 3d c8 3b 98 c0 0b 3d 29 a8 95 bd
       -0.024110554 0.0061108344 0.03411922 -0.07307465
0003e0 14 da f7 3c 75 d1 05 bd 08 4c a3 3d fe 7d bd 3b
       0.030255355 -0.032670457 0.07973486 0.0057828417
0003f0 83 a1 a5 3c fd 70 23 3d ca a5 72 3d 8f e3 43 3d
       0.020218616 0.039902676 0.05924014 0.04782444

fc2.bias f4 [128]
000000 36 90 5c bd 5b ea 64 3d bf d3 92 bd 50 61 2a bd
       -0.053848468 0.05588756 -0.071692936 -0.04159671
000010 c0 16 92 3c 73 b7 89 bd 74 bb 87 bd e5 b9 81 bd
       0.017833114 -0.06724443 -0.06627551 -0.06334285
000020 1f 01 6f 3d d8 7e 67 3c 2b da 71 3d 7e 72 63 3d
       0.05835068 0.014129363 0.05904595 0.05552911
000030 f6 87 31 3d 88 25 46 3d c2 96 84 3d 90 e1 a1 bb
       0.043342553 0.048375636 0.06474067 -0.004940219
000040 f9 54 5b bd 45 11 93 bd ba e0 0d bd 50 11 c5 3b
       -0.053547833 -0.07181028 -0.034638144 0.0060140267
000050 a3 2c 9e bd a8 ef c2 bc 0b 5e 57 bd 13 d1 fc bc
       -0.077233575 -0.023795918 -0.05257992 -0.030861413
000060 10 c1 28 3d 85 7d 16 bd f8 22 82 3d 80 a1 82 3d
       0.041199744 -0.0367408 0.06354326 0.0637846
000070 24 53 5a 3d 02 18 af bd 8d 14 8b 3d 0f 3a 96 3d
       0.053301945 -0.08549501 0.06791029 0.073352925
000080 53 bb 33 3d 64 68 16 3d ac 88 5d bd 3a 60 f3 bc
       0.04387982 0.03672065 -0.05408542 -0.02970897
000090 51 08 87 bd d1 a1 df bb 18 96 8f bd 65 37 56 3d
       -0.06593383 -0.00682471 -0.0701105 0.052298922
0000a0 4b 5c 8c 3b 8c f6 31 bd ab ae 5d 3d 0d ff 02 bb
       0.004283463 -0.043448016 0.054121654 -0.0019988448
0000b0 9e ec 4c 3d 86 83 87 3d 88 c1 8d 3d a3 b8 ab 3d
       0.050030343 0.06616883 0.06921679 0.08384826
0000c0 a0 68 9d bc 2c 3c b7 bd 8c 29 53 bd 30 92 61 3c
       -0.019214928 -0.08947024 -0.051553294 0.013767764
0000d0 52 e5 05 3d 06 8e 8d 3b 46 b8 89 bd 20 91 7c bc
       0.0326894 0.004319909 -0.067246005 -0.01541546
0000e0 88 56 c5 bb 8e 1d 95 3d fa 45 b6 bd 4d f6 59 bd
       -0.006022278 0.07281028 -0.08900066 -0.053213406
0000f0 a4 78 bd bd 44 c6 56 3d f0 60 c5 bc d4 f6 23 bc
       -0.09251526 0.052435175 -0.024094075 -0.010007579
000100 3c 56 97 3d 56 77 ff 38 a2 7b 8f bd 06 8c 2a 3d
       0.07389495 0.000121815756 -0.07006003 0.041637443
000110 20 98 3f bb 96 65 a7 bd 30 d1 f8 3c f8 cf 1f bc
       -0.002923496 -0.08173673 0.030373186 -0.009754173
000120 c0 c7 9c bc 00 8a ed 3b 96 8a 22 3d 21 90 85 bd
       -0.019138217 0.007249117 0.039682947 -0.06521631
000130 e9 03 49 3c c0 98 35 ba cc 37 e3 3c 73 4d 5c 3c
       0.012268999 -0.00069273636 0.027736567 0.0134462
000140 29 30 91 3d f9 1e 25 bd 87 01 62 bd 8c 11 6c 3d
       0.07089264 -0.04031274 -0.055177238 0.05763392
000150 b1 fe d2 3c 73 c5 14 3c ca 19 e4 3c a5 25 06 bd
       0.025756212 0.009080279 0.027844328 -0.032750744
000160 a9 55 f7 3c a3 4a 87 3d ed a8 12 bd b6 10 55 bd
       0.030192213 0.06606033 -0.03580563 -0.05201789
000170 91 a9 68 bd 08 fe 27 3d cf 9a 84 bd f3 da a9 3d
       -0.056802336 0.041013747 -0.0647484 0.082937144
000180 45 1f e1 bc 6f db 42 bd d9 fd 84 3d 05 84 99 bc
       -0.02748073 -0.04757255 0.0649373 -0.01873971
000190 f0 30 c6 3c 07 62 5f 3c 3d b5 1f 3d e7 93 1d bb
       0.024193257 0.013634211 0.0389912 -0.0024044455
0001a0 aa 8d ec bc ef 4b b4 bc 98 37 48 3b bc c0 8e 3c
       -0.028876144 -0.022008864 0.0030550715 0.017425887
0001b0 b0 55 76 bd 1f db 91 3d 60 7a 45 bb 71 29 d1 bc
       -0.06014031 0.07121872 -0.0030132756 -0.025532456
0001c0 56 f1 61 3d 5a ba 10 3d ef 4e 0e 3d ef a1 c0 bc
       0.055161797 0.03533397 0.034743246 -0.023514716
0001d0 c3 9b b3 bd 7e bf 3a 3d 61 4c 4e bd a1 b2 a0 3d
       -0.087699436 0.045592777 -0.05036581 0.07846571
0001e0 e2 3f 42 bd a3 3c 10 bc 34 fd 36 3c 0a 14 9b bd
       -0.047424205 -0.008803519 0.011168767 -0.075721815
0001f0 d2 b5 3e 3d 66 8a 86 3c 28 a7 5b 3b 52 82 58 bd
       0.046560116 0.016423415 0.003351638 -0.052858658

fc3.weight f4 [1, 128]
000000 21 9a 87 3d 97 e1 b5 3c 20 5d a2 3b 00 e0 2a ba
       0.06621195 0.022202296 0.004954949 -0.0006518364
000010 7b 48 8c 3d de a2 83 bc 28 c3 52 3c 98 18 5e 3d
       0.06849762 -0.016068872 0.012863912 0.054222673
000020 bf c3 71 bd 03 c4 2f 3c 1f fc 02 3c 9c dd 94 bd
       -0.05902457 0.010727885 0.007994681 -0.07268831
000030 35 f8 4e 3d ec 60 0d bd 5a 5d 1c 3d c6 d8 d1 bc
       0.050529677 -0.03451626 0.038174964 -0.025616061
000040 e3 22 92 bd 5b 35 a9 3d e3 78 64 3a 6e d8 87 bd
       -0.0713556 0.0826213 0.0008715523 -0.066330776
000050 94 19 44 bd d0 b0 3d 3c a8 c9 e0 bc 09 92 bd 3c
       -0.047875956 0.0115778 -0.027439907 0.023140924
000060 fa 50 2e 3b 6d cd 68 bc a8 7b 6b 3d 1a 55 35 3d
       0.0026598559 -0.014209134 0.057490975 0.044270612
000070 3b 13 5d 3d d5 11 46 bd 1a 75 ee bc 2e d6 01 bd
       0.053973418 -0.04835685 -0.029108573 -0.0316984
000080 4c 87 8b 3c 09 32 6a bd 77 11 a5 3d e3 dc 3c bd
       0.017032288 -0.057176623 0.08059972 -0.04610909
000090 98 db 06 3c 49 c6 89 bc f4 9b 4b 3d c8 16 51 bd
       0.008231066 -0.016818183 0.049709275 -0.051047117
0000a0 51 3a fc bc a3 6d 3f bd 7a 2f ab bd f2 5f 4d bd
       -0.030789526 -0.046735417 -0.08358665 -0.05014033
0000b0 8a 5e 75 bb 54 9b 10 3d 3b e1 88 bc 4d fc ca bc
       -0.0037440383 0.035304382 -0.01670896 -0.02477851
0000c0 20 b2 23 3b fd 32 59 bd 23 61 ab 3d a2 9a 63 3d
       0.0024977997 -0.05302714 0.08368137 0.05556739
0000d0 90 0e 0e 3c 03 d1 dd ba 11 ed 8b 3d c0 79 a4 3c
       0.008670464 -0.0016923252 0.06832326 0.020077586
0000e0 82 b0 e2 bc 80 df 70 3d 99 1f 9e 3c 90 f9 9c 3c
       -0.027672056 0.058806896 0.019302176 0.01916197
0000f0 a0 ec 9c 3d 61 64 9c 3d 11 3e 11 bd fd e6 75 3d
       0.0766232 0.07636333 -0.03545958 0.06003474
000100 93 37 11 3d 10 17 7c bd cb a1 86 3d 72 d2 67 bd
       0.03545339 -0.06154543 0.06573828 -0.05659718
000110 61 de b0 bd 99 db 54 bc 29 2c 78 bd a1 a8 90 3d
       -0.086361654 -0.012991809 -0.06058899 0.070634134
000120 87 5f b0 3d ac ef 9b bd 0a e2 38 3d 77 52 d4 bc
       0.086119704 -0.07614073 0.045137443 -0.025918229
000130 e5 da 85 3d e5 c9 3e 3c 7f 0b 79 3d 80 ce 7f 3d
       0.065358914 0.011644815 0.06080198 0.062452793
000140 97 71 27 3c eb 0f b2 3c d3 a5 29 3d 7b 57 4d 3b
       0.010219953 0.021736106 0.041417908 0.003133266
000150 f7 9a 95 3d 15 9a 87 bb 6a 23 6b 3d 38 46 45 3d
       0.07304948 -0.004138241 0.05740682 0.04816267
000160 b1 3f 69 bd 73 ad 8f bd 80 b8 55 bd dc 96 e0 bc
       -0.056945506 -0.07015505 -0.052177906 -0.027415685
000170 2d 41 30 3d 2a 85 ca 3d 92 55 2b 3d 7f a4 dd 3c
       0.043030906 0.0988868 0.041829653 0.027055977
000180 cd 1d 27 3d 50 49 c8 3c c4 9d 40 3d f0 ee 68 3d
       0.040799905 0.02444902 0.047025457 0.056868494
000190 a7 25 f8 bc 18 5a e3 bc 76 7b 39 bd 74 a6 c1 bb
       -0.030291392 -0.027752921 -0.045283757 -0.0059097353
0001a0 07 4e 87 bd 3a fc 95 3d 5b 60 e3 bc 91 59 35 3d
       -0.066066794 0.07323499 -0.027755907 0.04427487
0001b0 5c 18 6c 3d c0 ee c2 3b e8 de 77 bc 1e ea b4 3a
       0.05764042 0.0059488714 -0.015128829 0.0013802683
0001c0 45 5d 16 39 da c2 7e 3d 06 df ad 3c 42 23 25 bd
       0.0001433986 0.062197544 0.02122451 -0.040316828
0001d0 4c 9e 0c bb 6e 91 7e 3d f6 1b 5a 3d 2a 57 e1 3c
       -0.0021456657 0.06215041 0.053249322 0.027507383
0001e0 95 3e 20 bd 28 87 14 3c 29 33 11 3b 15 61 89 bd
       -0.039122183 0.009065427 0.0022155738 -0.0670797
0001f0 f8 f2 f6 3c 6a 70 2e bd ca c2 c5 bc a7 35 69 bd
       0.030145153 -0.042587675 -0.024140734 -0.056935932
