CC_ActorCritic_GAE/state_dict_model_v2.pt (torch, 32775 bytes, 7 tensors)

fc1.weight f4 [64, 45]
000000 2b a8 ef 3d f4 14 24 3e 8a 52 33 3e f6 bd 7a bd
       0.11701997 0.16023618 0.17511955 -0.061216317
000010 95 7b 10 3e 17 83 9e bd 78 d7 69 bc f8 73 23 3e
       0.14109643 -0.07739847 -0.014272563 0.15962207
000020 41 1a 10 3c 88 6b eb bb 0a 54 17 3d 72 2e f7 bd
       0.008795322 -0.0071844496 0.03694538 -0.120694056
000030 41 66 c5 bd 43 7d 05 be 37 23 fc 3d 07 c4 27 3c
       -0.09638644 -0.13036065 0.12311404 0.010239608
000040 bf 6f f3 3d f3 77 84 3a 68 02 8c 3d 5b 76 13 3e
       0.11886548 0.0010106548 0.068363965 0.14400618
000050 9d a4 95 3d af 0e 68 3d f7 7d 9e bd fb 4f 14 3d
       0.07306788 0.05665463 -0.0773887 0.036209088
000060 3c a5 ee bb 4f 75 99 bd 9c 59 83 bd b8 a6 32 bb
       -0.007282881 -0.07493078 -0.06413576 -0.0027260017
000070 1f d6 5b bb 94 82 03 3d 52 87 41 3e 04 e0 23 3d
       -0.0033544374 0.03210695 0.18899277 0.04000856
000080 b4 74 43 3e c0 3f a9 bd dd e0 18 3e 00 24 17 bd
       0.19087487 -0.082641125 0.14929529 -0.036899567
000090 e3 6f af bd b5 c4 57 3d f2 ad ef bd c5 2a ae bd
       -0.085662626 0.05267783 -0.11703099 -0.085042514
0000a0 09 9e 9d 3d 38 6e e8 3c 62 f9 5e 3b 4f 87 be bd
       0.076961584 0.028372869 0.0034023155 -0.09303152
0000b0 63 90 32 3e 7d 6b 2c 3d 8c 69 24 3d 0c ba c1 bd
       0.17437892 0.042094696 0.04013972 -0.09459314
0000c0 a6 2a 08 bd 61 a6 75 3d c0 95 eb 3d 87 e5 dd 3d
       -0.033243798 0.059973124 0.11503172 0.108347945
0000d0 89 75 e0 3d e5 16 81 3c 08 4b d2 bd da e0 29 3e
       0.10959918 0.015757987 -0.10268217 0.1658968
0000e0 c2 49 78 bc 82 e4 09 3e 00 6e 7a bd 8d 9a 48 be
       -0.015154304 0.13466075 -0.06114006 -0.19590206
0000f0 7d c0 bc bd 03 19 05 3e a6 b5 39 3e c5 09 b1 3c
       -0.09216402 0.12997822 0.181357 0.021611104
000100 ca 45 0d 3e 7f f4 56 bd d5 fc 04 3e 1a 66 18 3c
       0.13796154 -0.052479263 0.12987073 0.009301687
000110 22 a6 e3 bb 4c 7f ae 3c 22 30 52 bd 58 29 4a 3d
       -0.006947295 0.021300934 -0.051315434 0.049355835
000120 b0 a1 18 3d c1 66 1a be c7 35 3a bb b1 6a 9f bd
       0.037263572 -0.1507826 -0.0028413401 -0.07784022
000130 2d 92 3b 3d 92 67 10 3e 51 17 9a bc 0a 0c 44 3e
       0.0457937 0.14102009 -0.018809946 0.19145218
000140 ff 03 24 bd f1 9e d0 3d 0c 0e 02 3e 76 e5 18 be
       -0.040042873 0.10186566 0.12700671 -0.14931282
000150 40 fd 8d bd f2 b3 3d 3d 39 fe 9c 3d 4c d2 15 3c
       -0.06933069 0.046314187 0.076656766 0.009144377
000160 d3 a0 d6 bd 3f 6e 1f bd 17 63 43 3e 92 d7 5a 3e
       -0.104798935 -0.0389235 0.19080769 0.21371296
000170 43 fc 69 3d ec f4 ac 3c 89 b9 35 3e 7e 5a 32 3c
       0.05712534 0.021112882 0.17746557 0.010885833
000180 08 68 f3 3d 15 6f 24 3d cd dc 6c 3d 60 3c f3 bd
       0.11885077 0.040145 0.05782776 -0.1187675
000190 18 8c 94 ba 23 3d 6b 3d 66 8e bd bd 9c 85 82 bc
       -0.0011333255 0.05743135 -0.09255676 -0.01593285
0001a0 a8 bc ff 3d db 10 50 3d 8e ca 9e 3d c6 c6 ef 3d
       0.12487155 0.050797325 0.07753478 0.11707835
0001b0 83 cf 2f 3e c7 71 57 3d 27 91 99 3c 16 8f 4b 3d
       0.17169003 0.05259874 0.018745972 0.049697004
0001c0 b6 27 08 3e ab b0 0b 3e 53 e2 2c bd cf 06 09 3e
       0.13296399 0.13641612 -0.042208027 0.13381504
0001d0 d3 3f a8 bc e9 0c 18 3e 74 ed 1d 3e ed 4b 97 3d
       -0.020538246 0.14848675 0.15422612 0.073875286
0001e0 1c 84 bc 3d 3b 43 23 3d fe ae 9d 3d 97 cb 20 bc
       0.09204885 0.039859038 0.07699393 -0.009814165
0001f0 b1 a9 14 bc c5 f5 d8 bd 67 37 74 3d 3d 33 ea 3d
       -0.009073661 -0.10593752 0.05962315 0.11435554
000200 bd 01 37 bd 6a 84 f7 3d 69 c9 d7 3d c3 5a 1b 3d
       -0.044679392 0.12085803 0.10536463 0.037928354
000210 58 a3 23 3d e7 85 73 3d 8b 52 f5 3d 0a 69 f2 3a
       0.0399507 0.05945387 0.119786344 0.0018494439
000220 17 a3 0a be da 10 db 3d 0c d4 c7 bc e0 f8 0f bd
       -0.13538776 0.106965736 -0.024393104 -0.035149455
000230 67 aa bf 3d af b3 fd bd 35 05 f5 bd a8 ca f4 3b
       0.093586735 -0.123877876 -0.11963884 0.0074704476
000240 ae 69 ce 3d 9c e1 ca 3d be 17 33 3d a6 b8 94 3d
       0.100787506 0.09906313 0.043723814 0.072617814
000250 18 50 24 be d2 da c7 3d 27 31 53 3c 82 7e 03 bd
       -0.16046178 0.097585335 0.012890137 -0.03210307
000260 32 5e ba 3b 8f a8 71 3d 0a aa da bd 90 4d a3 bb
       0.0056874985 0.05899864 -0.106769636 -0.0049836114
000270 23 a7 10 3d 7b 1a 75 3c 99 a7 17 b9 04 52 20 be
       0.035315644 0.014959927 -0.00014462917 -0.15656286
000280 be b1 06 be bb 9f 11 be 94 69 ad 3d 94 e6 94 3d
       -0.13153741 -0.14221089 0.08467403 0.07270542
000290 1c 3d bd bd 63 30 39 bd 71 65 e2 3d b2 06 05 bb
       -0.09240171 -0.04521216 0.11054505 -0.002029818
0002a0 54 5e 83 3d 7a 2f da bd 79 2c cf 3c a5 31 01 be
       0.06414476 -0.10653587 0.02528976 -0.12616594
0002b0 9b 7e 0e bd a6 07 22 be dc ac 92 3d 2e f1 65 3d
       -0.03478871 -0.1582323 0.071618766 0.05613821
0002c0 ee 0d f7 bc 3b f1 d5 3d eb a6 9f 3c 69 dc 8a 3c
       -0.03015801 0.10446402 0.019488772 0.016950803
0002d0 95 54 fa 3c cf 00 dc bd a7 e9 8f 3d bf 4d d6 bc
       0.03055791 -0.10742342 0.070269875 -0.02616012
0002e0 5e 5d 8c 3b be 63 6b bd aa cd e4 3d 8f 9d 15 be
       0.004283591 -0.05746817 0.1117204 -0.14610885
0002f0 18 2b 83 bc 74 ef 86 bc ed d5 b3 bc db 33 7f 3d
       -0.01601176 -0.016471602 -0.021952594 0.062305313
000300 90 71 62 bd ce 20 ff 3c 44 0c 06 be 7b 3a 7e 3d
       -0.055284083 0.031143572 -0.13090616 0.06206749
000310 c1 c8 12 be 4d 60 02 3e 27 52 bc bc f3 ce 00 bd
       -0.14334394 0.12732048 -0.022988392 -0.031447362
000320 36 ab 5f bd e4 47 d5 bd bf 8a ca bc d7 25 12 3a
       -0.05460664 -0.10414103 -0.024724362 0.00055750966
000330 90 bb 92 bd 4a 0a 65 ba 7f e6 04 be 9d c1 16 be
       -0.07164681 -0.000873719 -0.12978552 -0.14722295
000340 99 d6 0b bd 4d bf 13 3e d3 3f e5 bd 4a 9f 42 3d
       -0.034140203 0.14428444 -0.11193814 0.04751519
000350 26 a2 02 be ce c6 67 bd 77 ca ab bc c7 e8 04 3d
       -0.12757167 -0.05658608 -0.020970566 0.032448556
000360 be 28 d7 3d 29 18 84 3d 7c a4 9c bd 37 d6 8f bd
       0.10505818 0.06449921 -0.076485604 -0.0702328
000370 54 01 0c 3e 66 21 c1 bd 4e eb 27 3d 9b 98 24 3d
       0.13672382 -0.09430198 0.04099589 0.0401846
000380 f5 ff 74 3d 62 b6 21 3c a5 2e a3 3c a2 29 a7 bd
       0.059814412 0.009870144 0.019919703 -0.08162238
000390 52 18 be bd 8a 0f af 3c fc e7 48 be 0f ae c0 3d
       -0.092819825 0.021369714 -0.19619745 0.09408199
0003a0 8e 97 1d be 66 e2 9e bc a6 88 0f 3e 44 fa 72 3e
       -0.15389845 -0.019395065 0.14016971 0.23728281
0003b0 03 85 79 3e 2f df 7c 3d 74 aa b4 3c 23 a6 15 3e
       0.24367146 0.061736282 0.022053935 0.14614157
0003c0 38 0d ed bd 9b 39 3e bd 6b 07 42 be 1c 69 d0 bd
       -0.11574787 -0.046441656 -0.18948142 -0.10176298
0003d0 f4 86 80 bd a5 08 38 be 4b 44 fd bd db 17 86 3d
       -0.0627574 -0.17972048 -0.123665415 0.06547519
0003e0 15 eb 04 3e 2f 10 db 3c 7e b9 04 3e 30 31 6d 3e
       0.12980302 0.026741115 0.12961385 0.23163295
0003f0 d5 ca 8a bc fd 09 c6 3d fc cd 6f 3e dd 07 47 be
       -0.016942421 0.09669874 0.2341842 -0.19436593

fc1.bias f4 [64]
000000 15 ea 70 bd 54 8c e8 3b fe 40 9f bd 43 7e 23 be
       -0.058816988 0.0070968065 -0.07776068 -0.15966134
000010 04 95 13 3c cd 66 17 3d 66 f3 81 bd 83 be 58 3d
       0.009007696 0.036963273 -0.06345253 0.05291606
000020 3a 30 b8 bd 6d ca 2a 3d ae e2 92 bd 48 da 12 3e
       -0.089935735 0.041696955 -0.07172142 0.1434108
000030 f5 69 8e 3d dc 79 f2 3d 8d 0b 12 bd b5 97 38 3e
       0.069538034 0.11839649 -0.035655547 0.18026622
000040 6b 12 6f bd f7 88 f0 3d e7 19 2e be 79 df 1c be
       -0.058367174 0.11744874 -0.17002068 -0.15319623
000050 39 ed a5 bd 46 43 2c 3d e7 00 f9 3d 4b 12 31 3e
       -0.08101887 0.042056344 0.12158375 0.17292134
000060 ea da 37 3e 55 36 80 3d 7e ce b1 b8 3d 8d 41 bd
       0.17954603 0.06260363 -8.47848e-05 -0.047253836
000070 fb 07 68 bd b7 66 67 3e 2e 35 c6 3d bc 13 68 bd
       -0.056648236 0.22597776 0.09678112 -0.056659445
000080 ba a6 6c bd 3c 69 ab 3d 68 19 c8 3c 31 86 88 3d
       -0.05777619 0.08369681 0.024426177 0.0666622
000090 0c aa a8 3d 52 73 b4 3b 54 0b 06 3e f8 fb b4 3d
       0.08235559 0.0055069113 0.13090259 0.08837122
0000a0 69 28 cd bd 73 fb 14 3e 2d 2e 06 3e 30 34 43 bd
       -0.10017473 0.14549045 0.13103552 -0.04765719
0000b0 b4 cb 05 3d 0b b9 ff bc 3c 53 07 3e f4 fa 2e 3c
       0.03266497 -0.031216165 0.13215345 0.010679949
0000c0 c7 6a 14 3d c7 1a cc bd cf 94 c8 bd b9 97 3d 3e
       0.036234643 -0.09966045 -0.09794008 0.18514909
0000d0 90 f3 df 3c f4 6f 3d bd 8a 77 63 3d 98 7a cc 3d
       0.02733782 -0.046249345 0.055533923 0.099843204
0000e0 e6 e9 f3 3d a2 06 8d bd 59 58 cf 3d 5a 59 48 bd
       0.11909847 -0.06886031 0.10124273 -0.048913337
0000f0 0c c9 89 3c ad 4c 47 3b e2 f7 13 3c 7c 20 21 3d
       0.0168195 0.0030410693 0.009031268 0.03933762

fc2.weight f4 [64, 64]
000000 14 31 96 3d e0 e0 03 3c 00 d4 68 bb 88 5e 20 3d
       0.0733358 0.00804922 -0.0035526752 0.039152652
000010 e4 ce 59 3d 4c c4 41 bd 4c 04 55 3d d0 fe e5 3c
       0.053175822 -0.047306344 0.05200605 0.028075606
000020 c0 d7 a5 3b 18 6c 02 bd 28 64 df bc a4 80 81 3d
       0.00506112 -0.031841367 -0.027269438 0.063233644
000030 68 ae 81 bc 4c d3 0f 3d ce f1 e4 bd d4 f9 57 bd
       -0.015830234 0.035113618 -0.11178933 -0.05272849
000040 98 5a 16 bd ce 25 87 3d 98 a2 cb bd fc 38 d4 3d
       -0.03670749 0.065990075 -0.09943122 0.103624314
000050 5a e8 c1 3d 48 cb 87 3c 66 d1 fb 3d 84 2c 74 3d
       0.09468146 0.016576424 0.12295799 0.059612766
000060 aa 96 c9 bd 46 b4 f7 bd cc 20 45 bd da 39 f1 3d
       -0.0984319 -0.12094931 -0.04812698 0.117786124
000070 fe 08 e0 3d 9c 9b 70 3d 20 35 b8 3c b8 6f 47 3d
       0.10939215 0.05874215 0.02248627 0.048690528
000080 80 9d 59 3b a8 f8 8e 3d 78 bf d5 bc 36 bf 99 3d
       0.003320545 0.06981021 -0.026092276 0.07507174
000090 40 c7 2a bd 2c cf 05 3d 00 3e 65 bb 30 58 af bd
       -0.041693926 0.032668278 -0.0034979582 -0.08561742
0000a0 cc 30 ca bd e2 db b9 3d dc d0 a1 bd 2c 60 98 bd
       -0.098725885 0.090751424 -0.07901165 -0.07440218
0000b0 f4 21 14 bd b4 eb 35 3d 24 8f 17 bd 8c fd a5 3d
       -0.036165193 0.044414237 -0.037001744 0.08105001
0000c0 20 05 61 bc c0 8d 9d bb b0 00 fb 3d fc af d9 3d
       -0.013734132 -0.0048081577 0.122559905 0.106292695
0000d0 26 63 d9 3d 42 17 8b 3d 7e 0c bd bd 40 92 82 bb
       0.10614614 0.067915455 -0.09230898 -0.0039847195
0000e0 ee e7 c9 3d 5c fd 97 3d b4 16 d7 3d 40 8f 07 bc
       0.0985869 0.07421371 0.10502377 -0.0082739
0000f0 64 09 93 bd d8 77 e0 bc 50 ec 0c bc 40 bf b2 bc
       -0.071795255 -0.027400896 -0.008601263 -0.02181971
000100 60 30 18 3d 40 2d a4 3b f0 a4 d8 bd c0 14 c9 bc
       0.03715551 0.005010277 -0.10578334 -0.024546027
000110 80 76 fd bc a0 51 89 bd aa df ac 3d d0 a7 0e bc
       -0.030940294 -0.06705022 0.08441098 -0.008707002
000120 a4 d8 18 3d c8 13 12 bd 40 64 5a 3d 50 e2 ca bd
       0.03731598 -0.035663396 0.053318262 -0.09906447
000130 98 71 7d 3d 72 30 df 3d 10 78 6a bc 60 f8 5f bc
       0.06187591 0.10897912 -0.014310852 -0.013670057
000140 40 b7 32 3c ee 69 bf bd e8 32 d8 3c 54 4d a9 3d
       0.010907948 -0.09346376 0.026391461 0.08266702
000150 ee a8 cf bd d4 6e 77 3d 4c 8e d4 bd 2a ee f8 3d
       -0.10139643 0.06040843 -0.103787035 0.12154801
000160 84 94 36 3d fc bb d7 bd 08 7b 31 3d 00 7e 9e bc
       0.04457523 -0.10533902 0.043330222 -0.01934719
000170 ae 1e c7 3d 7c 64 58 3d a2 4b aa bd c2 72 e0 3d
       0.097226486 0.052830204 -0.08315207 0.10959388
000180 64 04 20 bd 34 d4 c3 bd ec 67 2c 3d ca 0c d2 bd
       -0.039066687 -0.09561959 0.042091295 -0.102563456
000190 c2 91 ff bd 70 b3 f5 3d 42 57 a4 bd 78 6e 52 3d
       -0.12478973 0.119971156 -0.080244556 0.051374882
0001a0 b8 2d e9 3d e4 10 8d 3d e8 0d fd bc 34 a6 72 3d
       0.11385673 0.06887987 -0.03089042 0.059240535
0001b0 b0 dd 97 3c d8 dd 87 bc a0 38 87 3b c4 ac a2 bd
       0.018538326 -0.016585276 0.0041266233 -0.07943109
0001c0 50 fc ef bc c0 0d 7d 3b 74 66 8d 3d 18 d2 ea bd
       -0.029295117 0.0038612932 0.06904307 -0.114658535
0001d0 00 08 7a 3a c0 27 58 bc 26 6d c6 3d 6a 1c ee bd
       0.0009537935 -0.013193071 0.09688787 -0.11626513
0001e0 00 78 39 bb 3a a5 f0 bd 2a 4e b8 bd f0 de 81 bc
       -0.0028300285 -0.117502645 -0.089992836 -0.015853375
0001f0 f8 6e 94 3c 10 e1 6e 3c f4 46 c9 bd 96 78 d9 3d
       0.01811932 0.014580026 -0.09827986 0.10618703
000200 7e 54 af 3d ce 28 e0 bd 40 9f ca bd 08 a6 7f bd
       0.085610375 -0.10945283 -0.09893656 -0.0624142
000210 c0 a0 3d bd 88 d7 4c bd d0 ae 13 3c dc ba e7 3d
       -0.04629588 -0.050010234 0.0090138465 0.113149375
000220 8c 04 88 bd 08 60 b9 bc 4c 7e 82 3d 08 69 ad bd
       -0.06641492 -0.0226288 0.063717455 -0.08467299
000230 28 ec 55 3d bc cf d8 bd 98 be b8 3d 2a 06 d6 bd
       0.05222717 -0.10586497 0.09020728 -0.104503945
000240 bc bf aa 3d 34 7f 65 bd bc 76 1e 3d 2e 75 cf bd
       0.08337352 -0.056029513 0.038687453 -0.10129772
000250 0a 1b a3 bd f8 8d 88 bc be df 80 3d 30 2a 23 3d
       -0.07964142 -0.016669258 0.062926754 0.039835155
000260 54 c9 b1 bd d0 3b 75 bc e2 0f 82 bd a0 ca d9 3c
       -0.086809784 -0.014967874 -0.06350686 0.026585877
000270 48 c2 7b 3d 18 82 ea 3c 00 7c a0 bb 96 8c fc bd
       0.061464578 0.028626487 -0.0048975945 -0.12331502
000280 a6 e1 a8 bd 30 7e 33 3c 22 70 d3 3d 30 5b 1f bc
       -0.08246164 0.010955378 0.10324122 -0.009726331
000290 72 c8 f6 3d 24 33 69 3d 64 41 80 3d 20 66 6d bc
       0.12049951 0.056933537 0.06262472 -0.0144896805
0002a0 18 fa b3 bd 8e b7 af 3d e8 6a 56 3d 78 1d 7b 3d
       -0.08787936 0.08579932 0.052348047 0.0613074
0002b0 64 f7 5d 3d f4 25 39 3d dc dd 59 bd 28 90 43 3d
       0.05419101 0.04520221 -0.053190097 0.0477449
0002c0 f0 08 a4 bc 5c a2 96 bd 3a 42 d8 bd d0 a4 b0 3c
       -0.020023793 -0.07355186 -0.10559507 0.021562964
0002d0 7c 3b 5f bd 50 9c 5e bc 50 b8 12 bd 52 1d 86 3d
       -0.054500088 -0.0135870725 -0.035820305 0.06548561
0002e0 f4 9a b8 3d 8c 77 b7 bd b4 06 a4 bd 68 f0 2b bd
       0.0901393 -0.08958349 -0.08009091 -0.041977316
0002f0 30 60 53 3c 22 49 a9 3d 60 87 40 3c 80 95 9e 3c
       0.012901351 0.08265902 0.011751026 0.019358397
000300 a0 a1 a8 3c d8 73 ad 3c 50 65 64 bc e4 08 b6 3d
       0.020584881 0.021173403 -0.01394017 0.088884145
000310 78 8f d9 bc 58 86 82 bd ac 78 89 3d a4 24 e2 3d
       -0.026557669 -0.0637328 0.067124695 0.11042145
000320 92 b6 dd 3d ae 15 8f bd 40 47 9a 3d b0 b9 cf 3d
       0.10825838 -0.06986557 0.07533121 0.10142839
000330 82 93 a0 3d 10 af b5 3d 3e cf 97 3d e2 f2 ea 3d
       0.07840635 0.08871281 0.07412575 0.114721075
000340 54 01 ef 3d 08 5d 8e 3c 50 59 01 bc 5c 93 00 bd
       0.11670175 0.017378345 -0.007894829 -0.031390533
000350 c8 51 7b bd 08 3c b8 3d b2 92 a2 bd 20 f4 b1 3d
       -0.06135729 0.08995825 -0.07938136 0.08689141
000360 f6 5a d6 3d 66 83 f3 bd 70 77 1e bd 28 2c 8c 3c
       0.10466568 -0.11890297 -0.038688123 0.0171109
000370 f8 7f 01 3d a8 b8 80 bc b6 8c ae 3d 88 33 3f 3d
       0.03161618 -0.015713051 0.08522932 0.046680003
000380 f0 a8 a4 bc 8e f1 85 bd c6 a9 ef 3d 4c 3c c8 3d
       -0.020100087 -0.065402135 0.117023036 0.09777126
000390 8c 87 f0 bd 50 5e 54 3d 00 73 e2 bd f0 46 91 bc
       -0.117446035 0.051847756 -0.11057091 -0.017734021
0003a0 d0 9b 1c 3c a0 ef ce 3b 88 f4 3f 3d d8 8a 54 3d
       0.009558633 0.0063151866 0.046864063 0.051890224
0003b0 a0 c7 91 bb a8 d0 bd 3d 9c 1e be 3d 40 61 7a bc
       -0.004448846 0.09268314 0.09283182 -0.015281975
0003c0 80 3e e2 3c 82 2c 93 3d 22 2e 8f bd 94 73 f3 bd
       0.027617693 0.071862236 -0.06991221 -0.11887279
0003d0 b0 3e 1c 3d 00 1b 6f 3c e0 eb 3d bd 90 e0 61 3d
       0.03814572 0.01459384 -0.046367526 0.0551458
0003e0 04 5c cc bd 62 6b 8f 3d e6 3b a4 3d d8 7b a0 3c
       -0.09978488 0.070029035 0.08019237 0.019590303
0003f0 50 4c e1 bd 3e 07 88 bd 9e e4 9a bd cc cb 89 3d
       -0.110008836 -0.06642006 -0.075631365 0.06728324

fc2.bias f4 [64]
000000 b0 a1 46 bc 40 2b ef bb 0a 8a e2 3d d4 4a 9c 3d
       -0.01212351 -0.007298857 0.11061485 0.0763146
000010 80 44 f5 bd fe 3a a1 3d e8 61 29 bd 98 37 b1 3c
       -0.11975956 0.0787258 -0.041353136 0.021632954
000020 84 ad 11 3d 20 7c 1a bd e0 c4 24 3c d0 8f b1 3c
       0.035565868 -0.03771603 0.010056704 0.02167502
000030 00 e4 02 ba 2c d8 a6 bd 7a 1b cf bd a4 33 f4 3d
       -0.0004993081 -0.081467 -0.101126626 0.11923912
000040 b2 fe ad bd b0 2b 01 bc 78 3f 70 bd 7a 5a e9 3d
       -0.08495845 -0.007883951 -0.05865428 0.1139421
000050 40 78 fb 3b 78 5e ec bd ce 9f e2 3d 68 17 ec 3d
       0.007674247 -0.11541456 0.110656366 0.11527902
000060 60 48 8c 3c 72 10 d7 bd 00 ed aa ba 40 fe 96 bb
       0.017124355 -0.105011836 -0.0013040602 -0.0046079457
000070 36 6f e2 3d 00 39 98 bb 18 71 83 3c b8 87 d7 3d
       0.11056368 -0.004645467 0.016045138 0.10523933
000080 00 fc 42 3c 12 58 8a bd ea c3 af bd 98 a0 0c bd
       0.011900902 -0.06755079 -0.085822895 -0.03433284
000090 c4 51 86 3d 40 74 9f 3d 60 cf db bc 00 48 de bd
       0.06558564 0.07785845 -0.026832283 -0.10853577
0000a0 e2 a0 90 bd ba e7 f0 bd aa fd e3 3d 50 c7 81 3d
       -0.07061936 -0.11762948 0.11132367 0.06336844
0000b0 e0 ff d1 bc 58 88 df bd b0 4e bf 3d e4 a7 ea bd
       -0.025634706 -0.109146774 0.0934118 -0.11457804
0000c0 40 84 89 3b 04 96 1f 3d 00 22 8e b9 98 a8 24 bd
       0.0041966736 0.038961425 -0.00027109683 -0.040199846
0000d0 04 f8 00 3d 28 36 97 bc b4 5d e6 3d 96 96 80 3d
       0.031486526 -0.01845844 0.11248341 0.06278722
0000e0 b0 1b f7 3c 08 32 f2 bc 38 30 82 bc 90 2c 97 3d
       0.03016457 -0.029564872 -0.015892133 0.073815465
0000f0 7a 0a ee 3d f0 9c 4a 3c 88 a6 b4 3d 44 7c a3 3d
       0.11623092 0.012366518 0.08820826 0.07982686

pi.weight f4 [5, 64]
000000 d6 4d a2 bc 7d 63 e5 bd 58 92 df 3d 03 f8 e9 bd
       -0.019812506 -0.112006165 0.10916585 -0.114242576
000010 08 fc a5 bd 1f 36 73 3e 43 d8 ec 3d 29 02 fd 3d
       -0.08104712 0.23751114 0.11564686 0.12353928
000020 51 7c 82 3d a2 2f 31 bd 90 6a f1 bc 15 6b b6 3d
       0.06371368 -0.043258317 -0.029469758 0.08907143
000030 7d 55 06 bd 19 aa bb bd 94 70 88 bc 61 ea 29 3e
       -0.03279637 -0.09163303 -0.016655244 0.16593315
000040 99 14 f2 bd 8a 68 0d 3e 12 bc 67 bd 13 01 9b bd
       -0.11820335 0.1380941 -0.056575842 -0.07568564
000050 8a ad e1 bd 04 1c 8b 3c 53 b2 2c 3d c9 21 c4 3d
       -0.11019428 0.016981132 0.04216225 0.095767565
000060 58 58 e1 3d 29 7f e2 bd 3c 24 6b 3e 08 4c 9a bd
       0.11003178 -0.1105941 0.22963041 -0.07534033
000070 18 6a 82 bd 9c 35 69 3d 98 c8 71 3e b3 19 6c 3d
       -0.06367892 0.05693589 0.23611677 0.057641696
000080 ea 3d c4 3d 17 67 07 bd 58 8d 02 3d e9 d3 a0 bd
       0.09582122 -0.0330573 0.031873077 -0.07852919
000090 1a 2d c4 bd e2 2a ac bd 8b 80 22 3e 02 05 36 3d
       -0.09578915 -0.08406617 0.15869348 0.04443837
0000a0 90 57 88 3d 6f 39 78 bc 32 61 8c 3e 72 c3 b9 3d
       0.06657326 -0.015150412 0.27417904 0.09070481
0000b0 29 97 0c 3e 37 86 37 bd 35 3a 7f bd a3 1c 87 3d
       0.13729538 -0.04480573 -0.06231137 0.06597259
0000c0 7c 15 ab 3e 45 12 9a bd 18 2e cf 3b 29 01 1c 3d
       0.3341483 -0.07523016 0.0063226335 0.038087044
0000d0 a8 ab 0c 3e 78 a6 10 3e e8 18 d7 3c 7f 05 db bc
       0.13737357 0.14126003 0.026256993 -0.02673602
0000e0 fc 75 ee 3d c2 89 98 bd d9 98 88 3d 8b 34 8f bc
       0.116435975 -0.0744815 0.066697784 -0.01748111
0000f0 ce 46 0d 3e 1d 11 c3 3e d2 f3 c0 3d 76 be d2 3d
       0.13796541 0.38098994 0.09421505 0.10290234
000100 99 ed 66 bd 94 4c 82 bd 17 06 2c bd 85 2f de bd
       -0.056378935 -0.06362262 -0.041997995 -0.108489074
000110 77 a5 4e bc d7 e3 53 be 8a 15 78 3d b3 01 dc bd
       -0.012612692 -0.20692383 0.060567416 -0.107425116
000120 03 95 db bd 3f 78 49 3d 38 f2 3a 3c 1c f1 fd bd
       -0.10721781 0.04918694 0.0114102885 -0.123995036
000130 59 61 a7 bd aa 9f ab bd b4 4a af 3d ef 21 cb 3d
       -0.081728645 -0.08380063 0.0855917 0.09918582
000140 88 21 71 3d ac ac f5 3d 84 e3 79 3d 69 89 83 bd
       0.05886987 0.11995825 0.06100799 -0.06422693
000150 c0 a2 3c 3b a9 fc 7a 3d ae c7 c7 3d af 16 eb bd
       0.002878353 0.06127611 0.09754883 -0.11478936
000160 a8 c9 d1 3c 75 91 ec 3c ae 67 e1 3c a3 56 ba bc
       0.025608853 0.028877953 0.027515259 -0.02274639
000170 86 04 53 3d b6 2a 96 3b c5 db d7 bd f3 53 b2 bd
       0.051517986 0.0045827283 -0.105399646 -0.08707418
000180 d0 b1 95 3c b6 44 18 3d a8 d8 cb bc 6b bd f4 3d
       0.018273264 0.037174903 -0.024883583 0.11950191
000190 d8 f6 9d 3d 42 4b 87 bd 5b 0f 7e bd 77 1a e8 bd
       0.07713097 -0.06606151 -0.062026363 -0.11333173
0001a0 cb b3 dc 3c 4c 7e b1 3d 9f 5e 42 bd f2 c8 f0 bc
       0.0269412 0.08666667 -0.04745352 -0.029392693
0001b0 e3 ac ad 3c 05 72 8d 3d c6 0e b3 3c 25 3b 22 bd
       0.021200603 0.06906513 0.02185763 -0.039607186
0001c0 f1 8a 26 be 5c 09 96 3d 2d 38 bd bd 0e d4 30 bd
       -0.1626394 0.07326004 -0.0923923 -0.04317098
0001d0 c2 bc bd 3c 68 69 d7 bd 1a e8 a4 3c 3f 42 e4 bc
       0.023161296 -0.105181515 0.020130206 -0.02786362
0001e0 08 30 ce bc 13 af f0 3d f2 b8 2b bc d7 5e e1 ba
       -0.025169387 0.11752143 -0.010481106 -0.0017194402
0001f0 85 18 4c bd 6d 6e 84 be 7c df b2 3d 5f 57 ec 3d
       -0.04982807 -0.25865498 0.087340325 0.11540102
000200 a1 5b d2 bc b6 d2 a7 3c 1d 5e 79 3c c6 08 ad 3d
       -0.025678458 0.020486217 0.015220192 0.08448939
000210 22 85 d5 bd 9b f0 b9 bd 3b db 19 be a9 86 a2 3d
       -0.10425784 -0.09079095 -0.15025036 0.07935841
000220 b0 ca 3e 3d 2c 91 15 be 85 52 67 3c b0 c7 48 be
       0.046580017 -0.1460616 0.014118795 -0.19607425
000230 72 59 c5 bc e4 97 20 bd fd d1 d0 bd 6a 05 6f 3d
       -0.024090502 -0.039207354 -0.10196302 0.058354773
000240 d1 34 00 be e0 74 8f bd 3a 2a 30 bd ac 03 b1 3c
       -0.12520148 -0.07004714 -0.04300902 0.021608196
000250 32 6e d3 bd cb f4 92 bb 80 57 e8 3c 70 2e b7 bd
       -0.103237525 -0.004484748 0.028362036 -0.08944404
000260 03 30 89 bd ee f5 27 be fa 11 8f be c2 83 a4 3c
       -0.06698611 -0.16402408 -0.27943403 0.020082358
000270 13 f7 8c 3d 88 46 07 be 48 a8 da 3c 47 3e 2e bd
       0.06883063 -0.132105 0.02669157 -0.04253986
000280 a8 b7 1c bd 59 ef d7 bd 22 89 8e 3d c9 be 0e be
       -0.038261086 -0.10543699 0.0695975 -0.13939966
000290 9c d0 29 bd fc 5b 43 be 5f ce 94 3d f0 da 15 bd
       -0.04145871 -0.19078058 0.07265925 -0.03658575
0002a0 6a 3f 9c 3c 3b 75 84 bd 3d 7d a5 bd 1b e5 05 bd
       0.019073207 -0.064676724 -0.08080528 -0.032689195
0002b0 3f 9c 28 be 28 2d 8c 3d 53 12 f2 3b ed 54 09 be
       -0.16465853 0.0684455 0.0073874383 -0.13411303
0002c0 9d f9 8b bd 8b 36 95 bd 2b 5d 5e bd e7 f9 18 bd
       -0.06834719 -0.07285794 -0.05428807 -0.0373477
0002d0 41 35 53 3d db 86 00 bc 63 ec 5d bc 90 fe bb 3d
       0.05156446 -0.007844652 -0.0135451285 0.09179413
0002e0 67 a6 a3 bd 9d 5e ca bd bc 05 de bd 08 ea 1d be
       -0.07990723 -0.09881327 -0.108409375 -0.15421307
0002f0 89 e5 e1 bc d7 71 88 be 84 a7 00 be 5c 53 cc 3d
       -0.027575271 -0.26649353 -0.12563902 0.09976837
000300 87 4e e8 3d bc 12 09 3e e1 ac eb 3d cf d0 c4 bc
       0.11343103 0.13386053 0.115075834 -0.024025349
000310 2d 41 94 3d 19 43 2f be 73 7a fd 3d 29 3a 99 3d
       0.07238994 -0.1711544 0.12376871 0.07481796
000320 2e 42 a9 bd 98 4a b0 3d 7a 6f 25 3e c7 a8 fe 3c
       -0.08264576 0.08607978 0.16155806 0.031086339
000330 b6 8c 48 3d 0d fa ce bd 14 c2 ac 3d 4a ea c3 3b
       0.048962317 -0.10106287 0.08435455 0.005978857
000340 39 bd 30 3e 02 46 ad 3c 43 a0 26 bd 2d 53 d3 3d
       0.17259683 0.021151546 -0.04068018 0.10318599
000350 10 7a 4e bd 0a ee 59 3d 07 4b a8 3d 6b 08 34 3d
       -0.050409377 0.053205527 0.08217435 0.04395334
000360 ab 70 24 3e 17 0a 40 3e 90 a8 e4 3d bc 93 73 bd
       0.16058604 0.18753849 0.11164963 -0.059467062
000370 61 34 45 ba c1 07 ad 3c 32 6e e2 bd eb 9a a5 3c
       -0.00075227587 0.021121861 -0.11056174 0.020215472
000380 22 53 f4 3d a4 d4 bd 3d 4a 1a ea bd eb 5c 16 bc
       0.11929919 0.092690736 -0.114307955 -0.009177427
000390 88 04 43 bd 66 4f 4b 3e 82 dc e9 3d c3 dc 6d bd
       -0.047611743 0.19854507 0.11419012 -0.058071863
0003a0 39 74 24 bd 16 7e 47 3e 6c 66 fc bd b0 a9 ea 3d
       -0.0401499 0.19481692 -0.12324223 0.114581466
0003b0 9d 1c a3 bd 7b b6 e1 bd fd f7 ba 3d 9c e2 a9 bd
       -0.07964442 -0.110211335 0.09129331 -0.082951754
0003c0 21 de fe bd 93 67 03 3e f3 60 85 bc bf 48 52 3c
       -0.124447115 0.12832479 -0.01628158 0.012834727
0003d0 d7 51 05 3e fd 0d 8d bd f2 c4 87 bd 63 ec 55 bd
       0.130195 -0.06887434 -0.06629361 -0.05222739
0003e0 d6 0c ab 3d 3b 8b bc bc ef e6 46 3e b2 a5 ae bd
       0.08352058 -0.023015609 0.19424032 -0.085276976
0003f0 ac e9 a9 bd 5e f5 37 be d6 ce 55 3d 39 32 b5 bd
       -0.082965225 -0.17964694 0.052199207 -0.0884747

pi.bias f4 [5]
000000 a6 a3 97 3d 1d 0f 5e bd f3 f1 fe 3c ef 26 cd 3d
       0.0740426 -0.054213632 0.03112123 0.100171916
000010 08 94 49 bd
       -0.04921344

v.weight f4 [1, 64]
000000 e4 d8 98 3d f8 40 e6 3c 58 02 b8 bc fe 40 e9 3d
       0.074632436 0.028107151 -0.022462055 0.113893494
000010 3a 61 be bd 88 bf 8c 3d 28 b8 d1 3d 60 9e bb 3b
       -0.09295888 0.06872469 0.10240203 0.005725667
000020 78 d0 c3 3d 50 e3 7a 3d e6 04 e6 bd fc 85 fc bd
       0.09561247 0.06125194 -0.11231403 -0.12330243
000030 e8 ab d8 3c 88 5c 09 bd 00 8d bc 3a 7e a1 be bd
       0.026449159 -0.03353551 0.0014385283 -0.09308146
000040 36 b4 e9 bd 80 dd 62 3c 00 e1 ef 3d 22 ec a4 bd
       -0.11411326 0.013846755 0.11712837 -0.08052851
000050 44 d8 54 bd 52 4e ae 3d 8c f9 d6 3d 24 d0 7b bd
       -0.05196406 0.08511032 0.10496816 -0.061477795
000060 50 fd 92 3d 5e 1b ae bd e2 6b f9 bd 3a 60 d1 3d
       0.07177222 -0.085013136 -0.1217878 0.10223432
000070 8c 73 a4 bd 42 b1 a6 bd 80 07 b3 3b 58 d3 19 bd
       -0.08029851 -0.08139278 0.0054635406 -0.03755507
000080 7c 0c 39 bd b0 82 15 bc 7c a9 3b 3d a0 75 44 bd
       -0.04517792 -0.009125397 0.04581593 -0.04796374
000090 6c 6e d4 bd 72 ff fc bd 28 aa 24 3d f4 9f 34 3d
       -0.10372624 -0.1235341 0.040201336 0.044097856
0000a0 10 3e d6 bd a0 25 f3 bc 14 47 65 bd b8 39 ed bd
       -0.10461056 -0.029681027 -0.05597599 -0.115832746
0000b0 2a c2 9d bd a0 07 19 3d d8 34 84 bc ec d7 6e 3d
       -0.077030495 0.037360787 -0.01613848 0.058311388
0000c0 00 4b 55 bd 30 e3 8c 3c 48 08 86 3c aa 83 a7 bd
       -0.05207348 0.017198175 0.01636137 -0.0817941
0000d0 00 e7 04 ba ac 40 5b bd b0 2a ec bc f0 99 f5 bd
       -0.0005069822 -0.053528473 -0.028828949 -0.11992252
0000e0 8a fa 87 bd 36 01 96 3d 00 e0 4b b8 c0 b8 21 bd
       -0.066395834 0.0732445 -4.8607588e-05 -0.039482832
0000f0 3a 8b 83 bd a0 fd 21 bd 48 c2 8e 3d c0 f3 ed 3c
       -0.0642304 -0.039548516 0.0697065 0.029046893
