Reinforce/tmp/highway/state_dict_model.pt (torch, 84127 bytes, 6 tensors)

fc1.weight f4 [128, 25]
0	0x3def0336	0.11670534
1	0xbe0eedfa	-0.13957968
2	0x3dd05744	0.101728946
3	0x3e02a04b	0.1275646
4	0xbdfe8289	-0.12427241
5	0xbbd92586	-0.0066267876
6	0x3cc52470	0.024065226
7	0xbcf36995	-0.029713431
8	0xbccde7e2	-0.025134984
9	0xbd6f2909	-0.058388744
10	0xbe2975eb	-0.16548888
11	0x3d939e14	0.072078854
12	0xbdd8dc4e	-0.10588895
13	0x3d07cbd4	0.03315337
14	0xbdbb8900	-0.0915699
15	0xbe29fa28	-0.16599333
16	0xbc4ad93a	-0.012380892
17	0x3dfbb101	0.1228962
18	0x3e4f74b4	0.20259362
19	0x3e0a8f54	0.13531238
20	0x3d881a0e	0.066455945
21	0xbe16e665	-0.14736326
22	0xbe422e59	-0.18962993
23	0xbe452acc	-0.19254607
24	0xbe4a05a5	-0.19728716
25	0xbe033c90	-0.12816072
26	0x3dd890ff	0.10574531
27	0xbe035cd8	-0.12828386
28	0xbd1660b2	-0.03671331
29	0x3e549169	0.20758595
30	0x3e0a167a	0.13485137
31	0x3c8b8219	0.017029809
32	0xbdcbede8	-0.099574864
33	0xbd448125	-0.047974724
34	0xbd2f3ce4	-0.04278268
35	0xbc53612c	-0.012901586
36	0x3df5ef1c	0.12008497
37	0x3e616574	0.22011358
38	0x3d096dc5	0.03355195
39	0x3e406b99	0.18791045
40	0xbd2679d2	-0.04064352
41	0xbd0e782e	-0.03478258
42	0xbe1f9c86	-0.15587053
43	0x3d045982	0.032311924
44	0x3dfa72fe	0.12228964
45	0x3e43381e	0.19064376
46	0x3e739e11	0.23790766
47	0x3df9ac7a	0.121911004
48	0x3e0d92f5	0.13825591
49	0xbd82dd7d	-0.06389902
50	0x3d86d9ba	0.06584497
51	0x3dc7defe	0.09759329
52	0x3dba097e	0.09083842
53	0xba147300	-0.0005662888
54	0x3d87016a	0.065920666
55	0xbdd4ba33	-0.10387077
56	0xbd91f784	-0.07127288
57	0x3e1bff81	0.15234186
58	0x3e15939f	0.14607094
59	0xbd18722c	-0.037218258
60	0xbdb03d80	-0.0860548
61	0xbd23c354	-0.0399812
62	0xbcc3bfd8	-0.02389519
63	0x3d26b374	0.040698484
64	0x3e0c3a59	0.13694133
65	0xbe05fb2e	-0.13084099
66	0x3d8d6652	0.06904282
67	0x3d271fcc	0.04080181
68	0xbd2f330c	-0.04277329
69	0xbdbdc91a	-0.09266873
70	0xbd9b98bd	-0.07597492
71	0xbe14a0bb	-0.14514439
72	0x3e2eb845	0.17062481
73	0xbd70e0c0	-0.05880809
74	0xbc8584d0	-0.016298681
75	0x3d95ca22	0.073139444
76	0x3d6f10ab	0.058365505
77	0xbd735a1a	-0.0594121
78	0xbdb7248f	-0.0894252
79	0x3db1ad03	0.086755775
80	0x3d161de9	0.03664962
81	0xbd296f0d	-0.041365672
82	0x3e0643d5	0.13111813
83	0xbcfd9a7a	-0.03095745
84	0xbe0333c9	-0.12812723
85	0xbe37ef75	-0.1796244
86	0x3dc6f09d	0.09713862
87	0xbdee587a	-0.11637969
88	0x3d8476d5	0.06467978
89	0xbe153c12	-0.14573696
90	0x3c9d200c	0.01918032
91	0x3d844079	0.0645761
92	0x3e4efdd3	0.20214014
93	0xbd5a50dd	-0.053299773
94	0x3e3de759	0.18545283
95	0xbbb4c99f	-0.005517199
96	0x3d9b5e42	0.075863376
97	0xbe0d622e	-0.13806984
98	0x3e41239c	0.1886124
99	0x3c7edecb	0.015556048
100	0xbda3fc73	-0.08007135
101	0xbdd059ad	-0.10173354
102	0x3dc41692	0.095746174
103	0xbd6ec340	-0.058291674
104	0xbd84ffda	-0.06494112
105	0x3e4a4f55	0.19756825
106	0x3e086d61	0.13322975
107	0x3e373da1	0.17894603
108	0xbe1afd63	-0.15135722
109	0xbdc5d640	-0.096600056
110	0xbdd9de70	-0.1063813
111	0xbe3f7598	-0.18697202
112	0xbe485a37	-0.19565664
113	0x3e320d75	0.17387946
114	0x3dcf8702	0.101331726
115	0xbddbda70	-0.10735023
116	0xbdfd3713	-0.1236402
117	0xbd5810cc	-0.052750394
118	0x3e274fb3	0.16338997
119	0x3da67aa2	0.08128859
120	0xbdae306d	-0.0850533
121	0xbdb615e7	-0.08890896
122	0x3dd1fbae	0.10253082
123	0xbd0a1680	-0.033712864
124	0xbe47cdda	-0.1951212
125	0x3df7370f	0.120710485
126	0xbd913474	-0.07090083
127	0xbe19cde0	-0.15019941
128	0xbc522442	-0.012826027
129	0x3cffb4f3	0.031214213
130	0xbd4bdc14	-0.04977043
131	0x3d2190fb	0.039444905
132	0xbdac75c1	-0.08420897
133	0x3e348f88	0.17632878
134	0x3de8682b	0.113479935
135	0x3e0461a7	0.12927876
136	0xbcb82f7f	-0.022483585
137	0x3be6b49f	0.0070405747
138	0x3e3aed95	0.18254693
139	0xbd7fa0df	-0.062409278
140	0x3d225140	0.039628267
141	0x3d68a2ec	0.056796
142	0x3e03883a	0.12844935
143	0xbdf70000	-0.12060547
144	0xbc893c94	-0.016752519
145	0xbc20a493	-0.009804863
146	0xbd2a2fad	-0.041549373
147	0x3e1f3650	0.15548062
148	0x3e16fdb2	0.14745215
149	0xbc3d4d3e	-0.0115540605
150	0x3de6f761	0.112776525
151	0xbd9ad483	-0.07560065
152	0x3e55b430	0.20869517
153	0x3de95034	0.11392251
154	0x3e0c42ac	0.13697308
155	0x3ccfa6f5	0.025348166
156	0x3dce07ea	0.10060103
157	0x3e35b305	0.17744072
158	0xbe443ca8	-0.19163764
159	0xbddb1952	-0.10698189
160	0x3d8f3b70	0.06993759
161	0x3e487f81	0.19579889
162	0x3df72180	0.120669365
163	0xbd683884	-0.056694523
164	0xbe2796b6	-0.16366085
165	0x3deab5e7	0.11460476
166	0xbdbb28d6	-0.09138648
167	0xbdc71101	-0.0972004
168	0xbdc36d38	-0.09542316
169	0x3e4ce2d0	0.20008397
170	0x3e394990	0.18094468
171	0x3e5d6a29	0.21622528
172	0xbde78976	-0.113055155
173	0x3dc124fd	0.09430883
174	0x3e3959ad	0.18100615
175	0x3dc7d6e7	0.09757786
176	0xbd4142c8	-0.04718283
177	0x3e4e7f07	0.20165645
178	0xbdc14e07	-0.09438711
179	0xbe285046	-0.16436872
180	0x3e0216f5	0.1270407
181	0x3e012275	0.126108
182	0x3c3a4abf	0.01137036
183	0xbe2f0f30	-0.17095637
184	0x3dcf4190	0.10119927
185	0xbd9683df	-0.07349371
186	0x3e102c4e	0.14079401
187	0xbe376d49	-0.17912783
188	0x3c8c6cdc	0.017141752
189	0xbe5d181e	-0.21591231
190	0x3e32b71c	0.17452663
191	0x3e7157c4	0.23568636
192	0xbd5b3e12	-0.05352599
193	0xbd958aa3	-0.073018335
194	0xbe02c2fa	-0.1276969
195	0x3e10ace7	0.14128457
196	0xbd30f409	-0.04320148
197	0x3c86de15	0.016463319
198	0x3e245e5e	0.16051623
199	0x3d8657bc	0.06559703
200	0x3d1e230d	0.038607646
201	0x3e084682	0.13308147
202	0x3dab6e35	0.0837063
203	0x3e3458e2	0.17612031
204	0xbad0ee14	-0.0015940093
205	0x3e4a7c15	0.19773896
206	0xbc9781c1	-0.018494489
207	0x3df3d4e1	0.11905838
208	0xbdaaca87	-0.0833941
209	0xbd9c91f8	-0.07645029
210	0x3d5e752f	0.054310974
211	0xbd94d842	-0.072678104
212	0x3c12c70a	0.008958587
213	0xbe0ef115	-0.13959153
214	0xbdc8bfcf	-0.098022096
215	0xbd4a2d89	-0.049359832
216	0xbbcb7d80	-0.006210029
217	0x3e3e17a2	0.18563703
218	0xbdf309af	-0.118670814
219	0xbc91c27e	-0.017792936
220	0x3e47acdb	0.19499533
221	0xbd3833d9	-0.04497132
222	0xbdfbe9a0	-0.1230042
223	0xbe5ac4d9	-0.21364154
224	0xbe2047f1	-0.15652443
225	0xbe192fe5	-0.14959677
226	0xbd445754	-0.047934845
227	0xbd8020d6	-0.06256263
228	0x3d9da39e	0.07697223
229	0xbd202028	-0.039093167
230	0x3c8ab650	0.016932636
231	0x3dd86202	0.105655685
232	0xbc92ff68	-0.017944053
233	0x3e0b8099	0.13623275
234	0x3de1f772	0.110335246
235	0x3db824da	0.08991404
236	0xbd4c8d60	-0.049939513
237	0xbe258ca8	-0.16166937
238	0x3e039111	0.12848307
239	0xbda2d74d	-0.079512216
240	0xbdc3b7f3	-0.0955657
241	0xbc8adc58	-0.016950771
242	0xbdbd5a97	-0.09245794
243	0xbd1a944c	-0.037739083
244	0x3de7e012	0.11322035
245	0xbe071e96	-0.13195261
246	0x3d2a2034	0.041534618
247	0x3d8e2202	0.0694008
248	0xbe060752	-0.1308873
249	0xbe0fa2a0	-0.1402688
250	0x3de67f23	0.11254718
251	0x3e44713b	0.19183819
252	0x3e23ad23	0.15984015
253	0x3b16781a	0.002295977
254	0x3dd2dc06	0.102958724
255	0x3e335013	0.17511015

fc1.bias f4 [128]
0	0xbcf1b6e2	-0.02950615
1	0xbde11e2c	-0.10992083
2	0xbd59a1e0	-0.05313289
3	0xbd931221	-0.07181192
4	0xbdb40aa0	-0.08791089
5	0xbda97ad6	-0.08275382
6	0xbdf3d6ca	-0.11906202
7	0x3e0cd232	0.13752058
8	0x3e463bc1	0.19358732
9	0x3c81f0a8	0.015861824
10	0xbdcb0a95	-0.09914128
11	0xbd406522	-0.046971448
12	0xbda1fb11	-0.07909215
13	0xbe2c0b17	-0.16801105
14	0xbdc65dab	-0.096858345
15	0xbe2dc7e8	-0.1697079
16	0x3deeb0fd	0.116548516
17	0xbe112ffb	-0.1417846
18	0xbce422c6	-0.027848613
19	0x3d7cb2b2	0.061693855
20	0xbd936640	-0.07197237
21	0x3dc2293d	0.09480522
22	0x3e376e75	0.1791323
23	0xbcb285a3	-0.021792239
24	0xbd878f04	-0.06619075
25	0x3d90e3ef	0.07074725
26	0x3e05c129	0.13061966
27	0x3deb1747	0.11479049
28	0xbdc914ea	-0.09818442
29	0xbdc2cc8a	-0.09511669
30	0xbe19e2d2	-0.15027931
31	0x3e29b6be	0.16573617
32	0xbdb9e7d5	-0.090774216
33	0x3d226204	0.039644256
34	0xbc598f8e	-0.013278855
35	0x3e3d2d8c	0.18474406
36	0xbdaf38b3	-0.085557364
37	0xbd88c434	-0.06678048
38	0xbe34e52a	-0.17665544
39	0x3deacc2a	0.114647225
40	0xbb364e00	-0.0027817488
41	0x3dc0494a	0.09388979
42	0xbe077a7c	-0.13230318
43	0x3dfd3816	0.12364213
44	0x3c689a99	0.014197015
45	0xbde7a843	-0.1131139
46	0xbe4e7bfb	-0.20164482
47	0xbde1345a	-0.109963134
48	0x3d61ce78	0.055128545
49	0x3d8334ba	0.06406541
50	0xbe38477d	-0.1799602
51	0x3e4f7a34	0.2026146
52	0xbdf46fa1	-0.11935354
53	0xbce7c100	-0.028290272
54	0xbe0ba841	-0.13638403
55	0xbdb42774	-0.087965876
56	0xbe5a7987	-0.21335422
57	0xbd76374d	-0.060111333
58	0xbb29c69d	-0.0025905736
59	0x3c762657	0.015023789
60	0x3e522ac0	0.2052412
61	0x3df95ae2	0.12175538
62	0x3e247172	0.16058901
63	0x3da8d842	0.08244373
64	0x3e088d03	0.13335042
65	0x3ddb3b7c	0.10704705
66	0xbc61cf62	-0.013782354
67	0xbca63dee	-0.020293202
68	0xbe147e3e	-0.14501283
69	0x3d957b99	0.07298965
70	0xbd9eaa82	-0.077473655
71	0x3dd9e97f	0.10640239
72	0x3db2d05c	0.08731148
73	0xbdcce797	-0.1000511
74	0x3d9f9938	0.07792896
75	0xbe2c7660	-0.16842031
76	0xbdd4422b	-0.10364183
77	0x3e27b5ee	0.16377994
78	0xbe30e2e4	-0.17274052
79	0xbce013c0	-0.027353168
80	0xbc2cb9bc	-0.010542329
81	0x3e132620	0.14370012
82	0x3ddd952b	0.10819467
83	0xbdda9380	-0.10672665
84	0x3d9eafce	0.07748376
85	0x3d1e7078	0.038681477
86	0x3bfa3b00	0.007636428
87	0x3da91997	0.08256834
88	0x3e13b375	0.14423926
89	0x3e292da5	0.16521318
90	0x3d9063df	0.07050299
91	0x3d573624	0.052541867
92	0x3dd371ac	0.103244156
93	0x3e02c460	0.12770224
94	0xbe15cc4e	-0.14628717
95	0xbdeb8911	-0.11500753
96	0x3d53e7c2	0.051734693
97	0xbe4d781d	-0.20065351
98	0xbc87e6ef	-0.01658961
99	0xbe2746ee	-0.16335651
100	0xbe25ed70	-0.16203856
101	0x3d69584d	0.056968976
102	0x3c97673b	0.018481841
103	0xbe327560	-0.17427588
104	0x3e21363f	0.1574335
105	0x3c8730f1	0.01650283
106	0xbe488ea0	-0.19585657
107	0xbd993fe0	-0.07482886
108	0x3db0f4b9	0.08640427
109	0x3e1dddf4	0.154167
110	0x3de877a8	0.113509476
111	0x3d78ac15	0.060710985
112	0xbdef82fa	-0.11694904
113	0x3da3c1a9	0.07995922
114	0x3db03532	0.08603896
115	0x3beffa85	0.0073235654
116	0x3e4dc0d8	0.20093095
117	0x3e2cae64	0.168634
118	0xbbf161a3	-0.0073663755
119	0xbdc2f8eb	-0.095201336
120	0xbe2d2c10	-0.1691134
121	0x3e5d6d1d	0.21623655
122	0xbd8ac763	-0.06776311
123	0xbe4646a5	-0.19362886
124	0x3e336148	0.17517579
125	0xbe25ca66	-0.1619049
126	0xbe2e1107	-0.16998683
127	0x3d00ea48	0.031473428

fc2.weight f4 [128, 128]
0	0x3ca0df92	0.019637857
1	0xbc20db08	-0.009817846
2	0xbd505a3c	-0.050867304
3	0x3b5d082e	0.00337268
4	0x3d9417cf	0.07231104
5	0xbda4389c	-0.0801861
6	0x3cc348ca	0.02383842
7	0xbc0b1a97	-0.008490226
8	0x3d0edb44	0.034877077
9	0x3da480a1	0.080323465
10	0xbb591a20	-0.0033127144
11	0x3aa8ef82	0.0012888762
12	0xbd12986f	-0.035789903
13	0x3d573c34	0.05254765
14	0xbd78b7e4	-0.060722247
15	0xbd8fc0a6	-0.07019167
16	0x3cdc1530	0.026865572
17	0xba349f00	-0.0006890148
18	0xbc5a4f24	-0.013324533
19	0xbdae097b	-0.08497902
20	0xbb54e240	-0.0032483488
21	0xba6b09a7	-0.0008965977
22	0x3d2c5ba2	0.042079575
23	0x3d88b377	0.06674855
24	0x3d825073	0.06363001
25	0x3cdaca31	0.02670774
26	0xbd683a0f	-0.056695994
27	0xbd70ddc6	-0.05880525
28	0x3cf7e91c	0.030262522
29	0x3c909394	0.017648496
30	0x3d61e952	0.055154152
31	0xbdb36534	-0.08759537
32	0x3d925263	0.0714462
33	0xbd5ff804	-0.054679886
34	0x3d1627fa	0.03665922
35	0xbdaf6aa5	-0.08565263
36	0x3b6a2766	0.003572905
37	0x3ac12e40	0.0014738515
38	0xbd3ed1d2	-0.04658682
39	0x3d8544b1	0.065072425
40	0x3d79228e	0.06082397
41	0xbd4683f4	-0.048465684
42	0xbd85435d	-0.06506989
43	0xbd8f7b01	-0.07005883
44	0xbd36615d	-0.044526447
45	0x3cafb7a8	0.021449879
46	0xbd7aa147	-0.061188962
47	0x3dae94f3	0.085245036
48	0x3db476b1	0.08811701
49	0x3d1f7f52	0.03893978
50	0x3d9ddd71	0.07708252
51	0xbdbf0717	-0.09327524
52	0x3da8380e	0.082138166
53	0xbd7322ca	-0.05935935
54	0x3d848cb5	0.0647215
55	0xbb4ced20	-0.0031269267
56	0xbd6ac5fc	-0.05731772
57	0x3d0087a3	0.031379353
58	0x3d081618	0.033224195
59	0xbcbcfaba	-0.023068774
60	0x3d0ea87f	0.03482866
61	0x3d8dbc9f	0.06920742
62	0x3d61523e	0.055010073
63	0x3daadffc	0.08343503
64	0xbdb19f6b	-0.08672985
65	0xbd9defee	-0.077117786
66	0x3cf343e8	0.029695466
67	0x3d5b1242	0.05348421
68	0x3c48e77b	0.0122622205
69	0x3d0369ff	0.032083508
70	0xbca2d74d	-0.019878054
71	0x3c245cb2	0.010031866
72	0x3c271de8	0.010200001
73	0x3d9d2049	0.076721735
74	0x3c47a42c	0.012185138
75	0x3c9f6c90	0.019460946
76	0x3bd663c0	0.006542653
77	0x3b86d47b	0.004114685
78	0xbd62224e	-0.055208497
79	0x3c559b88	0.01303757
80	0xbd7b722f	-0.06138819
81	0xbd09fb2c	-0.0336868
82	0xbda6efa4	-0.081511766
83	0x3d882bbf	0.06648969
84	0xbd681c85	-0.056667823
85	0xbcdfc6e9	-0.027316527
86	0x3cb8de1c	0.022566848
87	0xbd430166	-0.047608756
88	0xbc06b606	-0.008222109
89	0xbd86919a	-0.0657074
90	0x3c94aa69	0.018147664
91	0xbd3a6bcc	-0.04551296
92	0x3af67500	0.0018803179
93	0x3cbc4424	0.02298171
94	0x3d36c768	0.044623762
95	0x3cfb872c	0.030704103
96	0xbd563492	-0.05229623
97	0xbd48bfbc	-0.049010977
98	0xbba7cd5c	-0.0051209163
99	0x3d9c68ef	0.07637202
100	0xbcc88828	-0.024478987
101	0x3d339497	0.04384288
102	0x3d4da0e6	0.050202273
103	0xbd93f8fa	-0.07225223
104	0xbcc22708	-0.023700252
105	0xbdb3abaf	-0.087729804
106	0x3d94b8a1	0.07261778
107	0xbaca51a3	-0.0015435707
108	0x3da33cd4	0.079705864
109	0x3bac503b	0.0052585877
110	0x3d7a7f08	0.061156303
111	0x3d9cb8ba	0.07652421
112	0x3cff2ce2	0.031149331
113	0x3d2a8271	0.041628305
114	0xbc1f2f68	-0.009715892
115	0x3c88d0d8	0.016701147
116	0x3c35a69c	0.011087086
117	0xbd86efdc	-0.06588718
118	0x3c693352	0.014233427
119	0x3d38372e	0.0449745
120	0x3d707cf6	0.058712922
121	0x3d19ee21	0.037580613
122	0xbc319232	-0.010838078
123	0xbd01c80b	-0.031684916
124	0xbc540088	-0.01293958
125	0x3c840840	0.016117215
126	0xbcd41058	-0.0258867
127	0x3d82a8b8	0.06379837
128	0xbd8bade5	-0.06820277
129	0x3c887a44	0.016659863
130	0x3c5bf9d0	0.013426259
131	0x3c9d8e29	0.019232826
132	0xbda888ab	-0.08229192
133	0xbd901cfe	-0.0703678
134	0x3d30f2ad	0.043200184
135	0x3c95812f	0.018250076
136	0x3d4a4743	0.049384367
137	0xbd7b69a2	-0.061380036
138	0x3d83e6e4	0.06440523
139	0x3c6fa212	0.014626043
140	0x3da8234e	0.08209859
141	0x3cd313a8	0.025766209
142	0x3d638af4	0.055552438
143	0xbc89f7f0	-0.016841859
144	0xbdb8f402	-0.09030916
145	0xbce6fc6c	-0.028196536
146	0xbc826adb	-0.015920093
147	0x3dfc4276	0.12317364
148	0x3dc0bfd1	0.09411586
149	0x3df65705	0.120283164
150	0x3dc80466	0.09766464
151	0x3d50351e	0.050831906
152	0x3d31e993	0.043435644
153	0x3bd8e556	0.006619136
154	0x3b8667cf	0.0041017304
155	0x3d5a3b56	0.053279243
156	0x3d0b9188	0.034074336
157	0x3d89dc0f	0.06731426
158	0x3d93ee8f	0.07223236
159	0xbca867f0	-0.020557374
160	0x3ba2218d	0.004947847
161	0x3d7c4951	0.061593357
162	0x3e0bef53	0.13665514
163	0x3dfee3e9	0.12445814
164	0x3d73a6c3	0.05948521
165	0x3c8c5e30	0.017134756
166	0x3d89d29f	0.06729626
167	0x3bfdc720	0.007744685
168	0x3d338c12	0.043834753
169	0xbd72d0ad	-0.05928104
170	0x3d19a74d	0.037513066
171	0x3dc25e58	0.09490651
172	0x3b75dddf	0.0037516279
173	0x3cb280cc	0.02178993
174	0xbda5fa3b	-0.08104368
175	0xbd08807a	-0.03332565
176	0xbd5d2021	-0.05398572
177	0xbd1be329	-0.038058434
178	0x3d2aee7e	0.04173135
179	0x3decbc46	0.11559348
180	0xbcb7b6bc	-0.022426002
181	0x3dd5cfaf	0.10440003
182	0x3d55b7d8	0.05217728
183	0x3c1e84fc	0.009675261
184	0x3c88edaa	0.01671489
185	0xbd4d7ac8	-0.05016592
186	0xbce62d5e	-0.028097805
187	0x3d0b640b	0.034030955
188	0x3baa686c	0.0052004363
189	0xbd94fd2a	-0.0727485
190	0x3d4ecb3b	0.050486784
191	0x3e084bd5	0.13310178
192	0xbd39e095	-0.045380194
193	0x3d8fde52	0.07024826
194	0x3b9d4136	0.0047990335
195	0xbb23ff5d	-0.0025024035
196	0x3c81bd72	0.015837405
197	0x3ce5be9a	0.028044987
198	0x3b8b0224	0.0042421985
199	0x3d9bf150	0.07614386
200	0xbaf7fec1	-0.0018920527
201	0x3d6056f6	0.054770432
202	0x3d0336b4	0.03203459
203	0xbd7ff4fd	-0.0624895
204	0x3db4b5d2	0.08823742
205	0x3dc3ad75	0.09554569
206	0x39628278	0.00021601643
207	0xbb9adec0	-0.004726261
208	0x3d656307	0.056002643
209	0x3c40e1a3	0.011772546
210	0xbb82d8bc	-0.003993122
211	0xbd1646f6	-0.036688767
212	0x3dd55715	0.10417
213	0x3cfc4002	0.03079224
214	0xbd878c67	-0.066185765
215	0x3dfcada0	0.12337804
216	0x3c3ed929	0.011648455
217	0x3c7e2510	0.015511766
218	0x3dca2a4c	0.09871349
219	0xbb93e7f3	-0.0045137345
220	0x3d68ba87	0.05681851
221	0x3d832d31	0.06405104
222	0xbd0b0fe1	-0.03395069
223	0x3d4df940	0.05028653
224	0x3d92cef1	0.07168377
225	0xbda6c69b	-0.0814335
226	0xbce71024	-0.028205939
227	0x3db47a5b	0.088124
228	0xbd223d46	-0.039609216
229	0xbd9c5215	-0.076328434
230	0x3d7ece50	0.062208474
231	0xbd9ea478	-0.07746214
232	0xbc943f35	-0.018096546
233	0x3b893b85	0.0041880035
234	0xbdcbfeb5	-0.09960691
235	0xbd820c57	-0.0635001
236	0xbd26c9e9	-0.0407199
237	0x3cf1a233	0.029496288
238	0x3dff2db7	0.12459891
239	0xbc823419	-0.015893983
240	0xbd148c71	-0.036266748
241	0xbcad2d80	-0.02113986
242	0x3daa0249	0.08301217
243	0x3de643b8	0.11243385
244	0x3d118162	0.03552378
245	0x3c923aaa	0.017850239
246	0x3d94b442	0.07260944
247	0x3ddb942a	0.107216194
248	0x3c7db0c8	0.0154840425
249	0x3d7c03ef	0.06152719
250	0x3dec8bb5	0.115500845
251	0x3d8341d1	0.06409038
252	0x3ddb903a	0.107208684
253	0x3d01158e	0.031514697
254	0xbd5956c9	-0.05306128
255	0x3dc7f7e5	0.09764079

fc2.bias f4 [128]
0	0xbd423987	-0.047418144
1	0x3daa23a8	0.08307582
2	0xbd8367aa	-0.06416257
3	0x3d380a23	0.044931542
4	0x3d39206d	0.04519694
5	0x3d454a00	0.048166275
6	0x3d5b1a40	0.05349183
7	0x3d371ddf	0.04470622
8	0x3cee93ee	0.029123273
9	0x3cf04864	0.029331394
10	0x3dbc3ccd	0.09191284
11	0x3ba2bf68	0.004966665
12	0xbd3411d0	-0.0439623
13	0x3d3ca0b9	0.046051715
14	0xbc529e52	-0.012855129
15	0x3de31f74	0.110899836
16	0xbd4b6132	-0.04965324
17	0x3d818125	0.063234605
18	0xbd0210cc	-0.0317543
19	0xbd206cbd	-0.0391662
20	0xbc3e88bb	-0.011629279
21	0xbd65f9e8	-0.056146532
22	0x3d8d24a2	0.06891753
23	0xbd7229bc	-0.059121832
24	0x3d798ab3	0.06092329
25	0xbd6f4e51	-0.058424298
26	0x3ca95724	0.020671435
27	0x3da77011	0.08175672
28	0x3de09316	0.109655544
29	0xbda9adaa	-0.08285077
30	0x3d123d4c	0.03570299
31	0x3c7b8c70	0.015353307
32	0xbd1a5e51	-0.037687603
33	0x3cc5d642	0.024150018
34	0xbd154fbd	-0.036452997
35	0x3dee6553	0.1164042
36	0xbda26609	-0.07929618
37	0x3db5e870	0.088822246
38	0xbd24a7c3	-0.040199053
39	0xbd0f52f8	-0.034991235
40	0xbcde7c9b	-0.027159026
41	0x3da13bb9	0.07872719
42	0x3b96e870	0.0046053454
43	0xbd0804a7	-0.03320756
44	0x3d9c196e	0.07622038
45	0xbd6ff8e3	-0.058586966
46	0xbd199be9	-0.037502203
47	0xbd146377	-0.03622767
48	0x3df6a5c3	0.12043335
49	0xbcecb395	-0.028894225
50	0xbcad8df5	-0.021185854
51	0xb9c56855	-0.00037652501
52	0x3dec8036	0.11547892
53	0xbd47746c	-0.048695013
54	0x3cfd232e	0.030900564
55	0xbc83941b	-0.016061833
56	0xbc946255	-0.018113295
57	0x3c583e36	0.013198426
58	0x3d74399b	0.05962525
59	0x3ca93fb6	0.020660263
60	0xbcbf2a8b	-0.023335716
61	0x3d2f99b6	0.0428712
62	0x3ce98c7f	0.028509377
63	0x3da331de	0.07968496
64	0xbd484998	-0.04889831
65	0xbd02ca83	-0.03193141
66	0xbcf645e8	-0.03006263
67	0x3d83fedd	0.06445096
68	0x3bff0abb	0.0077832616
69	0xbd088fb4	-0.03334017
70	0xbd893b26	-0.06700735
71	0xbd1dc03e	-0.038513415
72	0x3da21779	0.07914633
73	0xbdac4da7	-0.084132485
74	0x3d83d6d3	0.06437459
75	0x3d74709d	0.05967771
76	0xbd9f5183	-0.07779219
77	0x3dad8fca	0.08474691
78	0x3da96a6a	0.0827225
79	0xbd687115	-0.05674847
80	0xbd4f1683	-0.05055858
81	0x3b447d5d	0.002998195
82	0x3cd436da	0.025905062
83	0xbcf0c9e0	-0.029393137
84	0xbd919954	-0.07109323
85	0x3d61d99f	0.05513918
86	0x3c8105df	0.01574987
87	0xbc397f4e	-0.011321856
88	0xbd0fdf75	-0.035125215
89	0x3c53ed20	0.012934953
90	0x3cd5d163	0.02610082
91	0x3c569eb9	0.013099366
92	0x3c892e17	0.01674561
93	0xbd8f6dba	-0.070033506
94	0xbd298bf6	-0.041393243
95	0x3d0cb06b	0.034347933
96	0x3cb3019a	0.02185135
97	0x3e072d5f	0.13200901
98	0xbd8b2c99	-0.06795616
99	0xbdb2afd8	-0.08724946
100	0xbc08ea08	-0.008356579
101	0xbd22bc40	-0.03973031
102	0x3da3e06e	0.08001791
103	0xbd785bba	-0.060634352
104	0x3d9626a8	0.07331592
105	0x3dc6a7b4	0.096999556
106	0xbc29dc34	-0.010367442
107	0x3cbe7bc7	0.023252381
108	0xbd928979	-0.07155127
109	0x3cd71b60	0.02625817
110	0xbd8dafd2	-0.06918301
111	0xbd8ba526	-0.06818609
112	0x3afe4d80	0.0019401759
113	0x3da67e0a	0.08129509
114	0xbdad83f9	-0.084724374
115	0x3d2f4f8f	0.042800482
116	0xbd460e5a	-0.04835353
117	0x3d474532	0.048649974
118	0x3da46d11	0.08028615
119	0x3d2fdc3e	0.04293465
120	0xbd07a5ed	-0.033117224
121	0x3d5b88ec	0.053597376
122	0xbd188d6b	-0.03724424
123	0xbd5377a7	-0.05162778
124	0xbdab6725	-0.08369283
125	0xbd59522b	-0.053056877
126	0xbd10c9ae	-0.035348587
127	0x3cd128bc	0.025532119

fc3.weight f4 [5, 128]
0	0xbd8e0312	-0.06934179
1	0xbdb38713	-0.08765998
2	0x3c21504f	0.009845807
3	0xbd8ee8ae	-0.06977974
4	0xbd534469	-0.051578913
5	0xbcf28bdc	-0.029607706
6	0xbd9e4f28	-0.077299416
7	0x3cff397c	0.03115534
8	0xbd199002	-0.037490852
9	0xbcb5e950	-0.022205979
10	0x3d2723d1	0.04080564
11	0x3b465d32	0.003026795
12	0x3d83a79f	0.064284556
13	0x3d3e9b78	0.046534985
14	0xbd6fc59b	-0.05853806
15	0x3b664f9a	0.003514266
16	0xbc826277	-0.015916092
17	0x3c829e9c	0.015944771
18	0x3d1e5cae	0.038662605
19	0xbb8fa447	-0.004383597
20	0xbdab61b2	-0.08368243
21	0xbc290a42	-0.010317387
22	0x3c6e0178	0.014526717
23	0xbd3506a0	-0.04419577
24	0xbddac7a6	-0.10682611
25	0x3d3aa8de	0.0455712
26	0x3c0a81c8	0.008453794
27	0xbdd558c4	-0.10417321
28	0xbca87890	-0.020565301
29	0x3c21cfac	0.009876173
30	0x3c69febb	0.014281924
31	0x3c96239c	0.018327527
32	0x3d414f62	0.047194846
33	0x3d082095	0.033234198
34	0x3cce61b0	0.025193065
35	0xbd9f7503	-0.0778599
36	0x3d8dfc20	0.06932855
37	0x3bef4061	0.0073013757
38	0xbdaf2ccf	-0.085534684
39	0xbd4d0422	-0.05005277
40	0x3d9d45e7	0.076793484
41	0xbc1e7172	-0.009670602
42	0x3d4bd26e	0.04976123
43	0x3b1cba74	0.0023914846
44	0xbd75ab2a	-0.059977688
45	0x3d4569f9	0.048196767
46	0xbd7d2a80	-0.06180811
47	0xbd87a287	-0.066227965
48	0xbcee76fe	-0.029109474
49	0xbd643369	-0.05571309
50	0xbd5a1299	-0.053240392
51	0xbcf8d834	-0.030376531
52	0x3d0c0251	0.034181897
53	0xbd7d88d0	-0.061898053
54	0xbc2830ff	-0.010265588
55	0x3d249291	0.04017884
56	0x3bf7514e	0.007547534
57	0xbda0d3f0	-0.07852924
58	0xbc7d6277	-0.01546537
59	0xbdb1935d	-0.086706854
60	0x3c8bcb75	0.01706479
61	0x3c8431f6	0.016137104
62	0x3d8d1f2a	0.0689071
63	0x3cb56163	0.022141164
64	0x3c87502c	0.016517721
65	0xbd711d41	-0.05886579
66	0x3a30fb00	0.0006751269
67	0x3d657cca	0.05602721
68	0xbcaba34f	-0.020951895
69	0xbd0d105a	-0.034439422
70	0x3d554236	0.052065097
71	0x3da3095c	0.079607695
72	0x3d41d205	0.04731943
73	0x3b9cbed0	0.004783489
74	0x3d9fcc47	0.07802635
75	0x3d9059b8	0.070483625
76	0xbc868111	-0.016418966
77	0x3d36974c	0.04457788
78	0xbdbdaad1	-0.09261096
79	0x3d0dd265	0.034624476
80	0x3d15a7c0	0.036536932
81	0xbd914f20	-0.0709517
82	0xbe0d6cd6	-0.13811049
83	0x3d954015	0.07287613
84	0xbccd018e	-0.025025155
85	0x3d523869	0.05132333
86	0x3a69d9e8	0.0008920715
87	0xbd01491f	-0.031563874
88	0xbda2a12e	-0.07940899
89	0xbd396c66	-0.045269392
90	0xbd9fa7ae	-0.07795654
91	0xbd8e111b	-0.06936856
92	0x3bfa653d	0.007641463
93	0x3cd829b0	0.026387066
94	0xbd88c16b	-0.066775165
95	0xbd964867	-0.073380284
96	0xbd65b30e	-0.056078963
97	0xbdb4c7b1	-0.088271506
98	0x3cde56ac	0.027140938
99	0xbd146c9c	-0.03623639
100	0x3ce77bfb	0.02825736
101	0x3d281ff2	0.04104609
102	0x3cbc77a0	0.02300626
103	0xbd5928ec	-0.05301754
104	0xbd2b7fc3	-0.04186989
105	0xbd3cb3e9	-0.046070013
106	0x3c937182	0.01799846
107	0xbc6ca2fb	-0.014443154
108	0x3d9830ab	0.07431158
109	0x3d1f958e	0.038960986
110	0x3da9dd01	0.08294106
111	0x3d6e90f8	0.05824372
112	0xbd687f49	-0.056762014
113	0x3c229646	0.009923523
114	0x3d0d0ca2	0.034435876
115	0x3c30df4f	0.010795428
116	0x3c11fc60	0.008910269
117	0xbd9dcf96	-0.077056095
118	0xbd84d50e	-0.064859495
119	0x3db48501	0.08814431
120	0xbb8c4d20	-0.004281655
121	0xbc610e2d	-0.01373629
122	0xba89514a	-0.0010476497
123	0xbda5b374	-0.080908686
124	0xbc3db450	-0.011578634
125	0xbca19c90	-0.019727975
126	0xbd99c57b	-0.075083695
127	0x3ca39fdc	0.019973688
128	0xbcfa2e36	-0.030539613
129	0xbd765a24	-0.06014456
130	0xbd23b1e2	-0.039964564
131	0xbc3f1a4e	-0.011663986
132	0xbd4607d9	-0.048347328
133	0x3d4066cb	0.04697303
134	0x3d8b9dd8	0.06817216
135	0x3c9d960e	0.01923659
136	0x3d92c0ee	0.07165705
137	0xbd15a701	-0.03653622
138	0xbd0789c2	-0.03309036
139	0xbdb010be	-0.08596943
140	0x3cb70740	0.022342324
141	0x3d6ed40b	0.05830769
142	0xbdb47278	-0.08810896
143	0xbd06ee46	-0.03294208
144	0xbc5fbf16	-0.013656398
145	0xbd4efea1	-0.0505358
146	0xbce07c10	-0.027402908
147	0xbde2a9b9	-0.11067528
148	0xbd4b997a	-0.049706914
149	0xbd8845f0	-0.066539645
150	0xbd304038	-0.043029994
151	0x3baa65b7	0.0052001136
152	0xbd93d69b	-0.07218667
153	0x3be7ba05	0.007071736
154	0x3d910a7f	0.0708208
155	0x3c3dd66a	0.011586765
156	0xbcadc152	-0.021210346
157	0xbcd621f5	-0.026139239
158	0xbdce6229	-0.10077316
159	0xbc1e64c8	-0.009667583
160	0xbd96708c	-0.07345685
161	0xbdaa4f3b	-0.08315893
162	0xbd9f7abd	-0.07787082
163	0xbcbff75f	-0.023433385
164	0x3d365245	0.044512052
165	0x3c1ada4f	0.009451463
166	0xbd886f3a	-0.0666184
167	0xbd533351	-0.05156261
168	0xbd594c50	-0.053051293
169	0xbd53ed40	-0.05173993
170	0x3dabd70f	0.083906285
171	0xbcbf4b00	-0.023351192
172	0x3d8e1ec9	0.069394656
173	0x3cbe736e	0.0232484
174	0x3cccad0e	0.024984863
175	0xbd40f3c3	-0.04710747
176	0xbda2e6d3	-0.079541825
177	0x3ccfa47b	0.025346985
178	0x3d8d46aa	0.06898244
179	0xbd286fea	-0.041122355
180	0xbd916714	-0.07099739
181	0x3d8d3ddd	0.06896565
182	0xbd5993d5	-0.0531195
183	0x3d40b295	0.04704531
184	0xbd8d60c5	-0.06903223
185	0xbc9baa81	-0.019002201
186	0xbd7c6d9a	-0.06162796
187	0xbdbe24b0	-0.09284341
188	0xbc0fd2ab	-0.0087782545
189	0x3d0c4634	0.03424664
190	0x3c052208	0.008125789
191	0xbd1cb2ab	-0.03825633
192	0xbbb05880	-0.005381644
193	0xbd373e27	-0.044737007
194	0xbc7efb60	-0.015562862
195	0x3d16eb18	0.036845297
196	0xbd9ef39e	-0.0776131
197	0xbca983eb	-0.020692786
198	0xbd86e344	-0.06586316
199	0x3d8bedff	0.068325035
200	0x3d66d86d	0.056358743
201	0x3cc44084	0.023956545
202	0xbda23e31	-0.07922018
203	0x3d6956de	0.05696761
204	0xbd5d1e1c	-0.053983793
205	0xbdd63d87	-0.10460954
206	0x3963d08f	0.00021726101
207	0x3d74cfb1	0.059768382
208	0xbb57a3e0	-0.0032904074
209	0xbda62123	-0.08111789
210	0xbd37f777	-0.044913735
211	0x3d890a83	0.06691458
212	0xbda4885b	-0.0803382
213	0xbc7ee7f6	-0.0155582335
214	0xbd80dda0	-0.062922716
215	0x3d082be5	0.033244986
216	0xbd8c4023	-0.068481706
217	0xbd1b0bcb	-0.037853044
218	0x3d0d9c67	0.034572985
219	0xbd87330c	-0.06601533
220	0x3d917ca5	0.07103852
221	0x3d14a67c	0.036291584
222	0x3d7cdc0f	0.0617333
223	0x3ce132b0	0.02748999
224	0x3ce7cf8c	0.028297208
225	0xbd9c5324	-0.07633045
226	0xbcc84ad0	-0.024449736
227	0x3db12b9a	0.086508945
228	0xbcda12a6	-0.02662022
229	0xbc42b8e4	-0.011884902
230	0xbdce53ae	-0.100745544
231	0x3cedab68	0.029012397
232	0x3d9979bc	0.07493922
233	0x3d5e2734	0.054236606
234	0x3dabed87	0.08394914
235	0xbcce1131	-0.025154682
236	0x3d41d2ab	0.04732005
237	0xbd6dc1b1	-0.058046047
238	0xbccdf7e4	-0.025142618
239	0xbda1ef06	-0.07906918
240	0xbd6a107c	-0.057144627
241	0xbdb60e0f	-0.088894
242	0x3d97aee7	0.07406407
243	0x3d07fb23	0.033198487
244	0x3d0ecb9e	0.034862153
245	0xbcaff2e6	-0.021478128
246	0xbd70feac	-0.058836624
247	0x3d92b82b	0.071640335
248	0x3be252d0	0.0069068447
249	0xbd9cacae	-0.076501235
250	0x3d08bd58	0.033383697
251	0xbd0bbc93	-0.034115385
252	0xbd96f917	-0.07371729
253	0x3d2db29e	0.04240667
254	0x3d8e4964	0.06947592
255	0x3d15419e	0.03643953

fc3.bias f4 [5]
0	0xbd2e8b53	-0.04261334
1	0xbcea4ab8	-0.028600082
2	0xbda07560	-0.078348875
3	0x3d1663a3	0.036716115
4	0x3decf1e4	0.115695745
