CC_Reinforce/plots/state_dict_model.pt (torch, 84127 bytes, 6 tensors)

fc1.weight f4 [128, 25]
00000000: 2663 373e 4e75 2abe c9bf 56bc 4a73 43be
00000010: 2fed 0cbc ccfa 223e cfd9 b33d c105 d5bd
00000020: bd65 e0bd cb9b 603d d518 f93d 6c28 e13c
00000030: 278a 46be 068b 153d 8e95 28be de46 233e
00000040: 12c3 443e fb4e 0fbe 5a61 52be 83c8 2dbd
00000050: 9749 3a3d 8ab9 3bbd 212f 50be d74e 27be
00000060: 2602 19bb d9ac 22be b3bc 9c3d 8b02 ae3d
00000070: 2149 4bbe 54a2 c23d 9e7c 3b3e 87a9 39be
00000080: 5b0a 483e eefd 0b3e 9479 043e e281 903d
00000090: c077 213e 0fc1 47bd b1b9 6b3d def6 aabd
000000a0: 7460 74bd b832 9c3d 5b3f 45bc 6d78 b5bd
000000b0: 42ea 3ebe 4efc 10be 5b49 353e 573b 8d3d
000000c0: c48b 04be 3df8 8ebb 8a1c 0e3d 1538 ae3d
000000d0: be09 d1bc 7b49 3d3e c1b6 20be 8242 1c3d
000000e0: 631c d1bd f836 7abd 100b afbc 73ff 4a3e
000000f0: 2d0f cd3d 1c8e d4bd a255 7fbd 2097 2c3e
00000100: d79d adbd bb18 fbbd b2b5 1dbe effd e5bd
00000110: 9692 49be 983d 4b3e 56fb 113d 2ca2 21be
00000120: a1c1 dfbd 52fb d33d 61a0 da3c 3302 b43d
00000130: a4f8 0fbe 7c19 9bbd 58d2 6ebc b55d e33d
00000140: d7e4 bd3d d68d c0bd c4b0 1d3e 8a5e b4bd
00000150: b305 e03d e7ea b83d b536 363e cc60 b9bd
00000160: e629 6ebc 7f4b 1ebe 35df 1b3e 7d8c fbbd
00000170: c15a 1dbd 8e72 a03c db9c 3dbd 2791 253e
00000180: e715 be3d c130 dbbd cfc7 96bd cd08 243d
00000190: bd7f a9bd c31d f8bd 0a20 2dbe f96d 2d3e
000001a0: 40af c4bd 402e 34be c36f 27be a073 a0bb
000001b0: 843c 8fbd b2e1 45be 4070 973c c073 03bd
000001c0: 6cb7 16bd 4a02 dabd 578c 263e df32 033e
000001d0: 6b12 363e 9858 973c a062 40be 8b2f 34be
000001e0: 18a6 eebc 6819 00be 8033 cabc 60e6 babb
000001f0: 0068 e4ba 5225 3cbe 31ce 2c3e d454 143d
00000200: 9a35 89bd b0b9 6c3c 2248 3ebe 78fa 46be
00000210: 7272 39be a812 25be 01c6 453e d033 cfbd
00000220: 0f5e 393e 63f0 fdbd ba20 dfbd 3672 ee3d
00000230: 73f8 d5bd f021 43be 1514 333e a4fc 98bd
00000240: 0072 40bb a391 17be 37df b4bd 50d0 b9bd
00000250: 36c9 c63d 9863 f3bc 67df 333e cc7a 413e
00000260: 043b fd3d 9fdf 6fbd f8e7 133d bb49 03be
00000270: 00b8 ad3d 8c38 fcbb f369 fdbd 6101 263d
00000280: 596e 223e 7b95 67bd 1f40 dd3c e1a4 923b
00000290: 89e9 f6bd 293f 22be 4d28 a2bd 9de6 2abe
000002a0: c93d 443e 7b6a 02bd b1a3 d43c b4a5 493d
000002b0: 1659 3e3e 3f0e 303e 45c9 df3d 3dfe acbd
000002c0: 482c a2bd 175d 0c3e ad27 38bd f5ed 3a3e
000002d0: d396 14bd fa03 22bd 63b6 c23d f229 0cbe
000002e0: 551a 313c 831a fc3b 4193 e1bd a668 06be
000002f0: 13a0 30bb bd76 033e 9f88 973d f7a2 38be
00000300: e328 3bbe 3347 9a3d e05e 40be 5912 fc3c
00000310: 7af1 c1bd 966c a8bd eeb6 05be 3c7e 1dbe
00000320: 37fd 223e 7612 1f3e a408 803d a857 0d3e
00000330: 2acd 70bc f307 4d3d de3d 7dbc 2c56 4ebc
00000340: 8b78 103e 9836 423e ca27 0cbe 56dd f3bc
00000350: d42d 223e 4420 0ebe 87f5 3bbe 4e5d bfbc
00000360: aada 043e 1f3e 343e 9168 9c3d 5282 dabd
00000370: 8d90 cebd cd88 a9bd 94d5 b33d 01ee 32bd
00000380: b31e 113d f248 203d 2826 1cbe 7dfc 11be
00000390: bf4f 9fbc 1414 e7bb 614d 583c 17bb 66bd
000003a0: 4b99 2d3d 097d fdbd ccdd a5bd 4b36 173e
000003b0: 0bc5 763d 0d99 8fbd 794f 353e 5dbc f2bd
000003c0: 7a64 1cbd 371c 0a3e 9aa9 97bd 73e8 9fbc
000003d0: 702f 3e3e 9872 913d 5726 073e 611d a7bc
000003e0: 3ada e6bd dd99 45be d8d4 f03c 8988 843d
000003f0: 80de 793d 0cea a43d 83c6 253e 64af b13b
0.17908916 -0.1664631 -0.013107249 -0.19086948 -0.008601471 0.15915984 0.08781778 -0.10401488
-0.10956905 0.054836076 0.121629395 0.027485095 -0.19388638 0.036509536 -0.164633 0.15945002
0.19215038 -0.13994972 -0.20544949 -0.04242755 0.045480337 -0.04583124 -0.20330478 -0.16338669
-0.0023347228 -0.15886249 0.07653179 0.08496579 -0.19852115 0.09503618 0.18309256 -0.18131076
0.195352 0.13671085 0.12937003 0.07056023 0.15768337 -0.0487681 0.057550136 -0.083478674
-0.059662297 0.07626861 -0.012039031 -0.0886086 -0.1864405 -0.14158747 0.17703764 0.06896084
-0.12943941 -0.0043630884 0.034695186 0.085067905 -0.02551734 0.18485062 -0.15694715 0.038149364
-0.102104925 -0.06108758 -0.02136758 0.19824009 0.1001266 -0.10378668 -0.062337525 0.16854525
-0.08477371 -0.12260576 -0.15401343 -0.112300746 -0.19684824 0.19847715 0.035640083 -0.1578452
-0.10925604 0.1035067 0.026687803 0.08789482 -0.14059693 -0.0757322 -0.014576517 0.111018576
0.09272163 -0.09402053 0.15399462 -0.088070944 0.10938587 0.09029179 0.17794307 -0.09051666
-0.014536357 -0.15458487 0.15221865 -0.122826554 -0.038416628 0.019585874 -0.046292167 0.16168652
0.09281521 -0.107026584 -0.07362329 0.040047456 -0.08276317 -0.121150516 -0.16906753 0.16936482
-0.09603739 -0.17595768 -0.16351227 -0.004896596 -0.06993964 -0.19324377 0.018486142 -0.03209281
-0.03679602 -0.10644968 0.16264473 0.12812375 0.17780463 0.018474862 -0.18787622 -0.17596261
-0.029131934 -0.12509692 -0.02468276 -0.0057037324 -0.0017426014 -0.18373612 0.16875531 0.03621371
-0.06699677 0.014448568 -0.18582204 -0.19431484 -0.18110064 -0.16120398 0.19313814 -0.10117304
0.18102287 -0.12399366 -0.10894914 0.11642878 -0.104477786 -0.19055915 0.1748813 -0.074700624
-0.0029364824 -0.1480165 -0.08831637 -0.090729356 0.09706347 -0.029710576 0.1756569 0.188945
0.12364772 -0.05856287 0.036109895 -0.12821095 0.08482361 -0.0076971706 -0.12373724 0.04052866
0.15862407 -0.05653904 0.027008114 0.0044752215 -0.12056262 -0.15844406 -0.07917843 -0.16689534
0.19164194 -0.03183983 0.02595696 0.049230292 0.18588671 0.17192934 0.10927061 -0.084469296
-0.07918602 0.13707386 -0.044959713 0.18254836 -0.03627665 -0.039554574 0.09507444 -0.13687876
0.010809501 0.00769359 -0.110144146 -0.13125858 -0.002695088 0.12838264 0.07399105 -0.18030916
-0.18277316 0.075331114 -0.18786192 0.030770468 -0.09469886 -0.08223836 -0.13058063 -0.15380186
0.15916906 0.15534386 0.06251648 0.1380297 -0.014697352 0.05005641 -0.015456645 -0.012593787
0.14108483 0.18966138 -0.13687053 -0.029768627 0.15837795 -0.13879496 -0.1835538 -0.02335992
0.12974039 0.17601822 0.07637132 -0.10669388 -0.100861646 -0.08278046 0.08780971 -0.04368401
0.035429668 0.039132066 -0.1524893 -0.14256473 -0.019447206 -0.007051954 0.013202042 -0.056330767
0.04238252 -0.12377364 -0.08098945 0.14766805 0.06024651 -0.07011614 0.17706098 -0.11852334
-0.03818176 0.13487326 -0.07405396 -0.01952002 0.18572783 0.07101935 0.13198219 -0.020399751
-0.11272092 -0.19296975 0.029398367 0.064713545 0.06100321 0.080524534 0.16189007 0.0054225195

fc1.bias f4 [128]
00000000: 01ea a53d 9b28 a2bd d2a5 5e3d c9bc d6ba
00000010: 1dfb dabd b2a2 42be 0b84 65bd 5313 de3d
00000020: 2536 a03d 1eb1 8ebd 278d 2abe f7cd eabd
00000030: f339 963d 157d 303e 4420 fdbd 895a 433d
00000040: 8ea7 133e 23ec bfbd 44a8 bf3d fda5 97bd
00000050: c1b7 5cbc edf3 01be ebdb 023e 1fbc c1bd
00000060: 31fb b73b 4905 56bd 1dc6 9bbd aeee c53d
00000070: b79a 4c3d e2fb 763d f8b5 0bbe cc92 0bbd
00000080: 276b f2bd f194 4bbd d3f2 b4bd 0516 a8bd
00000090: bb5c c33d a069 3c3e a260 2d3e a482 d43d
000000a0: e875 273d e259 b13d 3d40 abbd 6187 173e
000000b0: 0dab fc3d fcb3 b1bd e369 e23d e737 d4bc
000000c0: b4c7 3b3d 7833 adbd a603 073e a018 5a3c
000000d0: 54d3 33be b401 f5bc 2162 f5bd 6237 673c
000000e0: 472d 00be e1af a5bd df88 80bd 730c e03d
000000f0: d4a5 ca3d 09ca 173c 3772 3e3e 0acb 09be
00000100: e131 243d 49d8 f43d b02d 3b3d 3040 1e3e
00000110: d2ed eabc 091e e8bd 9c7c 3a3d 63f9 4dbe
00000120: 9853 d7bd 8099 04bb 3319 29bd 5e82 473e
00000130: fcb4 423e 4298 1c3e 4d7f 5cbd 7707 32be
00000140: 89ba 1dbe ff71 1a3e d9a9 923d 009f a035
00000150: 4e35 0dbe af9d 37be ac1e 11bd eb83 d73c
00000160: 5767 55bd 462d 3d3d 49bb ad3d f81e 08be
00000170: a4c5 98bd 360e af3b 5c9d 3f3e 98d7 babd
00000180: daa9 b0bd 83f3 8f3d 98ae cabc 9c0f f83c
00000190: 0a0c 293e c9e1 923d 0784 633d 2bd3 393e
000001a0: 4920 09be 98f9 2d3e 0cad 2c3d 8d20 51bc
000001b0: 51eb c13d c4c8 b13c 7bee c3bd a413 673d
000001c0: ec46 38bd 4efd 8abd 6a48 303e 6bac c23c
000001d0: 8a11 e63d 6396 113e bf66 64bd 3ce6 63bc
000001e0: 72a7 30be 4146 c6bc d4a0 41be 259e a43d
000001f0: 961e 8e3d 09f6 d43d b02e 153e dad8 5c3d
0.08101273 -0.07917901 0.054357357 -0.0016383167 -0.10692427 -0.19007376 -0.05603413 0.108435296
0.07822827 -0.06967376 -0.16655408 -0.11465066 0.07335272 0.17235215 -0.1235967 0.047693763
0.14419386 -0.093712114 0.09358266 -0.074047066 -0.013471545 -0.12690707 0.12779205 -0.094597094
0.005614661 -0.052251134 -0.076061465 0.09664665 0.049952235 0.060298808 -0.13643634 -0.034075543
-0.11836844 -0.04970259 -0.088353775 -0.08207325 0.09539171 0.18399668 0.16931394 0.1037648
0.04088393 0.08659722 -0.08361862 0.14797737 0.12337313 -0.086769074 0.110553525 -0.025905563
0.04584475 -0.084570825 0.13184986 0.013311535 -0.17561084 -0.029908039 -0.11981607 0.014112325
-0.12517272 -0.08090187 -0.06276106 0.109398745 0.098949105 0.0092644775 0.18598257 -0.1345636
0.04008663 0.119553156 0.045697868 0.15454173 -0.028677855 -0.11333854 0.045528993 -0.20114665
-0.10513991 -0.0020233095 -0.041283797 0.19483325 0.19014353 0.15292457 -0.05383234 -0.1738566
-0.15403189 0.15082549 0.07161302 1.1967204e-06 -0.13789865 -0.17931245 -0.03542964 0.02630802
-0.052100506 0.046185754 0.084829874 -0.13293064 -0.07459572 0.0053422702 0.18712372 -0.091231525
-0.086261466 0.07028868 -0.024741456 0.03028088 0.16508499 0.07171971 0.055545833 0.1814696
-0.13391222 0.16989744 0.042157218 -0.012764108 0.09468711 0.021702178 -0.09566971 0.056415215
-0.04498951 -0.06786595 0.17215124 0.023763856 0.11233814 0.14217524 -0.05576205 -0.013909873
-0.17251375 -0.024203422 -0.18909007 0.08037976 0.069394276 0.1039849 0.14568591 0.053917743

fc2.weight f4 [128, 128]
00000000: 1911 b03d 35ab ff3c 2fbb 66bd d16a 6cba
00000010: cfb7 873d 742a efbc 78af 713d 0130 2fbd
00000020: 45aa 753c 68a3 bf3a 0289 8fbd 24ad 9bbd
00000030: 79a8 b53d 3d12 a43d 7b64 143c 0895 4f3d
00000040: 80be 5bbc 4287 483d 8dcd f8bc afcd bbbc
00000050: 6ed7 e3bc 81e0 b0bc 20a8 69bd c637 273c
00000060: 93e3 9a3d 7d05 1bbd 912c 343d b53f 15bc
00000070: 7754 8f3d fd51 93bd 1fc7 70b9 50c9 263c
00000080: 640c 143d ffaf 6d39 2cee 82bd abfa 25bc
00000090: becb f83b 5716 db3b b8cf 47bd de21 7b3c
000000a0: a12c 923d d033 ad3c fc01 483a e013 50bd
000000b0: 21de a73d cd27 0e3c 9c32 acbd e455 923c
000000c0: 5852 dd3c 58f6 bf3c af6d 50bc e5a2 2bbd
000000d0: 4c87 0c3d effc 6d3d 4554 71bd 3cb9 2e3c
000000e0: b827 573d 558b 30bd 426c 36bd ab36 7a3d
000000f0: 14a5 ddbb bf14 043d 4603 76bd 4336 a1bd
00000100: fa8c 1f3c ab29 4dbd 09dd 043d 8af9 b63d
00000110: 6143 60bb 22d2 92bd 4e93 c83b c1b7 07bd
00000120: 0e8f 85bd 54ce bcbc 8106 94bd ff39 bc3c
00000130: 3219 0f3b 7588 4b3c 1759 85bb 00d3 c63c
00000140: abaa acbd 1474 4cbd 24b7 e5bc 9d59 813d
00000150: 752e 213d 43e3 883d ab10 803d 3ce4 b43c
00000160: 0c49 94bd a985 a53d 49b7 c0bc 6ef5 83bd
00000170: db2b 9d3c aaf9 3bbd 9c6e b53d 3ed9 583d
00000180: f03a b33d 8bd8 b0bc 7a4a 7dbd 6e9b 95bb
00000190: 0d8a a9bd 4e21 86bc fdbf 92bd 3a4b 513d
000001a0: 77ea cabc ccde 703d 9ade 8fbd ef7a a2bd
000001b0: 3d98 53bd 5404 ad3d 68e9 a63c 4f3d 873d
000001c0: f8f2 8cbc 6eef 4cbd 87bc 13bd f324 a73d
000001d0: 319b 893d 2b1f 98ba da42 933c 66ba 58bd
000001e0: ada7 a73d 799c f23c 4d5a 81bd f3a3 a93d
000001f0: e316 af3d c7ea 8a3d 2d10 773d 9fc1 20bd
00000200: 566f 603d 86e0 963d 6ab1 a6ba 9d30 c4bd
00000210: 68ef f83c 207c 4b3c af29 24bd 4eda 2e3c
00000220: 9777 d2b9 86ba 00bd 8522 92bd ab39 09bd
00000230: eaa8 873d 2028 733c 9745 a73d 3202 993d
00000240: 8dd1 623d 3aff 7b3d 4771 813d f2ba 153d
00000250: 7172 983d 78b7 913d 3dd5 00bc 77b9 01bc
00000260: 75a7 0fbd cd3c 2a3c 0c63 053d 41cd 553d
00000270: 11b9 963c f6c3 26bd 1592 26bd 0d19 60bd
00000280: 38e6 d3bc 222f 4cbd 5fde 44bd 1aa5 b7bc
00000290: 8a4e 2e3d ca90 71bd f162 5dbd ff7a 99bd
000002a0: e2e9 713d 5e4d 483d ce38 acbc ad17 8dbd
000002b0: c0d3 84bd 40ee 86bb ad09 89bd 4057 5d3c
000002c0: 1adf 513d e703 8d3d e3e7 573d 36c1 6b3d
000002d0: 5ecc fa3c 0459 ef3b eab1 973c 7256 023d
000002e0: 7ad1 853d 289d a0bd a8bd 563b 06b7 963d
000002f0: 5dcc 1dbd c424 81bd 113a 003c 63a9 583d
00000300: d8e7 053d 07a8 1c3d e4c6 f4bb 9132 0c3d
00000310: 9b89 48bd 1e24 a13c 5e45 a6bb e2f4 843d
00000320: 3b6c babd 88d0 8fbc a961 6bbd 97ba 813d
00000330: 90c2 7c3d 6986 893d a0af 9b3d 2c14 9bbd
00000340: 3404 303c cb24 0d3d 0791 0abd 0cc8 843d
00000350: dd30 803d 6498 a2bd 40de 48bb 77fc 92bd
00000360: 7f55 3f3c 5d70 a23d dcd8 8bbd 4fc1 2fbd
00000370: 0e01 1fbd 9f89 e13c 63db 26bd dc67 c03d
00000380: 783e ff3c d7f4 f8bc aff4 41bd c03d 2bbd
00000390: 07b1 5e3d 2102 aabd efb5 58bd 418f 33bd
000003a0: 178b 6d3d 8ad7 63bd 3419 9d3c 9fb7 313c
000003b0: 2e62 e63c 57d8 b4bc d584 8fbb 4043 343c
000003c0: 9b4c 89bd 35ab 8f3d 7e67 6dbc a6c7 5ebd
000003d0: b9cd 833d 715c 07bd 9dc4 d73c 4aaa 6f3d
000003e0: ba9d 203c 8151 a4bd 6c4a b63c 03fe 813d
000003f0: 5dc0 6abd c0b9 94bd 4c2b 92bd 3626 963d
0.08597011 0.031209568 -0.056330856 -0.00090186024 0.066268556 -0.029195048 0.05900523 -0.04277039
0.014994209 0.0014620842 -0.07008554 -0.07601383 0.08870024 0.08011291 0.00905716 0.050679237
-0.013412118 0.048957117 -0.030371452 -0.022925226 -0.027812686 -0.021591427 -0.057045102 0.0102061685
0.075629376 -0.03784703 0.043987814 -0.009109427 0.06998532 -0.071933724 -0.00022962362 0.010179833
0.03614463 0.00022667645 -0.06393084 -0.010130565 0.0075926473 0.0066860127 -0.04878208 0.015327899
0.071374185 0.02114287 0.000762969 -0.050800204 0.081966646 0.008676481 -0.084080905 0.017863221
0.027016804 0.023432896 -0.012721463 -0.041903395 0.034308717 0.058102544 -0.058918256 0.0106642805
0.052528113 -0.043101627 -0.044536836 0.06108729 -0.0067640636 0.032246348 -0.060061716 -0.07871678
0.009738201 -0.050088566 0.032437358 0.089343145 -0.0034219848 -0.07168986 0.0061210757 -0.033134226
-0.06521426 -0.023047604 -0.07227803 0.022976873 0.0021835086 0.012422671 -0.004069458 0.024270535
-0.0843099 -0.04991539 -0.02804143 0.063159205 0.039350946 0.06683972 0.06253179 0.022081487
-0.07240495 0.08082134 -0.023524897 -0.064432964 0.019185951 -0.045892395 0.08858988 0.052941553
0.08751476 -0.02158763 -0.061838605 -0.004565648 -0.08278284 -0.016373303 -0.07165525 0.051097132
-0.024770005 0.058806226 -0.0702488 -0.07933604 -0.051658858 0.08448091 0.020374969 0.066034906
-0.0172057 -0.050033025 -0.036068466 0.081613444 0.067190535 -0.0011605968 0.017976213 -0.05291214
0.081862785 0.029615628 -0.06316052 0.08283224 0.08549287 0.067830615 0.06031816 -0.03924715
0.05479368 0.07367043 -0.0012717668 -0.09579585 0.030387595 0.01241973 -0.040078815 0.010672165
-0.00040143423 -0.031427883 -0.0713549 -0.033502262 0.06624015 0.0148411095 0.0816757 0.07471122
0.055375624 0.0615227 0.06320434 0.036555238 0.07443703 0.07115072 -0.00786334 -0.007917753
-0.03507181 0.010390473 0.03256516 0.0521977 0.018398793 -0.040714227 -0.04066666 -0.05471139
-0.025866613 -0.049849637 -0.048063632 -0.022417594 0.04255537 -0.058975972 -0.054049436 -0.07494163
0.05906094 0.048901908 -0.02102318 -0.068892814 -0.064857006 -0.004117757 -0.06691299 0.013509572
0.051238157 0.0688551 0.05271138 0.057557307 0.030615028 0.0073043127 0.018517453 0.031820722
0.06534095 -0.07842475 0.0032766853 0.07359128 -0.038524974 -0.063058406 0.007826344 0.052895915
0.032691807 0.03824618 -0.0074699987 0.03422791 -0.048959356 0.019670542 -0.005074187 0.0649202
-0.091026746 -0.01755549 -0.057466183 0.06334417 0.061708987 0.0671509 0.07601857 -0.07572207
0.01074319 0.034458917 -0.033829715 0.064834684 0.0625932 -0.079392225 -0.003065005 -0.0717706
0.011678099 0.07931588 -0.06828472 -0.042908963 -0.038819365 0.027531443 -0.040736567 0.093948096
0.031157717 -0.030390186 -0.04735249 -0.041806936 0.054368045 -0.08301187 -0.05290788 -0.04383779
0.057993975 -0.055625476 0.019177057 0.010847001 0.028122988 -0.022075815 -0.0043798485 0.011002362
-0.067040645 0.07015077 -0.0144900065 -0.05438962 0.06435723 -0.033047143 0.02633887 0.05851201
0.00980323 -0.08023358 0.022252284 0.06347277 -0.05731236 -0.072619915 -0.071371645 0.07331507

fc2.bias f4 [128]
00000000: af3e b93d a1f4 92bd 2ab9 5dbd 52f6 99bd
00000010: f177 9ebd a771 df3c 8c88 b5bd 550b 9f3d
00000020: 7254 27bd c50f 053c a327 993d 988c 883d
00000030: 1c62 0f3d b032 69bc a6d2 233c 496a 1ebd
00000040: 989d bd3c 98d3 39bc cab7 ad3b 916e 143d
00000050: f6be 7fbd 2c94 89bc 612c 493d b071 913c
00000060: d678 f33c 7c8d b1bd 278b 03bd 5877 8a3d
00000070: f2bf 64bd 48f7 a4bd 5c7e 203c add2 6dbd
00000080: 15a0 2bbc c182 6e3d 6fdf 8dbd 118d a2bd
00000090: a5d4 983d ea4a 26bd 7845 bd3c dde4 883d
000000a0: 4aa3 d1bc bb50 8fbd 5ff6 4abd 0218 a03d
000000b0: 8b92 8d3d 4e17 6e3c 340d 923c 7529 abbc
000000c0: c1e5 92bd 7847 7cbc c934 60bd 346e bb3b
000000d0: 81f4 7c3c e30f 62bd 40e0 8bbd 13e5 843d
000000e0: 0e0d 953d 41ad 69bd f2d3 263d fc5a 2a3d
000000f0: 524d 3dbd 7029 a4bd fa7d a2bd 37e0 41bd
00000100: ef97 b0bd e025 19bb ec2f 39bd 90c1 07bd
00000110: d5c5 c9bc df2c b13c f332 bbbc 3706 92bc
00000120: a253 f9bc 40cd a6bd 7642 6139 6798 463c
00000130: 5bc9 7ebd 77c4 b13b c06c 5f3c 6984 2e3d
00000140: 2bdf 923d 95ec 003c 4d42 303a f016 a7bd
00000150: c324 8b3c c7b3 813b 6979 f9bc 7f99 b73d
00000160: fbdf cebc fde7 a63d d85a 8b3c 5166 4c3d
00000170: 2126 27bd f86c 99bd 647a 063b 1c47 873b
00000180: e664 8a3d de34 fc3c e8ca e73c 7166 1f3b
00000190: efb9 643d 94c9 463a 9348 cc3b 8c6f b8bd
000001a0: 32b5 fdbc 4e7b aabd 4a90 263d 8130 983d
000001b0: bf3c 82bb ad62 123d 68c5 dc3c ca08 98bc
000001c0: 58ca d93c db12 93bd 9b42 b23d 0eb1 28bd
000001d0: 016f b03d 48c9 ec3c a36c 8a3d 1bbe 883d
000001e0: ce40 293d 4cc3 59bc d98f 1fbc d9b0 af3d
000001f0: a74e 8b3d 7ecb b2bd 5dd6 bf3b e8f9 b4bc
0.09045159 -0.071755655 -0.054131664 -0.07517685 -0.07737721 0.027275873 -0.08863935 0.07765833
-0.040852018 0.0081214355 0.07478263 0.06667441 0.035005674 -0.014233276 0.009998953 -0.03867558
0.023146436 -0.011341952 0.0053014504 0.036238257 -0.062437974 -0.016794287 0.04911459 0.017754406
0.029720705 -0.08669564 -0.032115128 0.06761044 -0.055847116 -0.08054978 0.009795751 -0.058062244
-0.010475178 0.058230165 -0.06927382 -0.079370625 0.07462434 -0.040598787 0.023104414 0.06684277
-0.025590558 -0.0699782 -0.049551364 0.07817079 0.069127165 0.014531923 0.017828561 -0.020893792
-0.07172728 -0.015397899 -0.05473784 0.0057199243 0.015439154 -0.055190932 -0.06829882 0.06489005
0.072778806 -0.057049993 0.04072947 0.041590676 -0.046216317 -0.08015716 -0.07934184 -0.04733297
-0.08622729 -0.0023368523 -0.045211717 -0.03314358 -0.024630466 0.021627842 -0.022851443 -0.01782523
-0.030435387 -0.08144617 0.00021482431 0.0121212965 -0.062203746 0.0054250318 0.013636768 0.042606745
0.07171472 0.007868906 0.0006723747 -0.08158672 0.016985303 0.0039581987 -0.0304534 0.08964824
-0.025253287 0.08149717 0.017011091 0.049902264 -0.040807847 -0.07491487 0.0020519728 0.00412835
0.06757526 0.030786928 0.028294995 0.0024322534 0.055841383 0.0007583138 0.0062342375 -0.09005651
-0.03097019 -0.083243 0.04066495 0.074311264 -0.0039745267 0.035738636 0.0269496 -0.018558878
0.026585743 -0.07181331 0.0870411 -0.041184478 0.08614922 0.028904572 0.06759002 0.06676885
0.04132157 -0.013291191 -0.009738886 0.08578653 0.06802111 -0.08730219 0.0058544115 -0.02209182

fc3.weight f4 [5, 128]
00000000: b243 b5bd 22e1 673d 38d9 a43c db88 53bd
00000010: 1f3c 8b3d a0c9 973d 3700 09bd 40ce d8bc
00000020: e1db 583b 5584 2fbd 0f90 a9bd 1be0 a2bd
00000030: 4e73 0a3d 63b4 8c3d deb7 133d fd35 2f3d
00000040: 4d5b 253d a0d7 4f3b 9cc6 8d3d 4ea5 a8bd
00000050: f5fb b13d 7c4a 73bd 9c68 47bd 33a8 313b
00000060: 22b2 1ebd d8ed ee3c ec7d bcbc d1bf 2cbd
00000070: 2d73 b53c 00c7 c7bd 9c3c 863b ee87 9fbc
00000080: 9beb 18bd 3d93 293d 346f 94bc 93b2 4dbd
00000090: 7fc8 7e3d b825 a5bd cceb bdbc 7ff2 a23d
000000a0: 23bb 99bd a0d1 6abd 982b 38bc 22b8 babd
000000b0: ae92 863d 9c33 053c b1cd 5c3d f874 48bd
000000c0: 4682 55bd 6096 39bb d004 ff3b 0537 ecbc
000000d0: 35d9 e73c c12b afbd e7da df3c 9d93 3fbd
000000e0: fe3d 62bd c04a efbb 1421 6d3d 23db b2bd
000000f0: f5ef 6fbd 604f bf3b fe79 283d 208f 133d
00000100: e0e3 9f3d 7baa 61bd 44ea 4a3d 2816 a43d
00000110: e386 a33c 417a 673d 1d7e edbc 5312 96bc
00000120: 3883 79bd 742b 61bd 8d85 abbc ba0c ba3c
00000130: 49c7 5cbd 9ddf 90bd 6626 333d 5a1e 933d
00000140: ca15 76bd 70f8 833d 0c48 713c c0c0 a53d
00000150: 8903 623d fdda 8bbd 1f74 b53c 1909 a43d
00000160: 05b1 613d ed60 9c3d 704c e3bb 8fd0 3ebc
00000170: 7746 223a 69d4 5c3d 497d b5bd 3c20 103c
00000180: a414 f53c fbed fa3c 8750 493c f356 ae3c
00000190: f1ce 40bd 4220 9f3c cb1d 05bd 0791 a33d
000001a0: 83cc 913d 0044 e4ba 08d5 d83c 66fd 15bd
000001b0: b233 963a 6d7a de3c d538 b2bd a7b4 713d
000001c0: 7b60 30bd e00e 653c e8b2 54bd b90a 04bd
000001d0: e994 94bc d48e 08bd 2cf6 853d 4b34 d1bb
000001e0: 16af 53bc e3b5 933c a8bf 5abb d3ed 20bd
000001f0: 2289 99bd e5e6 92bd 6e49 25bd 11ae abbd
00000200: a381 2fbc f094 3dbd cb7e b23d a2f3 93bd
00000210: 7c17 90bd 39d4 9d3d 0847 a3bd 1847 9c3c
00000220: 1ee1 bd3d 93c6 92bd 9970 6c3d b991 81bc
00000230: 2087 8e3b 3002 c7bb cfab 17bd 4c9b 3fbd
00000240: 4cd4 6f3b c9b5 54bd 897d b33d 79d2 043d
00000250: 40fc fcba 75d1 0fbd bae6 563c ee04 6abd
00000260: 760b c03d 65e2 803d d6b0 263d 68b5 963d
00000270: 1d57 e63c 4907 acbd 1c1e e33c d420 07bd
00000280: a37d 613d 93c4 163a f9bc 37bd 6564 9b3d
00000290: 2fa8 873d 75e6 d1bb 1286 6abd c1f5 863d
000002a0: 0628 0abd 84bf d0bc 6129 833d b97b 8a3d
000002b0: c692 a73d 910e 80bd bd9a a73d 09eb 4dbd
000002c0: 8e35 913d 5a5e 86bd 58f0 c73c c92a 6a3d
000002d0: 420b 75bd d6b0 8d3b cfdb 113d 0c86 be3c
000002e0: fdf7 86bd ede7 92bd ebb1 91bd 7909 85bd
000002f0: 021a 5d3d b058 99bb 0de8 0f3d b75f 88bd
00000300: 1572 61bd dc82 3bbd c946 6ebd 6425 473c
00000310: bb0d 19bd 6227 b43b 3be6 723c 22fa 783d
00000320: 5426 c0bc de5e 163d 5497 8e3b c78d f43b
00000330: 6298 4f3d 8d02 503c 98b5 863c 82d3 4b3d
00000340: 1e17 66bd 99dd 59bd b442 553d e90d 32bc
00000350: 9a87 583d a4f0 253b 045d 43bd 2003 c53d
00000360: e9b9 a43d 0d0b 99bd 5eb3 723d 86df 6cbd
00000370: d2dd 90bd db15 933d b021 ca3d eebc 323d
00000380: 8784 febc 8b81 b03d afcf 843d 6bbd 86bd
00000390: 03e0 223c 6fe9 3c3d 6512 1abd 0f66 983c
000003a0: 008e 64bc b898 6c3c 28c1 02bc 8378 61bd
000003b0: 5595 52bc e1f3 52bc 40c8 8cba 7cf5 7c3d
000003c0: 8b36 9f3d 2f97 9d3d 7918 5b3d 2ec5 093b
000003d0: a64e 41bd a5e4 aabd 90a9 6ebd 74c4 883d
000003e0: f221 923d 257f 83bd 190e 7e3d 5c5f 88bb
000003f0: 6d52 703d cc32 f83c 31d2 1e3d 8c56 9a3c
-0.088508025 0.056611188 0.02012311 -0.051644187 0.067985766 0.07411504 -0.03344747 -0.026465535
0.0033090042 -0.04285081 -0.0827943 -0.07952901 0.03380137 0.068703435 0.03606402 0.042776097
0.040370274 0.0031714216 0.06922647 -0.08234654 0.08690635 -0.059397206 -0.048683748 0.0027108311
-0.0387441 0.029166147 -0.023009263 -0.042175118 0.022149647 -0.09754753 0.0040965807 -0.019473996
-0.037334066 0.041400183 -0.018119432 -0.05021913 0.062202927 -0.08063835 -0.023183726 0.07956409
-0.075063966 -0.05732882 -0.011240862 -0.09117152 0.06570946 0.00812998 0.0539071 -0.048939675
-0.05212619 -0.002831839 0.007782556 -0.02883483 0.028301815 -0.08553267 0.02732606 -0.046771634
-0.0552349 -0.007302612 0.057892874 -0.08733203 -0.05857845 0.0058383197 0.041131966 0.036025167
0.078071356 -0.055094223 0.04953982 0.080120385 0.01996178 0.056513075 -0.0289908 -0.018319285
-0.060916156 -0.05497308 -0.020937705 0.022711147 -0.05390099 -0.07073901 0.04373779 0.071835235
-0.060079373 0.0644387 0.01472665 0.08093405 0.055179153 -0.06828878 0.022150097 0.08009548
0.05510046 0.076356746 -0.0069366023 -0.011646404 0.00061903097 0.053913508 -0.08861787 0.008796748
0.029917069 0.030631056 0.012287266 0.021281695 -0.047072355 0.019424561 -0.032499116 0.07986646
0.07119086 -0.0017415285 0.026468769 -0.036618613 0.0011459498 0.027157987 -0.08702246 0.059010174
-0.04306076 0.013980597 -0.05192843 -0.03223679 -0.018137412 -0.033339337 0.06541094 -0.0063844076
-0.012920162 0.018031066 -0.0033378396 -0.039289307 -0.07496859 -0.07172946 -0.04035323 -0.0838281
-0.01071206 -0.046284616 0.0871559 -0.07224204 -0.07035729 0.07706494 -0.079725325 0.019076869
0.09271453 -0.07166781 0.05772457 -0.015816556 0.0043496042 -0.006073259 -0.037029084 -0.046778962
0.0036595045 -0.051931176 0.08764178 0.032427285 -0.001930125 -0.035111863 0.013116533 -0.057133608
0.09377186 0.06293181 0.040695988 0.07358819 0.02811771 -0.08399827 0.027724318 -0.03299029
0.055051457 0.0005751338 -0.044857953 0.07587508 0.06623875 -0.0064056464 -0.057256766 0.065898426
-0.033729576 -0.025481947 0.06404377 0.067618795 0.08182292 -0.06252778 0.08183811 -0.050272975
0.07090293 -0.06560965 0.024406597 0.05716971 -0.05982519 0.004324059 0.035610016 0.023257278
-0.06590269 -0.071731426 -0.07114013 -0.064959474 0.05397988 -0.004679762 0.03513341 -0.06658881
-0.055040438 -0.045779094 -0.058172975 0.012154911 -0.03736661 0.005497859 0.014825399 0.06078542
-0.023455776 0.036711566 0.004351536 0.0074631902 0.050682433 0.012695921 0.016444013 0.049762256
-0.05617439 -0.053189848 0.052065566 -0.010867574 0.052863695 0.0025320435 -0.04769613 0.09619737
0.08043272 -0.07472811 0.05925309 -0.057830356 -0.07073559 0.07181903 0.09869707 0.04363721
-0.031069053 0.08618458 0.06484925 -0.06579097 0.009941104 0.046121057 -0.0376152 0.018603353
-0.013949871 0.014440708 -0.007980622 -0.05504657 -0.012852986 -0.012875528 -0.0010740831 0.06175755
0.07774075 0.076948516 0.053490136 0.002102207 -0.047194146 -0.08344392 -0.058267176 0.066780955
0.07135381 -0.06420735 0.062025163 -0.0041617583 0.058672357 0.03029766 0.038774673 0.018840097

fc3.bias f4 [5]
00000000: a3e5 15bd 7e6d 7bbd 3d84 69bd d270 51bd
00000010: 7a74 f03c
-0.03659595 -0.061383717 -0.057010878 -0.051132984 0.029352415
